trained_weights/cadets/lword2vec_gnn_cadets21_E3.pth (torch, 11479 bytes, 6 tensors)

conv1.lin_l.weight f4 [32, 30]
0.13339464 0.16454437 0.027258841 -0.20228407 -0.06525601 0.052513607 0.05920054 -0.047663614
0.02217658 -0.11835619 -0.11981242 -0.25283495 -0.028825162 0.08745951 0.10844362 0.07590768
0.09437841 0.039258067 -0.072784394 0.15965006 0.16529764 0.1281084 0.051875267 0.1570791
0.059724536 0.20378295 -0.011625421 0.021735173 -0.20012245 -0.10922302 -0.004097624 -0.2097241
-0.009417299 0.033992257 0.022435138 -0.25490883 -0.055928074 -0.35350674 -0.14250714 -0.10146095
-0.09691812 -0.021953946 -0.056855552 0.1849058 -0.047294755 0.08227829 -0.035987984 0.0492957
0.13098726 -0.061290883 -0.02424749 -0.096136026 0.076634735 -0.17870831 -0.045654405 0.015197286
0.062146813 -0.105619706 -0.063338414 0.09062549 -0.058732525 0.13898763 -0.14780577 0.12127018
0.13068666 -0.20108604 0.16320495 -0.20171621 0.021411195 0.024586953 -0.075551435 -0.07713332
0.19433255 0.031414513 0.026317788 -0.04886901 0.08557897 0.12634006 0.063637935 -0.04058256
-0.08506835 0.027244452 0.016142903 0.052284796 -0.011592536 0.036799792 -0.1506484 -0.05724585
-0.17859726 -0.14563845 -0.04831833 0.16914696 -0.05993963 -0.00053019053 0.10308748 0.082988866
0.1564549 0.03286558 0.17567705 0.020422442 0.12518692 -0.11697002 -0.019648204 -0.1733196
0.004339115 0.1905145 0.14940219 -0.12705986 -0.08198866 0.25194928 0.00842862 0.13504994
0.02948694 0.06831396 -0.20580384 -0.15892819 0.13387948 -0.06110497 -0.092657186 0.12310572
0.07634276 0.085236944 -0.2037319 0.0419264 0.011890384 0.20844176 0.19893631 -0.109322004
0.12823611 0.08395206 0.1383912 -0.20998856 0.0015255727 -0.13063003 0.085609674 0.013001292
0.2421954 0.018224686 -0.08310151 0.17700979 -0.142671 0.27423343 0.05733372 0.122265734
-0.17447454 0.030859772 0.08819872 0.056390993 -0.1795726 -0.09517201 0.20089288 0.0538745
0.02480886 -0.109435536 -0.065598376 0.017155493 0.034797307 -0.059306007 0.10397945 -0.11485196
-0.11531746 -0.069647074 -0.059502434 0.09806686 -0.04370765 0.10731404 0.05026529 0.11110462
-0.11658674 0.026751934 0.2547951 0.16558863 0.1047893 0.031941008 0.09106226 0.007973955
-0.045024343 0.046954002 -0.11562552 -0.10056259 0.073875286 0.08243488 -0.0043180236 -0.06595335
-0.02539931 -0.012683688 0.010438292 0.0378575 0.11104727 -0.03474154 -0.029319793 -0.016156448
-0.043807313 0.11256309 0.24748725 -0.108998105 0.07298456 0.05215653 -0.07967694 0.080201976
0.18090187 0.12985812 -0.006069502 0.04888013 0.16255338 0.03235732 -0.1696222 -0.026245868
0.02649279 -0.15880045 -0.020454811 -0.037182502 -0.00033437472 0.044742577 0.14376941 -0.12241978
0.3397669 0.06298864 0.11667634 0.20034431 0.16458412 0.0042937365 0.12345394 -0.028812792
-0.04682259 0.07800626 -0.12316061 0.055347342 -0.0101430155 -0.06469955 -0.034160778 -0.005630341
0.09722127 -0.054970436 -0.16344796 0.0017377869 -0.047041643 -0.0835886 -0.017210122 0.04050687
-0.12815008 0.018599648 -0.04814255 0.030008765 -0.00359272 -0.1267554 0.03599462 -0.042482384
-0.18086521 -0.015615482 -0.08974106 0.020138387 0.015494537 -0.10170051 0.014346131 0.040837597
00000000: 9b98 083e 527e 283e ef4d df3c 8e23 4fbe
00000010: f1a4 85bd 8218 573d 447c 723d ec3a 43bd
00000020: a9ab b53c bb64 f2bd 3760 f5bd 9573 81be
00000030: bf22 ecbc f91d b33d b017 de3d 7c75 9b3d
00000040: 7849 c13d 11cd 203d fc0f 95bd 4e7b 233e
00000050: c943 293e d92e 033e 297b 543d 58d9 203e
00000060: b7a1 743d 7aac 503e 8d78 3ebc f60d b23c
00000070: e6ec 4cbe 52b0 dfbd 5d45 86bb eac1 56be
00000080: 044b 1abc 773b 0b3d e5c9 b73c 6983 82be
00000090: d614 65bd d6fe b4be 64ed 11be c2ca cfbd
000000a0: 027d c6bd c3d8 b3bc 5ee1 68bd f257 3d3e
000000b0: 25b8 41bd 8581 a83d 2368 13bd 4aea 493d
000000c0: 8621 063e 260c 7bbd aca2 c6bc f7e2 c4bd
000000d0: acf2 9c3d 50ff 36be 1d00 3bbd 0afe 783c
000000e0: a88d 7e3d 254f d8bd 92b7 81bd db99 b93d
000000f0: 8491 70bd c652 0e3e 655a 17be 805c f83d
00000100: b9d2 053e 80e9 4dbe 331f 273e b28e 4ebe
00000110: 8866 af3c 946a c93c b6ba 9abd 13f8 9dbd
00000120: 1dff 463e 81ac 003d 6798 d73c df2a 48bd
00000130: 0744 af3d 4a5f 013e 9b54 823d e639 26bd
00000140: 5138 aebd c22f df3c 1f3e 843c 9528 563d
00000150: 9fee 3dbc 61bb 163d 9343 1abe a07a 6abd
00000160: 33e2 36be 3f22 15be 71e9 45bd dc34 2d3e
00000170: 4283 75bd 7cfc 0aba 871f d33d 11f6 a93d
00000180: b735 203e 0f9e 063d afe4 333e f74c a73c
00000190: 0031 003e fa8d efbd 45f5 a0bc b17a 31be
000001a0: 232f 8e3b 3c16 433e e3fc 183e fb1b 02be
000001b0: ace9 a7bd 7fff 803e 3218 0a3c 884a 0a3e
000001c0: 988e f13c 31e8 8b3d 3ebe 52be 12be 22be
000001d0: b417 093e 3449 7abd 0dc3 bdbd da1e fc3d
000001e0: 9859 9c3d b590 ae3d 189f 50be 04bb 2b3d
000001f0: e3cf 423c c271 553e f6b5 4b3e 37e4 dfbd
00000200: 5450 033e 0fef ab3d 6cb6 0d3e 3e07 57be
00000210: baf5 c73a e1c3 05be 2054 af3d 5f03 553c
00000220: 1202 783e f04b 953c 2031 aabd 0e42 353e
00000230: 5918 12be 5368 8c3e c3d6 6a3d 7566 fa3d
00000240: 74a9 32be a2cd fc3c 88a1 b43d 3efa 663d
00000250: e1e1 37be 8be9 c2bd ddb6 4d3e 82ab 5c3d
00000260: f33b cb3c bd1f e0bd 7158 86bd ad89 8c3c
00000270: 9f87 0e3d dbea 72bd 2ef3 d43d 8137 ebbd
00000280: 8f2b ecbd 20a3 8ebd d3b8 73bd 47d7 c83d
00000290: cb06 33bd 77c7 db3d fae2 4d3d d28a e33d
000002a0: 07c5 eebd df26 db3c 8174 823e 1190 293e
000002b0: c69b d63d 93d4 023d da7e ba3d 31a5 023c
000002c0: 726b 38bd d752 403d 13cd ecbd c2f3 cdbd
000002d0: ed4b 973d 9ed3 a83d 357e 8dbb 8d12 87bd
000002e0: 3712 d0bc 3ecf 4fbc 5f05 2b3c 7710 1b3d
000002f0: c06c e33d 254d 0ebd 1030 f0bc 875a 84bc
00000300: 4c6f 33bd 7a87 e63d 4c6d 7d3e 663a dfbd
00000310: ee78 953d 16a2 553d aa2d a3bd ef40 a43d
00000320: 573e 393e 87f9 043e ace2 c6bb 8836 483d
00000330: 6574 263e 1c89 043d 71b1 2dbe 9301 d7bc
00000340: 6807 d93c 969c 22be d990 a7bc ae4c 18bd
00000350: 044f afb9 fe43 373d 4a38 133e 39b7 fabd
00000360: edf5 ad3e 3000 813d 01f4 ee3d 0f27 4d3e
00000370: bd88 283e 79b2 8c3b 6bd5 fc3d ce08 ecbc
00000380: 0bc9 3fbd bfc1 9f3d a13b fcbd e5b3 623d
00000390: e42e 26bc 3381 84bd 2cec 0bbd b97e b8bb
000003a0: f21b c73d ae28 61bd e75e 27be 74c6 e33a
000003b0: bdae 40bd 8030 abbd 3efc 8cbc 88ea 253d
000003c0: c639 03be 4a5e 983c 1f31 45bd f1d4 f53c
000003d0: d773 6bbb 2bcc 01be 186f 133d 0202 2ebd
000003e0: bb34 39be 14d8 7fbc 29ca b7bd 42f9 a43c
000003f0: ccdc 7d3c 5b48 d0bd 090c 6b3c 5345 273d

conv1.lin_l.bias f4 [32]
0.14552583 -0.13243273 0.1581886 0.052122932 0.07638469 -0.042269398 -0.019604897 0.0038147941
0.01631284 -0.14337133 -0.14735499 -0.10358745 0.041670106 0.028338201 -0.23355107 0.07555716
-0.09620915 0.07953161 0.031711232 -0.08303107 -0.10763936 0.057763103 0.10429903 0.044043805
-0.12316595 0.05401888 -0.09568092 0.0840609 0.13980398 0.026812611 0.06507121 -0.104174666
00000000: b904 153e 729c 07be 31fc 213e db7e 553d
00000010: 946f 9c3d ad22 2dbd 739a a0bc a001 7a3b
00000020: 81a2 853c efcf 12be 3ae4 16be a825 d4bd
00000030: 46ae 2a3d 8425 e83c 0328 6fbe b6bd 9a3d
00000040: 4e09 c5bd 78e1 a23d a3e3 013d 320c aabd
00000050: 0672 dcbd 0199 6c3d bb9a d53d 4767 343d
00000060: 6e3e fcbd e742 5d3d 5cf4 c3bd 1f28 ac3d
00000070: c628 0f3e 1fa6 db3c 0e44 853d 8759 d5bd

conv1.lin_r.weight f4 [32, 30]
0.14425468 0.04316678 -0.035434123 -0.029646147 -0.010841687 0.10364283 0.06156351 0.036902077
0.1501478 -0.030725248 -0.08140756 -0.049039017 -0.045911252 0.16319059 0.31114998 0.16388005
-0.040896147 0.27268118 -0.0303094 0.13319317 0.07256805 -0.066568516 0.099593215 0.17697467
0.13598804 0.260493 0.05709266 0.113765955 -0.060651407 -0.25304466 -0.054200556 -0.19479652
-0.045824684 -0.09241522 0.081122756 -0.28109565 0.059178766 0.022177642 -0.09656114 -0.104652755
-0.120039195 -0.083594166 -0.051149495 0.05359701 0.083901696 0.15527983 -0.036459427 0.19401011
0.11942549 0.022877747 -0.035485473 -0.04737519 -0.054218605 -0.0782034 0.03536053 0.04952928
-0.17045733 -0.10970325 -0.06798248 -0.0064760665 -0.2654591 -0.075032026 -0.025243225 0.18909317
0.0149022825 -0.2938937 0.12942044 -0.12716892 0.13764241 -0.21205513 -0.09583139 0.06270839
0.24672177 -0.07538854 0.27745494 0.11743087 0.03822496 0.05203015 0.11991758 -0.14087455
0.057663072 -0.2546143 0.018589346 0.08643177 -0.031970453 0.19851162 -0.23917536 -0.19400977
-0.19031106 0.0149375545 0.40939745 -0.052790314 0.005354316 -0.20250231 -0.015761212 -0.069274366
-0.17460863 -0.26478016 -0.12509964 0.13155346 0.11433104 0.14038235 -0.14466581 0.22625326
-0.04166563 -0.09341839 -0.033692107 0.10940412 -0.16285883 0.08453813 0.17386368 0.03226572
0.07538921 -0.062324647 0.12930489 0.0027395003 0.018842503 -0.067365885 0.122003265 0.13533242
-0.08624499 0.09965589 -0.024191862 -0.05463437 0.0855815 0.09177925 -0.14715126 -0.100589596
-0.14983244 0.08692362 -0.03402105 0.039616562 -0.1150222 0.1110482 -0.12851073 -0.10775855
-0.15437976 -0.08586376 0.1349463 0.12246897 0.06391926 -0.025909835 -0.111586094 0.16894601
0.04127156 -0.107743144 0.039058127 0.13588794 0.033631656 0.006092532 0.049382262 0.056401435
0.035335295 -0.08105979 -0.07475673 0.1116027 0.09975636 -0.0677597 0.16533947 -0.2077873
-0.2589669 0.014269406 -0.021334076 0.21918267 0.027165458 0.17289174 0.0960902 0.05410647
0.08847273 0.09217602 0.20390283 0.11344048 0.25166404 0.10352826 0.2657043 0.120633654
-0.084856965 0.18736178 -0.2370711 -0.045109596 -0.04698643 -0.06538926 0.14495136 0.009189829
-0.009058726 0.08172342 0.003359598 0.08905331 -0.02599093 -0.106774636 0.034332823 0.016797679
0.052764993 0.11720829 0.1361547 0.008395641 0.048797093 0.08142561 -0.047855996 -0.18063247
0.16951604 -0.118168674 0.08760724 0.008633021 0.11262109 0.27349553 -0.021799957 0.033311207
0.080785565 -0.12115997 0.011879495 -0.031128727 0.032685135 -0.16361468 0.15710889 -0.0832614
0.25134256 0.11915193 -0.18415685 0.19593601 0.14739127 0.12560852 0.14612928 0.0471458
-0.031528704 -0.0072848857 -0.20337297 0.2489765 -0.007831117 -0.19241695 0.023954216 -0.08661133
0.093694925 0.023045812 -0.05202491 0.066076934 -0.209398 0.1253623 -0.17091018 -0.049265593
-0.39935344 -0.17881082 0.010541139 0.1567013 -0.011124671 -0.17512895 -0.0703014 -0.038461633
-0.15130651 -0.2326146 -0.1705704 0.029853275 0.23958239 -0.041899994 0.088049084 0.012666159
00000000: 80b7 133e a6cf 303d 5f23 11bd 7adc f2bc
00000010: 55a1 31bc b142 d43d 052a 7c3d a226 173d
00000020: 58c0 193e 84b3 fbbc 02b9 a6bd 23dd 48bd
00000030: 700d 3cbd 6f1b 273e 0d4f 9f3e 2cd0 273e
00000040: b882 27bd de9c 8b3e 6b4b f8bc ca63 083e
00000050: 8f9e 943d 1355 88bd 87f7 cb3d d938 353e
00000060: 7340 0b3e 575f 853e fed9 693d 20fe e83d
00000070: 9c6d 78bd 128f 81be 6701 5ebd bd78 47be
00000080: aab2 3bbd 3144 bdbd b023 a63d c5eb 8fbe
00000090: 6f65 723d e3ad b53c d9c1 c5bd 2f54 d6bd
000000a0: 1cd7 f5bd 6b33 abbd 2282 51bd 8a88 5b3d
000000b0: a7d4 ab3d ad01 1f3e 7b56 15bd 96aa 463e
000000c0: 5a95 f43d 1d6a bb3c 3759 11bd 7d0c 42bd
000000d0: 5414 5ebd 1b29 a0bd 34d6 103d 37df 4a3d
000000e0: 5e8c 2ebe 19ac e0bd 663a 8bbd 2f35 d4bb
000000f0: 41ea 87be 64aa 99bd e1ca cebc a4a1 413e
00000100: b428 743c 3c79 96be cb86 043e 9238 02be
00000110: 22f2 0c3e fb24 59be 3f43 c4bd 426d 803d
00000120: a2a4 7c3e 4f65 9abd 930e 8e3e 997f f03d
00000130: c791 1c3d 911d 553d 5997 f53d 6b41 10be
00000140: 1d30 6c3d ce5c 82be af48 983c 2403 b13d
00000150: 73f3 02bd a146 4b3e 63ea 74be 7faa 46be
00000160: e7e0 42be a5bc 743c 8b9c d13e a83a 58bd
00000170: 4273 af3b c45c 4fbe a81d 81bc b8df 8dbd
00000180: 9bcc 32be 4491 87be 1f1a 00be f3b5 063e
00000190: 6426 ea3d 64c0 0f3e 4623 14be efae 673e
000001a0: 94a9 2abd 2452 bfbd bc00 0abd 440f e03d
000001b0: 77c4 26be 5422 ad3d 5209 323e 0f29 043d
000001c0: a865 9a3d 2148 7fbd 8068 043e 3089 333b
000001d0: 985b 9a3c 20f7 89bd d9dc f93d 9594 0a3e
000001e0: 37a1 b0bd 6318 cc3d 032e c6bc 4ac8 5fbd
000001f0: 5a45 af3d c2f6 bb3d d2ae 16be eb01 cebd
00000200: ad6d 19be 0305 b23d a859 0bbd fa44 223d
00000210: c290 ebbd 3d6d e33d 5198 03be 84b0 dcbd
00000220: ba15 1ebe 57d9 afbd 5d2f 0a3e 03d1 fa3d
00000230: 1ae8 823d dd40 d4bc 4087 e4bd 2f00 2d3e
00000240: 5e0c 293d 70a8 dcbd 6afb 1f3d 3526 0b3e
00000250: 59c1 093d dda3 c73b 0e45 4a3d 3105 673d
00000260: bebb 103d ad02 a6bd 0e1a 99bd f58f e43d
00000270: 104d cc3d 99c5 8abd c04e 293e 32c6 54be
00000280: 4f97 84be 3aca 693c cdc4 aebc 6c71 603e
00000290: 188a de3c 880a 313e f0ca c43d bf9e 5d3d
000002a0: 3131 b53d c8c6 bc3d e7cb 503e 7b53 e83d
000002b0: 1cda 803e a006 d43d 650a 883e c70e f73d
000002c0: 7dc9 adbd c4db 3f3e c4c2 72be d7c4 38bd
000002d0: d874 40bd ceea 85bd 216e 143e f090 163c
000002e0: 0d6b 14bc 9c5e a73d b42c 5c3b 9561 b63d
000002f0: eeea d4bc a9ac dabd 93a0 0c3d 499b 893c
00000300: 1b20 583d e60a f03d 236c 0b3e df8d 093c
00000310: 76df 473d 78c2 a63d a604 44bd b8f7 38be
00000320: 9d95 2d3e 6b02 f2bd 6d6b b33d 8471 0d3c
00000330: e3a5 e63d 9b07 8c3e d395 b2bc 5571 083d
00000340: e772 a53d b822 f8bd 37a2 423c ac01 ffbc
00000350: d9e0 053d 9b8a 27be 27e1 203e f484 aabd
00000360: f9af 803e ed05 f43d 9d93 3cbe 73a3 483e
00000370: bded 163e 859f 003e eaa2 153e f41b 413d
00000380: 3e24 01bd 0db6 eebb 0141 50be b2f3 7e3e
00000390: 164e 00bc f308 45be a23b c43c 4861 b1bd
000003a0: 20e3 bf3d 92ca bc3c 1218 55bd 5853 873d
000003b0: 6e6c 56be fa5e 003e 1403 2fbe b8ca 49bd
000003c0: 0e78 ccbe 2f1a 37be beb4 2c3c 4e76 203e
000003d0: 4144 36bc 0155 33be 2efa 8fbd f289 1dbd
000003e0: 18f0 1abe 8632 6ebe 02aa 2ebe db8e f43c
000003f0: 1655 753e 549f 2bbd 1453 b43d b985 4f3c

conv2.lin_l.weight f4 [6, 32]
-0.021904113 -0.031412106 0.019596644 -0.07623926 0.17314208 -0.096652016 -0.03930673 -0.07681127
0.11880551 -0.13080761 -0.008943059 -0.06943817 0.057583638 -0.032133378 -0.034393128 -0.08688186
0.005118819 0.1692975 0.0675068 0.2926152 0.24558316 -0.12983336 0.021603223 0.01384999
0.12386858 -0.004989107 -0.09574095 0.1597441 -0.21386203 0.028041305 0.021320578 -0.020601673
0.21648398 0.09036613 0.2905086 0.066913635 0.18349595 0.30091092 0.2147566 0.10079385
-0.007570036 0.18582988 -0.06421938 0.13153401 -0.09185324 -0.050054133 -0.03025361 0.16747747
-0.0054143844 -0.35831678 -0.1907767 -0.25852352 -0.22202934 0.14157245 0.20569266 -0.07711167
-0.02593621 -0.10536007 -0.20954195 -0.16151272 0.2982816 -0.01707046 0.08391474 0.15152603
-0.261836 0.097210765 -0.14425254 -0.21514226 -0.13323745 -0.14996251 -0.055623215 -0.26788324
-0.14957246 0.12239056 -0.0828514 -0.037362453 -0.16509871 0.04704679 0.2610932 -0.076360434
-0.017920148 -0.012277197 0.27296543 -0.11872962 0.046844617 -0.16872546 -0.20177054 -0.107088774
-0.0012747806 0.04703 0.36839813 0.07282612 -0.06362059 -0.21437533 0.059879914 -0.032923203
-0.039384246 -0.0036530367 -0.019304998 0.30232733 -0.11718356 0.041993234 0.012239844 -0.11277399
0.019741807 -0.07031422 0.0076798284 0.101372376 0.2568594 0.016460016 -0.106758185 -0.08349844
-0.21364264 0.18006413 -0.021253753 0.28162113 0.3817482 0.06265441 0.06679863 0.16679923
-0.077324025 -0.10438668 -0.021958511 0.30225584 -0.13726325 0.20497938 0.29839247 -0.00012540299
-0.102336094 -0.20198593 0.11799521 0.13622612 -0.021985903 0.01710036 -0.011444978 -0.042099882
0.03014119 -0.07306593 -0.19156715 -0.09079625 -0.06130467 -0.08482233 -0.083386414 -0.04268845
-0.06721787 0.09934274 -0.06867471 0.006079757 0.09803984 -0.10246236 0.17429695 0.28493133
-0.013865131 0.06640001 -0.03380977 0.043903597 0.09104576 0.122029185 -0.16037634 0.055872206
0.019033287 -0.14552505 -0.032479804 -0.18238461 -0.0070103765 0.045159817 -0.0023994292 -0.020623116
0.032519422 -0.05517342 0.05098302 -0.06639238 -0.06491104 -0.080726735 -0.10038127 -0.02178549
-0.1448263 -0.056350905 -0.07163789 -0.075249866 -0.18675105 -0.21705425 0.111346595 -0.1780207
-0.032759648 -0.03502643 -0.061123136 -0.10649181 -0.017568875 -0.042487994 0.0023335435 -0.09967595
00000000: 4170 b3bc fba9 00bd 2489 a03c 5423 9cbd
00000010: 284c 313e 7ef1 c5bd 1800 21bd 3a4f 9dbd
00000020: 4e50 f33d 6ef2 05be e885 12bc 9935 8ebd
00000030: d2dc 6b3d 4a9e 03bd cfdf 0cbd 1eef b1bd
00000040: c4bb a73b 535c 2d3e 0141 8a3d a9d1 953e
00000050: 277a 7b3e 09f3 04be 3ef9 b03c 12eb 623c
00000060: cfae fd3d aa7b a3bb d513 c4bd f593 233e
00000070: a6fe 5abe e1b6 e53c 7ea8 ae3c d7c4 a8bc
00000080: faad 5d3e e111 b93d 8bbd 943e 040a 893d
00000090: 5de6 3b3e ff10 9a3e 27e9 5b3e 026d ce3d
000000a0: 110e f8bb 304a 3e3e 7385 83bd dab0 063e
000000b0: 8d1d bcbd 9005 4dbd 6bd6 f7bc 377f 2b3e
000000c0: 266b b1bb 4c75 b7be f85a 43be 325d 84be
000000d0: a95b 63be 5ef8 103e 19a1 523e b9ec 9dbd
000000e0: 2d78 d4bc 05c7 d7bd 2a92 56be 9763 25be
000000f0: 5eb8 983e 59d7 8bbc 7edb ab3d a429 1b3e
00000100: 5e0f 86be 7016 c73d f0b6 13be 414e 5cbe
00000110: 666f 08be c68f 19be 2bd5 63bd fe27 89be
00000120: 8629 19be e7a7 fa3d ffad a9bd 5f09 19bd
00000130: a30f 29be 23b4 403d 02ae 853e dc62 9cbd
00000140: 46cd 92bc 4c26 49bc 20c2 8b3e 8428 f3bd
00000150: 24e0 3f3d 5ec6 2cbe f09c 4ebe 5c51 dbbd
00000160: 8a16 a7ba 87a2 403d ae9e bc3e dc25 953d
00000170: 834b 82bd 3585 5bbe a444 753d 7bda 06bd
00000180: 6051 21bd c967 6fbb 8425 9ebc a6ca 9a3e
00000190: effd efbd 1901 2c3d a089 483c 0df6 e6bd
000001a0: 92b9 a13c e700 90bd 12a7 fb3b 529c cf3d
000001b0: 1383 833e 28d7 863c 09a4 dabd 3b01 abbd
000001c0: 23c5 5abe bb62 383e 5a1c aebc a530 903e
000001d0: 8074 c33e f550 803d b8cd 883d 6bcd 2a3e
000001e0: 0f5c 9ebd afc8 d5bd 56e2 b3bc 47c1 9a3e
000001f0: bd8e 0cbe 1de6 513e e6c6 983e 9c7e 03b9
00000200: 9695 d1bd 66d5 4ebe 79a7 f13d dc7e 0b3e
00000210: c81b b4bc 0e16 8c3c b883 3bbc ed70 2cbd
00000220: a8ea f63c 97a3 95bd 2e2a 44be 62f3 b9bd
00000230: 9b1a 7bbd 54b7 adbd 7fc6 aabd 16da 2ebd
00000240: 86a9 89bd 3574 cb3d 54a5 8cbd b338 c73b
00000250: 1dc9 c83d c9d7 d1bd e67a 323e 85e2 913e
00000260: 932a 63bc bafc 873d 1d7c 0abd 42d4 333d
00000270: 3376 ba3d 70ea f93d b239 24be 41da 643d
00000280: b2eb 9b3c 8504 15be 8b09 05bd 08c3 3abe
00000290: 4db7 e5bb 80f9 383d be3f 1dbb cff1 a8bc
000002a0: 1633 053d 86fd 61bd 92d3 503d baf8 87bd
000002b0: 14f0 84bd 0f54 a5bd b294 cdbd 7c77 b2bc
000002c0: 584d 14be 35d0 66bd e3b6 92bd 9a1c 9abd
000002d0: ab3b 3fbe 7843 5ebe af09 e43d 0f4b 36be
000002e0: fb2e 06bd e077 0fbd 415c 7abd 6118 dabd
000002f0: 9aec 8fbc e407 2ebd 5dee 183b e822 ccbd

conv2.lin_l.bias f4 [6]
0.075877704 -0.02402229 0.035321426 0.03151893 0.016907372 -0.082296446
00000000: c565 9b3d 65ca c4bc 33ad 103d fe19 013d
00000010: 5481 8a3c 0a8b a8bd

conv2.lin_r.weight f4 [6, 32]
-0.0506312 -0.043896504 0.3800252 -0.2094801 -0.06026456 -0.19089593 0.111800626 -0.112057716
0.23976892 -0.19092144 0.2579618 -0.15836133 0.50645065 0.0946226 -0.07908702 -0.14096005
0.04311678 0.48982987 -0.0199817 0.6361577 0.27511558 -0.08989077 -0.14006062 0.32371137
-0.043208413 0.24725343 -0.10237118 0.3599701 -0.14347889 0.4632215 0.25925687 -0.09591843
0.31356928 0.2687599 0.15084258 -0.21663578 -0.18523201 0.1782226 0.25053155 0.18117248
0.044615038 0.20361987 -0.06266397 0.03433387 0.0025576707 -0.043292765 0.007706944 0.37072998
0.07706832 -0.0972851 -0.16133085 -0.027056713 0.026653359 -0.11151186 0.48124182 -0.13255745
0.12912458 -0.020076104 -0.14758886 0.030490164 0.12369607 -0.16226333 -0.056970295 0.055553325
-0.034104005 -0.076653235 -0.12979604 0.2558783 0.28231415 0.109795146 -0.106492445 0.0922667
-0.013094147 -0.1765005 0.092619054 0.20171802 -0.097871974 0.28609097 0.123494565 -0.1829205
-0.27020678 -0.014833568 0.17817198 -0.073396 -0.24329406 0.19873962 -0.24114412 -0.10031057
-0.14256382 -0.01229717 0.3504277 -0.09977864 0.16975817 0.051511314 -0.13987595 -0.17446302
-0.02649332 -0.17931989 -0.39653742 0.05339827 0.11558719 -0.0774595 -0.106737636 -0.07195179
-0.19165085 -0.084550686 -0.25010055 0.2030858 -0.20450598 -0.060004134 0.06911241 -0.13697138
-0.15252315 -0.22552326 0.06845738 -0.40563226 -0.046588343 0.2788372 -0.06432593 0.06951107
0.02248689 -0.33850867 -0.073847674 -0.29714197 -0.13399175 -0.25044158 -0.3477087 -0.2272656
-0.01456062 0.04331388 -0.19637379 0.16286944 -0.12651186 -0.0461178 0.04187252 0.022084218
-0.12786381 0.0145001765 -0.022709329 -0.13231766 -0.22802587 -0.08501991 -0.013324872 -0.07024559
0.015741032 -0.21145898 -0.1387275 -0.11715409 -0.096891314 -0.053973734 0.053593297 0.12463169
-0.011463099 -0.004706916 -0.1213503 -0.26527944 0.1296629 -0.09567905 -0.068748936 0.07431019
-0.02209772 -0.04692679 0.034074493 -0.14411405 -0.06997519 0.05121059 -0.09598091 -0.061957717
0.018920552 -0.034242354 -0.0073092477 -0.14698525 0.019139636 -0.052145436 -0.1563306 0.029281802
-0.20797388 0.006500651 -0.11064631 -0.08733487 -0.006123177 -0.16243601 0.09835844 -0.06587005
-0.17241396 0.0650598 -0.10772745 0.040220536 -0.07452966 -0.06627964 0.0053258906 -0.28560567
00000000: a962 4fbd d2cc 33bd aa92 c23e f481 56be
00000010: f9d7 76bd 397a 43be baf7 e43d 847e e5bd
00000020: fc85 753e e980 43be 9213 843e 7929 22be
00000030: c0a6 013f 7ec9 c13d 60f8 a1bd d557 10be
00000040: 399b 303d fbca fa3e aab0 a3bc 3bdb 223f
00000050: f3db 8c3e a718 b8bd 0d6c 0fbe 7fbd a53e
00000060: 4efb 30bd 0130 7d3e fba7 d1bd 004e b83e
00000070: 21ec 12be 5e2b ed3e 51bd 843e e270 c4bd
00000080: 278c a03e e69a 893e 7a76 1a3e c5d5 5dbe
00000090: 76ad 3dbe fc7f 363e ac45 803e 4785 393e
000000a0: 42be 363d ba81 503e f855 80bd aca1 0c3d
000000b0: 989e 273b c153 31bd 888a fc3b 52d0 bd3e
000000c0: ffd5 9d3d 693d c7bd ea33 25be 0aa6 ddbc
000000d0: 2558 da3c 5460 e4bd 5465 f63e 24bd 07be
000000e0: 3c39 043e a476 a4bc 8921 17be 82c6 f93c
000000f0: 5d54 fd3d 5c28 26be af59 69bd e28b 633d
00000100: a4b0 0bbd 5ffc 9cbd 41e9 04be 7b02 833e
00000110: 7b8b 903e 47dc e03d b618 dabd 53f6 bc3d
00000120: d588 56bc 8cbc 34be 0faf bd3d 2b8f 4e3e
00000130: 1a71 c8bd 847a 923e b8ea fc3d 834f 3bbe
00000140: 8b58 8abe 7e08 73bc b772 363e a450 96bd
00000150: 1422 79be 6682 4b3e 7cee 76be a16f cdbd
00000160: 40fc 11be 127a 49bc 426b b33e be58 ccbd
00000170: 16d5 2d3e 87fd 523d a43b 0fbe 6fa6 32be
00000180: 8508 d9bc a29f 37be f406 cbbe 25b8 5a3d
00000190: fab8 ec3d 16a3 9ebd 4399 dabd 765b 93bd
000001a0: 1f40 44be e928 adbd 2e0d 80be b9f5 4f3e
000001b0: 046a 51be e5c6 75bd cf8a 8d3d 3a42 0cbe
000001c0: 072f 1cbe 92ef 66be 6233 8c3d 08af cfbe
000001d0: 6bd3 3ebd c0c3 8e3e 50bd 83bd d25b 8e3d
000001e0: 6d36 b83c 0251 adbe 733d 97bd fe22 98be
000001f0: 2235 09be e139 80be e006 b2be 50b8 68be
00000200: ab8f 6ebc e569 313d 3616 49be 3fc7 263e
00000210: 538c 01be 05e6 3cbd 8582 2b3d f6e9 b43c
00000220: bbee 02be 2692 6d3c ea08 babc 487e 07be
00000230: 9d7f 69be eb1e aebd 9050 5abc ebdc 8fbd
00000240: 56f3 803c b488 58be 950e 0ebe 7cee efbd
00000250: f46e c6bd 9013 5dbd a584 5b3d e63e ff3d
00000260: b9cf 3bbc 793c 9abb 8286 f8bd b5d2 87be
00000270: 5ac6 043e 61f3 c3bd 3ecc 8cbd f12f 983d
00000280: 4706 b5bc 4e36 40bd b291 0b3d a292 13be
00000290: 274f 8fbd 32c2 513d a491 c4bd 60c7 7dbd
000002a0: 46ff 9a3c b641 0cbd 6a82 efbb 4d83 16be
000002b0: baca 9c3c 7496 55bd 2115 20be 64e0 ef3c
000002c0: 1bf7 54be 6a03 d53b 889a e2bd a0dc b2bd
000002d0: eea4 c8bb a055 26be 2670 c93d e0e6 86bd
000002e0: 498d 30be 133e 853d 36a0 dcbd 4abe 243d
000002f0: 02a3 98bd 9fbd 87bd cf84 ae3b e83a 92be
