trained_weights/cadets/lword2vec_gnn_cadets18_E3.pth (torch, 11479 bytes, 6 tensors)

conv1.lin_l.weight f4 [32, 30]
0	0x3e0a6b66	0.13517532
1	0x3e2a00e9	0.1660191
2	0x3cf89db8	0.030348644
3	0xbe52fb2c	-0.20603627
4	0xbd93d66b	-0.07218631
5	0x3d581860	0.05275762
6	0x3d8460b7	0.064637594
7	0xbd532f9b	-0.051559072
8	0x3cb840a9	0.02249177
9	0xbdf1376c	-0.11778149
10	0xbdffcf52	-0.12490715
11	0xbe81a4b2	-0.25320965
12	0xbcf72fb5	-0.030174116
13	0x3db6cace	0.08925401
14	0x3dde6b74	0.10860339
15	0x3da80082	0.08203222
16	0x3dc53ab9	0.09630341
17	0x3d27e69e	0.040991418
18	0xbd990fed	-0.07473741
19	0x3e247674	0.16060811
20	0x3e2b9004	0.16754156
21	0x3e0351f8	0.12824237
22	0x3d5a3a33	0.05327816
23	0x3e245b23	0.16050391
24	0x3d7415c5	0.059591074
25	0x3e5172c8	0.20453942
26	0xbc3eb199	-0.011639022
27	0x3cb9cda2	0.022681061
28	0xbe511ded	-0.20421572
29	0xbde2b371	-0.11069382
30	0xbbb75163	-0.005594419
31	0xbe5a88b0	-0.21341205
32	0xbb187b12	-0.0023266715
33	0x3d0ec9db	0.034860473
34	0x3d138053	0.03601105
35	0xbe8234d0	-0.25430918
36	0xbd76263b	-0.060095053
37	0xbeb5d738	-0.3551576
38	0xbe14f22d	-0.14545508
39	0xbde4bd0a	-0.11168869
40	0xbda2eda3	-0.07955482
41	0xbcb60f79	-0.022224175
42	0xbd62b770	-0.05535072
43	0x3e3c3454	0.18379337
44	0xbd482d01	-0.048871044
45	0x3dab7062	0.08371045
46	0xbd166d7c	-0.036725506
47	0x3d4e64fd	0.05038928
48	0x3e06aa13	0.13150816
49	0xbd6c30ce	-0.05766373
50	0xbcd7d930	-0.02634868
51	0xbdbd93b2	-0.09256686
52	0x3d95f7ce	0.073226556
53	0xbe33f1ae	-0.17572662
54	0xbd3c9574	-0.046040967
55	0x3c6c56ea	0.014425019
56	0x3d6d7f6c	0.057982847
57	0xbde6523c	-0.11246154
58	0xbd81704c	-0.06320247
59	0x3dc150b3	0.0943922
60	0xbd800c09	-0.062522955
61	0x3e0f0cf1	0.1396978
62	0xbe0132e1	-0.12617065
63	0x3e03ab96	0.12858424
64	0x3e13291b	0.14371149
65	0xbe407a95	-0.18796761
66	0x3e236589	0.15956701
67	0xbe433d48	-0.19066346
68	0x3c979148	0.018501893
69	0x3c7d837a	0.015473241
70	0xbd843093	-0.06454577
71	0xbd9801c9	-0.074222155
72	0x3e5109f2	0.2041395
73	0x3cd126a9	0.02553113
74	0x3ceee26b	0.029160699
75	0xbd065c82	-0.032803066
76	0x3db6f599	0.08933563
77	0x3e021be5	0.12705953
78	0x3d88da00	0.06682205
79	0xbd134269	-0.035952006
80	0xbdbc9236	-0.09207575
81	0x3d0ee8ac	0.034889862
82	0x3bdf72fb	0.0068191267
83	0x3d8d893d	0.06910942
84	0xbc2cf13e	-0.0105555635
85	0x3d02c6d2	0.03192789
86	0xbe206b2c	-0.15665883
87	0xbd877ae0	-0.066152334
88	0xbe37aa57	-0.17936073
89	0xbe0b65b5	-0.13613017
90	0xbd43a9b9	-0.047769282
91	0x3e542443	0.20716958
92	0xbd587c71	-0.05285305
93	0x3ce221cf	0.027604012
94	0x3da28862	0.07936169
95	0x3db2f0ca	0.08737333
96	0x3e14d103	0.14532857
97	0x3bc2cc05	0.005944731
98	0x3e3290eb	0.17438094
99	0x3d8fb971	0.07017792
100	0x3da0b99c	0.07847902
101	0xbdcf52f0	-0.10123241
102	0xbc9f59b5	-0.019451955
103	0xbe3b6ef2	-0.18304041
104	0x3b0f1959	0.0021835177
105	0x3e3fb298	0.18720472
106	0x3e33d469	0.17561497
107	0xbe1b5708	-0.15169919
108	0xbd379f40	-0.044829607
109	0x3e67e0f5	0.22644408
110	0xbb51a7b2	-0.0031990823
111	0x3df62973	0.120196246
112	0x3cb654ce	0.022257235
113	0x3d9687d9	0.0735013
114	0xbe4cbd5a	-0.19994107
115	0xbe328db6	-0.17436871
116	0x3e1143c9	0.14186014
117	0xbd834fe1	-0.0641172
118	0xbdc68748	-0.096937716
119	0x3e16d5cb	0.14729993
120	0x3d941c22	0.072319284
121	0x3dae4f54	0.085112244
122	0xbe5c1c3a	-0.21495143
123	0x3d360dda	0.044446804
124	0x3c92d0f0	0.017921895
125	0x3e51ce86	0.20488939
126	0x3e4ab107	0.19794093
127	0xbde56bf4	-0.11202231
128	0x3e029e8d	0.12755795
129	0x3da59ba3	0.08086326
130	0x3e17553f	0.14778613
131	0xbe5ddecd	-0.21667023
132	0xb9997c68	-0.00029275124
133	0xbe0a8711	-0.13528086
134	0x3dac96a7	0.08427172
135	0x3ba3f68d	0.0050037564
136	0x3e7a18ae	0.24423477
137	0x3c8469fc	0.016163819
138	0xbdbba6ee	-0.09162699
139	0x3e3c2982	0.18375209
140	0xbe14f76a	-0.14547506
141	0x3e8ec423	0.27884015
142	0x3d5a35c2	0.053273924
143	0x3df8dd56	0.121515915
144	0xbe34a7ba	-0.17642108
145	0x3cee5e80	0.029097795
146	0x3db3848c	0.08765516
147	0x3d67d7cd	0.056602288
148	0xbe358fb9	-0.17730607
149	0xbdbfb340	-0.09360361
150	0x3e4f4f3f	0.20245074
151	0x3d5daca2	0.054119714
152	0x3ce37a2a	0.027768213
153	0xbde51d0f	-0.11187183
154	0xbd8ddcec	-0.06926903
155	0x3c8df92b	0.017330727
156	0x3d2435df	0.040090438
157	0xbd79bf2a	-0.060973324
158	0x3dd604d2	0.10450138
159	0xbdef14bb	-0.11673876
160	0xbdedbd99	-0.116084285
161	0xbd8ed476	-0.069741175
162	0xbd762ed3	-0.06010325
163	0x3dcc63db	0.099799834
164	0xbd33e373	-0.043918084
165	0x3deede32	0.11663474
166	0x3d52c271	0.051454965
167	0x3de7a2c7	0.11310344
168	0xbdf4ba49	-0.119495936
169	0x3cdf6b2f	0.027272789
170	0x3e838a0a	0.25691253
171	0x3e2ab3a4	0.1667009
172	0x3dd9305c	0.10604927
173	0x3d0ef44f	0.03490096
174	0x3dbbc7b3	0.09168949
175	0x3c08fc9d	0.008361009
176	0xbd4d6fa2	-0.05015529
177	0x3d3f484d	0.04669981
178	0xbdf224fa	-0.11823459
179	0xbdd0cf18	-0.1019575
180	0x3d9aac71	0.07552422
181	0x3dad4350	0.084601045
182	0xbb6ef135	-0.0036459689
183	0xbd87feb0	-0.06640375
184	0xbcfb2204	-0.030655868
185	0xbc5533b7	-0.013012818
186	0x3c46e77b	0.01214015
187	0x3d1dfc96	0.038570963
188	0x3de6c414	0.11267868
189	0xbd0328a6	-0.032021187
190	0xbd073f8e	-0.033019595
191	0xbc7ba392	-0.015358822
192	0xbd3befe5	-0.045883078
193	0x3dea807e	0.11450289
194	0x3e7fadb8	0.24968612
195	0xbdde9b35	-0.10869447
196	0x3d9823d6	0.0742871
197	0x3d5b3ecc	0.053526685
198	0xbda9e7ed	-0.082961895
199	0x3da56926	0.08076696
200	0x3e3be679	0.18349637
201	0x3e0567fc	0.13027948
202	0xbba785c6	-0.0051123826
203	0x3d54a960	0.05191934
204	0x3e28aacc	0.16471404
205	0x3d057660	0.032583594
206	0xbe30f4a8	-0.17280829
207	0xbcd5d6b2	-0.026103351
208	0x3cd1bf87	0.025604023
209	0xbe24fa63	-0.1611114
210	0xbca23102	-0.01979876
211	0xbd1591cf	-0.036516007
212	0x3a904d74	0.0011009411
213	0x3d3bf41e	0.045887105
214	0x3e1469fc	0.14493555
215	0xbdff9401	-0.124794014
216	0x3eaf5625	0.3424541
217	0x3d7facd4	0.06242068
218	0x3df28f94	0.118437916
219	0x3e502e0e	0.20330068
220	0x3e2adadb	0.16685049
221	0x3ba63780	0.005072534
222	0x3dfe85b5	0.12427846
223	0xbceb7dfb	-0.028746596
224	0xbd3fc59e	-0.04681932
225	0x3dae301a	0.085052684
226	0xbdfd631e	-0.12372421
227	0x3d67a250	0.056551278
228	0xbc2b4867	-0.010454274
229	0xbd8835b3	-0.06650867
230	0xbd0af5a2	-0.03392566
231	0xbbd3a072	-0.0064583356
232	0x3dcc62f1	0.09979809
233	0xbd640742	-0.055670984
234	0xbe29b419	-0.16572608
235	0x3ac7cd0c	0.0015243604
236	0xbd40edcc	-0.04710178
237	0xbdac5e6d	-0.08416448
238	0xbc9b38f3	-0.018948054
239	0x3d2912eb	0.041277807
240	0xbe06f872	-0.13180712
241	0x3c845d4e	0.016157772
242	0xbd376b6a	-0.044780172
243	0x3ce042a0	0.02737552
244	0xbb4a825e	-0.0030900459
245	0xbe01769f	-0.12642907
246	0x3d2ffb5c	0.042964324
247	0xbc9ad9c5	-0.018902669
248	0xbe37360a	-0.17891708
249	0xbd06e431	-0.032932464
250	0xbd9324b9	-0.07184739
251	0x3cb17555	0.021662394
252	0x3ca0cc62	0.019628707
253	0xbdd961fe	-0.10614394
254	0x3c962751	0.018329294
255	0x3d7a16db	0.061056953

conv1.lin_l.bias f4 [32]
0	0x3e16b6b1	0.14718129
1	0xbe0890b2	-0.13336447
2	0x3e2b1473	0.1670702
3	0x3d6ea0f9	0.058258984
4	0x3d9f38c7	0.07774501
5	0xbd2f68a3	-0.0428244
6	0xbc9ef09e	-0.019401845
7	0x3b971649	0.004610811
8	0x3c5b4950	0.013384178
9	0xbe139571	-0.14412476
10	0xbe1c1479	-0.15242185
11	0xbdd08f02	-0.101835266
12	0x3d2c62b8	0.042086333
13	0x3ceab089	0.028648632
14	0xbe6ef461	-0.2333541
15	0x3d9e8547	0.077402644
16	0xbdcbb8c0	-0.09947348
17	0x3d9df318	0.07712382
18	0x3d04b3c4	0.032398
19	0xbdac5a4a	-0.08415659
20	0xbdddf09a	-0.10836907
21	0x3d82587b	0.063645326
22	0x3dd6deb2	0.104916945
23	0x3d628af0	0.055308282
24	0xbe00e825	-0.12588556
25	0x3d61705d	0.0550388
26	0xbdc2bfe2	-0.09509255
27	0x3da92d26	0.082605645
28	0x3e144934	0.1448105
29	0x3cd7c5df	0.02633947
30	0x3d8369f8	0.06416696
31	0xbdd509ee	-0.104022846

conv1.lin_r.weight f4 [32, 30]
0	0x3e138f00	0.14410019
1	0x3d31d019	0.043411348
2	0xbd1c2bf6	-0.038127862
3	0xbcf3790d	-0.029720807
4	0xbc53b8c0	-0.012922466
5	0x3dd7220d	0.105045415
6	0x3d858ee2	0.06521393
7	0x3d26760c	0.040639922
8	0x3e1b14fb	0.15144722
9	0xbd0e3abd	-0.034723986
10	0xbda7ce3c	-0.08193633
11	0xbd49d903	-0.049279224
12	0xbd4dd6a2	-0.050253518
13	0x3e26fe58	0.16307962
14	0x3e9fa36d	0.3117937
15	0x3e27ad11	0.16374613
16	0xbd2cf050	-0.042221367
17	0x3e8bf61c	0.27336204
18	0xbcfad3da	-0.030618597
19	0x3e09c109	0.13452543
20	0x3d92a51b	0.071603976
21	0xbd891240	-0.06692934
22	0x3dca3e0a	0.09875114
23	0x3e3b18d5	0.18271191
24	0x3e0bdab6	0.1365765
25	0x3e85eacf	0.26155707
26	0x3d6d0ab1	0.057871524
27	0x3defe0a9	0.117127724
28	0xbd796149	-0.060883794
29	0xbe82da8e	-0.2555737
30	0xbd6a20e1	-0.057160262
31	0xbe4a3f1e	-0.1975064
32	0xbd41cff8	-0.047317475
33	0xbdb9e476	-0.090767786
34	0x3db70acc	0.08937606
35	0xbe8f71d3	-0.28016528
36	0x3d3cb83f	0.04607415
37	0x3c998ecc	0.018744849
38	0xbdcdd595	-0.10050503
39	0xbde6b018	-0.11264056
40	0xbdcbf8a8	-0.09959537
41	0xbdae13dd	-0.08499882
42	0xbd50537e	-0.050860874
43	0x3d50bd87	0.050961997
44	0x3da6f8b1	0.08152903
45	0x3e1ae270	0.15125442
46	0xbd0ace8b	-0.03388838
47	0x3e43c26d	0.19117136
48	0x3dfbeed7	0.123014145
49	0x3cf3bdd6	0.029753607
50	0xbd1cbf74	-0.03826852
51	0xbd2f76ac	-0.042837784
52	0xbd6c89cd	-0.057748605
53	0xbd94c9d9	-0.07265062
54	0x3d1aab6b	0.037761133
55	0x3d4215f8	0.047384232
56	0xbe2bc5bc	-0.16774648
57	0xbded97af	-0.11601197
58	0xbd83251b	-0.06403562
59	0x3a26b9ed	0.00063601026
60	0xbe8e5ed8	-0.27806735
61	0xbda17102	-0.07882883
62	0xbbad6297	-0.005291294
63	0x3e4ca137	0.19983374
64	0x3cdd1983	0.026989704
65	0xbe8f6bf6	-0.28012055
66	0x3de88983	0.11354353
67	0xbde9ed22	-0.114221826
68	0x3e099e58	0.1343931
69	0xbe6501e8	-0.22364008
70	0xbda6301d	-0.08114646
71	0x3d817109	0.06320388
72	0x3e81aea3	0.2532855
73	0xbdabc4ee	-0.08387171
74	0x3e90727c	0.28212345
75	0x3e10913c	0.14117903
76	0x3d45dfff	0.048309322
77	0x3d2f510d	0.042801905
78	0x3dffb40d	0.12485514
79	0xbe0da472	-0.13832262
80	0x3d4dd46f	0.05025142
81	0xbe8100ac	-0.25195825
82	0x3bdd4a41	0.0067532365
83	0x3dcefdf5	0.10107032
84	0xbcfdc109	-0.030975835
85	0x3e47ba37	0.19504629
86	0xbe722908	-0.23648465
87	0xbe54ce9e	-0.20781943
88	0xbe444a5f	-0.19168995
89	0x3ce1ad0b	0.027548334
90	0x3ed38197	0.41309807
91	0xbd3a13ae	-0.045428924
92	0x3c14932d	0.009068293
93	0xbe46df62	-0.19421151
94	0xbccb3342	-0.024804715
95	0xbd7e70ca	-0.062119283
96	0xbe3e6697	-0.18593822
97	0xbe8c48f9	-0.27399424
98	0xbdfa8c97	-0.12233847
99	0x3e10cd06	0.1414071
100	0x3db687fa	0.08912654
101	0x3e2065eb	0.15663879
102	0xbe0af1fe	-0.13568875
103	0x3e653f02	0.22387317
104	0xbd073b16	-0.033015333
105	0xbdc11ef2	-0.094297305
106	0xbd0401eb	-0.03222839
107	0x3dd72c35	0.10506479
108	0xbe09afd5	-0.13445981
109	0x3d9d75a9	0.076884575
110	0x3e2b6826	0.16738948
111	0x3cdf1bf5	0.02723501
112	0x3d8f942c	0.070106834
113	0xbd4d754d	-0.050160695
114	0x3e0ba877	0.13638483
115	0xb912c1bc	-0.00013995817
116	0x3c95e320	0.018296778
117	0xbd8a5fac	-0.06756529
118	0x3dfb8bdf	0.12282538
119	0x3e151bcd	0.14561386
120	0xbdb77322	-0.08957507
121	0x3dcda1ad	0.10040603
122	0xbcbf5775	-0.023357132
123	0xbd569e40	-0.052397013
124	0x3dabafa2	0.08383109
125	0x3dbaacf0	0.091150165
126	0xbe10175b	-0.1407141
127	0xbdb83de1	-0.089961775
128	0xbe13b703	-0.14425282
129	0x3dae4733	0.08509674
130	0xbd3629f3	-0.0444736
131	0x3d3a106f	0.04542583
132	0xbdeae056	-0.1146857
133	0x3de1641d	0.11005423
134	0xbdf5112a	-0.119661644
135	0xbdd48527	-0.10376959
136	0xbe20efb0	-0.15716434
137	0xbdaf4266	-0.08557586
138	0x3e0688a9	0.13138069
139	0x3e006b08	0.12540829
140	0x3d7bda5b	0.061487537
141	0xbcdc2fb7	-0.026878221
142	0xbdea387b	-0.11436554
143	0x3e2f0005	0.17089851
144	0x3d189662	0.03725279
145	0xbddc1082	-0.10745336
146	0x3d1c7ea0	0.038206697
147	0x3e0e5b69	0.13902058
148	0x3d0c3805	0.034233112
149	0x3b976c00	0.004621029
150	0x3d461e38	0.048368663
151	0x3d674d9f	0.05647051
152	0x3d09afd1	0.033614937
153	0xbda7f227	-0.08200484
154	0xbd9c1ea6	-0.07623033
155	0x3de7b859	0.113144584
156	0x3dd5c581	0.104380615
157	0xbd7fc105	-0.062439937
158	0x3e2a7b63	0.16648631
159	0xbe5dea22	-0.21671346
160	0xbe844f51	-0.25841764
161	0x3c5f2ec1	0.013621987
162	0xbcb8eb13	-0.02257303
163	0x3e600ab9	0.2187909
164	0x3cdc2895	0.02687482
165	0x3e2ece02	0.17070773
166	0x3dc500fe	0.0961933
167	0x3d5c1531	0.053731147
168	0x3db7482c	0.089493126
169	0x3dc07a84	0.09398368
170	0x3e4fd377	0.20295511
171	0x3deafd05	0.11474041
172	0x3e80a7e0	0.25128078
173	0x3de3d9ee	0.11125551
174	0x3e8960bb	0.26831612
175	0x3df91640	0.12162447
176	0xbdb679e8	-0.089099705
177	0x3e425b87	0.18980227
178	0xbe7488f8	-0.23880374
179	0xbd3ff5b6	-0.046865188
180	0xbd4839e7	-0.048883345
181	0xbd8533d7	-0.06504028
182	0x3e15caef	0.14628194
183	0x3c2f998c	0.010717761
184	0xbc3b3fa9	-0.011428752
185	0x3dab2e7d	0.08358476
186	0x3b8c36fc	0.0042790156
187	0x3dc8b19f	0.097995035
188	0xbcca94a1	-0.024729075
189	0xbde076b6	-0.10960142
190	0x3d0885bb	0.03333066
191	0x3c90520c	0.017617248
192	0x3d49fe58	0.049314827
193	0x3def394a	0.11680849
194	0x3e0c6f6f	0.13714384
195	0x3c06647b	0.008202667
196	0x3d47c77b	0.048774224
197	0x3da4fc7b	0.08055969
198	0xbd48bb32	-0.04900665
199	0xbe3a3cf6	-0.18187317
200	0x3e2d3bf7	0.16917406
201	0xbdf4501b	-0.119293414
202	0x3db27d7e	0.08715342
203	0x3c2bbbc7	0.010481781
204	0x3de7a489	0.113106795
205	0x3e8ccea2	0.27501398
206	0xbcb0799c	-0.021542363
207	0x3d19dc49	0.037563596
208	0x3da8a93c	0.08235404
209	0xbdfb5a14	-0.122730404
210	0x3c169a94	0.009192128
211	0xbd0043d6	-0.031314693
212	0x3d057187	0.03257897
213	0xbe26c4de	-0.16286036
214	0x3e227993	0.1586669
215	0xbdaa8010	-0.08325207
216	0x3e81fa3b	0.25386223
217	0x3dff08d8	0.12452859
218	0xbe3cdb43	-0.18443017
219	0x3e49098b	0.19632547
220	0x3e18731f	0.14887665
221	0x3e01926f	0.12653516
222	0x3e15e796	0.14639124
223	0x3d3c6620	0.04599583
224	0xbcffdcce	-0.031233218
225	0xbba61652	-0.0050685788
226	0xbe52978c	-0.20565623
227	0x3e7f20a2	0.24914792
228	0xbbec1311	-0.0072044213
229	0xbe460b62	-0.1934028
230	0x3cb39829	0.021923142
231	0xbdb383b1	-0.087653525
232	0x3dbd308e	0.09237777
233	0x3ccbe174	0.024887778
234	0xbd5b1b15	-0.053492624
235	0x3d87ed61	0.06637073
236	0xbe58f2a8	-0.21186316
237	0x3e022c8d	0.12712307
238	0xbe309902	-0.17245868
239	0xbd47b20d	-0.048753787
240	0xbed05bae	-0.40694946
241	0xbe368627	-0.17824613
242	0x3b996c2d	0.004682085
243	0x3e199f9a	0.1500229
244	0xbc431d84	-0.011908893
245	0xbe34378d	-0.17599316
246	0xbd8194f6	-0.0632724
247	0xbc40fb26	-0.011778628
248	0xbe197ae5	-0.14988287
249	0xbe768c2a	-0.24076906
250	0xbe1402ad	-0.14454146
251	0x3cfd55b0	0.030924648
252	0x3e6be29d	0.23035665
253	0xbd3cdb08	-0.046107322
254	0x3db4c7f2	0.08827199
255	0x3cc4ae1b	0.024008801

conv2.lin_l.weight f4 [6, 32]
0	0xbcb6aeff	-0.022300242
1	0xbd0696d9	-0.032858703
2	0x3c55b826	0.013044393
3	0xbda587bd	-0.08082531
4	0x3e2f8ff8	0.17144763
5	0xbdc74d96	-0.09731595
6	0xbd226b95	-0.03965338
7	0xbd9e23ae	-0.07721649
8	0x3de5f4c7	0.11228328
9	0xbe0710d6	-0.13190016
10	0xbc18b79b	-0.009321119
11	0xbd8fdab1	-0.07024134
12	0x3d77f570	0.0605368
13	0xbd038963	-0.032113444
14	0xbd19a2b3	-0.037508678
15	0xbdb371d4	-0.08761945
16	0x3b763b26	0.0037571876
17	0x3e2d2da2	0.16911939
18	0x3d865b56	0.0656039
19	0x3e956896	0.29181355
20	0x3e80e384	0.2517358
21	0xbe093a96	-0.13401255
22	0x3cac9e44	0.02107156
23	0x3c524cdc	0.0128357075
24	0x3df2b0c6	0.11850123
25	0xbc7e8ecd	-0.015536976
26	0xbdc8b864	-0.09800795
27	0x3e2431fa	0.1603469
28	0xbe5ed484	-0.21760756
29	0x3ced696e	0.028980937
30	0x3cc0295d	0.023457224
31	0xbcbbf89e	-0.022945698
32	0x3e5de068	0.21667635
33	0x3db63cdf	0.08898329
34	0x3e9d6d2f	0.30747363
35	0x3d8c661f	0.068554156
36	0x3e3ce900	0.18448257
37	0x3e9a9052	0.30188233
38	0x3e5cf6af	0.21578477
39	0x3dcec942	0.10096981
40	0x3b85b28e	0.0040801233
41	0x3e3e7b19	0.18601646
42	0xbd7be4b6	-0.061497413
43	0x3e06f978	0.13181102
44	0xbdb76a41	-0.08955813
45	0xbd4d2929	-0.05008808
46	0xbcf9bb01	-0.030484678
47	0x3e2bb1bd	0.1676702
48	0xbbac5cbc	-0.0052600782
49	0xbebd33a4	-0.3695346
50	0xbe4376ea	-0.19088331
51	0xbe8333b4	-0.25625384
52	0xbe69f15b	-0.22845976
53	0x3e11c11b	0.1423382
54	0x3e533181	0.20624353
55	0xbd99ca4d	-0.07509289
56	0xbcd910dd	-0.026497299
57	0xbdb35b5a	-0.08757658
58	0xbe56b8ff	-0.20969008
59	0xbe160714	-0.14651138
60	0x3e98c7fa	0.2984007
61	0xbc65670f	-0.014001622
62	0x3dcec5a9	0.100962944
63	0x3e1ab3d6	0.15107664
64	0xbe863561	-0.262126
65	0x3dca391f	0.09874176
66	0xbe285106	-0.16437158
67	0xbe5b95b6	-0.21443829
68	0xbe07e036	-0.13269123
69	0xbe19d82b	-0.15023868
70	0xbd66611f	-0.056244966
71	0xbe898bc9	-0.2686446
72	0xbe2e49ea	-0.17020383
73	0x3dfb0b08	0.122579634
74	0xbdb0f06a	-0.08639605
75	0xbd0eb7bb	-0.034843188
76	0xbe328b54	-0.17435962
77	0x3d40b882	0.04705096
78	0x3e866324	0.26247513
79	0xbd9c8a9d	-0.07643626
80	0xbc9403d2	-0.018068228
81	0xbc6b7c35	-0.014372875
82	0x3e8c1ff6	0.27368134
83	0xbe029f13	-0.12755994
84	0x3c85c6ff	0.01633024
85	0xbe2b8e1a	-0.16753426
86	0xbe4f37fb	-0.20236199
87	0xbdf6a5b2	-0.120433226
88	0x3b5f94b6	0.0034115738
89	0x3d26a89f	0.040688153
90	0x3ebd0d29	0.36924103
91	0x3d8d2334	0.0689148
92	0xbd810680	-0.06300068
93	0xbe68adf4	-0.22722608
94	0x3d11d8a1	0.035606984
95	0xbd01717d	-0.03160237
96	0xbd21806b	-0.03942911
97	0xbabcf932	-0.0014417528
98	0xbc191431	-0.009343193
99	0x3e921041	0.28528026
100	0xbde6aa1a	-0.11262913
101	0x3d2cc6cf	0.042181786
102	0x3c49db1a	0.012320304
103	0xbde82962	-0.11336018
104	0x3d300cfc	0.042981133
105	0xbd9041d4	-0.07043806
106	0x3c52c558	0.012864433
107	0x3dc45567	0.09586602
108	0x3e895c21	0.268281
109	0x3c872f43	0.016502028
110	0xbdd456af	-0.10368096
111	0xbdabaa81	-0.083821304
112	0xbe5afc72	-0.21385363
113	0x3e4facb4	0.20280725
114	0xbc891cd3	-0.016737377
115	0x3e99156f	0.29899165
116	0x3ec6f3e0	0.38857937
117	0x3d7724a9	0.060337696
118	0x3d8960ef	0.06707942
119	0x3e240977	0.16019236
120	0xbd92aeef	-0.07162272
121	0xbded4597	-0.11585539
122	0xbca955a9	-0.020670729
123	0x3ea7649a	0.3269394
124	0xbe0ae36a	-0.13563314
125	0x3e5cdc80	0.21568489
126	0x3e9d475d	0.30718508
127	0x3ba53ca6	0.0050426302
128	0xbdd26537	-0.102732114
129	0xbe513595	-0.20430596
130	0x3deb0c1f	0.11476921
131	0x3e1edb15	0.1551326
132	0xbcbe26a1	-0.02321178
133	0x3c8e4da6	0.01737101
134	0xbc3b7e26	-0.01144365
135	0xbd2fb7f8	-0.042900056
136	0x3c210a6c	0.009829145
137	0xbd95d6bb	-0.07316347
138	0xbe478a82	-0.1948643
139	0xbdc17045	-0.09445242
140	0xbd835eef	-0.064145915
141	0xbdae7641	-0.08518649
142	0xbdab45a7	-0.083628945
143	0xbd2f2404	-0.042758957
144	0xbd8abc76	-0.06774227
145	0x3de4a2b8	0.11163849
146	0xbd8db402	-0.069190994
147	0xbc51e0d5	-0.012809952
148	0x3dff6bdf	0.12471747
149	0xbdcfed9c	-0.10152742
150	0x3e341ac6	0.17588338
151	0x3e9fe506	0.3122942
152	0xbc88bd50	-0.016691834
153	0x3daa6cc3	0.08321526
154	0xbd083bf6	-0.03326031
155	0x3ccd944d	0.02509513
156	0x3dbf2ace	0.09334336
157	0x3debdea7	0.11517077
158	0xbe3b1586	-0.1826993
159	0x3d5d959b	0.054097753
160	0x3c9b3f82	0.018951181
161	0xbe15c607	-0.14626323
162	0xbca35485	-0.019937763
163	0xbe479c3a	-0.1949319
164	0xbc0d6186	-0.008629208
165	0x3d3a226d	0.045442987
166	0xbb2d98da	-0.0026488812
167	0xbca9a83e	-0.020710107
168	0x3d3ff96c	0.046868727
169	0xbd63df0a	-0.05563263
170	0x3d5fbc8b	0.054623168
171	0xbd8b953f	-0.06815576
172	0xbd6b50cb	-0.057450097
173	0xbda6b14f	-0.08139288
174	0xbdcfcb35	-0.101461805
175	0xbcb41eb2	-0.021987293
176	0xbe1569ee	-0.1459119
177	0xbd49274f	-0.049109753
178	0xbd945f62	-0.07244755
179	0xbd9e3bad	-0.07726226
180	0xbe49e902	-0.19717792
181	0xbe62ec61	-0.22160484
182	0x3de4d6b6	0.11173765
183	0xbe3a97dc	-0.18221992
184	0xbd0d2e10	-0.034467757
185	0xbcd32fc9	-0.025779622
186	0xbd7b5e17	-0.061369028
187	0xbdc9448c	-0.098275274
188	0xbc9572ff	-0.018243311
189	0xbd19130f	-0.03737169
190	0x3c7b1549	0.015324899
191	0xbdd0bdc8	-0.10192448

conv2.lin_l.bias f4 [6]
0	0x3d86e8c7	0.065873675
1	0xbcaba372	-0.02095196
2	0x3d19a0f0	0.037506998
3	0x3d15f0cd	0.0366066
4	0x3ca4d2fa	0.020120133
5	0xbdac47f3	-0.08412161

conv2.lin_r.weight f4 [6, 32]
0	0xbd51d1e9	-0.051225577
1	0xbd3d5d21	-0.046231393
2	0x3eb7bd8c	0.358868
3	0xbe5396c7	-0.20662986
4	0xbd7d3a87	-0.061823394
5	0xbe4473b8	-0.19184768
6	0x3de555ab	0.111979805
7	0xbde63678	-0.11240858
8	0x3e69c1ab	0.22827785
9	0xbe4566b1	-0.19277455
10	0x3e8064c9	0.25076893
11	0xbe1f8f9f	-0.15582131
12	0x3efa0d14	0.48838103
13	0x3dc2604b	0.09491023
14	0xbda4a6c1	-0.08039618
15	0xbe11d0ca	-0.14239803
16	0x3d29806e	0.041382246
17	0x3ef1157f	0.47086713
18	0xbca62a6b	-0.020283898
19	0x3f1f6d59	0.62276226
20	0x3e896af5	0.26839414
21	0xbdbbaa8f	-0.09163391
22	0xbe11cccf	-0.14238285
23	0x3ea16546	0.31522578
24	0xbd3eae65	-0.046553034
25	0x3e6c474b	0.23074071
26	0xbdd59f0a	-0.10430725
27	0x3eb15e01	0.34642032
28	0xbe164caf	-0.1467769
29	0x3ee6d08f	0.45080993
30	0x3e7e4f3f	0.24834917
31	0xbdca3e71	-0.09875191
32	0x3ea0c562	0.3140059
33	0x3e8894c8	0.2667601
34	0x3e27c576	0.16383919
35	0xbe58b8c4	-0.21164232
36	0xbe3c7c50	-0.18406796
37	0x3e372241	0.1788416
38	0x3e809d8d	0.25120202
39	0x3e39e1b2	0.18152502
40	0x3d5885ad	0.05286186
41	0x3e50f1f1	0.20404793
42	0xbd82e30e	-0.063909635
43	0x3d125d33	0.035733413
44	0x3c451281	0.012028337
45	0xbd2fccd6	-0.042919956
46	0x3c047e81	0.0080868015
47	0x3ebe095e	0.37116522
48	0x3d9e8a3f	0.07741212
49	0xbdd2f0fd	-0.10299871
50	0xbe24ba80	-0.16086769
51	0xbc9fd8d6	-0.019512575
52	0x3cddb755	0.027064959
53	0xbddd8346	-0.10816054
54	0x3ef70641	0.4824696
55	0xbe033c77	-0.12816034
56	0x3e046da6	0.12932453
57	0xbc1a0177	-0.009399763
58	0xbe173c6c	-0.14769143
59	0x3d2cb483	0.042164337
60	0x3e00031a	0.12501183
61	0xbe2a89f2	-0.16654184
62	0xbd41b6b7	-0.04729339
63	0x3d633d66	0.055478476
64	0xbd0b7ed1	-0.03405649
65	0xbd907b56	-0.070547745
66	0xbe041172	-0.1289728
67	0x3e7a470f	0.24441169
68	0x3e91b3a2	0.2845736
69	0x3de011ff	0.109409325
70	0xbdda97a6	-0.10673456
71	0x3dbd6d65	0.09249381
72	0xbc041e32	-0.00806384
73	0xbe354cda	-0.17705098
74	0x3dc7bc32	0.09752692
75	0x3e4f7d30	0.20262599
76	0xbdb55195	-0.08853451
77	0x3e920d7c	0.28525913
78	0x3e001ba6	0.12510547
79	0xbe3b796d	-0.18308039
80	0xbe8ae7c1	-0.2712994
81	0xbb58fb16	-0.0033108643
82	0x3e38878e	0.1802046
83	0xbd823ac2	-0.063588634
84	0xbe7d7c4e	-0.2475445
85	0x3e4be97c	0.19913286
86	0xbe77b1a8	-0.24188864
87	0xbdf43b1e	-0.11925338
88	0xbe0ea531	-0.13930203
89	0x3ad1a9fb	0.0015996093
90	0x3eb459a0	0.35224628
91	0xbdc25eac	-0.094907135
92	0x3e2964b7	0.16542326
93	0x3d89daea	0.06731208
94	0xbe071d85	-0.13194855
95	0xbe31987e	-0.17343327
96	0xbcd83295	-0.026391307
97	0xbe370633	-0.17873459
98	0xbec8e562	-0.39237505
99	0x3d6edd2d	0.0583164
100	0x3de47c11	0.11156476
101	0xbd9e50fd	-0.07730291
102	0xbddc36b8	-0.10752624
103	0xbd940126	-0.072267815
104	0xbe3573b8	-0.17719924
105	0xbdac54e6	-0.084146306
106	0xbe65ff06	-0.22460565
107	0x3e47bfbe	0.19506738
108	0xbe3b6a2e	-0.18302223
109	0xbd70606e	-0.058685713
110	0x3d87ac8d	0.06624708
111	0xbe0ca5d2	-0.1373513
112	0xbe1ab8ac	-0.15109509
113	0xbe4c2755	-0.19936879
114	0x3d83e20a	0.06439598
115	0xbec3685c	-0.38165557
116	0xbd1f4f85	-0.038894195
117	0x3e8b3567	0.2718918
118	0xbd82c201	-0.063846596
119	0x3d8fd066	0.07022171
120	0x3c9a7d68	0.018858626
121	0xbeb43533	-0.35196838
122	0xbd97b4ff	-0.07407569
123	0xbe89618c	-0.26832235
124	0xbe012c51	-0.12614562
125	0xbe68d0fc	-0.22735971
126	0xbeacdad0	-0.3376069
127	0xbe689a99	-0.22715224
128	0xbc6b1095	-0.014347215
129	0x3d28cec5	0.041212816
130	0xbe589f5c	-0.21154541
131	0x3e3116b4	0.17293817
132	0xbe024aef	-0.12723897
133	0xbd3cb871	-0.046074335
134	0x3d2e4f79	0.04255626
135	0x3cb1481d	0.021640832
136	0xbe139fa8	-0.14416373
137	0x3c5c0ff7	0.013431541
138	0xbd2156e9	-0.039389525
139	0xbe088582	-0.13332179
140	0xbe84820a	-0.25880462
141	0xbdad8569	-0.084727116
142	0xbc5d4130	-0.013504311
143	0xbd902c77	-0.07039731
144	0x3c7645e2	0.01503131
145	0xbe74f57a	-0.23921767
146	0xbe0fc6c3	-0.14040665
147	0xbe202c54	-0.1564191
148	0xbda68049	-0.08129937
149	0xbd528016	-0.051391684
150	0x3d649796	0.055808626
151	0x3e1da21e	0.15393874
152	0xbc55e2c0	-0.01305455
153	0x3c8a2f33	0.01686821
154	0xbdf85be4	-0.12126902
155	0xbe9a0581	-0.30082324
156	0x3e071319	0.13190879
157	0xbdf38e03	-0.11892321
158	0xbdbe6162	-0.09295918
159	0x3d921bc3	0.071342014
160	0xbcb88bdf	-0.022527633
161	0xbd47db3b	-0.04879306
162	0x3d597a5a	0.0530952
163	0xbe13e93e	-0.14444444
164	0xbd90f823	-0.07078578
165	0x3d53f594	0.051747873
166	0xbdc68d91	-0.096949704
167	0xbd7e44bc	-0.06207727
168	0x3cc15121	0.023598256
169	0xbd0f0390	-0.034915507
170	0xbbd4d940	-0.006495625
171	0xbe184df0	-0.14873481
172	0x3d2f605f	0.042816516
173	0xbd56e01a	-0.052459814
174	0xbe203880	-0.15646553
175	0x3cec59d8	0.028851435
176	0xbe575395	-0.21027978
177	0x3ce4d40b	0.027933141
178	0xbde3e12c	-0.111269325
179	0xbda7ac27	-0.08187132
180	0xbc6f25da	-0.014596427
181	0xbe2a7298	-0.16645277
182	0x3dc9abec	0.098472446
183	0xbd863769	-0.065535374
184	0xbe363717	-0.17794453
185	0x3da06657	0.0783202
186	0xbddcf8e5	-0.1078966
187	0x3d734884	0.05939533
188	0xbd96caa3	-0.07362869
189	0xbd757cb6	-0.059933387
190	0x3c60cf07	0.013721234
191	0xbe938a1b	-0.28816304
