trained_weights/cadets/lword2vec_gnn_cadets12_E3.pth (torch, 11479 bytes, 6 tensors)

conv1.lin_l.weight f4 [32, 30]
0	0x3e0d8dbd	0.138236
1	0x3e2d7944	0.1694079
2	0x3d1c153d	0.038106192
3	0xbe5b3672	-0.21407488
4	0xbdb232ed	-0.087011196
5	0x3d5bcbf8	0.053661317
6	0x3d9ead35	0.0774788
7	0xbd6c117d	-0.057633866
8	0x3cbd5394	0.023111142
9	0xbdf3db52	-0.119070664
10	0xbe09156a	-0.13387075
11	0xbe822be6	-0.25424117
12	0xbd01a1c5	-0.031648416
13	0x3dbcb404	0.09214023
14	0x3ddf43fc	0.10901639
15	0x3dbe8e0f	0.09304439
16	0x3dd0b4e7	0.101907544
17	0x3d35dc16	0.044399343
18	0xbda45e04	-0.080257446
19	0x3e28bf09	0.16479124
20	0x3e2f3675	0.17110617
21	0x3e049453	0.12947206
22	0x3d60c9ba	0.05487988
23	0x3e2e4dbe	0.17021844
24	0x3d723499	0.059132192
25	0x3e532900	0.20621109
26	0xbc8100b0	-0.015747398
27	0x3cbc7ed8	0.023009703
28	0xbe5952a6	-0.21222934
29	0xbde93243	-0.1138654
30	0xbb7c5af5	-0.0038506363
31	0xbe5e0913	-0.21683149
32	0x3ccd9bf5	0.02509878
33	0x3cc35cd7	0.02384798
34	0x3d6ec814	0.058296278
35	0xbe7a8b57	-0.24467216
36	0xbd8ac3eb	-0.0677565
37	0xbea6f701	-0.32610324
38	0xbe188715	-0.1489528
39	0xbdf8e416	-0.12152879
40	0xbd27b2e6	-0.040942095
41	0xbc900246	-0.017579209
42	0xbd4e3321	-0.05034173
43	0x3e3370d8	0.17523515
44	0xbd571ca1	-0.052517537
45	0x3d955049	0.07290704
46	0xbd3f55f3	-0.046712827
47	0x3d5c9688	0.053854495
48	0x3e03dc18	0.12876928
49	0xbd666446	-0.056247972
50	0xbce84721	-0.02835423
51	0xbdad3e82	-0.08459188
52	0x3d736332	0.059420772
53	0xbe2e50ec	-0.17023057
54	0xbd394c41	-0.045238737
55	0x3c574101	0.013138057
56	0x3d15c116	0.036561094
57	0xbdf51d86	-0.11968522
58	0xbd5d8ccf	-0.054089364
59	0x3dcc3849	0.09971673
60	0xbd6e8eb1	-0.05824155
61	0x3e176f2b	0.14788501
62	0xbda87353	-0.08225121
63	0x3dfbefd9	0.12301607
64	0x3e1f76ba	0.15572634
65	0xbe213d6d	-0.15746088
66	0x3e2780b2	0.16357687
67	0xbe13ec5c	-0.14445633
68	0x3cc5edb0	0.02416119
69	0x3c379d77	0.011206976
70	0xbd3f5f7f	-0.04672193
71	0xbd7ff71e	-0.06249153
72	0x3e63f1d2	0.22260216
73	0x3c7125f0	0.014718518
74	0x3d1723f7	0.036899533
75	0xbbfc07be	-0.0076913526
76	0x3dab3399	0.08359451
77	0x3e0afd60	0.13573217
78	0x3d3da34d	0.046298314
79	0xbd0705e6	-0.03296461
80	0xbdbef790	-0.093245625
81	0x3d379c3a	0.044826724
82	0x3a14df00	0.00056789815
83	0x3db365e6	0.0875967
84	0xbc0d7b27	-0.008635319
85	0x3cf12abd	0.029439325
86	0xbe33d155	-0.17560323
87	0xbd8bc9f5	-0.068256296
88	0xbe370859	-0.17874278
89	0xbe06c103	-0.13159566
90	0xbd46e4d4	-0.04855807
91	0x3e8bdf51	0.27318814
92	0xbcfa46d6	-0.030551355
93	0x3dacd6c9	0.084394045
94	0x3d8c3d5a	0.068476394
95	0x3dd416cc	0.10355911
96	0x3dfd3170	0.12362945
97	0xbd2fc350	-0.042910874
98	0x3e2aa086	0.16662797
99	0x3e307fa1	0.17236187
100	0xbbea8630	-0.0071571097
101	0xbd9f1eae	-0.077695236
102	0xbc752442	-0.014962258
103	0xbe4f52bd	-0.20246406
104	0xbc1df7f4	-0.009641636
105	0x3e2f52c6	0.1712142
106	0x3e70a87a	0.23501769
107	0xbe4be555	-0.19911702
108	0x3d2bf90c	0.041985556
109	0x3e3435e8	0.17598689
110	0xbd0083ca	-0.031375684
111	0x3dd28e54	0.10281053
112	0xbbdebe6d	-0.006797603
113	0x3dbff496	0.09372823
114	0xbe372ead	-0.17888899
115	0xbe4cf40e	-0.20014974
116	0x3e105b5b	0.1409735
117	0xbdbbc628	-0.09168655
118	0xbde366b3	-0.11103573
119	0x3e4217d1	0.18954398
120	0x3d8547d7	0.06507843
121	0x3daf06d0	0.08546221
122	0xbe74ebb7	-0.23918043
123	0x3d490f57	0.049086895
124	0x3d016f24	0.031600133
125	0x3e4bccf5	0.19902404
126	0x3e493634	0.19649583
127	0xbdf93b12	-0.1216947
128	0x3e0040e5	0.12524755
129	0x3d9ef9d3	0.07762494
130	0x3e2bade7	0.16765557
131	0xbe6c5079	-0.23077573
132	0xbb783b13	-0.0037877008
133	0xbe138fb7	-0.14410292
134	0x3da34739	0.07972569
135	0xbc680009	-0.014160165
136	0x3e7f68a3	0.2494226
137	0x3c5e8d4d	0.013583493
138	0xbdde4a28	-0.10853988
139	0x3e48c154	0.19604999
140	0xbe1b65d4	-0.15175563
141	0x3e9448a7	0.2896168
142	0x3d338f7a	0.043838
143	0x3df92638	0.12165493
144	0xbe390ca1	-0.18071224
145	0x3cdd89fb	0.027043333
146	0x3dadaf3f	0.08480691
147	0x3d67ab8d	0.056560088
148	0xbe32878b	-0.17434518
149	0xbdbd0533	-0.09229507
150	0x3e52246f	0.20521711
151	0x3d62461d	0.055242646
152	0x3d0dc92a	0.034615673
153	0xbded0515	-0.11573235
154	0xbda105fa	-0.07862468
155	0x3c92043a	0.017824281
156	0x3d536b6f	0.05161613
157	0xbd828095	-0.06372181
158	0x3dd890c6	0.10574488
159	0xbdf8c2e9	-0.12146551
160	0xbdf4af01	-0.11947442
161	0xbd8f2201	-0.069889076
162	0xbd78e5eb	-0.06076614
163	0x3dd1f092	0.10250963
164	0xbd3546b8	-0.044256896
165	0x3e0b5434	0.1360634
166	0x3d629108	0.055314094
167	0x3def801a	0.11694355
168	0xbe01a560	-0.12660742
169	0x3cf0a7fd	0.029376978
170	0x3e85533a	0.2604006
171	0x3e2d9245	0.16950329
172	0x3ddce2e1	0.10785461
173	0x3d2e377c	0.042533383
174	0x3dbe2e8f	0.09286224
175	0x3c133761	0.008985371
176	0xbd860c45	-0.06545309
177	0x3d39cc2e	0.045360737
178	0xbdfc513a	-0.1232018
179	0xbdd6536f	-0.104651324
180	0x3d9efbef	0.07762896
181	0x3db7adfd	0.089687325
182	0xbae3b0ef	-0.0017371456
183	0xbd8829b6	-0.06648581
184	0xbd3089c0	-0.04310012
185	0xbc534c7c	-0.012896653
186	0x3c81a8ba	0.015827525
187	0x3d341351	0.043963734
188	0x3dee8014	0.11645523
189	0xbce483f5	-0.027894953
190	0xbd2ad603	-0.041708004
191	0xbc5cf6a5	-0.013486539
192	0xbd461a87	-0.048365142
193	0x3df10392	0.11768259
194	0x3e828cad	0.25497952
195	0xbde0d732	-0.10978545
196	0x3d9e8839	0.07740826
197	0x3d64838a	0.055789508
198	0xbdbadf6f	-0.09124648
199	0x3da9aefd	0.082853295
200	0x3e3ff633	0.18746261
201	0x3e071cf1	0.13194634
202	0xbb9c5a8c	-0.004771536
203	0x3d7c73f8	0.061634034
204	0x3e2dac0f	0.16960166
205	0x3d06431c	0.032778844
206	0xbe39a420	-0.18129015
207	0xbcdfa1eb	-0.027298888
208	0x3ccd20ed	0.025040114
209	0xbe2a06d5	-0.16604169
210	0xbc95f835	-0.01830683
211	0xbd0e4b3b	-0.034739714
212	0x3b84f4fc	0.0040575247
213	0x3d442eff	0.04789638
214	0x3e17cc6e	0.14824077
215	0xbe047ca5	-0.12938173
216	0x3eb28805	0.348694
217	0x3d7eb11d	0.062180627
218	0x3dfa33dc	0.12216923
219	0x3e57784e	0.21041986
220	0x3e31b953	0.17355852
221	0x3bda19c2	0.0066559026
222	0x3e012fb0	0.12615848
223	0xbced13e9	-0.028940158
224	0xbd41857b	-0.047246438
225	0x3dc804a0	0.09766507
226	0xbe0022da	-0.12513295
227	0x3d723fd9	0.05914292
228	0xbc3af290	-0.0114103705
229	0xbd91d5c6	-0.07120852
230	0xbd09b21e	-0.03361713
231	0xbbf7f878	-0.0075674616
232	0x3dd68bdf	0.10475897
233	0xbd691617	-0.056905832
234	0xbe2eb03b	-0.17059414
235	0x3aa1fac9	0.0012358065
236	0xbd46d4f9	-0.04854295
237	0xbdaf36e1	-0.08555389
238	0xbcb70e26	-0.022345614
239	0x3d2e854e	0.042607598
240	0xbe23003f	-0.15918063
241	0x3bfd0da9	0.0077225757
242	0xbd16f30f	-0.036852892
243	0x3d121117	0.03566083
244	0x3c6759be	0.014120517
245	0xbdfb5230	-0.122715354
246	0x3d7506cf	0.059820946
247	0x3d19ad8b	0.03751902
248	0xbe374d59	-0.179006
249	0xbda9fe31	-0.08300436
250	0xbcd2808a	-0.025696058
251	0x3ca791a9	0.020455198
252	0x3d278f16	0.04090794
253	0xbdfaef7f	-0.122527115
254	0x3cc7175a	0.024303127
255	0x3db002af	0.08594262

conv1.lin_l.bias f4 [32]
0	0x3e1ae733	0.15127258
1	0xbe0c9a4b	-0.13730733
2	0x3e35a596	0.17738947
3	0x3d92000d	0.07128916
4	0x3da45187	0.080233626
5	0xbd32b0c2	-0.0436256
6	0xbc96b39d	-0.018396193
7	0x3bcad322	0.00618972
8	0x3c670fb5	0.014102866
9	0xbe1577f3	-0.14596538
10	0xbe279137	-0.16363989
11	0xbdd7061c	-0.10499212
12	0x3d3ed698	0.04659137
13	0x3cd5c790	0.026096135
14	0xbe6dd422	-0.23225453
15	0x3da802f2	0.08203687
16	0xbdd65763	-0.104658864
17	0x3d996e85	0.07491783
18	0x3d05865e	0.032598846
19	0xbda39874	-0.079880625
20	0xbdb76834	-0.08955422
21	0x3d849839	0.06474347
22	0x3dda997d	0.10673807
23	0x3db2a203	0.087223075
24	0xbe0517c9	-0.12997355
25	0x3d546828	0.051857144
26	0xbdc05b07	-0.09392362
27	0x3daf6122	0.085634485
28	0x3e1e273b	0.15444653
29	0x3ce863ef	0.028367965
30	0x3d6aaa19	0.057291124
31	0xbdd2489f	-0.102677576

conv1.lin_r.weight f4 [32, 30]
0	0x3e1489f4	0.1450575
1	0x3d3fa0b2	0.04678411
2	0xbd352341	-0.044223074
3	0xbcf84ab4	-0.030309059
4	0xbc94232d	-0.01808318
5	0x3ddce0b2	0.10785045
6	0x3d940da3	0.072291635
7	0x3d35a46c	0.044346258
8	0x3e1d7763	0.15377574
9	0xbd0805bd	-0.033208597
10	0xbda98e3c	-0.08279082
11	0xbd47ad02	-0.048748977
12	0xbd834bd8	-0.064109504
13	0x3e270053	0.16308717
14	0x3ea03625	0.3129131
15	0x3e273cd3	0.16331796
16	0xbd397928	-0.04528156
17	0x3e8d20de	0.27564138
18	0xbd037c1d	-0.032100786
19	0x3e0c73f6	0.1371611
20	0x3d908756	0.07057063
21	0xbd8ac63b	-0.06776091
22	0x3dc972bb	0.09836336
23	0x3e4985fd	0.19680019
24	0x3e0bc867	0.13650666
25	0x3e86d1f4	0.26332057
26	0x3d7d11f4	0.0617847
27	0x3e0089f1	0.1255262
28	0xbd7cdb1c	-0.061732396
29	0xbe84df5d	-0.25951663
30	0xbd5fc0af	-0.054627117
31	0xbe4732ee	-0.19453022
32	0xbd24aa2f	-0.040201362
33	0xbdca3186	-0.09872727
34	0x3dc934a9	0.09824497
35	0xbe8a4b0c	-0.2701038
36	0x3ca057c6	0.019573104
37	0x3d02c3c6	0.031924985
38	0xbddb998e	-0.107226476
39	0xbdee3e3f	-0.11632966
40	0xbd3f33ca	-0.04668025
41	0xbda736af	-0.08164727
42	0xbd3d77bb	-0.046256762
43	0x3d29abe9	0.041423712
44	0x3d99cc5d	0.07509682
45	0x3e042960	0.12906408
46	0xbd1b56c0	-0.037924528
47	0x3e3ef0f0	0.18646598
48	0x3e023890	0.1271689
49	0x3d1aee68	0.03782502
50	0xbd1cacfd	-0.038250912
51	0xbd06a79c	-0.03287469
52	0xbd85f135	-0.06540147
53	0xbd710ad5	-0.05884822
54	0x3d3cec35	0.046123702
55	0x3d2e531c	0.042559728
56	0xbe23b8e3	-0.15988497
57	0xbdf0e64c	-0.11762676
58	0xbd4b5c90	-0.04964882
59	0x3c855a75	0.016278485
60	0xbe93aaaa	-0.28841144
61	0xbd9d9b16	-0.07695596
62	0x3ceb920a	0.02875616
63	0x3e4aaf93	0.19793539
64	0x3d237b7e	0.039912693
65	0xbe82fe15	-0.25584474
66	0x3dd176a2	0.102277055
67	0xbd82c2ac	-0.06384787
68	0x3e0d6247	0.13807021
69	0xbe6fbcff	-0.2341194
70	0xbd5f520f	-0.054521617
71	0x3d90f17d	0.0707731
72	0x3e881f2e	0.26586288
73	0xbdcd32b6	-0.10019438
74	0x3e94e762	0.2908278
75	0x3e2fb565	0.1715904
76	0x3d5a54a9	0.053303394
77	0x3d0d4e57	0.03449854
78	0x3dd21205	0.10257343
79	0xbe0a9ad2	-0.13535622
80	0x3d4b4710	0.049628317
81	0xbe7e3b4c	-0.24827307
82	0xbb06616e	-0.002050485
83	0x3deb0683	0.114758514
84	0xbd057b14	-0.03258808
85	0x3e477168	0.19476855
86	0xbe76537e	-0.24055287
87	0xbe5c5136	-0.21515355
88	0xbe41beb4	-0.18920404
89	0x3d254fe0	0.040359378
90	0x3ed664fc	0.4187392
91	0xbd1afb6a	-0.037837423
92	0x3ca1d5fa	0.019755352
93	0xbe32d10e	-0.1746256
94	0xbd1f0440	-0.038822412
95	0xbd2f60c6	-0.0428169
96	0xbe5aa54e	-0.21352121
97	0xbe9439a3	-0.28950223
98	0xbdf0404d	-0.117310144
99	0x3e1bc5fe	0.15212247
100	0x3d0798ec	0.033104822
101	0x3e434aad	0.19071455
102	0xbde531f3	-0.11191168
103	0x3e60ff14	0.21972305
104	0xbc79a772	-0.015237676
105	0xbdc1827d	-0.09448717
106	0xbced4bf8	-0.028966889
107	0x3dc4e5ee	0.09614168
108	0xbd831c46	-0.06401877
109	0x3d7acb9a	0.061229326
110	0x3e1c1b50	0.15244794
111	0x3c8d6c48	0.017263547
112	0x3d619c77	0.055080857
113	0xbcbde8c1	-0.023182275
114	0x3e1d09ac	0.15335721
115	0xbbc65c50	-0.006053485
116	0x3c7e9463	0.015538308
117	0xbd98ba04	-0.07457355
118	0x3e00276e	0.12515041
119	0x3e2d9d23	0.16954474
120	0xbdc8575a	-0.09782286
121	0x3dcc3350	0.099707246
122	0xbcb14d25	-0.02164323
123	0xbd47ee81	-0.04881144
124	0x3dad90e0	0.08474898
125	0x3dba819d	0.09106753
126	0xbe033368	-0.12812579
127	0xbd8236c0	-0.06358099
128	0xbe097c48	-0.13426316
129	0x3da487bd	0.080337025
130	0xbd725e8c	-0.0591722
131	0x3d5bf126	0.053696774
132	0xbde895bc	-0.113566846
133	0x3ddcb953	0.10777535
134	0xbdd3127c	-0.1030626
135	0xbdc8c38f	-0.09802925
136	0xbe24e656	-0.16103491
137	0xbdac6823	-0.084183
138	0x3dfb275b	0.12263366
139	0x3e066a2e	0.13126442
140	0x3d629508	0.05531791
141	0xbcd9aa4e	-0.026570465
142	0xbdfc01b3	-0.123050116
143	0x3e35751e	0.17720458
144	0x3cf92c2d	0.030416572
145	0xbdd60c80	-0.10451603
146	0x3cfc0f50	0.03076902
147	0x3e103be5	0.14085348
148	0x3d1029bf	0.035196062
149	0xbb8278bb	-0.0039816773
150	0x3d4287fc	0.047492966
151	0x3d73ee81	0.059553627
152	0x3cf446a0	0.029818833
153	0xbdabbbf3	-0.08385458
154	0xbda6de78	-0.08147901
155	0x3ded8486	0.115975425
156	0x3de80133	0.11328354
157	0xbd710233	-0.058839988
158	0x3e2c90bf	0.16852091
159	0xbe698c85	-0.2280751
160	0xbe85644e	-0.2605309
161	0x3c5aac54	0.01334675
162	0xbd01efcc	-0.03172283
163	0x3e5ff7aa	0.2187182
164	0x3cd4a4be	0.025957461
165	0x3e2a9d00	0.16661453
166	0x3dc5f5d5	0.09666029
167	0x3d5a2a5a	0.053263046
168	0x3dbbecbf	0.09176015
169	0x3dc756dd	0.09733365
170	0x3e4f5576	0.20247445
171	0x3defe521	0.11713625
172	0x3e816884	0.25275052
173	0x3e0385d8	0.12844026
174	0x3e8ba206	0.27272052
175	0x3dfbbf1a	0.12292309
176	0xbdc283b9	-0.0949778
177	0x3e4a279a	0.1974167
178	0xbe790123	-0.2431684
179	0xbd47c3bf	-0.048770662
180	0xbd547039	-0.051864836
181	0xbd757e5b	-0.059934955
182	0x3e197a2a	0.14988008
183	0x3c6899bd	0.01419681
184	0xbc907f08	-0.017638698
185	0x3db3adf0	0.0877341
186	0x3ba3f96e	0.0050040996
187	0x3deb3079	0.11483855
188	0xbcba83a9	-0.022767859
189	0xbde2797b	-0.11058327
190	0x3cf622b3	0.030045843
191	0x3cb0ba76	0.021573287
192	0x3d1660fe	0.036713593
193	0x3dee0258	0.11621541
194	0x3e0e61c1	0.13904478
195	0x3bff6140	0.0077935755
196	0x3d476724	0.048682347
197	0x3da1ea00	0.0790596
198	0xbd54a934	-0.051919177
199	0xbe3dc67c	-0.18532747
200	0x3e2d7be3	0.1694179
201	0xbdfa1fe2	-0.122131124
202	0x3db3e2cd	0.08783493
203	0x3c79b502	0.0152409095
204	0x3de68ef2	0.112577334
205	0x3e8dea71	0.27717927
206	0xbc9acb8b	-0.018895885
207	0x3d4711c5	0.04860093
208	0x3dafebec	0.085899204
209	0xbdfccad2	-0.123433724
210	0x3be0c39e	0.006859257
211	0xbcf047c7	-0.029331101
212	0x3d068817	0.03284463
213	0xbe2640f6	-0.16235718
214	0x3e265609	0.16243757
215	0xbdab42af	-0.08362328
216	0x3e84e8f5	0.25958982
217	0x3e08987a	0.13339415
218	0xbe3ee690	-0.1864264
219	0x3e4c8bd7	0.1997522
220	0x3e1b9d1a	0.15196648
221	0x3e04da13	0.12973814
222	0x3e15e06a	0.14636388
223	0x3d35aa7c	0.04435204
224	0xbd01780d	-0.03160863
225	0xba95b0c0	-0.0011420473
226	0xbe58784d	-0.21139641
227	0x3e80ddb9	0.2516916
228	0xbbc32435	-0.005955244
229	0xbe49a759	-0.19692744
230	0x3c9cef5b	0.019157102
231	0xbdb88348	-0.09009415
232	0x3dbbda0a	0.09172447
233	0x3cebf169	0.028801637
234	0xbd6b037e	-0.057376377
235	0x3d87d950	0.06633246
236	0xbe5d546e	-0.21614239
237	0x3e06edef	0.13176702
238	0xbe34dbf7	-0.17662035
239	0xbd3fed18	-0.04685697
240	0xbedb6003	-0.4284669
241	0xbe22bd1f	-0.15892456
242	0xbbbd06bc	-0.005768625
243	0x3e13447d	0.14381595
244	0xbb9f712b	-0.0048657856
245	0xbe34c8cb	-0.17654721
246	0xbd4290ca	-0.047501363
247	0x3cef1230	0.029183477
248	0xbe1ea24c	-0.15491599
249	0xbe78f91b	-0.24313776
250	0xbd8ce57d	-0.06879709
251	0x3d19d162	0.0375532
252	0x3e56cf74	0.20977575
253	0xbd6d0330	-0.057864368
254	0x3dad884f	0.084732644
255	0x3ce3e94e	0.02782121

conv2.lin_l.weight f4 [6, 32]
0	0xbcbd3127	-0.023094727
1	0xbcf697b7	-0.03010164
2	0x3d06259c	0.03275071
3	0xbdab9664	-0.08378294
4	0x3e2e5658	0.17025125
5	0xbdca73c7	-0.09885364
6	0xbd259693	-0.040426802
7	0xbd9ff9e4	-0.07811335
8	0x3e018566	0.12648544
9	0xbe09e7df	-0.13467358
10	0xbbe144d1	-0.0068746586
11	0xbd867a3b	-0.06566282
12	0x3db676b1	0.08909357
13	0xbd04b752	-0.03240139
14	0xbd2b5d45	-0.041836996
15	0xbdb6c20c	-0.0892373
16	0x3aca71e9	0.0015445325
17	0x3e3e76ea	0.1860005
18	0x3d809b35	0.062796034
19	0x3ea17dda	0.3154133
20	0x3e98fc21	0.2987986
21	0xbe07634d	-0.13221474
22	0x3ca32ab3	0.019917822
23	0x3cc86431	0.024461837
24	0x3def7f8b	0.11694249
25	0xbcac011a	-0.020996619
26	0xbdd233ca	-0.10263784
27	0x3e3678fb	0.17819588
28	0xbe61b60b	-0.220421
29	0x3d68739d	0.056750882
30	0x3d348c5b	0.044079166
31	0xbcba59f3	-0.02274797
32	0x3e5e474b	0.21706884
33	0x3da77b34	0.08177796
34	0x3ea3f25b	0.3202084
35	0x3d917faf	0.07104432
36	0x3e3e1761	0.18563606
37	0x3e9bb3de	0.30410665
38	0x3e5f65b2	0.21816137
39	0x3dcfb329	0.10141594
40	0x3adc57c9	0.001681083
41	0x3e3ef24b	0.18647115
42	0xbd6832dd	-0.056689132
43	0x3e05ea17	0.1307758
44	0xbdabe157	-0.083925895
45	0xbd4f53b6	-0.050616942
46	0xbcf76eb2	-0.03020415
47	0x3e2c1f5c	0.16808838
48	0xbb9b8ca6	-0.004746991
49	0xbebe629c	-0.37184608
50	0xbe43d785	-0.19125183
51	0xbe732839	-0.23745812
52	0xbe84ba48	-0.2592337
53	0x3e0ff5a1	0.14058544
54	0x3e547a74	0.20749837
55	0xbd8a7a36	-0.06761591
56	0xbcf15b30	-0.029462427
57	0xbd112697	-0.035437193
58	0xbe570925	-0.20999582
59	0xbe019c78	-0.12657344
60	0x3e981647	0.29704496
61	0x3ac731ba	0.0015197315
62	0x3ddb42c9	0.10706098
63	0x3e17e790	0.14834428
64	0xbe868c92	-0.26279122
65	0x3dd13371	0.1021489
66	0xbe50f338	-0.2040528
67	0xbe589f0e	-0.21154425
68	0xbe06ca51	-0.13163115
69	0xbe1a7647	-0.15084182
70	0xbd6ca196	-0.057771288
71	0xbe8a6588	-0.27030587
72	0xbe50984f	-0.20370601
73	0x3dfbe7c1	0.12300063
74	0xbdb860a4	-0.09002808
75	0xbcf7d1b2	-0.030251358
76	0xbe4490e2	-0.19195893
77	0x3d43100f	0.047622737
78	0x3e87d3f2	0.2652889
79	0xbd9cef3a	-0.07662816
80	0xbc996961	-0.018727006
81	0xbc9501f6	-0.018189412
82	0x3e8d9e94	0.27660048
83	0xbe1642ce	-0.14673921
84	0xbd5e0d92	-0.05421216
85	0xbe2784e8	-0.16359293
86	0xbe50a3ad	-0.20374937
87	0xbe15d796	-0.14633021
88	0x3c427670	0.011869058
89	0x3cd801bc	0.026368015
90	0x3ebdf037	0.37097332
91	0x3d8482c0	0.06470251
92	0xbd7dfdb5	-0.062009532
93	0xbe8120ea	-0.25220424
94	0xb870d713	-5.7420762e-05
95	0xbceed2b2	-0.029153202
96	0xbd21eb79	-0.039531205
97	0x3b7dfb7a	0.0038754628
98	0x3a9b3708	0.0011841962
99	0x3e5e0cfa	0.21684638
100	0xbdd8d1e9	-0.10586912
101	0x3d2e68fb	0.042580586
102	0x3c4c946e	0.01248656
103	0xbdeac0c6	-0.1146255
104	0x3d78a0a0	0.06070006
105	0xbd906176	-0.07049839
106	0x3b819ed0	0.0039556995
107	0x3da8be10	0.082393765
108	0x3e7852f6	0.24250397
109	0x3c85d36b	0.016336164
110	0xbdcfcbc2	-0.101462856
111	0xbdad2432	-0.08454169
112	0xbe5b5016	-0.21417269
113	0x3e4ef645	0.20211132
114	0xbc401cdb	-0.01172563
115	0x3e9ab3ec	0.30215394
116	0x3eb7d404	0.35903943
117	0x3d368b30	0.044566333
118	0x3d8a9ab7	0.06767791
119	0x3dd7bcbc	0.10534045
120	0xbd8eed11	-0.069788106
121	0xbded4d6e	-0.11587034
122	0xbc93694a	-0.017994542
123	0x3ea7db07	0.32784292
124	0xbe05412d	-0.13013144
125	0x3e513f99	0.20434417
126	0x3e9184e3	0.28421697
127	0x3cae075b	0.021243742
128	0xbdd45f89	-0.103697844
129	0xbe5306ff	-0.20608138
130	0x3e0adc11	0.13560511
131	0x3e549819	0.20761146
132	0xbcd2fedd	-0.025756294
133	0x3c932654	0.017962612
134	0xbc3db62e	-0.01157908
135	0xbd3aaebd	-0.0455768
136	0xbca9a007	-0.02070619
137	0xbd95fc9f	-0.07323574
138	0xbe4a8449	-0.19777025
139	0xbdc74862	-0.09730603
140	0xbd4494db	-0.047993522
141	0xbdaffc07	-0.08592992
142	0xbdad71af	-0.08468949
143	0xbd3012ba	-0.04298661
144	0xbd902e98	-0.07040137
145	0x3e262b47	0.16227446
146	0xbd8dec96	-0.06929891
147	0xbd8aa1b4	-0.06769124
148	0x3e58bf21	0.2116666
149	0xbdc6d911	-0.09709371
150	0x3e37c03b	0.17944424
151	0x3ec62168	0.38697362
152	0xbc95948e	-0.018259313
153	0x3dd27d0d	0.10277758
154	0xbd018d61	-0.03162897
155	0x3cdd7b52	0.027036343
156	0x3dc941dc	0.09827015
157	0x3db212dc	0.086950034
158	0xbe4ad50a	-0.1980783
159	0x3d5060b4	0.050873473
160	0x3c9a20ed	0.018814528
161	0xbe1c2223	-0.15247397
162	0xbcf4d4f3	-0.029886698
163	0xbe700320	-0.23438692
164	0xbc7f0d15	-0.015567084
165	0x3d3d61d0	0.04623586
166	0xbb4174d3	-0.0029519096
167	0xbcaaba62	-0.020840827
168	0x3d4301f0	0.04760927
169	0xbd690a13	-0.056894373
170	0x3d6eb05d	0.058273662
171	0xbd965703	-0.07340815
172	0xbd7028d4	-0.058632687
173	0xbda86101	-0.08221627
174	0xbdd4e5e2	-0.10395409
175	0xbcb76bbc	-0.022390239
176	0xbe1819a7	-0.14853536
177	0xbd46900f	-0.04847723
178	0xbd97f9ce	-0.07420693
179	0xbdb25626	-0.08707838
180	0xbe6f02bf	-0.23340891
181	0xbe6e4542	-0.23268607
182	0x3de6e9f8	0.11275095
183	0xbe46e8ba	-0.19424716
184	0xbd2a7172	-0.041612096
185	0xbd0d0728	-0.034430653
186	0xbd7f8118	-0.062378973
187	0xbdca5892	-0.09880175
188	0xbcb1783f	-0.021663783
189	0xbd0fe8a5	-0.035133976
190	0x3cbb7f5a	0.022887874
191	0xbde2df45	-0.110777415

conv2.lin_l.bias f4 [6]
0	0x3d655a8e	0.055994563
1	0xbc78590f	-0.015157952
2	0x3d332a57	0.04374155
3	0x3cb0a96d	0.021565164
4	0x3d178531	0.036992256
5	0xbdc26336	-0.09491579

conv2.lin_r.weight f4 [6, 32]
0	0xbd56c0cf	-0.05242997
1	0xbd28fd60	-0.041257262
2	0x3ea70577	0.32621357
3	0xbe436bee	-0.1908414
4	0xbd72cbc0	-0.059276342
5	0xbe46df61	-0.1942115
6	0x3de63797	0.11241072
7	0xbde7995e	-0.11308549
8	0x3e5dd8de	0.2166476
9	0xbe485181	-0.19562341
10	0x3e7426d7	0.23842941
11	0xbe10a7f5	-0.1412657
12	0x3ee953eb	0.45571837
13	0x3dc2cf8e	0.09512244
14	0xbda71cdb	-0.081598006
15	0xbe1525f7	-0.14565264
16	0x3d201d71	0.039090578
17	0x3edc7064	0.43054497
18	0xbc956f6d	-0.018241609
19	0x3f18657e	0.59529865
20	0x3e8842a4	0.26613343
21	0xbda22f7d	-0.07919214
22	0xbe17a9e4	-0.14810902
23	0x3e9ca0c8	0.30591416
24	0xbd50feee	-0.05102437
25	0x3e51a906	0.20474634
26	0xbddda8f3	-0.1082324
27	0x3ea501e7	0.32228014
28	0xbe15df2b	-0.14635913
29	0x3ee01dfe	0.43772882
30	0x3e6b01a8	0.2294985
31	0xbdc678c7	-0.09691005
32	0x3ea14070	0.31494474
33	0x3e81c1f7	0.25343296
34	0x3e31d7f3	0.17367534
35	0xbe49840f	-0.19679283
36	0xbe39e088	-0.18152058
37	0x3e388122	0.1801801
38	0x3e8164d1	0.2527223
39	0x3e3adcb6	0.18248257
40	0x3d4022c3	0.04690815
41	0x3e520d60	0.20512915
42	0xbd8e1362	-0.06937291
43	0x3d197e23	0.03747381
44	0x3d03f6d6	0.032217823
45	0xbd2d1aff	-0.042262074
46	0x3c1a6bd5	0.009425123
47	0x3ebe8687	0.3721201
48	0x3da0c9c7	0.07850986
49	0xbdc88a5d	-0.09792016
50	0xbe23bbc9	-0.15989603
51	0x3b9ac560	0.004723236
52	0x3ce40501	0.027834417
53	0xbdd0fda1	-0.10204626
54	0x3ef8ddef	0.48606822
55	0xbde3197c	-0.11088845
56	0x3e0311f4	0.12799817
57	0x3ce44ad7	0.027867718
58	0xbe1782c7	-0.14795981
59	0x3d5d8eba	0.054091193
60	0x3e00dc95	0.12584145
61	0xbe224c3a	-0.1584939
62	0xbd3874c0	-0.045033216
63	0x3d5c6fca	0.053817548
64	0xbd0b1e8c	-0.03396468
65	0xbd6f1aa5	-0.05837502
66	0xbe0c1ed6	-0.13683638
67	0x3e6b236c	0.22962731
68	0x3e95746e	0.2919039
69	0x3ddfab42	0.10921337
70	0xbddbc256	-0.10730426
71	0x3dbe96a0	0.09306073
72	0xbb858fa6	-0.004075962
73	0xbe368fc4	-0.1782828
74	0x3dd0cc79	0.1019525
75	0x3e5471b0	0.20746493
76	0xbdba3408	-0.090919554
77	0x3e91f7df	0.28509423
78	0x3e04fd38	0.1298722
79	0xbe3bd758	-0.18343866
80	0xbe8c6646	-0.27421778
81	0x3c71370a	0.014722595
82	0x3e3f9286	0.18708238
83	0xbd65890b	-0.056038897
84	0xbe89de73	-0.26927528
85	0x3e545f46	0.20739469
86	0xbe799cc4	-0.24376208
87	0xbe261a7f	-0.16221045
88	0xbe07967a	-0.13240996
89	0xbc0e7522	-0.008694919
90	0x3eb68e5f	0.35655496
91	0xbdb78fec	-0.08962998
92	0x3e231118	0.1592449
93	0x3db4af9e	0.08822559
94	0xbe06cbaf	-0.13163637
95	0xbe2f6622	-0.17128804
96	0xbcd61bf7	-0.026136382
97	0xbe2ee8e9	-0.17081036
98	0xbeaf875f	-0.34282967
99	0x3cf9e329	0.030503826
100	0x3db03acc	0.086049646
101	0xbd9e8da5	-0.0774186
102	0xbddfee35	-0.10934106
103	0xbd95a60d	-0.07307062
104	0xbe15cad6	-0.14628157
105	0xbda78ea7	-0.08181506
106	0xbe29a115	-0.16565354
107	0x3e23d92d	0.16000815
108	0xbe1bc778	-0.1521281
109	0xbd6ece27	-0.05830207
110	0x3d5e5ec6	0.0542896
111	0xbe0d8523	-0.13820319
112	0xbe16f3b9	-0.1474141
113	0xbe109b25	-0.14121683
114	0x3d3758f9	0.044762585
115	0xbea7881a	-0.32721025
116	0xbd65a31f	-0.056063768
117	0x3e63373f	0.22189043
118	0xbd814bc1	-0.06313277
119	0x3d0b196b	0.033959787
120	0x3c32a619	0.010903859
121	0xbea09145	-0.31360832
122	0xbd99fb0f	-0.07518589
123	0xbe535c92	-0.20640782
124	0xbde37acf	-0.11107408
125	0xbe4cdc05	-0.20005806
126	0xbe9e7363	-0.30947408
127	0xbe676265	-0.22596128
128	0xbc656f68	-0.014003612
129	0x3d26db30	0.040736377
130	0xbe590734	-0.21194154
131	0x3e453260	0.19257498
132	0xbe005c91	-0.12535311
133	0xbd3f0efc	-0.04664515
134	0x3d33a5f3	0.043859433
135	0x3ca13235	0.01967726
136	0xbe26a2a0	-0.16272974
137	0x3c043395	0.008068939
138	0xbd8ac0cf	-0.067750566
139	0xbe064820	-0.13113451
140	0xbe94ec2a	-0.2908643
141	0xbdacbd5b	-0.08434554
142	0xbc717bbf	-0.014738976
143	0xbd9150d4	-0.07095495
144	0x3c26266b	0.0101409955
145	0xbe87aeba	-0.26500493
146	0xbe11d76e	-0.14242336
147	0xbe83786f	-0.2567782
148	0xbcb5546a	-0.022134978
149	0xbd1597a5	-0.036521573
150	0x3d6dd48e	0.058064036
151	0x3e74bbb4	0.23899728
152	0xbc5ee0d5	-0.013603409
153	0x3d3ae80f	0.045631465
154	0xbdf833de	-0.12119268
155	0xbeb311c0	-0.3497448
156	0x3e06ab35	0.13151248
157	0xbe31a706	-0.1734887
158	0xbdff20b7	-0.12457412
159	0x3d81d5db	0.06339618
160	0xbcbf11b7	-0.023323877
161	0xbd79f884	-0.06102802
162	0x3d81e217	0.06341951
163	0xbe1f5653	-0.15560274
164	0xbd9a6e34	-0.07540551
165	0x3d58765e	0.05284726
166	0xbdcaa8e1	-0.09895492
167	0xbd7e109b	-0.062027555
168	0x3cb595b6	0.022166114
169	0xbd177d21	-0.036984567
170	0xbc1bfc13	-0.009520548
171	0xbe1d4b16	-0.15360674
172	0x3da94b62	0.08266331
173	0xbd579637	-0.05263349
174	0xbe20c29d	-0.15699239
175	0x3ce649e3	0.028111404
176	0xbe5d2107	-0.2159463
177	0x3d5e0797	0.054206457
178	0xbde674e7	-0.11252766
179	0xbd9de53a	-0.07709737
180	0xbd192848	-0.03739193
181	0xbe349e24	-0.17638451
182	0x3dcc5879	0.09977812
183	0xbd81a956	-0.063311264
184	0xbe4571fb	-0.19281761
185	0x3d878ddb	0.06618854
186	0xbdde0a63	-0.10841825
187	0x3db4f26f	0.08835303
188	0xbd9b0f20	-0.07571244
189	0xbd4eeb87	-0.050517585
190	0x3c97431a	0.018464614
191	0xbe97a332	-0.29616696
