trained_weights/cadets/lword2vec_gnn_cadets5_E3.pth (torch, 11479 bytes, 6 tensors)

conv1.lin_l.weight f4 [32, 30]
0.14389236 0.17596026 0.06296118 -0.23371637 -0.116300635 0.056855246 0.11353558 -0.07091382
0.023256782 -0.13366665 -0.15009114 -0.25741065 -0.031515066 0.09834646 0.1098492 0.11794447
0.11729995 0.05111494 -0.093776196 0.17966132 0.17670088 0.13436298 0.055442262 0.2002745
0.05880649 0.20989625 -0.030219 0.018981421 -0.228602 -0.120978415 0.011994619 -0.20349203
0.11126926 -0.020334955 0.07008457 -0.21622857 -0.08517869 -0.22553022 -0.1504224 -0.09750622
-0.0030113133 0.0060095396 -0.041146934 0.149167 -0.057318263 0.03162777 -0.07661876 0.05911426
0.11860458 -0.07820475 -0.030917035 -0.07727873 0.029041102 -0.1779383 -0.04475393 0.008776902
-0.006133875 -0.11004638 -0.023158615 0.11278403 0.004423617 0.18836713 0.024064831 0.0713129
0.1499868 -0.073119104 0.18462911 -0.015996633 0.054280125 0.055666894 -0.049864944 -0.018116187
0.24607764 0.011342778 0.057961393 0.032349244 0.029718237 0.16697347 0.011966527 -0.08008906
-0.042220805 0.025178695 0.03892246 0.07383416 0.012778563 0.030540327 -0.15869439 -0.025165925
-0.17312321 -0.14256994 -0.06879945 0.29020718 -0.13247102 0.0624642 0.056906033 0.057407614
0.14586121 -0.023477713 0.2169884 0.20204584 0.10050619 -0.11971516 -0.02821634 -0.2566196
-0.038436778 0.13711841 0.29494646 -0.22797044 -0.05986452 0.2432527 -0.03649709 0.12649843
-0.02599487 0.07573057 -0.21967475 -0.195889 0.10616053 -0.098050475 -0.17701954 0.15977582
0.060405392 0.10195679 -0.27569842 0.06281304 0.07117068 0.21398629 0.1866933 -0.15707992
0.11143423 0.093739204 0.201383 -0.24897416 -0.010086463 -0.16041072 0.06866226 -0.06381479
0.27064112 0.008513668 -0.100212336 0.19972223 -0.16869624 0.31327194 0.016175743 0.13708413
-0.18347813 0.017984666 0.07677421 0.050501376 -0.17290145 -0.079549216 0.21110757 0.057962444
0.050483115 -0.12371697 -0.098432556 0.019262364 0.08154239 -0.07100805 0.10845924 -0.13628447
-0.12567185 -0.070131905 -0.06331131 0.10713413 -0.045568205 0.18272515 0.06700541 0.12442767
-0.1453223 0.0368387 0.26713786 0.17732368 0.10943422 0.061854903 0.0955863 0.009757918
-0.10717117 0.04001072 -0.13376613 -0.11016774 0.078939795 0.10223895 0.0029204758 -0.058008168
-0.0822124 -0.0113315275 0.018304281 0.051964726 0.12540287 -0.026842762 -0.084069334 -0.007842353
-0.05246439 0.12397168 0.2709307 -0.10495501 0.08533705 0.056577828 -0.10160677 0.088035375
0.19376355 0.13315295 -0.0044711656 0.088571504 0.18209076 0.030065918 -0.19695963 -0.029705305
0.028473876 -0.17271428 -0.020957852 -0.023345137 0.013754971 0.06339954 0.15659578 -0.13500726
0.35972202 0.05381137 0.13006109 0.23035765 0.17201103 0.012570931 0.13175197 -0.03435422
-0.047060106 0.123571806 -0.122768074 0.054895245 0.00643482 -0.089957714 -0.04321495 -0.01011626
0.10773082 -0.053549 -0.18315843 -0.0072901086 -0.04991258 -0.090614766 -0.024141124 0.0529122
-0.18029572 0.008816719 0.0330478 0.06393834 0.08772759 -0.07185093 0.08116263 0.115589865
-0.20390718 -0.085536264 0.009830349 0.03428328 0.09979013 -0.13692708 0.02271951 0.10021818
00000000: 8558 133e ed2e 343e cbf1 803d 5853 6fbe
00000010: 072f eebd 0ce1 683d 5885 e83d 443b 91bd
00000020: 0285 be3c e9df 08be 7eb1 19be 54cb 83be
00000030: f115 01bd de69 c93d 9ef8 e03d df8c f13d
00000040: f53a f03d e65d 513d bc0d c0bd 23f9 373e
00000050: 13f1 343e 7396 093e 6d17 633d c214 4d3e
00000060: 13df 703d 0bef 563e d68d f7bc ed7e 9b3c
00000070: a516 6abe 88c3 f7bd 1485 443c 3760 50be
00000080: 23e1 e33d 7e95 a6bc 8088 8f3d 066b 5dbe
00000090: 2a72 aebd 65f1 66be 5408 1abe 57b1 c7bd
000000a0: 7459 45bb aceb c43b b089 28bd 3cbf 183e
000000b0: 8ec6 6abd 1f8c 013d 4cea 9cbd cb21 723d
000000c0: f5e6 f23d d029 a0bd b945 fdbc 5044 9ebd
000000d0: 9be7 ed3c 7535 36be e64f 37bd ffcc 0f3c
000000e0: acfe c8bb ff5f e1bd 23b7 bdbc 50fb e63d
000000f0: fdf3 903b 50e3 403e 9c23 c53c 7f0c 923d
00000100: 2496 193e 78bf 95bd 6a0f 3d3e 5f0b 83bc
00000110: d654 5e3d f802 643d 2f3f 4cbd 6668 94bc
00000120: c7fb 7b3e 0fd7 393c ed68 6d3d a480 043d
00000130: a973 f33c 18fb 2a3e 410f 443c bc05 a4bd
00000140: b9ef 2cbd 8d43 ce3c 286d 1f3d 5d36 973d
00000150: 2e5d 513c b52f fa3c c880 22be c528 cebc
00000160: 3647 31be dbfd 11be bae6 8cbd 0996 943e
00000170: 7ca6 07be 76da 7f3d 4d16 693d 3f24 6b3d
00000180: a45c 153e 5554 c0bc 3532 5e3e 1be5 4e3e
00000190: 30d6 cd3d 392d f5bd f425 e7bc a563 83be
000001a0: e26f 1dbd c568 0c3e 3903 973e 1571 69be
000001b0: 8034 75bd 3c17 793e f97d 15bd ce88 013e
000001c0: 32f3 d4bc a118 9b3d 6bf2 60be 2097 48be
000001d0: b16a d93d b0ce c8bd 9c44 35be 469c 233e
000001e0: a56b 773d b9ce d03d 5828 8dbe 20a4 803d
000001f0: efc1 913d 391f 5b3e 872c 3f3e 8fd9 20be
00000200: a137 e43d 57fa bf3d 5837 4e3e 15f3 7ebe
00000210: b141 25bc b542 24be cd9e 8c3d 54b1 82bd
00000220: 7991 8a3e e97c 0b3c 203c cdbd fc83 4c3e
00000230: b5be 2cbe 2e65 a03e fe82 843c c85f 0c3e
00000240: b1e1 3bbe 9454 933c cc3b 9d3d 88da 4e3d
00000250: 140d 31be b3ea a2bd 952c 583e 076a 6d3d
00000260: 62c7 4e3d 535f fdbd 0297 c9bd 1bcc 9d3c
00000270: b2ff a63d ab6c 91bd e11f de3d 288e 0bbe
00000280: 1fb0 00be 51a1 8fbd 5ca9 81bd 2469 db3d
00000290: baa5 3abd 4d1c 3b3e 223a 893d efd3 fe3d
000002a0: 5ecf 14be 2de4 163d 4bc6 883e 5794 353e
000002b0: 0c1f e03d 915b 7d3d c0c2 c33d addf 1f3c
000002c0: 8f7c dbbd 48e2 233d fdf9 08be a09f e1bd
000002d0: 30ab a13d a862 d13d 7465 3f3b f999 6dbd
000002e0: fa5e a8bd dfa7 39bc dcf2 953c f7d8 543d
000002f0: 9c69 003e 5ae5 dbbc 8b2c acbd 367d 00bc
00000300: e6e4 56bd dde4 fd3d 6eb7 8a3e a7f2 d6bd
00000310: 31c5 ae3d 27be 673d 3617 d0bd e44b b43d
00000320: f469 463e 3f59 083e db82 92bb fa64 b53d
00000330: 0076 3a3e cd4c f63c c9af 49be 8a58 f3bc
00000340: 0c42 e93c 03dc 30be cdaf abbc 4d3e bfbc
00000350: 885c 613c 9ed7 813d a55a 203e 583f 0abe
00000360: 7c2d b83e 5069 5c3d bc2e 053e e0e2 6b3e
00000370: a923 303e 4ef6 4d3c fde9 063e 03b7 0cbd
00000380: 19c2 40bd 3713 fd3d d46d fbbd d6d9 603d
00000390: 2fdb d23b c03b b8bd 2902 31bd abbe 25bc
000003a0: faa1 dc3d 3256 5bbd e28d 3bbe dde1 eebb
000003b0: 2271 4cbd 3c94 b9bd 9bc3 c5bc 77ba 583d
000003c0: 719f 38be 0074 103c 215d 073d 1bf2 823d
000003d0: 86aa b33d 9526 93bd 9838 a63d 61ba ec3d
000003e0: 0bcd 50be a32d afbd 790f 213c a06c 0c3d
000003f0: c55e cc3d 9d36 0cbe 441e ba3c 303f cd3d

conv1.lin_l.bias f4 [32]
0.1617338 -0.14892046 0.17491311 0.08122597 0.087679245 -0.045975827 -0.013243247 0.01619941
0.014111098 -0.15671661 -0.1830652 -0.120725214 0.03792756 0.04932836 -0.22017175 0.093159996
-0.11062225 0.09681692 0.043754905 -0.064340115 -0.0539681 0.06693262 0.11043745 0.13400236
-0.13527729 0.05106541 -0.08644748 0.09998455 0.15920296 0.039021965 0.030556694 -0.09980559
00000000: 8c9d 253e 9b7e 18be 6c1c 333e cd59 a63d
00000010: 2d91 b33d 2651 3cbd 34fa 58bc a0b4 843c
00000020: 3c32 673c 527a 20be 7275 3bbe c83e f7bd
00000030: ee59 1b3d 890c 4a3d b474 61be abca be3d
00000040: eb8d e2bd f347 c63d 5838 333d c0c4 83bd
00000050: a80d 5dbd f813 893d 082d e23d ea37 093e
00000060: 2186 0abe f729 513d 600b b1bd b3c4 cc3d
00000070: 1a06 233e 7fd5 1f3d 0852 fa3c e066 ccbd

conv1.lin_r.weight f4 [32, 30]
0.15061507 0.057882454 -0.05928773 -0.03453082 -0.027441522 0.113360286 0.088473596 0.033361234
0.15610875 -0.008622617 -0.08438428 -0.046311677 -0.10027208 0.16608821 0.31427723 0.16073664
-0.05238329 0.28377113 -0.03561311 0.14183623 0.07077164 -0.06927838 0.101513825 0.23315993
0.1352459 0.2661633 0.0760359 0.14423259 -0.06344285 -0.2664758 -0.02794261 -0.16039138
-0.0002110317 -0.13292497 0.0886237 -0.24158071 -0.044755947 0.08994608 -0.11670198 -0.08120643
0.028100831 -0.058852736 -0.04220368 0.016402934 0.0659246 0.074698925 -0.056170158 0.1781262
0.14154738 0.026811268 -0.027481545 -0.02471087 -0.07180777 -0.042969342 0.068338595 0.029457258
-0.121055566 -0.08903162 -0.016411144 0.054900277 -0.22416544 -0.041999504 0.08576406 0.12632191
0.03393037 -0.21129434 0.120787464 0.039422143 0.15550967 -0.200285 -0.021495147 0.10862322
0.28168848 -0.09585346 0.2932031 0.16433945 0.008101153 0.05226813 0.042907517 -0.16682354
0.12224836 -0.26127496 0.061747417 0.10410001 -0.02086573 0.20733301 -0.19346628 -0.16224785
-0.17988628 0.04343803 0.30860165 -0.07023808 0.017349416 -0.16072562 -0.086155444 -0.035942987
-0.20493264 -0.20102389 -0.0859808 0.041755136 0.012069699 0.19909823 -0.08252004 0.20132454
0.011139212 -0.1097271 -0.035671845 0.08648674 -0.057952452 0.080005534 0.12652573 0.012380207
0.024631247 -0.009944666 0.15946186 0.002505184 -0.010936304 -0.069573134 0.13403891 0.1427269
-0.100422 0.10778829 -0.009697541 -0.041716523 0.105937205 0.10023637 -0.13415104 -0.018482868
-0.124786414 0.087240025 -0.07666069 0.07507017 -0.11857876 0.10841057 -0.068786085 -0.08656324
-0.16146356 -0.08048579 0.13197641 0.13388608 0.045433022 -0.024229728 -0.14249657 0.2000786
0.028680116 -0.10076621 0.015515856 0.13458666 0.033449017 -0.007999452 0.04830288 0.07117496
0.019307055 -0.08989953 -0.09469738 0.12135596 0.13290292 -0.07169729 0.17150483 -0.23945011
-0.26958907 0.014617814 -0.06458688 0.22141412 0.021894503 0.15451686 0.09853609 0.053261667
0.097343266 0.10468355 0.20480423 0.12305567 0.2607258 0.17017135 0.28149134 0.12424233
-0.10298326 0.2190666 -0.2545972 -0.04965646 -0.056317132 -0.040850423 0.16113468 0.02647646
-0.038234767 0.09693795 -0.00048417776 0.1218825 -0.023182586 -0.10161964 -0.0014517093 0.034709208
0.0053103818 0.1190163 0.14392546 0.009646494 0.050270032 0.0746521 -0.04720296 -0.19794133
0.17393063 -0.13230325 0.09779652 0.024275001 0.1094651 0.27764708 -0.001436273 0.07768142
0.09646028 -0.11542841 0.011142605 -0.007907633 0.044427153 -0.15478824 0.17110607 -0.08154181
0.26533288 0.12708446 -0.1987981 0.22071075 0.14225379 0.14412063 0.14627364 0.043531235
-0.031517368 0.017494258 -0.21998802 0.2576226 0.015117459 -0.21515204 0.010673047 -0.097636305
0.097997576 0.04215702 -0.06854473 0.05639075 -0.21188967 0.14356522 -0.1873397 -0.031624876
-0.40099633 -0.09736056 0.05144163 0.1257352 0.053948637 -0.14754379 -0.031171763 0.007398955
-0.195663 -0.15372194 0.012076949 0.07673006 0.18919082 -0.033157755 0.06325725 -0.011231353
00000000: d63a 1a3e 2716 6d3d b1d7 72bd 3070 0dbd
00000010: 0bcd e0bc 7029 e83d a531 b53d caa5 083d
00000020: f9da 1f3e e145 0dbc aad1 acbd 50b1 3dbd
00000030: 735b cdbd 0713 2a3e f2e8 a03e 2598 243e
00000040: dc8f 56bd 734a 913e 0ddf 11bd 843d 113e
00000050: b9f0 903d d3e1 8dbd 7be6 cf3d 7ac1 6e3e
00000060: e77d 0a3e 8e46 883e b6b8 9b3d b5b1 133e
00000070: 53ee 81bd 846f 88be e7e7 e4bc a33d 24be
00000080: 6448 5db9 7c1d 08be 5880 b53d ef60 77be
00000090: 0352 37bd a735 b83d 7301 efbd 8f4f a6bd
000000a0: b733 e63c 910f 71bd c4dd 2cbd 725f 863c
000000b0: 7a03 873d c0fb 983d ae12 66bd b766 363e
000000c0: ccf1 103e 4ea3 db3c fa20 e1bc 736e cabc
000000d0: f40f 93bd 9f00 30bd 1bf5 8b3d 5950 f13c
000000e0: fbeb f7bd 3656 b6bd aa70 86bc 1ddf 603d
000000f0: a08b 65be ac07 2cbd 11a5 af3d 885a 013e
00000100: 92fa 0a3d 8b5d 58be 6b5f f73d 1d79 213d
00000110: ed3d 1f3e 8317 4dbe 9716 b0bc da75 de3d
00000120: 7939 903e d24e c4bd b71e 963e 9a48 283e
00000130: b3ba 043c 1b17 563d cbbf 2f3d cad3 2abe
00000140: 595d fa3d d5c5 85be dcea 7c3d 6332 d53d
00000150: 9bee aabc 1b4f 543e 061c 46be 4d24 26be
00000160: 1c34 38be 13ec 313d 0901 9e3e fcd8 8fbd
00000170: 5d20 8e3c 4295 24be 4472 b0bd f438 13bd
00000180: ddd9 51be 35d9 4dbe b416 b0bd 6f07 2b3d
00000190: fdbf 453c 68e0 4b3e 4400 a9bd 0528 4e3e
000001a0: 3e81 363c 9ab8 e0bd a41c 12bd f61f b13d
000001b0: 8d5f 6dbd f1d9 a33d f68f 013e 5ad6 4a3c
000001c0: 78c7 c93c f4ee 22bc f849 233e 032e 243b
000001d0: 2f2e 33bc 5c7c 8ebd 7f41 093e 0027 123e
000001e0: 0daa cdbd 1bc0 dc3d 6fe2 1ebc f2de 2abd
000001f0: 9bf5 d83d ba48 cd3d e45e 09be 6269 97bc
00000200: 0590 ffbd e6aa b23d 4800 9dbd 64be 993d
00000210: 6cd9 f2bd 5c06 de3d b8df 8cbd 1148 b1bd
00000220: b456 25be bcd5 a4bd d324 073e 6f19 093e
00000230: fa17 3a3d 6c7d c6bc 9fea 11be 68e1 4c3e
00000240: 90f2 ea3c 845e cebd 3836 7e3c 16d1 093e
00000250: d601 093d 2210 03bc 3ed9 453d 2dc4 913d
00000260: d429 9e3c 3f1d b8bd b3f0 c1bd 7989 f83d
00000270: b417 083e 07d6 92bd f69e 2f3e 6932 75be
00000280: 9407 8abe 8e7f 6f3c 2046 84bd 62ba 623e
00000290: 1a5c b33c ab39 1e3e 4acd c93d e828 5a3d
000002a0: e85b c73d 5464 d63d 33b8 513e 9c04 fc3d
000002b0: da7d 853e 6641 2e3e a21f 903e c372 fe3d
000002c0: e3e8 d2bd ff52 603e 905a 82be 9264 4bbd
000002d0: cbac 66bd c652 27bd 7d00 253e 29e5 d83c
000002e0: 0f9c 1cbd 6787 c63d 3dd9 fdb9 889d f93d
000002f0: 68e9 bdbc f51d d0bd 4847 beba 3e2b 0e3d
00000300: b602 ae3b d1be f33d 3261 133e 540c 1e3c
00000310: f3e7 4d3d 33e3 983d e457 41bd 22b1 4abe
00000320: df1a 323e 817a 07be 8b49 c83d 5edc c63c
00000330: 3d2f e03d c227 8e3e 5341 bcba 7017 9f3d
00000340: f88c c53d bb65 ecbd 798f 363c 048f 01bc
00000350: 3ff9 353d cf80 1ebe 6e36 2f3e 64ff a6bd
00000360: b6d9 873e 6e22 023e bb91 4bbe 0002 623e
00000370: faaa 113e 5c94 133e c2c8 153e cf4d 323d
00000380: 5b18 01bd 1e50 8f3c 8a44 61be 1ce7 833e
00000390: 38af 773c d150 5cbe 01de 2e3c 8bf5 c7bd
000003a0: f4b2 c83d d7ac 2c3d 2e61 8cbd fdf9 663d
000003b0: 9bf9 58be c302 133e fad5 3fbe 1689 01bd
000003c0: 644f cdbe f964 c7bd 75b4 523d bac0 003e
000003d0: 3ff9 5c3d b815 17be ed5b ffbc ef72 f23b
000003e0: e25b 48be 4969 1dbe 65de 453c a624 9d3d
000003f0: 3dbb 413e 6dd0 07bd 048d 813d b503 38bc

conv2.lin_l.weight f4 [6, 32]
-0.024423685 -0.026863012 0.07463474 -0.059916805 0.16712908 -0.10209736 -0.042101946 -0.08065166
0.1532478 -0.14079435 -0.0056245863 -0.066099025 0.14227536 -0.03277881 -0.047693033 -0.09328575
-0.007411958 0.2386087 0.057494204 0.3777566 0.45888582 -0.13178524 0.018306544 0.13768713
0.10563604 0.0103768455 -0.1120851 0.22344513 -0.21778293 0.13064496 0.079749465 -0.028510075
0.21741277 0.068135664 0.33715054 0.08049222 0.18582311 0.3089557 0.2246709 0.102967426
-0.06598619 0.18755755 -0.054443862 0.12697777 -0.07188017 -0.055172708 -0.030337397 0.16881631
-0.0013963239 -0.36825746 -0.19613588 -0.22140658 -0.31575677 0.13903472 0.20975114 -0.024120014
-0.040222432 0.02220957 -0.21202418 -0.1541327 0.2964871 0.025344666 0.07878101 0.1501944
-0.2641438 0.10871399 -0.24568203 -0.18694171 -0.12589708 -0.1521778 -0.061695397 -0.2735282
-0.26879522 0.124448694 -0.089743935 -0.017434381 -0.21751747 0.05256801 0.27728188 -0.07701361
-0.020373607 -0.011106734 0.29427254 -0.2179204 -0.15514463 -0.14465205 -0.20720826 -0.18707584
0.037171084 0.01204835 0.37472633 0.0775628 -0.05879608 -0.30517176 -0.0151960105 -0.022028364
-0.039741464 0.008943654 0.020170324 0.09065599 -0.097866535 0.043965135 0.012576125 -0.11694398
0.08386641 -0.07260111 -0.041839607 0.04319718 0.113793544 0.010271048 -0.10601868 -0.08604294
-0.21205696 0.1984769 -0.013612333 0.2758685 0.29312268 0.0014704989 0.06994131 0.08854468
-0.0762437 -0.033695567 -0.0115688555 0.26618943 -0.11756955 0.16856182 0.16733287 0.04541801
-0.10710585 -0.20002164 0.1363302 0.1440492 -0.034132317 0.019007578 -0.013972347 -0.06256489
-0.018717205 -0.07694388 -0.18482825 -0.09000939 -0.00938558 -0.084542565 -0.09067375 -0.044205796
-0.09617647 0.18149759 -0.056266673 -0.07196407 0.2420913 -0.11889921 0.18702897 0.33537772
-0.0026191687 0.05543528 -0.02239042 0.07784448 0.071043424 0.03155624 -0.15770987 0.0003149
0.018484531 -0.1635312 -0.067922495 -0.26243815 -0.032182932 0.049308613 -0.001322783 -0.01906119
0.04618837 -0.059006203 0.058610957 -0.06765296 -0.056065798 -0.074888974 -0.103358604 -0.023280649
-0.15474944 -0.03613615 -0.07079446 -0.044896826 -0.21196577 -0.2316983 0.115013495 -0.20090376
-0.049491912 -0.069974676 -0.058908332 -0.09719075 -0.022677796 -0.009825246 0.019478325 -0.107042156
00000000: 2e14 c8bc d20f dcbc 19da 983d 536b 75bd
00000010: e323 2b3e 6c18 d1bd 1773 2cbd b32c a5bd
00000020: feec 1c3e 652c 10be 734e b8bb ed5e 87bd
00000030: a2b0 113e 1343 06bd c559 43bd 990c bfbd
00000040: 03e0 f2bb d755 743e 0b7f 6b3d 5069 c13e
00000050: 15f3 ea3e b6f2 06be 9bf7 953c dbfd 0c3e
00000060: b557 d83d a503 2a3c df8c e5bd cdce 643e
00000070: 7d02 5fbe cbc7 053e b053 a33d f68d e9bc
00000080: 74a1 5e3e b68a 8b3d ff9e ac3e 1bd9 a43d
00000090: 6a48 3e3e 712f 9e3e 2110 663e 96e0 d23d
000000a0: c523 87bd 160f 403e 8700 5fbd 7606 023e
000000b0: e935 93bd c7fc 61bd 2286 f8bc 2fde 2c3e
000000c0: db04 b7ba 3e8c bcbe d8d7 48be 68b8 62be
000000d0: dfaa a1be 1e5f 0e3e 01c9 563e 5697 c5bc
000000e0: 47c0 24bd d8f0 b53c de1c 59be f6d4 1dbe
000000f0: 28cd 973e 9e9f cf3c f057 a13d 90cc 193e
00000100: db3d 87be 71a5 de3d 1294 7bbe a66d 3fbe
00000110: 2aeb 00be 7fd4 1bbe 50b4 7cbd e30b 8cbe
00000120: 879f 89be f5de fe3d abcb b7bd 8cd2 8ebc
00000130: e6bc 5ebe 8e51 573d e4f7 8d3e 50b9 9dbd
00000140: 8de6 a6bc 05f9 35bc e4aa 963e 8626 5fbe
00000150: 3cde 1ebe ab1f 14be 672e 54be cf90 3fbe
00000160: b540 183d 7166 453c 21dc bf3e 3fd9 9e3d
00000170: 29d4 70bd 793f 9cbe b0f8 78bc d474 b4bc
00000180: f2c7 22bd 6788 123c 3c3c a53c d9a9 b93d
00000190: 406e c8bd c914 343d 170c 4e3c 5380 efbd
000001a0: 27c2 ab3d e4af 94bd 0260 2bbd 87ef 303d
000001b0: 970c e93d e647 283c 5220 d9bd 4837 b0bd
000001c0: 7625 59be 873d 4b3e 4306 5fbc a33e 8d3e
000001d0: 2d14 963e c1bd c03a 643d 8f3d ea56 b53d
000001e0: a825 9cbd 5d04 0abd 4c8b 3dbc fb49 883e
000001f0: 4ec8 f0bd 789b 2c3e 4f59 2b3e 3c08 3a3d
00000200: 505a dbbd 79d2 4cbe 259a 0b3e a281 133e
00000210: 54ce 0bbd c8b5 9b3c 45ec 64bc 0522 80bd
00000220: d354 99bc c194 9dbd 9e43 3dbe d856 b8bd
00000230: fac5 19bc a724 adbd 29b3 b9bd 2311 35bd
00000240: 2bf8 c4bd 81da 393e e277 66bd e661 93bd
00000250: c8e6 773e 6e81 f3bd 8684 3f3e a1b6 ab3e
00000260: 5ca6 2bbb 1b10 633d 1d6c b7bc ed6c 9f3d
00000270: 377f 913d 1e41 013d b27e 21be 2a19 a539
00000280: df6c 973c b974 27be f31a 8bbd 4b5e 86be
00000290: 40d2 03bd d4f7 493d 3b61 adba 3626 9cbc
000002a0: 0430 3d3d 7db0 71bd 0b12 703d a38d 8abd
000002b0: 40a5 65bd 645f 99bd adad d3bd 0fb7 bebc
000002c0: a376 1ebe 8003 14bd b0fc 90bd bce5 37bd
000002d0: 8e0d 59be 5242 6dbe 328c eb3d b7b9 4dbe
000002e0: 08b8 4abd e24e 8fbd dd49 71bd f20b c7bd
000002f0: c9c6 b9bc 12fa 20bc 0291 9f3c eb38 dbbd

conv2.lin_l.bias f4 [6]
0.03615259 0.0010001835 0.075129904 -0.02689836 0.024411686 -0.11255332
00000000: bd14 143d 9718 833a b5dd 993d f359 dcbc
00000010: 04fb c73c 5b82 e6bd

conv2.lin_r.weight f4 [6, 32]
-0.054550868 -0.03434378 0.2519568 -0.11166316 -0.061623994 -0.19903246 0.11372961 -0.11252426
0.18809691 -0.19333713 0.21677083 -0.11800558 0.3505634 0.09390559 -0.08858811 -0.15472393
0.028324708 0.34662837 -0.014939628 0.5403435 0.25987422 -0.0666768 -0.15768361 0.33056185
-0.076172575 0.18739851 -0.11632464 0.24980232 -0.120887 0.41433492 0.18544346 -0.09734542
0.31646225 0.23136632 0.16281524 -0.15166317 -0.1731932 0.18313739 0.2562997 0.18778561
-0.02915753 0.20740166 -0.10103539 0.04177663 0.07976963 -0.040517982 0.019197889 0.37394673
0.08432623 -0.07720034 -0.16472122 -0.021094143 0.037869655 -0.078248434 0.49540758 -0.0009138931
0.1268041 0.05253721 -0.1496831 0.03731798 0.13249774 -0.16675337 -0.08114908 0.058337834
-0.033360038 -0.034261573 -0.15265635 0.23992102 0.3156229 0.110033475 -0.10839649 0.09511438
-0.007936616 -0.17992267 0.10954208 0.2238591 -0.16570611 0.29057494 0.15305278 -0.18380271
-0.28151405 0.06559532 0.21646607 -0.086736724 -0.34072965 0.24693075 -0.24840893 -0.2680951
-0.10786026 -0.05335852 0.36947158 -0.07438621 0.16032654 0.05298495 -0.14905287 -0.1641981
-0.02501886 -0.14922023 -0.16129987 -0.04316878 -0.0016264161 -0.07782935 -0.11396421 -0.07693976
-0.08476604 -0.07778521 -0.07561779 0.044979207 -0.086594515 -0.066133864 -0.00061858917 -0.13956058
-0.12822619 -0.084456936 -0.028040396 -0.2189535 -0.07172967 0.072813906 -0.06036533 0.06537922
-0.029473975 -0.11957746 -0.08063881 -0.12589182 -0.0870361 -0.11232527 -0.24432206 -0.23722583
-0.013749045 0.027968744 -0.06501514 0.043683827 -0.103083074 -0.052746598 0.04351889 -0.0028369152
-0.10039199 -0.02709495 -0.057533264 -0.10885534 -0.16581734 -0.07993479 -0.0387323 -0.07403824
-0.04209158 -0.12194074 -0.12966745 -0.24846406 0.041961912 -0.029648298 0.046557132 0.24356088
-0.016028058 0.028740587 -0.11430864 -0.22020902 0.048501026 -0.10799248 -0.05362271 -0.0014213993
-0.02502816 -0.074890725 -0.028953517 -0.13835655 -0.07641773 0.055579606 -0.103342265 -0.054583583
-0.001991406 -0.03636955 -0.047311686 -0.13816251 0.05767537 -0.05004275 -0.1427221 0.027205013
-0.23123434 0.060337935 -0.103292696 -0.06670763 -0.06351672 -0.15745586 0.108706884 -0.034849964
-0.2136444 -0.010784639 -0.104652025 0.073212706 -0.06612468 -0.027670216 -0.043066796 -0.296489
00000000: bb70 5fbd 10ac 0cbd 7b00 813e a8af e4bd
00000010: 7169 7cbd 2acf 4bbe 12eb e83d 1f73 e6bd
00000020: 7a9c 403e 2bfa 45be 2cf9 5d3e e9ac f1bd
00000030: 0c7d b33e 9351 c03d af6d b5bd f36f 1ebe
00000040: 3809 e83c 4679 b13e 57c5 74bc f453 0a3f
00000050: 3c0e 853e d98d 88bd d077 21be 673f a93e
00000060: 5e00 9cbd 65e5 3f3e 9d3b eebd 2ecc 7f3e
00000070: 9a93 f7bd b523 d43e e4e4 3d3e 095d c7bd
00000080: 5707 a23e 4beb 6c3e 0ab9 263e 974d 1bbe
00000090: 8f59 31be 5e88 3b3e b739 833e df4a 403e
000000a0: c6db eebc 1a61 543e a4eb cebd f91d 2b3d
000000b0: 435e a33d 2ff6 25bd e444 9d3c f275 bf3e
000000c0: 3bb3 ac3d 361b 9ebd aeac 28be a0cd acbc
000000d0: 361d 1b3d b740 a0bd 10a6 fd3e 5492 6fba
000000e0: efd8 013e 4231 573d 8746 19be bdda 183d
000000f0: 7dad 073e 65c1 2abe 7d31 a6bd a7f3 6e3d
00000100: 89a4 08bd dd55 0cbd f251 1cbe dbad 753e
00000110: 5399 a13e 3b59 e13d fbfe ddbd 54cb c23d
00000120: 9508 02bc a63d 38be 9957 e03d 523b 653e
00000130: ddae 29be 3dc6 943e deb9 1c3e c736 3cbe
00000140: 9c22 90be d756 863d 48a9 5d3e 06a3 b1bd
00000150: 1e74 aebe 6adb 7c3e e95e 7ebe c343 89be
00000160: d7e5 dcbd 778e 5abd 612b bd3e cc57 98bd
00000170: a42c 243e bf06 593d 51a1 18be 8c23 28be
00000180: 5af4 ccbc 30cd 18be cb2b 25be bfd1 30bd
00000190: 782d d5ba ff64 9fbd 1166 e9bd 9892 9dbd
000001a0: d199 adbd da4d 9fbd 80dd 9abd 1e3c 383d
000001b0: 7758 b1bd 3171 87bd d128 22ba f8e8 0ebe
000001c0: ba4d 03be c2f7 acbd f9b4 e5bc 5935 60be
000001d0: 01e7 92bd 751f 953d a341 77bd 8ae5 853d
000001e0: 6873 f1bc 07e5 f4bd f625 a5bd c9e9 00be
000001f0: fc3f b2bd cb0a e6bd 902f 7abe 54eb 72be
00000200: ad43 61bc b51e e53c a826 85bd d0ed 323d
00000210: 381d d3bd d10c 58bd dd40 323d 8aeb 39bb
00000220: 519a cdbd 3bf6 ddbc 00a8 6bbd 8cef debd
00000230: 05cc 29be dab4 a3bd c3a5 1ebd 5ca1 97bd
00000240: 3868 2cbd 11bc f9bd 8bc7 04be 5d6d 7ebe
00000250: 41e0 2b3d fde0 f2bc b1b2 3e3d 0668 793e
00000260: 464d 83bc 6171 eb3c a61a eabd 797e 61be
00000270: 03a9 463d 292b ddbd 7da3 5bbd 3f4e baba
00000280: db07 cdbc 4f60 99bd ed2f edbc 57ad 0dbe
00000290: e680 9cbd 71a7 633d 1ca5 d3bd 0993 5fbd
000002a0: 4082 02bb 3df8 14bd e6c9 41bd 797a 0dbe
000002b0: 023d 6c3d a0f9 4cbd be25 12be 0cdd de3c
000002c0: b2c8 6cbe e924 773d 1f8b d3bd 039e 88bd
000002d0: 0e15 82bd 1c3c 21be b7a1 de3d d6be 0ebd
000002e0: 99c5 5abe 0eb2 30bc cd53 d6bd 8bf0 953d
000002f0: 606c 87bd a6ac e2bc cf66 30bd 68cd 97be
