trained_weights/cadets/lword2vec_gnn_cadets11_E3.pth (torch, 11479 bytes, 6 tensors)

conv1.lin_l.weight f4 [32, 30]
0.13887326 0.17030609 0.04054471 -0.21616337 -0.0909406 0.053980358 0.081404895 -0.058807243
0.023261067 -0.12025408 -0.13593967 -0.25455585 -0.031703435 0.092742704 0.10917123 0.095932044
0.10373985 0.045222037 -0.08201247 0.16653073 0.17173822 0.13000214 0.055017058 0.17337243
0.05893715 0.20664941 -0.017488666 0.022692803 -0.21418276 -0.1146868 -0.0033122925 -0.21675137
0.034038905 0.021071637 0.062275235 -0.24140817 -0.07020725 -0.3161325 -0.14957175 -0.1224106
-0.034039643 -0.015545782 -0.048742753 0.17222862 -0.0532928 0.0687706 -0.049494904 0.054288995
0.12915727 -0.057097763 -0.029599141 -0.08291205 0.054774307 -0.16876782 -0.045220736 0.012512883
0.03048843 -0.12112994 -0.05034053 0.10151497 -0.05380646 0.15108566 -0.072562575 0.11892016
0.1560461 -0.15011661 0.16549584 -0.13142753 0.02738292 0.012470243 -0.044416673 -0.058649655
0.22566324 0.013209042 0.0398566 -5.106773e-05 0.07903384 0.1382258 0.039648946 -0.033703446
-0.08906444 0.043743685 0.004736603 0.08684231 -0.0073823654 0.028907038 -0.17339124 -0.06465042
-0.17865 -0.13143896 -0.048014283 0.28573492 -0.033538647 0.09020636 0.06212375 0.101063356
0.12196409 -0.05038469 0.16913818 0.19363405 -0.018766453 -0.07592455 -0.01638037 -0.2073022
-0.012715111 0.16828385 0.24691746 -0.20697996 0.05328819 0.17112191 -0.033921093 0.10012575
-0.009240626 0.09351194 -0.17765085 -0.20315331 0.14054097 -0.092630185 -0.11939087 0.19368736
0.06356197 0.08601583 -0.2443555 0.050559346 0.03613648 0.20056763 0.19582292 -0.124527656
0.12384493 0.07808614 0.17227253 -0.23387416 -0.0043635354 -0.14631584 0.07795845 -0.020654714
0.2512652 0.012970487 -0.10883322 0.19761455 -0.15401782 0.2929759 0.0398481 0.12327723
-0.1813062 0.026506605 0.08305734 0.05574829 -0.17344943 -0.09185255 0.20589782 0.05560806
0.036587074 -0.11674052 -0.08125894 0.018001208 0.05498453 -0.06420364 0.10610549 -0.1229429
-0.12018897 -0.0699061 -0.06094574 0.10309751 -0.04433184 0.14144464 0.05646391 0.11793499
-0.12880085 0.030171901 0.26118806 0.17036161 0.108131275 0.044692136 0.09309501 0.009138826
-0.070199974 0.04485292 -0.12440854 -0.105336756 0.077813536 0.09107612 -0.0011595085 -0.06621041
-0.046598356 -0.012712191 0.016877305 0.045958955 0.11749593 -0.027464025 -0.044290375 -0.012967018
-0.048539568 0.11833569 0.25654092 -0.11023833 0.07833293 0.056235842 -0.09369377 0.08368914
0.1880479 0.13258877 -0.0051007466 0.06498566 0.17085241 0.032754283 -0.18382405 -0.028061517
0.025207905 -0.167294 -0.01796741 -0.034165844 0.004805912 0.048500497 0.1492609 -0.13051619
0.350424 0.06203435 0.123131126 0.21247031 0.17539069 0.007085148 0.12668766 -0.02906877
-0.047382895 0.10073029 -0.12546839 0.059714586 -0.011412104 -0.07266804 -0.03367946 -0.0077835834
0.10596213 -0.057139307 -0.17193629 0.0010887841 -0.04900143 -0.08596293 -0.023155408 0.043004844
-0.16942757 0.0063895253 -0.031803384 0.041976575 0.023221368 -0.11835188 0.06260498 0.0538171
-0.18081473 -0.09489082 -0.014792018 0.020658633 0.04966034 -0.12875003 0.024677789 0.08512915
00000000: cb34 0e3e b864 2e3e 3612 263d ee59 5dbe
00000010: 113f babd 821a 5d3d 9cb7 a63d dddf 70bd
00000020: fe8d be3c c547 f6bd c533 0bbe 2555 82be
00000030: 76db 01bd e3ef bd3d 2a95 df3d 0578 c43d
00000040: 8f75 d43d be3a 393d 27f6 a7bd 0887 2a3e
00000050: 25dc 2f3e 481f 053e 9159 613d 8b88 313e
00000060: 1568 713d e79b 533e 6444 8fbc 42e6 b93c
00000070: ba52 5bbe eae0 eabd 0c13 59bb 12f4 5dbe
00000080: 616c 0b3d 6d9e ac3c 5114 7f3d b433 77be
00000090: d2c8 8fbd 1edc a1be 5629 19be 69b2 fabd
000000a0: 276d 0bbd bcb3 7ebc 7ba6 47bd b35c 303e
000000b0: 8d49 5abd 9ad7 8c3d 2bbb 4abd 235e 5e3d
000000c0: ce41 043e 58df 69bd e679 f2bc cbcd a9bd
000000d0: 065b 603d 79d1 2cbe 6139 39bd d602 4d3c
000000e0: dfc2 f93c f912 f8bd df31 4ebd 15e7 cf3d
000000f0: 2a64 5cbd 33b6 1a3e b09b 94bd 6a8c f33d
00000100: 8dca 1f3e 2bb8 19be be77 293e f094 06be
00000110: 2552 e03c fd4f 4c3c 42ee 35bd 9f3a 70bd
00000120: 4414 673e bd6a 583c ad40 233d 8f31 56b8
00000130: 7edc a13d 108b 0d3e ef66 223d a00c 0abd
00000140: 6b67 b6bd 942c 333d 8135 9b3b 62da b13d
00000150: c5e7 f1bb 74ce ec3c 798d 31be 7067 84bd
00000160: 07f0 36be ef97 06be a0aa 44bd d94b 923e
00000170: d25f 09bd 1dbe b83d 7975 7e3d 4efa ce3d
00000180: 4fc8 f93d 2d60 4ebd 8f32 2d3e 0148 463e
00000190: 1bbc 99bc 557e 9bbd 2030 86bc 0747 54be
000001a0: 0a53 50bc 9a52 2c3e eed7 7c3e 8ef2 53be
000001b0: b844 5a3d 953a 2f3e d8f0 0abd bb0e cd3d
000001c0: ff65 17bc 3083 bf3d 1bea 35be 6c07 50be
000001d0: f9e9 0f3e e5b4 bdbd 3383 f4bd fb55 463e
000001e0: c72c 823d 1129 b03d 5438 7abe 5117 4f3d
000001f0: d803 143d 9a61 4d3e ce85 483e 5b08 ffbd
00000200: 69a2 fd3d a0eb 9f3d 3668 303e b57c 6fbe
00000210: fdfb 8ebb d2d3 15be aea8 9f3d 1334 a9bc
00000220: d5a5 803e 2a82 543c f4e3 debd 785b 4a3e
00000230: d9b6 1dbe f000 963e c337 233d c678 fc3d
00000240: 55a8 39be 6124 d93c f719 aa3d 5258 643d
00000250: ba9c 31be 311d bcbd e1d6 523e 47c5 633d
00000260: 54dc 153d a715 efbd 166b a6bd 4577 933c
00000270: 7537 613d 337d 83bd d64d d93d 7dc9 fbbd
00000280: a225 f6bd ee2a 8fbd 3ea2 79bd ca24 d33d
00000290: 4e95 35bd ddd6 103e b346 673d e687 f13d
000002a0: 5fe4 03be 102b f73c 71ba 853e 4673 2e3e
000002b0: ee73 dd3d 1a0f 373d 99a8 be3d 04bb 153c
000002c0: 01c5 8fbd b2b7 373d e8c9 febd ccba d7bd
000002d0: b45c 9f3d 1e86 ba3d a6fa 97ba 5399 87bd
000002e0: ebdd 3ebd cb46 50bc 4642 8a3c 753f 3c3d
000002f0: b5a1 f03d 3cfc e0bc d369 35bd 9e73 54bc
00000300: 6dd1 46bd fb59 f23d 5559 833e a2c4 e1bd
00000310: 046d a03d 8e57 663d 85e2 bfbd 3665 ab3d
00000320: a18f 403e 5ac5 073e 2a24 a7bb 3417 853d
00000330: eff3 2e3e 5b29 063d 5f3c 3cbe 44e1 e5bc
00000340: cf80 ce3c 1e4f 2bbe 6430 93bc 7cf1 0bbd
00000350: e97a 9d3b 75a8 463d d9d7 183e 09a6 05be
00000360: c66a b33e bb17 7e3d 2c2c fc3d d191 593e
00000370: 9e99 333e 872a e83b 69ba 013e a121 eebc
00000380: 9114 42bd af4b ce3d c97a 00be 4897 743d
00000390: d5f9 3abc fbd2 94bd 79f3 09bd 6e0d ffbb
000003a0: ac02 d93d e80a 6abd 1110 30be 88b5 8e3a
000003b0: b9b5 48bd 550d b0bd 69b0 bdbc d925 303d
000003c0: 6c7e 2dbe 395f d13b 4444 02bd a1ef 2b3d
000003d0: bd3a be3c 7862 f2bd 0a37 803d 526f 5c3d
000003e0: 7f27 39be 1e56 c2bd 385a 72bc 4b3c a93c
000003f0: a468 4b3d 0cd7 03be 1329 ca3c 3158 ae3d

conv1.lin_l.bias f4 [32]
0.15251212 -0.13798957 0.17827816 0.07348181 0.08096047 -0.04382388 -0.01796733 0.006650292
0.016329993 -0.14706436 -0.16621028 -0.10792825 0.04797333 0.026426198 -0.23188089 0.08346808
-0.10585211 0.07706606 0.032900073 -0.07512746 -0.081971906 0.0628512 0.10727881 0.09586866
-0.13085324 0.051392 -0.09351028 0.08763051 0.15619145 0.030328691 0.053089943 -0.102544434
00000000: 232c 1c3e 234d 0dbe 8d8e 363e a27d 963d
00000010: 9ace a53d ab80 33bd 3930 93bc b1ea d93b
00000020: 7ac6 853c 0a98 16be 0733 2abe 7d09 ddbd
00000030: af7f 443d c17b d83c 2f72 6dbe 50f1 aa3d
00000040: fec8 d8bd cfd4 9d3d 3ac2 063d 6ddc 99bd
00000050: e3e0 a7bd 21b8 803d feb4 db3d ca56 c43d
00000060: 64fe 05be 6b80 523d 5182 bfbd a077 b33d
00000070: a7f0 1f3e e073 f83c d774 593d d102 d2bd

conv1.lin_r.weight f4 [32, 30]
0.14551339 0.048250817 -0.04601949 -0.030597053 -0.01961851 0.10851624 0.07395301 0.04396052
0.15419751 -0.03076196 -0.08303052 -0.048454687 -0.06859024 0.16316336 0.31309777 0.16284864
-0.046087705 0.27638802 -0.03256122 0.13784218 0.07047077 -0.0679608 0.09862652 0.20106642
0.13623334 0.26364124 0.06329205 0.12792136 -0.061956175 -0.26024386 -0.052990876 -0.1916213
-0.035992526 -0.10030196 0.09904808 -0.26656875 0.011150861 0.037119947 -0.108891614 -0.11470565
-0.03482354 -0.07952751 -0.045765657 0.03837841 0.073753774 0.123505 -0.039305333 0.18500587
0.13069129 0.03800473 -0.03796947 -0.031236447 -0.06709348 -0.054104164 0.04833159 0.040740553
-0.1560364 -0.11688676 -0.045852732 0.021350442 -0.2857366 -0.07459749 0.034128923 0.19320294
0.040186808 -0.25231665 0.10215291 -0.05185337 0.14067297 -0.23403013 -0.05034854 0.07418166
0.26711854 -0.10190118 0.29320183 0.17806096 0.050222673 0.03440864 0.093747295 -0.13501808
0.05555082 -0.24985275 0.004191258 0.11324521 -0.03319377 0.19471909 -0.23353899 -0.21083333
-0.18875779 0.042834576 0.41427615 -0.03885862 0.020988103 -0.17123273 -0.0439147 -0.040674277
-0.21719262 -0.2879689 -0.11464402 0.14760208 0.022125527 0.19567718 -0.10747537 0.21820988
-0.011164722 -0.094897375 -0.028900512 0.09429693 -0.05276092 0.05995778 0.14929588 0.015091967
0.051735878 -0.02116394 0.15631248 -0.006327885 0.013916248 -0.074546784 0.12585077 0.17123768
-0.09944993 0.09927121 -0.020551337 -0.04802828 0.08661023 0.0925815 -0.1261266 -0.056605116
-0.13261041 0.07967234 -0.060980167 0.055414643 -0.112720735 0.10741138 -0.099452645 -0.09714809
-0.1613707 -0.08366467 0.122177444 0.13209331 0.05351986 -0.025797373 -0.12612452 0.18005435
0.029717855 -0.1033884 0.027721211 0.13965856 0.035414565 -0.006673047 0.047487848 0.060963064
0.028547823 -0.08453589 -0.08325004 0.11662769 0.115407646 -0.059723496 0.16891538 -0.22955592
-0.26135892 0.013457553 -0.035704393 0.21884145 0.025537366 0.16500244 0.096762516 0.053204007
0.09238842 0.09814885 0.20266226 0.11775788 0.25359854 0.13336203 0.27362102 0.123108804
-0.0959416 0.20000044 -0.24441017 -0.048926853 -0.052491058 -0.057711642 0.15093568 0.015176654
-0.019494155 0.08883343 0.0048531624 0.11795734 -0.022584224 -0.109832145 0.028916877 0.022942603
0.03272558 0.11616691 0.13942388 0.0075864377 0.048723985 0.078711405 -0.052668657 -0.18642503
0.16964903 -0.122917496 0.08843226 0.016682426 0.11213332 0.27749738 -0.017734692 0.051728375
0.08695445 -0.12304985 0.00692547 -0.028294403 0.033111285 -0.16237326 0.16351265 -0.08379104
0.26112416 0.13468201 -0.18746327 0.20125215 0.1525556 0.13078037 0.14638266 0.04418066
-0.0319121 -0.00030137383 -0.21298072 0.25275996 -0.005301252 -0.19826557 0.018723683 -0.09078651
0.092174545 0.029815009 -0.05848946 0.06610479 -0.21700886 0.13308427 -0.17786974 -0.04614846
-0.43174 -0.14779404 -0.003275429 0.14445178 -0.00060771534 -0.17372482 -0.045830213 0.033665147
-0.15896197 -0.23585235 -0.047751296 0.042400673 0.20448852 -0.060644154 0.082359605 0.022150824
00000000: 7601 153e a6a2 453d ef7e 3cbd aca6 fabc
00000010: ffb6 a0bc c33d de3d ad74 973d f20f 343d
00000020: f4e5 1d3e 8200 fcbc e80b aabd 6c78 46bd
00000030: 0a79 8cbd 4c14 273e 5a4e a03e cbc1 263e
00000040: 76c6 3cbd bb82 8d3e ea5e 05bd 8026 0d3e
00000050: fb52 903d 082f 8bbd b3fc c93d 5be4 4d3e
00000060: c180 0b3e fcfb 863e 439f 813d d1fd 023e
00000070: c2c5 7dbd af3e 85be f60c 59bd 6038 44be
00000080: e66c 13bd 1d6b cdbd b8d9 ca3d b37b 88be
00000090: 1ab2 363c 160b 183d 9102 dfbd ccea eabd
000000a0: 21a3 0ebd 52df a2bd c574 3bbd ae32 1d3d
000000b0: 380c 973d 30f0 fc3d a1fe 20bd 2e72 3d3e
000000c0: f0d3 053e d9aa 1b3d e085 1bbd 94e3 ffbc
000000d0: 4e68 89bd 549c 5dbd 58f7 453d 91df 263d
000000e0: 02c8 1fbe 5362 efbd 13d0 3bbd 1fe7 ae3c
000000f0: 114c 92be 92c6 98bd c5ca 0b3d fed6 453e
00000100: ec9a 243d a62f 81be 8b35 d13d 3364 54bd
00000110: 930c 103e 98a5 6fbe 453a 4ebd 8eec 973d
00000120: c3c3 883e 91b1 d0bd 8d1e 963e 9d55 363e
00000130: 4ab6 4d3d 13f0 0c3d 95fe bf3d 2e42 0abe
00000140: 4289 633d 66d9 7fbe d256 893b 1bed e73d
00000150: 31f6 07bd 7164 473e d824 6fbe b1e4 57be
00000160: b949 41be 4f73 2f3d 011c d43e 372a 1fbd
00000170: 3eef ab3c a257 2fbe e7df 33bd 129a 26bd
00000180: be67 5ebe a970 93be 7cca eabd 0025 173e
00000190: 9840 b53c 995f 483e 0c1c dcbd 6972 5f3e
000001a0: 3dec 36bc 8e59 c2bd c4c0 ecbc c01e c13d
000001b0: d61b 58bd 4a96 753d 05e1 183e 4c44 773c
000001c0: 00e9 533d 0060 adbc 6110 203e 265a cfbb
000001d0: fa00 643c fcab 98bd 06df 003e ee58 2f3e
000001e0: 68ac cbbd b44e cb3d 475b a8bc 4db9 44bd
000001f0: b460 b13d 5f9b bd3d 5527 01be c4da 67bd
00000200: 06cb 07be 402b a33d 57c6 79bd 77fa 623d
00000210: 21da e6bd 7ffa db3d d4ad cbbd 94f5 c6bd
00000220: 5c3e 25be 6258 abbd 2b38 fa3d 7843 073e
00000230: a437 5b3d 0355 d3bc c926 01be 2b60 383e
00000240: dc72 f33c 4cbd d3bd 9817 e33c a702 0f3e
00000250: dd0e 113d 93a9 dabb 9e82 423d 68b4 793d
00000260: 20dd e93c 2721 adbd ff7e aabd 80da ee3d
00000270: d85a ec3d a0a0 74bd 27f8 2c3e b510 6bbe
00000280: d6d0 85be 127d 5c3c c53e 12bd f917 603e
00000290: bd33 d13c 66f6 283e 6d2b c63d 72ec 593d
000002a0: 2436 bd3d 4402 c93d b286 4f3e 0b2b f13d
000002b0: abd7 813e 0e90 083e 0e18 8c3e 7820 fc3d
000002c0: 087d c4bd eacc 4c3e a946 7abe 8667 48bd
000002d0: dd00 57bd 0b63 6cbd e28e 1a3e 80a7 783c
000002e0: 35b2 9fbc 4dee b53d 4707 9f3b 9e93 f13d
000002f0: 8d02 b9bc adef e0bd 16e3 ec3c 20f2 bb3c
00000300: 420b 063d ebe8 ed3d 22c5 0e3e a797 f83b
00000310: cd92 473d 7233 a13d 17bb 57bd 34e6 3ebe
00000320: 7ab8 2d3e 2bbc fbbd f91b b53d 95a9 883c
00000330: 27a6 e53d 2314 8e3e 5848 91bc 22e1 533d
00000340: 2d15 b23d 8f01 fcbd 0eef e23b aac9 e7bc
00000350: b39f 073d 2d45 26be dc6f 273e a39a abbd
00000360: 11b2 853e 15ea 093e 5ff6 3fbe 0b15 4e3e
00000370: 8937 1c3e 4aeb 053e 56e5 153e c8f6 343d
00000380: 43b6 02bd b601 9eb9 9e17 5abe c169 813e
00000390: 20b6 adbb 2106 4bbe 6962 993c 47ee b9bd
000003a0: 02c6 bc3d 9b3e f43c a592 6fbd f361 873d
000003b0: 9237 5ebe 3e47 083e 7c23 36be 2b06 3dbd
000003c0: 060d ddbe 5257 17be 94a8 56bb 2beb 133e
000003d0: 164f 1fba ebe4 31be 76b8 3bbd 77e4 093d
000003e0: edc6 22be 4783 71be dd96 43bd 54ac 2d3d
000003f0: 7065 513e 0166 78bd 27ac a83d a575 b53c

conv2.lin_l.weight f4 [6, 32]
-0.02328029 -0.029026307 0.042744104 -0.082516715 0.17058125 -0.099255 -0.040621713 -0.078351095
0.1360001 -0.13531806 -0.0056551904 -0.063643634 0.10096644 -0.032472905 -0.042409018 -0.089672014
0.0011714812 0.19445144 0.062447157 0.32834736 0.3167096 -0.13048501 0.019665997 0.031203926
0.116803095 -0.015827464 -0.10380525 0.1868001 -0.22035362 0.07128349 0.05186468 -0.022482282
0.21716247 0.0797393 0.31965965 0.071564436 0.18569277 0.3047024 0.21882623 0.10155677
-0.0055235606 0.18659285 -0.05637182 0.13033625 -0.0828548 -0.05085824 -0.030219112 0.1681993
-0.004590423 -0.3744545 -0.19153169 -0.23405507 -0.2715716 0.13991328 0.20781487 -0.06486126
-0.030578189 -0.026411146 -0.21011429 -0.12873577 0.29665723 0.0042477134 0.10228919 0.1478014
-0.26297557 0.102946244 -0.21068785 -0.21005753 -0.13123356 -0.15100825 -0.058231443 -0.27074248
-0.20934367 0.12312588 -0.09016999 -0.029027993 -0.1950563 0.047874674 0.2661561 -0.076687336
-0.018897694 -0.018176977 0.27779436 -0.15073924 -0.070762664 -0.1621877 -0.20415461 -0.15194914
0.014257748 0.023897514 0.37143332 0.064973824 -0.06178538 -0.25590807 -0.003347592 -0.028586442
-0.039572492 0.004321632 -0.001680813 0.19527622 -0.10572568 0.04270424 0.012523826 -0.11495452
0.054297276 -0.07053192 -0.0029574635 0.07619685 0.22415139 0.016114706 -0.10210775 -0.084736854
-0.21418194 0.19239455 -0.011804943 0.29437482 0.3453893 0.037537385 0.06788205 0.088616714
-0.0695848 -0.1114504 -0.017327454 0.31313297 -0.12864603 0.19295216 0.2655053 0.025246441
-0.1039935 -0.20530145 0.1441264 0.21695502 -0.026352195 0.018103082 -0.011669981 -0.046634946
-0.022552196 -0.07347181 -0.19730012 -0.09590852 -0.041433573 -0.08606704 -0.08477826 -0.04307466
-0.071800284 0.17732993 -0.06878323 -0.0813725 0.23550962 -0.09580701 0.18038413 0.40239167
-0.017308224 0.099976406 -0.031014765 0.037279308 0.09831173 0.07877366 -0.19359136 0.049337257
0.018790305 -0.15431984 -0.038840916 -0.24487849 -0.018251924 0.04648886 -0.0029557599 -0.020851985
0.040931955 -0.057235576 0.058352727 -0.07474094 -0.061842784 -0.08226431 -0.10464294 -0.022492608
-0.14928657 -0.052005988 -0.0747361 -0.09111278 -0.24328226 -0.23518127 0.113033675 -0.19732104
-0.04429971 -0.04206267 -0.06267648 -0.10285592 -0.022512745 -0.037592113 0.020330573 -0.113171086
00000000: 4fb6 bebc 94c8 edbc 7114 2f3d 86fe a8bd
00000010: daac 2e3e 3546 cbbd f462 26bd 8a76 a0bd
00000020: 9c43 0b3e d190 0abe 2d4f b9bb 9857 82bd
00000030: 7ec7 ce3d 4f02 05bd 14b5 2dbd f6a5 b7bd
00000040: 638c 993a 471e 473e 97c8 7f3d 251d a83e
00000050: c327 a23e dd9d 05be 961a a13c 609f ff3c
00000060: 7636 ef3d 99a8 81bc d997 d4bd 8748 3f3e
00000070: 61a4 61be 14fd 913d 0f70 543d c32c b8bc
00000080: d75f 5e3e 5c4e a33d 6eaa a33e 6090 923d
00000090: 3f26 3e3e f401 9c3e fc13 603e fffc cf3d
000000a0: fcfe b4bb 3212 3f3e 23e6 66bd de76 053e
000000b0: c7af a9bd bb50 50bd 128e f7bc 703c 2c3e
000000c0: 426b 96bb 80b8 bfbe e220 44be 22ac 6fbe
000000d0: 6f0b 8bbe 6d45 0f3e 6ccd 543e fbd5 84bd
000000e0: 1c7f fabc 305c d8bc 3328 57be 4fd3 03be
000000f0: 75e3 973e 6730 8b3b ff7c d13d 4059 173e
00000100: bca4 86be 7bd5 d23d 8ebe 57be 5219 57be
00000110: 1762 06be e8a1 1abe 1884 6ebd c29e 8abe
00000120: 305e 56be 6c29 fc3d 0bab b8bd 1dcc edbc
00000130: d7bc 47be 3c18 443d 9d45 883e 400e 9dbd
00000140: 56cf 9abc e2e7 94bc 103b 8e3e 635b 1abe
00000150: 04ec 90bd 8814 26be e80d 51be 8e98 1bbe
00000160: 5499 693c b8c4 c33c 822c be3e ff10 853d
00000170: ab12 7dbd 6206 83be 4663 5bbb 1d2e eabc
00000180: c416 22bd 7a9c 8d3b ba4e dcba 7df6 473e
00000190: b586 d8bd a4ea 2e3d bc30 4d3c 466d ebbd
000001a0: d266 5e3d 0a73 90bd 01d2 41bb 180d 9c3d
000001b0: f187 653e fd02 843c de1d d1bd 848a adbd
000001c0: 8352 5bbe 1403 453e 8569 41bc 4cb8 963e
000001d0: ded6 b03e cdc0 193d bf05 8b3d ae7c b53d
000001e0: 7a82 8ebd 1b40 e4bd 4ef2 8dbc f752 a03e
000001f0: c9bb 03be 4095 453e 50f0 873e a0d1 ce3c
00000200: 8bfa d4bd 8b3a 52be df95 133e 7529 5e3e
00000210: 8fe0 d7bc ea4c 943c 7333 3fbc 4904 3fbd
00000220: 62bf b8bc 6378 96bd 0b09 4abe b06b c4bd
00000230: 40b6 29bd eb43 b0bd 39a0 adbd 0e6f 30bd
00000240: 070c 93bd fa95 353e 39de 8cbd a0a6 a6bd
00000250: 6f29 713e 7736 c4bd 9eb6 383e 4806 ce3e
00000260: fac9 8dbc 6ec0 cc3d ad12 febc 30b2 183d
00000270: a957 c93d 1654 a13d d03c 46be dd15 4a3d
00000280: 20ee 993c 0506 1ebe a717 1fbd 6dc1 7abe
00000290: 0f85 95bc 1a6b 3e3d 6cb5 41bb c8d1 aabc
000002a0: 44a8 273d da6f 6abd 4503 6f3d c711 99bd
000002b0: dc4e 7dbd 317a a8bd 0a4f d6bd 6b42 b8bc
000002c0: 94de 18be 3b04 55bd 3e0f 99bd 5699 babd
000002d0: fc1e 79be 5cd3 70be 337e e73d 870e 4abe
000002e0: 9d73 35bd e849 2cbd 875c 80bd 20a6 d2bd
000002f0: a66c b8bc 30fa 19bd 4d8c a63c 3ec6 e7bd

conv2.lin_l.bias f4 [6]
0.055724256 -0.013949867 0.04618001 0.0118122855 0.041746836 -0.098841414
00000000: 1e3f 643d fc8d 64bc 4027 3d3d 5188 413c
00000010: bbfe 2a3d 5e6d cabd

conv2.lin_r.weight f4 [6, 32]
-0.052715965 -0.039589107 0.3187479 -0.18268582 -0.057016645 -0.19483393 0.11256798 -0.11321823
0.2158285 -0.19533677 0.23587212 -0.1354447 0.44733724 0.09511157 -0.08156032 -0.14655536
0.03890348 0.4211978 -0.01696362 0.58979094 0.2674406 -0.07360786 -0.14952865 0.3062825
-0.0522828 0.20147051 -0.10929997 0.31644177 -0.14410302 0.43843833 0.22519913 -0.09507461
0.3151828 0.24992731 0.17225888 -0.19234504 -0.1808881 0.18052916 0.25313538 0.18280713
0.040432643 0.20542823 -0.07254527 0.037803635 0.036770537 -0.042155605 0.009949195 0.37237906
0.07883631 -0.09838567 -0.15982947 0.0073758187 0.028009789 -0.1004154 0.48713797 -0.10445648
0.12764117 0.032118544 -0.14803976 0.052855868 0.12599954 -0.15849654 -0.049008902 0.053485803
-0.033939924 -0.05574175 -0.13955446 0.22853386 0.29452723 0.10926389 -0.107463464 0.09323587
-0.0040851086 -0.17858875 0.10235268 0.20946649 -0.096393906 0.28538397 0.13156039 -0.18353646
-0.27501872 0.01902792 0.18965352 -0.055973794 -0.27754694 0.2109641 -0.24430421 -0.17391165
-0.13044766 -0.014988643 0.3578534 -0.08876582 0.15846317 0.09223174 -0.13393345 -0.17074522
-0.02607174 -0.16873874 -0.32354566 0.016622566 0.07403517 -0.077488996 -0.10986462 -0.07332603
-0.14364499 -0.080844045 -0.15174145 0.14491604 -0.14871767 -0.058612596 0.049287383 -0.13843516
-0.14612661 -0.12982984 0.036356844 -0.31601092 -0.06550302 0.20199353 -0.06297106 0.023554374
0.006798935 -0.29059234 -0.075634785 -0.19545989 -0.10792778 -0.2016082 -0.30310148 -0.2262573
-0.013941515 0.041323993 -0.20030981 0.19086303 -0.12358467 -0.04697235 0.04413475 0.01876172
-0.16023031 0.0048366096 -0.07149138 -0.12866706 -0.28764367 -0.084261484 -0.015280367 -0.07119495
0.0073736734 -0.25800705 -0.14221813 -0.27996972 -0.0042333044 -0.031745713 0.057892386 0.25903094
-0.012864036 0.04485949 -0.121125296 -0.34969923 0.12784724 -0.18045701 -0.12445419 0.059945684
-0.0235076 -0.06455726 0.056084663 -0.15960747 -0.076969005 0.05309177 -0.09948026 -0.06189834
0.018648306 -0.03755291 -0.012213761 -0.15469486 0.08819441 -0.052689925 -0.15703715 0.0279706
-0.21762848 0.054819126 -0.11276506 -0.07899853 -0.042707164 -0.17802584 0.10039609 -0.0620955
-0.19689895 0.055379756 -0.10856021 0.0908612 -0.07660335 -0.05009664 0.015356595 -0.2982447
00000000: b2ec 57bd 3028 22bd ed32 a33e fe11 3bbe
00000010: 498a 69bd 8c82 47be 0b8a e63d f6de e7bd
00000020: 2502 5d3e 5d06 48be 7688 713e 04b2 0abe
00000030: 6309 e53e dbc9 c23d 1909 a7bd 9c12 16be
00000040: 4159 1f3d 3da7 d73e 4af7 8abc 8afc 163f
00000050: f9ed 883e b8bf 96bd 0a1e 19be 0fd1 9c3e
00000060: 7d26 56bd 494e 4e3e aad8 dfbd a804 a23e
00000070: be8f 13be fd7a e03e 9a9a 663e 7ab6 c2bd
00000080: a45f a13e f2ec 7f3e a264 303e 19f6 44be
00000090: bb3a 39be a3dc 383e f69a 813e cb31 3b3e
000000a0: b39c 253d c75b 523e 9d92 94bd fcd7 1a3d
000000b0: b49c 163d 5bab 2cbd f301 233c 78a8 be3e
000000c0: ee74 a13d 6d7e c9bd 56aa 23be dab0 f13b
000000d0: c974 e53c 97a6 cdbd 266a f93e 47ed d5bd
000000e0: 5eb4 023e bc8e 033d bc97 17be 657f 583d
000000f0: 0606 013e eb4c 22be 8fbd 48bd ee13 5b3d
00000100: 9704 0bbd 7651 64bd 5de7 0ebe c804 6a3e
00000110: 46cc 963e bfc5 df3d ce15 dcbd 73f2 be3d
00000120: 60dc 85bb f8df 36be 489e d13d 627e 563e
00000130: 2b6a c5bd d91d 923e c4b7 063e fbf0 3bbe
00000140: 41cf 8cbe 71e0 9b3c 8834 423e c744 65bd
00000150: a21a 8ebe f906 583e e22a 7abe e515 32be
00000160: 1294 05be ed92 75bc 9038 b73e dbca b5bd
00000170: 2b44 223e ffe3 bc3d da25 09be d6d7 2ebe
00000180: 6794 d5bc d9c9 2cbe c7a7 a5be 0c2c 883c
00000190: c09f 973d 8db2 9ebd b400 e1bd f52b 96bd
000001a0: ac17 13be 9091 a5bd 1c62 1bbe df64 143e
000001b0: 7249 18be c313 70bd 91e1 493d f2c1 0dbe
000001c0: 37a2 15be 1df2 04be eaea 143d 2fcc a1be
000001d0: 7326 86bd 64d7 4e3e f9f6 80bd 1af5 c03c
000001e0: 9ac9 de3b 85c8 94be 69e6 9abd a326 48be
000001f0: 3d09 ddbd 6172 4ebe 1e30 9bbe feaf 67be
00000200: f46a 64bc 5943 293d 041e 4dbe 9971 433e
00000210: f619 fdbd 1466 40bd a4c6 343d 2eb2 993c
00000220: 6a13 24be 6c7c 9e3b 136a 92bd 4cc1 03be
00000230: 0846 93be 4991 acbd 815a 7abc a8ce 91bd
00000240: db9e f13b 8019 84be a1a1 11be 3158 8fbe
00000250: 88b7 8abb cb07 02bd 9120 6d3d b49f 843e
00000260: adc3 52bc 96be 373d 8a10 f8bd c70b b3be
00000270: 63ea 023e b9c9 38be d7e1 febd 9b89 753d
00000280: 0393 c0bc 9936 84bd 08b9 653d 2470 23be
00000290: eda1 9dbd c176 593d 4ebc cbbd 1d89 7dbd
000002a0: 55c4 983c 15d1 19bd 3a1c 48bc 5468 1ebe
000002b0: 459f b43d 64d1 57bd 59ce 20be 9a22 e53c
000002c0: 00da 5ebe 058a 603d 5ef1 e6bd fbc9 a1bd
000002d0: b5ed 2ebd 684c 36be 779c cd3d da57 7ebd
000002e0: e19f 49be e2d5 623d d154 debd 7015 ba3d
000002f0: 38e2 9cbd 2232 4dbd 3a9a 7b3c 88b3 98be
