trained_weights/cadets/lword2vec_gnn_cadets3_E3.pth (torch, 11479 bytes, 6 tensors)

conv1.lin_l.weight f4 [32, 30]
00000000: 405b 153e 8936 353e e228 903d 9b7c 76be
00000010: 42b4 fabd 3afd 6b3d f7e3 fd3d b72f 9cbd
00000020: 9869 b83c 22a7 0cbe e70c 1cbe 2122 84be
00000030: 9145 04bd 42fe cd3d 99d5 df3d ab63 fd3d
00000040: c0d8 f43d 7c18 593d b946 c6bd 1635 3a3e
00000050: b323 373e a578 0a3e ab4f 633d e315 553e
00000060: c88c 713d 2fbe 573e 0075 07bd 5c93 943c
00000070: 1088 6ebe 0c2b fcbd 08a6 cf3c b74a 3fbe
00000080: 1d67 123e 78a2 41bd 91f9 6c3d bba4 53be
00000090: 8966 b8bd 14f2 3abe 0725 17be 510e 8abd
000000a0: 27df 89bb 5082 963c 6742 2bbd 26d3 0d3e
000000b0: 8f5a 67bd 839c 9c3c 8e99 b3bd d43e 773d
000000c0: 9ee4 ce3d 2e92 c0bd 48aa d1bc 4a76 a4bd
000000d0: 5701 eb3c 05cc 47be 26ef 34bd e5fe e23b
000000e0: 9b52 c5bb 1e47 b7bd d1fb 82bc 68e9 f13d
000000f0: c888 d43c 19b7 4d3e 17e2 8a3d 6d61 5e3d
00000100: b62c 223e 7951 12bd eb7f 413e e32f d43c
00000110: 1826 663d 2f6f 9b3d 7046 48bd b398 92bb
00000120: 5a67 823e 4d37 493c 490f 6a3d adb8 9d3c
00000130: 84f8 7b3c fc0c 383e d47c a33c 4af3 dcbd
00000140: 8ec3 0bbd 4ab2 ec3c b1dd ff3c f9cd a93d
00000150: dfdf b83c 235a 073d 335e 31be 59bd 9cbc
00000160: d3ae 29be 1563 18be 50c8 a7bd 8a7d 8d3e
00000170: b590 19be 7880 883d 1c07 a43d 193b 7e3d
00000180: e7c3 1c3e c834 1eb6 d127 6b3e c240 3e3e
00000190: d790 1d3e 1bd2 09be 1ba9 c2bc 699b 8cbe
000001a0: 8a97 3ebd c451 013e cb88 9c3e 3e51 72be
000001b0: dac7 9fbd 0c43 893e 9e39 2dbd e5bb 0f3e
000001c0: bca2 3bbd 3081 ab3d f6bf 6fbe 5bd8 47be
000001d0: 93a8 ae3d 793a f6bd 6b12 37be cff4 173e
000001e0: 917f 653d 84a4 e13d 616f 92be 37aa 8c3d
000001f0: 90bb a43d ca66 573e 8611 3a3e a0a5 2cbe
00000200: 6088 dd3d 5f93 c63d 60c5 563e 898a 81be
00000210: 0dfd 47bc 9a35 2abe d347 8b3d 4746 9bbd
00000220: 767e 8e3e cf60 9e3b ee5c ddbd dc33 503e
00000230: 6ca8 33be dfd3 a23e c45e 293c bc87 0e3e
00000240: 8718 3ebe 7e5c 3d3c 7737 9e3d ba7a 4a3d
00000250: d75c 2fbe 078b 8fbd 3fc1 593e c6d8 703d
00000260: 20b8 563d 65f5 fdbd 44b5 d5bd 206b 9f3c
00000270: c040 b63d deaf 9cbd a253 df3d 1cf1 0ebe
00000280: 52ed 06be ad1d 8fbd 6ea5 83bd 515a dc3d
00000290: d292 3dbd 45da 4a3e 0473 933d 7330 003e
000002a0: 92c9 18be 2e9c 1d3d 3995 893e dc48 373e
000002b0: 987f e03d c9fb 873d ac24 c43d 7956 173c
000002c0: 3420 e9bd 0ac8 1e3d a7fa 0bbe 5a21 e3bd
000002d0: 3c73 a23d 7f86 db3d f602 6d3b be3b 4cbd
000002e0: 1ca2 d3bd 3f8e 39bc 8380 483c 487b 373d
000002f0: 384f 033e 7c0c d4bc a50d ecbd f9ac 8bbb
00000300: bcc5 68bd a790 003e 40fd 8d3e 9084 bfbd
00000310: 0e7a b23d 16f9 5c3d 9067 c1bd 427f b13d
00000320: 35ab 493e 4724 033e b033 e1b9 8878 b83d
00000330: 5c3d 3d3e ba8d da3c a682 46be 5cb9 c3bc
00000340: 6e53 fb3c 972d 2ebe e2b3 d4bc 6346 53bc
00000350: 7fb3 ab3c 5423 a03d d67c 203e 1ebe 06be
00000360: eb15 b73e ad6e 303d 8720 073e cd10 743e
00000370: 678e 1b3e 30e6 8c3c 5c17 093e aac7 22bd
00000380: fdbc 39bd 008a 073e 5545 eebd 7bdc 363d
00000390: 8757 f83c 60de d1bd 7290 5dbd 25ac 51bc
000003a0: dc19 d13d fe0f 43bd 689b 3fbe 2f4f 8dbc
000003b0: 4233 3cbd fce5 bebd 750f a8bc 2c2c 813d
000003c0: 26a6 2abe 23e8 403c 40f7 543d 61c2 4a3d
000003d0: 40b7 b63d 8383 72bd f8a1 cb3d 9086 103e
000003e0: 0f21 54be 0671 7abd 9ed0 913c ba85 273d
000003f0: 6f0c df3d 4cbe 06be 5963 b03c 3655 e03d
0.1458559 0.17696585 0.07039048 -0.2407097 -0.12241413 0.057614543 0.123969965 -0.076262884
0.022511289 -0.13735631 -0.15239297 -0.25807288 -0.032292906 0.100582615 0.109294124 0.12372526
0.11955404 0.053001866 -0.09681458 0.18184313 0.17884712 0.13522585 0.0554959 0.2080913
0.05897215 0.21068643 -0.033070564 0.018136673 -0.23294091 -0.12312898 0.025347725 -0.18680845
0.14297147 -0.047274083 0.057855193 -0.20668308 -0.09003932 -0.18256408 -0.14760219 -0.06741012
-0.00420751 0.018372685 -0.041811373 0.13850078 -0.056482848 0.0191176 -0.087695226 0.060362652
0.10102199 -0.094028816 -0.025593892 -0.08030374 0.028687162 -0.19511421 -0.044173382 0.0069273585
-0.00602181 -0.089491114 -0.015989216 0.11812097 0.025944129 0.20089377 0.067814045 0.05429213
0.15837368 -0.03572223 0.18896453 0.02590174 0.056188673 0.07589566 -0.0488953 -0.0044737696
0.25469476 0.012281251 0.057143483 0.0192531 0.015379075 0.17973703 0.019956984 -0.10788591
-0.034122042 0.028893609 0.03123364 0.08291239 0.022567688 0.033044945 -0.1732109 -0.019133257
-0.16570596 -0.14881547 -0.081925035 0.2763484 -0.14996608 0.066651285 0.080091685 0.06206808
0.15309106 -2.3574557e-06 0.22964408 0.1857939 0.15387283 -0.13459055 -0.023762276 -0.2746232
-0.046531238 0.12628847 0.30573115 -0.23663804 -0.078017905 0.26808965 -0.042291276 0.1403652
-0.045809492 0.0837425 -0.23413071 -0.19516127 0.08528247 -0.120228715 -0.1787812 0.14839481
0.05602986 0.11017707 -0.286006 0.068684034 0.08043587 0.21035305 0.18170747 -0.16860056
0.10817027 0.096960776 0.2097373 -0.25301006 -0.012206328 -0.1662201 0.06800809 -0.07581764
0.27830857 0.004833318 -0.108087406 0.20332283 -0.17544717 0.3180227 0.010337535 0.13918966
-0.18564044 0.011557696 0.07725423 0.049433447 -0.1712526 -0.07008939 0.21265124 0.05880048
0.05242169 -0.12400321 -0.10434964 0.01946026 0.08899069 -0.076507315 0.109046236 -0.13959163
-0.13176468 -0.06988082 -0.064280376 0.10759414 -0.046282597 0.19809826 0.07199672 0.12518482
-0.14920643 0.038479023 0.2687166 0.17898887 0.109618366 0.06639821 0.09577307 0.009236925
-0.113830954 0.03876499 -0.13669835 -0.11090346 0.079321355 0.107190125 0.0036165095 -0.049861662
-0.10333654 -0.011325418 0.012237671 0.044795305 0.12823188 -0.02588486 -0.1152604 -0.0042625633
-0.0568292 0.1255518 0.27732277 -0.09351456 0.08714686 0.053948484 -0.09443581 0.086668506
0.19694217 0.12806807 -0.00042953854 0.090073645 0.18480438 0.026678909 -0.19385776 -0.023892097
0.03067943 -0.17009579 -0.025964681 -0.0128951995 0.020959614 0.07819238 0.15672621 -0.13158461
0.3575891 0.0430743 0.13196002 0.23834534 0.15191041 0.017199606 0.13387817 -0.039741196
-0.04534625 0.13236237 -0.11634318 0.04464386 0.030315174 -0.10247493 -0.054092832 -0.01279739
0.102100104 -0.047622673 -0.18711627 -0.017249672 -0.04594732 -0.0932121 -0.020515183 0.06307253
-0.16664943 0.011774096 0.05199361 0.04950178 0.08921671 -0.05920745 0.099430025 0.14113832
-0.20715736 -0.061142944 0.017799672 0.040899016 0.108910434 -0.1315853 0.021531748 0.10953753

conv1.lin_l.bias f4 [32]
00000000: 4889 273e c817 1fbe af52 313e 1a7f ac3d
00000010: bbf5 bb3d 90fe 3fbd 8fbc 27bc df26 cf3c
00000020: bb86 953b 4aae 20be 842c 42be 01de efbd
00000030: 5793 e13c 2ad4 883d 13c8 57be 8254 c13d
00000040: 8d9e d7bd 2e9a bb3d 161c 5d3d 4058 90bd
00000050: 2339 97bd 4a78 9c3d 1189 e13d 0744 043e
00000060: cbe9 08be 883c 3b3d 38d1 a6bd 4d5f b83d
00000070: b101 283e 90c0 193d fab7 193c 0dd4 b4bd
0.16360962 -0.15536416 0.17316698 0.0842268 0.09177729 -0.04687363 -0.010237827 0.02528709
0.0045631803 -0.15691486 -0.18962294 -0.11712266 0.027536077 0.06681092 -0.21072416 0.09439947
-0.10528288 0.09160267 0.053981863 -0.07048082 -0.07383945 0.07640131 0.110124715 0.12916575
-0.13370435 0.045712024 -0.08145374 0.09002552 0.16406895 0.037537158 0.009382242 -0.08829508

conv1.lin_r.weight f4 [32, 30]
00000000: dfc2 1c3e daaf 733d ce64 81bd 8b4a 16bd
00000010: d6ce f0bc e0c3 eb3d c7ff c43d f09e ef3c
00000020: 8b1b 203e b9fc d0ba 2102 a8bd 0d0c 3abd
00000030: f65d ddbd 8e9d 2b3e 2604 a13e f7ff 243e
00000040: d9ea 61bd 64ac 923e 45e8 13bd 1cfe 103e
00000050: 6139 923d 46bf 8fbd aed9 d13d 69b1 773e
00000060: 1dde 0a3e 65c4 883e a0bc a43d a693 183e
00000070: daf6 82bd 7507 8abe 2198 f9bb 1a9f 0ebe
00000080: 0518 593c 2fab 24be 7a55 983d 8ee8 70be
00000090: 8841 74bd 9018 df3d 994a eebd 8621 58bd
000000a0: 6460 063d b950 44bd 64c1 2bbd cb9f 2b3c
000000b0: 8389 843d 9805 783d 688e 87bd 47b2 353e
000000c0: 6c05 fc3d d361 723c 60cc 6bbc a577 d8bc
000000d0: 5214 7bbd 72e3 81bd c397 9e3d 4372 d73c
000000e0: ead8 bebd 0a3a 74bd 3f1c d1bb 8dfb 863d
000000f0: 8921 46be e63a 0ebd c022 fe3d faae ce3d
00000100: f540 1b3d 2a8e 39be 664e 053e fd67 8f3d
00000110: e9c9 1a3e fc55 3ebe 8108 383b fb59 f03d
00000120: b09e 983e aa77 b4bd 3db2 933e c42d 113e
00000130: b986 eeba 6eb5 7c3d 6326 3f3d fbae 43be
00000140: 1eb3 0e3e b932 82be 815b 863d 4bbc ef3d
00000150: 8ce2 97bb bbcc 5f3e 455e 4ebe f962 22be
00000160: b178 33be 1e1e 183d a023 8d3e 81a4 a4bd
00000170: 532a 963c 298f 20be 8467 c2bd 4514 f3bc
00000180: 7b15 4dbe 9b59 27be 176c 9ebd 3c56 1e3c
00000190: b2e8 053c 2a3f 553e 1b21 94bd d23e 4a3e
000001a0: f9c8 9c3c fe0b e5bd 4ff8 1fbd df2f af3d
000001b0: 82c3 69bd bd37 b23d 0de5 f33d f0eb 573c
000001c0: f9e0 663c ef11 5d3b 5f0f 223e d25d 983b
000001d0: 765a 94bc 273b 91bd 4599 0d3e 4474 0c3e
000001e0: 261c d6bd f986 eb3d 5d80 cbbb e175 15bd
000001f0: 7b8b df3d d2bc c83d 2a86 14be 7671 9bbb
00000200: 7466 f6bd d13a b63d 556a bcbd 851d af3d
00000210: 1678 febd 06cb db3d dea1 5cbd 67e1 a4bd
00000220: 049e 25be 5e57 a6bd 4754 093e 362c 0b3e
00000230: 7dcf 293d bd55 dabc 3c47 16be 3133 513e
00000240: 694e cf3c f3c9 d5bd eda0 763c c058 0b3e
00000250: 4157 0c3d 26ad 023b 53cb 493d 0726 983d
00000260: 3bf5 883c e86b b9bd 841c c8bd 25ce fb3d
00000270: c384 0e3e f110 9ebd 0b9a 303e f401 76be
00000280: 4400 8dbe 06e9 7e3c 628b 91bd 9e50 643e
00000290: c9fc ab3c 5532 1f3e c5f9 cb3d 325a 593d
000002a0: 6c28 cc3d 55d7 d93d 16c4 523e 686c fe3d
000002b0: ebe6 863e c5ab 373e 1f79 913e 8287 fe3d
000002c0: f96b d1bd 960a 673e af1e 84be eaae 49bd
000002d0: 207f 69bd 5c70 0cbd f922 293e 1499 0d3d
000002e0: e9c1 4ebd 815c cc3d 4059 96bb c8b2 e03d
000002f0: f074 bfbc cff0 c5bd 85c9 01bd 6afc 263d
00000300: deaa 5dbb 988f f73d fdee 163e d81f 6a3c
00000310: ba8a 503d 8a99 903d 496b 0ebd e5cd 50be
00000320: 2c2d 353e 78a3 0ebe 664f d63d e920 c23c
00000330: ced0 dc3d dce5 8c3e 697b 393c 00df b93d
00000340: 7736 cd3d c9f1 ddbd a3df 7a3c 04cb 323c
00000350: 2026 683d 45d2 12be df5e 303e a7ed 9bbd
00000360: 45e9 833e e3d4 e13d c228 50be 3f25 6f3e
00000370: 1fc0 fb3d eeb5 1d3e a76b 143e 4dca 2e3d
00000380: 9934 e1bc 7919 133d 4506 5ebe 8eca 813e
00000390: b9ae 1c3d 861c 68be a643 2b3b 9236 d1bd
000003a0: a4a9 cd3d 38e8 503d 92d3 94bd 9c98 393d
000003b0: b3b8 48be 9f64 173e fb4e 42be 6e5d 90bc
000003c0: bb0b c4be 0755 b5bd 6459 853d d6b7 da3d
000003d0: 435e 693d 26aa 11be 94b9 c9bb ed6f b33c
000003e0: a2fe 4bbe e47f ffbd c2be 72bb 49c1 b63d
000003f0: 089d 3a3e e120 aebc c0c1 703d bdb8 b1bc
0.15308712 0.059493877 -0.06318055 -0.036692183 -0.029395502 0.115119696 0.09619098 0.029250592
0.15635507 -0.0015944458 -0.08203531 -0.04542165 -0.10808937 0.16759321 0.31448478 0.16113268
-0.05515561 0.2864715 -0.03611018 0.14159435 0.071398504 -0.070189044 0.10246597 0.2418877
0.13561292 0.26712337 0.0804379 0.14900073 -0.063947394 -0.26958814 -0.007617012 -0.1392788
0.013250356 -0.16080926 0.07438178 -0.23526213 -0.059632808 0.10893357 -0.11635322 -0.052766345
0.03280677 -0.047928546 -0.04193248 0.010475109 0.06471541 0.06055221 -0.06618959 0.17743789
0.12305722 0.014793831 -0.0143919885 -0.026424238 -0.061298676 -0.0634221 0.0774379 0.026299601
-0.09318717 -0.059625663 -0.006381541 0.06590948 -0.1934873 -0.03472414 0.12408972 0.10091968
0.037903745 -0.18120638 0.13018188 0.07002256 0.15116085 -0.18587488 0.002808124 0.117359124
0.2980857 -0.088118866 0.28846923 0.14177614 -0.001819811 0.061696462 0.046667468 -0.19109719
0.13935515 -0.25429323 0.06560422 0.11705836 -0.004635161 0.21855442 -0.20153148 -0.15858068
-0.17526509 0.037138097 0.27566242 -0.08039189 0.018330729 -0.15679611 -0.094924 -0.029672751
-0.20027725 -0.16342776 -0.0773546 0.009664115 0.008173155 0.20824876 -0.07232877 0.19750527
0.0191388 -0.11183928 -0.039055165 0.085540526 -0.057071216 0.087020375 0.11908922 0.0131788105
0.014091724 0.0033732613 0.15826176 0.004649856 -0.018109541 -0.070913605 0.13827999 0.13716227
-0.10454588 0.11500353 -0.0062103705 -0.03648937 0.10915276 0.098016396 -0.14504305 -0.00474375
-0.1203126 0.08897937 -0.09199969 0.08550552 -0.12425248 0.10732083 -0.053865306 -0.080508046
-0.1617356 -0.08122133 0.13411056 0.13591084 0.041457642 -0.026652211 -0.14675611 0.20429684
0.025305944 -0.104389094 0.015053016 0.13608074 0.0342629 0.001993963 0.04926617 0.07429128
0.016718497 -0.090537846 -0.09771064 0.12295178 0.13917832 -0.07718075 0.17246263 -0.24024183
-0.27539265 0.015558487 -0.07106663 0.22296378 0.02099456 0.15546544 0.09959749 0.053064533
0.09968647 0.106367745 0.20582613 0.124230206 0.2634805 0.17936619 0.2841272 0.1242819
-0.10225672 0.22562632 -0.2580466 -0.049239077 -0.057006 -0.03428684 0.16517247 0.034569815
-0.050477896 0.09978581 -0.004588276 0.109716 -0.02337119 -0.09665071 -0.031686325 0.040768065
-0.0033823769 0.12087935 0.14739604 0.014289819 0.05091355 0.07060535 -0.034770284 -0.20391043
0.17693013 -0.13929546 0.10464363 0.023697333 0.10782014 0.2751912 0.011320927 0.09075737
0.10020154 -0.108371325 0.015312108 0.0109126605 0.056676984 -0.14338024 0.1722369 -0.07613688
0.25763908 0.11026933 -0.20328048 0.23354052 0.122925036 0.15401432 0.14494191 0.042673398
-0.0274909 0.035912964 -0.21682079 0.2534985 0.038252566 -0.22667131 0.002613285 -0.102154866
0.10042122 0.05100271 -0.07266916 0.045311555 -0.19601707 0.14784478 -0.18975441 -0.017622676
-0.382902 -0.08854108 0.065111905 0.10679595 0.05697466 -0.14225063 -0.006156156 0.021903956
-0.19921353 -0.12475565 -0.003703997 0.08923585 0.18223965 -0.021255912 0.058778524 -0.021694535

conv2.lin_l.weight f4 [6, 32]
00000000: efc5 c8bc 1378 e0bc 0504 8f3d 7ac8 6ebd
00000010: 9ebb 253e cc6c d2bd 4296 2ebd 9c41 a8bd
00000020: a2b8 0a3e a031 13be 60a8 07bc 489f 95bd
00000030: 9341 0b3e 37a7 05bd 8d8c 49bd 2e22 c2bd
00000040: de67 8dbc cf52 703e 77a7 643d f092 bb3e
00000050: ea5e f63e a672 0cbe 0021 973c 5a8c 213e
00000060: d6a1 c73d a0b9 1d3c a378 ecbd 5627 613e
00000070: fbf9 5dbe 7ee7 053e 8c83 a33d 1c8b 16bd
00000080: c42c 5e3e ef6b 853d 1dc5 b63e 4c71 ad3d
00000090: 13c4 3e3e ed9f 9e3e 8692 683e d2d6 d33d
000000a0: 8fa7 a3bd 786d 403e f3ec 5bbd 6e8e 003e
000000b0: f4eb 89bd 0cda 71bd 170f ffbc 1bca 2c3e
000000c0: 9f89 bb3a 4c83 abbe 8536 4cbe 2a5e 5ebe
000000d0: d8bf 91be e9c0 0f3e 2cca 563e a5d0 4d3b
000000e0: 74ce 34bd 94d9 003d 8850 5abe 99d3 1bbe
000000f0: f73e 983e 80ba 193d 8805 ad3d e2a3 1e3e
00000100: 6143 87be 6ca1 e23d 775f 83be 1f55 32be
00000110: cc4c fbbd b807 1cbe b34d 7fbd 224d 8cbe
00000120: 2b89 8ebe 2912 003e d919 b6bd a840 36bc
00000130: 65ba 64be 7eaf 663d 43db 903e 5588 9dbd
00000140: 91e5 acbc 67ac b8bb 5b8f 9b3e eeb1 71be
00000150: 8aad e6bd 74d0 08be 4af6 54be 0e7c 49be
00000160: fd6e 503d 823a 1e3c 0e12 c03e 37c5 b33d
00000170: 4a26 6abd 698b a7be a41c 61bc 10a1 96bc
00000180: e37c 22bd d8d2 3f3c 7893 c63c 9209 913d
00000190: 4a6e c7bd 4d2f 373d 0dce 4a3c 0661 f0bd
000001a0: 842b d03d ae26 97bd 5246 52bd 4128 fe3c
000001b0: 3b81 933d 9a25 d33b 9e9e dabd 6232 b0bd
000001c0: d863 58be 15cd 343e 5257 81bc dc0d 8a3e
000001d0: 7607 823e 7642 36bc 502e 913d 5e12 cd3d
000001e0: bd7b acbd 5d32 b1bc f196 0dbc 458c 7b3e
000001f0: 0569 e9bd 596a 1a3e 3173 153e a171 313d
00000200: 714c debd 7376 4dbe 6dea df3d d991 9e3d
00000210: 38a1 16bd 4c6d 9c3c 92d1 84bc 6b2a 92bd
00000220: c956 81bc ef92 a0bd 98d7 38be 1c3e bbbd
00000230: 0c09 413b 1935 a8bd 33db c4bd 5485 37bd
00000240: f5f5 e5bd b52f 233e b35e 4bbd ec4e 21bc
00000250: 6156 283e 8336 14be 3609 413e 1f5b 843e
00000260: 9857 40bb 74ec 583d 174e 66bc 1107 953d
00000270: 7f89 503d 0f45 183d 07ea 1cbe 4582 1dbd
00000280: 02f3 943c 5aef 27be ddb0 72bd e246 6cbe
00000290: f9c2 03bd c03c 503d 27e7 453a 791c 88bc
000002a0: 68dc 8c3d 0ac4 73bd e5bd 6f3d 8e56 62bd
000002b0: 0658 37bd a281 84bd 9dee b7bd 3766 c1bc
000002c0: 1d13 20be ed83 94bc 131b 6bbd b1ca 1fbc
000002d0: 80e3 2abe 174b 5abe 972e ec3d 3679 35be
000002e0: 907a 25bd fae8 91bd 8aa8 55bd 7481 99bd
000002f0: d61f a0bc acbe a23c 1b30 cb3c 9f7b b3bd
-0.024508445 -0.027401006 0.069831885 -0.058296658 0.16184852 -0.102746576 -0.042623766 -0.08215639
0.13546994 -0.14374399 -0.00827989 -0.07305771 0.13599233 -0.03263017 -0.049206305 -0.094791755
-0.017261442 0.23469089 0.05582377 0.36635542 0.4811929 -0.1371561 0.018448353 0.15776196
0.09747665 0.009626776 -0.11546447 0.21987662 -0.21677391 0.13076589 0.07984075 -0.03675376
0.21696764 0.06514727 0.3569726 0.08468875 0.18629484 0.3098139 0.22712144 0.10343708
-0.07990944 0.18791759 -0.05369277 0.12554333 -0.067344576 -0.059045836 -0.031135125 0.16873972
0.0014307982 -0.3349861 -0.19942673 -0.21715608 -0.28466678 0.14038433 0.2097556 0.003140488
-0.0441422 0.0314575 -0.21319783 -0.15217437 0.29735538 0.037531376 0.084483206 0.15492204
-0.26418594 0.11065945 -0.2565877 -0.17415284 -0.12270507 -0.1523732 -0.06232996 -0.27402598
-0.27839026 0.12506928 -0.08891649 -0.011123814 -0.22336729 0.056319706 0.28292283 -0.07692019
-0.02110556 -0.0056357863 0.3038281 -0.23603031 -0.11263569 -0.13360769 -0.20797077 -0.1967623
0.050887097 0.009657504 0.37513775 0.0877785 -0.05716542 -0.3272355 -0.013739739 -0.018387347
-0.039669883 0.011707984 0.02424024 0.070819035 -0.09737833 0.044722844 0.012378228 -0.11737256
0.1016455 -0.073804244 -0.051336594 0.031025054 0.07202383 0.0064436914 -0.10674785 -0.0860336
-0.21131837 0.17656358 -0.015788708 0.269637 0.25396317 -0.011124244 0.070889115 0.10013269
-0.08422039 -0.02163046 -0.008641944 0.24565227 -0.11396984 0.15079631 0.14594723 0.043321256
-0.10854424 -0.20064716 0.10933385 0.07742662 -0.036774844 0.019095086 -0.016213212 -0.07136997
-0.015788453 -0.07840525 -0.18050992 -0.09142706 0.0029454855 -0.082132526 -0.096121214 -0.044804886
-0.11228553 0.15936168 -0.04965086 -0.009845477 0.16439201 -0.1447392 0.1885117 0.2585077
-0.0029349085 0.052959874 -0.014056704 0.072767384 0.050912376 0.037175234 -0.1532365 -0.038454313
0.018182281 -0.16399899 -0.0592507 -0.23073915 -0.032168362 0.050839186 0.0007549398 -0.01661514
0.06877977 -0.05951313 0.058530707 -0.055258326 -0.04476168 -0.06470038 -0.08981059 -0.02360831
-0.15632291 -0.018129313 -0.057398867 -0.009752915 -0.16688347 -0.21317707 0.11532324 -0.1772202
-0.040400088 -0.07124515 -0.052162685 -0.07495394 -0.01954643 0.01986631 0.024803212 -0.08763813

conv2.lin_l.bias f4 [6]
00000000: 73f0 9b3c a135 103c 5f8a b73d 17dd 15bd
00000010: d102 273b 259e d4bd
0.019035554 0.008801849 0.08961939 -0.0365878 0.0025483856 -0.10381726

conv2.lin_r.weight f4 [6, 32]
00000000: 7931 60bd 4d11 0cbd 70b1 673e 0568 c9bd
00000010: 0380 92bd 0e34 4dbe 41e7 e83d 0701 e3bd
00000020: ccdd 2b3e f2b5 47be 38dc 543e 9918 f2bd
00000030: 35ca 993e 0bc7 bd3d c8ac c2bd c8b9 22be
00000040: fcd5 563c fb58 993e 7352 8cbc 046c 033f
00000050: 0d29 693e b5f2 9bbd d822 22be c801 9f3e
00000060: b199 bdbd 41a5 3a3e 42f7 edbd 572a 5c3e
00000070: a688 e9bd 90ee c83e bd30 2f3e c212 e8bd
00000080: 7be3 a13e b430 693e 41b8 293e 7430 0cbe
00000090: ec83 2ebe e038 3c3e 49b4 833e 073c 443e
000000a0: 2e31 56bd 0fb0 543e 4fb7 debd 8e7a 333d
000000b0: dd37 ca3d 7ef1 1fbd 3426 d03c c273 bf3e
000000c0: 7fbb b53d 9b65 1cbd be8c 30be 2aba 33bd
000000d0: 703d 353d f26f 83bd fc4d fe3e 2828 803d
000000e0: 02b4 023e cfd2 663d b4ff 1abe 21fc 073d
000000f0: 0fe6 0c3e 7b18 24be 0f5a b1bd 5f4b 853d
00000100: e018 06bd b583 d5bc b4e1 1cbe 35f0 7c3e
00000110: 3409 a63e 7ded e13d 7ad1 ddbd cc9f c43d
00000120: cc88 c9bb 3f1d 38be 37ab eb3d 7981 6b3e
00000130: a65f 3dbe fa8e 963e ff87 283e 38c6 3bbe
00000140: 055a 91be 8ff0 b23d 0e1b 6c3e 6a19 d1bd
00000150: af14 b0be 726a 883e 67eb 7fbe fa10 93be
00000160: c1c1 c0bd 9575 7abd d7fa be3e 43e3 81bd
00000170: 19a1 253e 7e6c 9a3c b568 15be fc04 24be
00000180: e7de c5bc 113c 11be 42a8 debd 8744 64bd
00000190: 3c36 a4bc 4399 9fbd 388b ebbd d659 a3bd
000001a0: a740 70bd b0a9 a0bd ca2b 7bbd c727 493c
000001b0: 7c18 49bd 229b 93bd 2136 c6bc 60a8 0ebe
000001c0: 318f f6bd c50e aebd 2b4d 4fbd ab1c 2bbe
000001d0: 48d2 a3bd f9af ef3c d36b 70bd 38c9 a73d
000001e0: eee9 40bd d573 b9bd 2b1a a9bd 719a ccbd
000001f0: ed67 a8bd 0e40 8ebd 8762 65be b90f 81be
00000200: 933f 61bc 7c93 583c 7f70 55bd ac5a a6bc
00000210: aa35 bfbd 9b81 64bd b549 263d f164 b6bc
00000220: f1cb b5bd ad6f 19bd a7c7 45bd c60a d3bd
00000230: 7641 00be 1520 9abd 1343 6bbd 9239 99bd
00000240: 98dd 97bd a4e1 91bd 858e efbd 6d92 29be
00000250: 306a f63c d468 3abd ff47 2d3d e596 373e
00000260: 937d e0bc a2bf 0e3d ed4e d8bd 0a8a 32be
00000270: e4f1 063c 3879 35bd 13bd 02bd 34b8 1ebd
00000280: 0ea6 d2bc b133 8ebd 693a 57bd 12c0 e2bd
00000290: 17aa 92bd 0a73 693d 9281 d5bd 37f3 3dbd
000002a0: 922f 8738 8933 0abd 2261 7abd 4111 fbbd
000002b0: dc67 c23c 64a2 39bd bd25 ffbd 5d75 dd3c
000002c0: 9c66 72be e2d0 3c3d 98a4 babd d919 17bd
000002d0: 1561 b4bd 69cb 08be aa34 e93d 0b96 6abc
000002e0: cdd6 51be 2459 a0bc 9c89 c7bd fb04 813d
000002f0: 507c 5cbd 61b2 09bb 93df 84bd f018 92be
-0.05473468 -0.034196187 0.22626281 -0.09834293 -0.071533225 -0.20039389 0.11372233 -0.1108418
0.16783828 -0.19503 0.20787132 -0.11821098 0.30037084 0.0926648 -0.09505612 -0.15891182
0.013112541 0.299507 -0.017129159 0.51336694 0.22769566 -0.07614652 -0.15833604 0.31056046
-0.0925783 0.18227102 -0.11619426 0.21500526 -0.11403017 0.3924451 0.17108436 -0.11331703
0.31618866 0.22772485 0.16574194 -0.13690358 -0.17042512 0.18381071 0.25723484 0.19163524
-0.052292995 0.20770286 -0.10874807 0.04381805 0.09873936 -0.039048664 0.025408842 0.37393004
0.08873653 -0.038182836 -0.17241189 -0.04387871 0.044248044 -0.06417836 0.49668872 0.06257659
0.1276398 0.056353386 -0.15136606 0.033199433 0.13759635 -0.16024964 -0.086597554 0.065085165
-0.032738566 -0.02606378 -0.15320474 0.24701007 0.32428896 0.110316254 -0.1083097 0.09600791
-0.0061503407 -0.17979906 0.11507266 0.22998609 -0.18493518 0.29405957 0.16458128 -0.18337333
-0.28388992 0.08737289 0.23057196 -0.102099255 -0.3439078 0.2664371 -0.24992143 -0.2872389
-0.094119556 -0.06114729 0.3730075 -0.06342175 0.16174735 0.018850561 -0.14590724 -0.16017526
-0.02415414 -0.1418307 -0.108719364 -0.055729415 -0.020045392 -0.07792904 -0.11501163 -0.07976119
-0.058655407 -0.07844865 -0.061321057 0.01227755 -0.049095616 -0.072073236 -0.024195733 -0.13931417
-0.1203903 -0.08498911 -0.050610702 -0.16710155 -0.07999092 0.029258715 -0.05869658 0.08192676
-0.047098093 -0.09055296 -0.08256944 -0.09990395 -0.08222947 -0.06945811 -0.22400866 -0.25207308
-0.013748067 0.013218757 -0.052109238 -0.020306908 -0.093364075 -0.055787664 0.040597636 -0.02226493
-0.08876789 -0.037460018 -0.048286106 -0.10304789 -0.12524971 -0.075256504 -0.057437014 -0.07481684
-0.074153125 -0.07123116 -0.11697105 -0.16559763 0.030079931 -0.04551013 0.04230499 0.17928655
-0.027403628 0.034850724 -0.10561929 -0.1743547 0.008236382 -0.044305056 -0.031918596 -0.03874989
-0.025713947 -0.06943453 -0.05254594 -0.11071791 -0.07161348 0.056994475 -0.10425104 -0.046374526
6.446162e-05 -0.033740554 -0.06112779 -0.1225915 0.023731165 -0.045320883 -0.1245837 0.027033502
-0.23671955 0.046097644 -0.09113425 -0.036889885 -0.088075794 -0.13358845 0.11386998 -0.014318
-0.20492096 -0.019573756 -0.09743044 0.06299778 -0.05382949 -0.0021010863 -0.06487956 -0.2853465
