trained_weights/cadets/lword2vec_gnn_cadets16_E3.pth (torch, 11479 bytes, 6 tensors)

conv1.lin_l.weight f4 [32, 30]
000000 5b 6e 0b 3e 88 ff 2a 3e d6 fb 04 3d 44 5c 55 be
       0.13616316 0.1669904 0.032466732 -0.20835978
000010 d2 b4 9c bd 60 fd 58 3d 74 8f 8b 3d 3f e3 5b bd
       -0.07651676 0.052976012 0.06814471 -0.053683516
000020 42 bc b9 3c cc 30 f1 bd b2 f4 02 be e8 c8 81 be
       0.022672776 -0.117768854 -0.12788656 -0.25348592
000030 3d 11 fc bc 49 c2 b8 3d 26 9b de 3d 30 e9 ae 3d
       -0.030769939 0.09021432 0.10869436 0.08540571
000040 f3 51 c8 3d fb 33 2c 3d 40 f1 9b bd 17 61 25 3e
       0.097812556 0.04204176 -0.07614374 0.16150318
000050 a2 c4 2c 3e 5e 92 03 3e 7a b0 5c 3d 0f 03 27 3e
       0.16871884 0.12848803 0.05387924 0.1630976
000060 d5 93 73 3d 5d f2 51 3e a0 a9 4b bc df f2 bb 3c
       0.059467155 0.2050261 -0.0124305785 0.022942958
000070 ae a5 53 be 16 9f e4 bd 96 02 c6 bb ca 73 5c be
       -0.2066867 -0.11163156 -0.0060427887 -0.21528545
000080 7a e5 77 3b ae 95 0a 3d af d8 35 3d ff 6f 81 be
       0.0037825988 0.033834152 0.0443961 -0.2528076
000090 45 6c 80 bd e7 10 b4 be a5 8e 16 be 30 c7 ef bd
       -0.06270651 -0.35169145 -0.14702852 -0.11707914
0000a0 8f 60 8a bd c0 94 b2 bc 26 97 5d bd 5d 76 3a 3e
       -0.06756698 -0.021799445 -0.054099225 0.18209215
0000b0 9a 93 4c bd 6d 2a a9 3d 5d 6c 1c bd c5 8a 51 3d
       -0.04994545 0.08260045 -0.03818928 0.05115773
0000c0 23 76 06 3e d1 3d 65 bd d2 86 e1 bc a3 74 b8 bd
       0.13131003 -0.055967156 -0.027530108 -0.09006622
0000d0 5a 4b 8f 3d a2 ef 31 be c6 91 3c bd 47 8e 64 3c
       0.06996794 -0.17376569 -0.046037458 0.013949937
0000e0 43 18 5a 3d 99 d7 ed bd c1 62 7d bd 4c 96 c5 3d
       0.053245794 -0.116133876 -0.061861757 0.096478075
0000f0 20 99 82 bd 33 8e 10 3e 6b f6 e4 bd 5d 0a 05 3e
       -0.063768625 0.14116745 -0.11179813 0.12992235
000100 72 54 19 3e 7d 93 36 be a5 94 23 3e 00 7c 37 be
       0.1497362 -0.178297 0.15974672 -0.17918396
000110 25 9c 95 3c 14 2a 50 3c b7 a7 6f bd 1b 44 92 bd
       0.018262932 0.012705345 -0.058509555 -0.07141896
000120 a7 f2 57 3e c0 73 b2 3c c5 84 fa 3c 46 b8 d7 bc
       0.21088658 0.02178371 0.030580888 -0.026332986
000130 a7 e7 b8 3d 5a 58 04 3e af c8 84 3d 69 4c 0f bd
       0.09028559 0.12924328 0.0648359 -0.03498498
000140 bb 90 c4 bd 3d c5 24 3d 4e e7 9c 39 38 29 a2 3d
       -0.09597918 0.040227164 0.00029926974 0.07918018
000150 94 28 2a bc b9 ff fb 3c 9f b4 2a be 6c 53 90 bd
       -0.010385651 0.030761587 -0.16670464 -0.070471615
000160 58 96 37 be 7d f3 08 be 3f 11 48 bd c9 8e 6b 3e
       -0.17928445 -0.13374133 -0.048844572 0.23003687
000170 2b ef 34 bd 7f 46 4a 3d 70 63 95 3d 7b e9 bf 3d
       -0.0441734 0.049383637 0.07294357 0.09370705
000180 f5 0b 0c 3e c8 f1 49 bc 07 b4 2e 3e 20 47 d1 3d
       0.13676436 -0.012325712 0.17060862 0.10218644
000190 5c 79 40 3d a1 4f bc bd 73 96 8e bc 2e d6 41 be
       0.046990737 -0.091948755 -0.017405724 -0.1892936
0001a0 5a 42 af b9 b2 04 3c 3e 1d c2 47 3e 8e 11 2d be
       -0.00033428037 0.18361166 0.19507642 -0.16901228
0001b0 39 6b 75 bc ec 0e 55 3e b9 52 5e bc cb 6b e6 3d
       -0.014979177 0.20806473 -0.013569527 0.112510286
0001c0 ff 11 56 3c 42 e1 a5 3d e4 15 46 be 53 3b 3d be
       0.013065814 0.08099605 -0.19344288 -0.18479662
0001d0 d2 92 13 3e ba 03 96 bd 67 04 ca bd e7 3b 28 3e
       0.14411476 -0.073249295 -0.09864121 0.16429101
0001e0 09 ff 8f 3d f6 6a ae 3d f4 e9 63 be 3b 39 3a 3d
       0.07031066 0.08516495 -0.22257215 0.045464735
0001f0 e9 54 af 3c c1 be 4e 3e fe 56 4a 3e 83 0c ea bd
       0.021402793 0.20189954 0.19759747 -0.11428168
000200 3d 76 02 3e 89 a8 a2 3d 88 b2 1d 3e af 37 62 be
       0.12740417 0.07942302 0.15400136 -0.22091554
000210 8f aa d3 ba f9 4a 0d be 9e a9 aa 3d d0 6a 3a 38
       -0.0016148853 -0.13798131 0.08333133 4.4445333e-05
000220 a6 49 7b 3e b9 ef 7a 3c 86 0f ca bd 66 a0 40 3e
       0.24539813 0.015315943 -0.09866242 0.18811187
000230 bc 44 16 be 3f 2b 90 3e c4 b2 52 3d c6 ef f6 3d
       -0.14674658 0.28157994 0.051440015 0.12057452
000240 64 11 36 be 16 cc e8 3c 3f 44 b3 3d 2d 89 6a 3d
       -0.17780071 0.028417628 0.08753251 0.057259727
000250 aa a6 34 be c1 c7 be bd 2a 2b 50 3e f8 b1 5e 3d
       -0.17641702 -0.09315444 0.20328966 0.054368943
000260 50 8e f3 3c c7 82 e7 bd 8d 10 93 bd 05 16 8f 3c
       0.029730946 -0.11304241 -0.07180891 0.017466554
000270 16 8d 31 3d 70 7e 7d bd 59 b9 d6 3d 43 d7 f1 bd
       0.04334744 -0.06188816 0.10484571 -0.11808636
000280 95 ce ef bd 4d f1 8e bd 39 b1 76 bd f1 38 ce 3d
       -0.11709324 -0.06979618 -0.060227606 0.100694545
000290 60 63 34 bd dc 6c fa 3d 82 19 57 3d 92 07 ea 3d
       -0.044040084 0.122277945 0.05251456 0.11427225
0002a0 4b a6 f8 bd cd 45 e3 3c 0e 14 84 3e 3e 81 2b 3e
       -0.12141093 0.027743245 0.2579655 0.1674852
0002b0 71 5c da 3d d8 f5 17 3d db 7c bc 3d 81 3a 0c 3c
       0.10662163 0.03709969 0.09203502 0.00855887
0002c0 a6 64 5e bd 98 af 3d 3d 47 3f f5 bd 14 81 d2 bd
       -0.054295205 0.046310037 -0.1197496 -0.10278526
0002d0 ef 5b 9c 3d c4 35 b0 3d c3 53 4f bb 92 48 88 bd
       0.076347224 0.08604005 -0.003163562 -0.06654467
0002e0 3d c8 0b bd 5f d1 56 bc eb 92 57 3c 19 25 22 3d
       -0.03412651 -0.013111441 0.013157587 0.03958616
0002f0 a1 f5 e8 3d b8 13 fa bc 45 3d 11 bd d3 18 73 bc
       0.11374975 -0.03052698 -0.03545882 -0.0148374615
000300 1a 30 40 bd 3c b6 ec 3d cb 96 80 3e dc ed de bd
       -0.046920873 0.11558196 0.25115046 -0.10885212
000310 2c f9 99 3d f3 6f 5e 3d 20 88 ae bd ea 65 a6 3d
       0.07518229 0.05430598 -0.085220575 0.08124907
000320 87 53 3d 3e 10 d0 05 3e 4c 5d 9d bb fa ab 5e 3d
       0.18488894 0.13067651 -0.0048023816 0.05436323
000330 14 1f 2a 3e 1b e1 05 3d 5e 55 33 be ab 5f d7 bc
       0.16613418 0.03268538 -0.17513034 -0.026290735
000340 ae bd ce 3c e1 7c 26 be 9e e3 9e bc a5 a9 13 bd
       0.02523693 -0.16258575 -0.019395646 -0.036050458
000350 e9 e0 02 3b da c6 3e 3d d1 54 15 3e 74 47 01 be
       0.0019970483 0.04657636 0.14583136 -0.12624913
000360 fd 3d b0 3e 61 d1 7e 3d 82 d4 f4 3d 44 35 52 3e
       0.34422293 0.062211398 0.11954595 0.20528132
000370 f6 a6 2c 3e 98 c1 b5 3b 5a a4 ff 3d dd a3 eb bc
       0.16860566 0.00554676 0.124825194 -0.02876466
000380 2f 13 40 bd fe 9b b6 3d 9a 26 fe bd 1a c7 6a 3d
       -0.046893295 0.08916472 -0.124097064 0.057318784
000390 fb 07 2f bc 88 c5 8a bd e5 8c 0a bd 58 12 e1 bb
       -0.010683055 -0.06775957 -0.033825774 -0.006868642
0003a0 14 83 cf 3d fe 9a 65 bd 79 30 2b be 82 40 b8 3a
       0.10132423 -0.056056015 -0.1671771 0.0014057311
0003b0 11 01 42 bd cb 38 ad bd d7 e3 a3 bc 8c f5 2a 3d
       -0.0473643 -0.08458098 -0.020006103 0.041738078
0003c0 08 13 0c be 57 e7 62 3c 48 38 30 bd 23 72 d8 3c
       -0.13679135 0.013849101 -0.043022424 0.026421612
0003d0 2a 03 9f ba ff 13 01 be 21 47 48 3d 7c ac a2 ba
       -0.001213168 -0.12605284 0.04889596 -0.0012411023
0003e0 79 24 36 be d2 a2 3b bd be 11 6d bd f2 37 b3 3c
       -0.1778735 -0.045809574 -0.05787825 0.021877263
0003f0 cc ef c4 3c 67 1c e1 bd e9 90 a7 3c a9 87 91 3d
       0.024040125 -0.109917454 0.02045484 0.07105953

conv1.lin_l.bias f4 [32]
000000 15 e1 17 3e 79 4e 09 be ae d1 2f 3e f4 83 80 3d
       0.14831956 -0.13408841 0.1716983 0.06275168
000010 56 ad a0 3d da 7b 30 bd a3 3f 9d bc 5a 61 a7 3b
       0.07845561 -0.043086864 -0.019195383 0.0051080408
000020 f2 91 46 3c 29 ef 13 be 13 af 1f be 76 55 cf bd
       0.012119757 -0.14446701 -0.1559413 -0.10123722
000030 a5 13 2e 3d 6b fc e4 3c 4d c0 6e be 67 28 a1 3d
       0.042499203 0.027952394 -0.23315544 0.07869034
000040 3c 3c cf bd 5d b4 99 3d 94 d0 04 3d c5 b7 ad bd
       -0.10118911 0.07505105 0.032425478 -0.08482317
000050 49 26 da bd ca 3b 87 3d 54 de d7 3d 6f ba 82 3d
       -0.106518336 0.06603201 0.105404526 0.06383216
000060 b9 60 02 be b4 eb 5e 3d dd 09 c2 bd 4d fd a7 3d
       -0.1273221 0.054424003 -0.094745375 0.0820261
000070 de c6 17 3e d3 00 d6 3c 19 06 81 3d 7f 25 d4 bd
       0.14821956 0.02612344 0.06299991 -0.10358714

conv1.lin_r.weight f4 [32, 30]
000000 17 ac 13 3e 70 1d 34 3d a9 f5 22 bd 83 b4 f3 bc
       0.14421116 0.043973386 -0.03978506 -0.02974916
000010 3f ea 6a bc b2 f8 d8 3d d9 22 8a 3d 39 4c 2e 3d
       -0.014338075 0.1059431 0.06744928 0.04255316
000020 8c e2 1b 3e be 92 12 bd 4b 61 a8 bd 93 c0 49 bd
       0.1522314 -0.035784476 -0.08221682 -0.04925592
000030 b4 90 5b bd 1c f6 26 3e 10 d9 9f 3e 55 c6 27 3e
       -0.053604797 0.16304821 0.31220293 0.16384251
000040 fa 71 30 bd ed 3e 8c 3e 1a 3d fd bc a5 8b 0a 3e
       -0.043077447 0.2739176 -0.030912925 0.13529833
000050 0c ae 91 3d 3c 96 89 bd 6d 7d c9 3d 59 0f 3f 3e
       0.07113275 -0.06718108 0.09838376 0.18658198
000060 b2 0d 0c 3e cd 3a 86 3e 5a 6a 70 3d b0 79 f4 3d
       0.136771 0.26216736 0.058695175 0.119372725
000070 fe 54 7a bd c4 91 83 be 50 77 6e bd 15 01 4b be
       -0.06111621 -0.25697148 -0.058219254 -0.19824632
000080 8b 38 40 bd 4f 3b ba bd df ee c0 3d 43 8b 8e be
       -0.046928924 -0.090933435 0.09420561 -0.27840623
000090 c5 03 19 3d 51 cc a0 3c f6 c6 d2 bd b9 d9 ee bd
       0.03735711 0.019628676 -0.10291855 -0.11662621
0000a0 3e 77 ac bd 9c 81 ae bd 8f c0 4b bd 99 5b 46 3d
       -0.08421181 -0.08520815 -0.049744185 0.048427198
0000b0 44 5f a3 3d 10 f7 15 3e c4 f9 08 bd 4c df 41 3e
       0.07977155 0.14645028 -0.03344132 0.18932837
0000c0 54 7a ff 3d 54 19 0a 3d 6e 7c 22 bd 55 27 22 bd
       0.12474504 0.03371556 -0.039669447 -0.03958829
0000d0 0e 8e 77 bd 0c 6d 8c bd ca 65 23 3d 65 02 3c 3d
       -0.06043821 -0.068567365 0.039891995 0.04590072
0000e0 09 15 2a be 31 7f f3 bd af 5b 77 bd 4e 83 b1 3b
       -0.16609587 -0.11889494 -0.06039017 0.005417264
0000f0 20 7c 91 be 04 f6 a2 bd 26 1b 00 3c 39 32 50 3e
       -0.28415012 -0.0795708 0.007818973 0.20331658
000100 66 39 08 3d f2 96 8a be eb aa dc 3d bf e1 ce bd
       0.033257864 -0.27068287 0.107747875 -0.101016514
000110 57 cc 08 3e 48 b2 69 be 8a cc 93 bd 71 43 84 3d
       0.133592 -0.22821915 -0.07216747 0.06458176
000120 84 5c 84 3e f1 31 b7 bd 6e c1 91 3e 30 c1 1b 3e
       0.25851834 -0.089450724 0.28467888 0.15210414
000130 80 50 59 3d a9 68 1f 3d 2a 73 fd 3d 00 8f 0d be
       0.053055286 0.03891817 0.123754814 -0.13824081
000140 29 ac 3c 3d dc 84 7f be f4 cf b7 ba c4 a1 df 3d
       0.046062622 -0.24953026 -0.0014023767 0.10919526
000150 96 ef fc bc 47 47 47 3e 19 d6 76 be 9a 2b 5c be
       -0.030875962 0.19460784 -0.2410511 -0.21501008
000160 d7 e8 43 be 10 40 05 3d c8 44 d5 3e fc 07 29 bd
       -0.1913179 0.032531798 0.41654038 -0.04126738
000170 ef 9d 4e 3c 81 18 40 be b1 5c ee bc 45 a4 63 bd
       0.0126108965 -0.18759347 -0.029096933 -0.05557658
000180 d9 4c 48 be 0b 45 90 be 08 94 f8 bd d3 6d 17 3e
       -0.19560565 -0.28177676 -0.1213761 0.14787988
000190 b3 57 91 3d 76 45 2c 3e 3b 41 03 be 35 0d 64 3e
       0.070968054 0.16823372 -0.12817852 0.22270663
0001a0 a7 e3 dd bc 8b bb c0 bd 71 9b fc bc f4 fa d0 3d
       -0.027086092 -0.09410771 -0.030835839 0.102041155
0001b0 b5 af e3 bd 32 71 91 3d be 8c 26 3e 74 9d c3 3c
       -0.11117498 0.071016684 0.16264626 0.02387879
0001c0 89 cc 86 3d 60 79 24 bd d6 2c 11 3e 3c bf 2c bb
       0.06581981 -0.040154815 0.1417726 -0.0026359102
0001d0 e2 bf 94 3c b9 80 8f bd e5 bc fc 3d 0d 93 1e 3e
       0.018157903 -0.07006974 0.12340716 0.15485783
0001e0 c8 df bc bd 17 9a cd 3d 54 1b be bc de 7b 52 bd
       -0.092223704 0.10039156 -0.02320639 -0.05138766
0001f0 98 01 aa 3d 53 f0 b8 3d b5 82 0b be 12 95 a8 bd
       0.08301085 0.09030213 -0.1362408 -0.08231558
000200 b2 14 10 be ab 15 ab 3d a2 6b 4e bd 16 0a 46 3d
       -0.14070395 0.08353742 -0.050395615 0.048349462
000210 5c ae ea bd 24 d9 df 3d 33 8d ea bd 08 9b d0 bd
       -0.11459038 0.10930088 -0.11452713 -0.1018582
000220 97 a1 22 be a0 9d ae bd da d6 02 3e c4 9c 02 3e
       -0.15881954 -0.08526158 0.12777272 0.12755114
000230 40 e8 74 3d bb 8c de bc 72 87 ee bd 97 51 30 3e
       0.059791803 -0.027166715 -0.11646928 0.17218624
000240 00 ea 0d 3d 17 b9 da bd bb 75 16 3d 32 2e 10 3e
       0.034646988 -0.10679834 0.03673337 0.14080122
000250 8a 24 0e 3d 4f ae 1d 3b 6c 57 44 3d ea 50 69 3d
       0.034702815 0.0024060195 0.047934934 0.05696193
000260 72 d1 05 3d 43 d0 a8 bd a0 b6 9e bd 89 a3 e9 3d
       0.032670446 -0.08242848 -0.07749677 0.11408145
000270 9d 7c db 3d e9 93 76 bd 20 2d 2b 3e 6f 75 62 be
       0.107171275 -0.060199652 0.16716433 -0.2211511
000280 dc 7a 84 be 2c a0 5b 3c ba a7 c5 bc 91 ee 5f 3e
       -0.25874984 0.013404887 -0.02412783 0.2186835
000290 dc bb da 3c 91 d6 2d 3e 70 5a c5 3d 95 46 5b 3d
       0.026700906 0.16976382 0.0963639 0.05353411
0002a0 42 ba b8 3d db 8c c2 3d f7 6b 4f 3e cf 81 ec 3d
       0.09019901 0.09499522 0.20256029 0.115481965
0002b0 f8 b3 80 3e 8b e3 ed 3d 55 23 8a 3e e3 18 fa 3d
       0.25137305 0.11615666 0.2698008 0.12211778
0002c0 77 e9 ba bd dd 30 44 3e b8 c7 75 be aa 45 43 bd
       -0.09126561 0.19159265 -0.24001968 -0.04767386
0002d0 f9 78 4c bd 5f 8a 83 bd 5b d5 16 3e 87 f7 40 3c
       -0.049920056 -0.064228766 0.14729826 0.011777765
0002e0 a4 b1 56 bc af b1 ad 3d 1a e5 99 3b c4 f4 d3 3d
       -0.013103876 0.08481156 0.0046965005 0.1034942
0002f0 f1 96 c4 bc 97 ba e2 bd c9 24 05 3d 21 5e 97 3c
       -0.023997756 -0.110707454 0.032505784 0.018477501
000300 f3 10 3e 3d 5b cd ee 3d 10 18 0d 3e b5 88 05 3c
       0.046402883 0.11660262 0.1377871 0.008150269
000310 5d bb 47 3d ce f8 a3 3d f8 e7 4b bd c4 2e 3b be
       0.048762668 0.0800644 -0.04978177 -0.18279558
000320 dc 28 2d 3e 5f f2 f5 bd 86 58 b2 3d bf 5e 40 3c
       0.16910118 -0.12009119 0.08708291 0.011741339
000330 22 d6 e7 3d b1 3a 8d 3e e2 88 ac bc 29 f3 25 3d
       0.113201395 0.2758384 -0.021061365 0.0405151
000340 7a b5 aa 3d b0 9e fc bd 8f 3f 02 3c fc e0 fe bc
       0.08335395 -0.12334955 0.007949724 -0.03111314
000350 ce 98 05 3d 76 65 26 be 65 8f 23 3e db 99 aa bd
       0.03261643 -0.16249642 0.1597267 -0.08330127
000360 40 d3 82 3e 3c b6 02 3e c3 32 3d be 6d a5 49 3e
       0.25551796 0.1276483 -0.18476395 0.19692011
000370 ea 63 19 3e 64 5e 02 3e 8c fb 15 3e 7e d8 39 3d
       0.1497952 0.1273132 0.14646739 0.04537248
000380 8d 16 ff bc 27 32 6c bb f4 33 54 be 21 8d 7f 3e
       -0.031138683 -0.0036040635 -0.20722944 0.2495618
000390 80 76 de bb 7c e2 46 be 23 b6 aa 3c 4f f7 b4 bd
       -0.0067890286 -0.19422334 0.020838803 -0.08836233
0003a0 43 0a bc 3d e0 7d d5 3c 80 68 5f bd 73 1e 88 3d
       0.09181645 0.026060998 -0.05454302 0.06646433
0003b0 c4 62 5a be 8b 71 03 3e 42 c2 31 be 9f d3 45 bd
       -0.21326739 0.12836282 -0.1735926 -0.04829752
0003c0 6f a6 d3 be 87 3d 34 be 89 d8 a5 b8 4e 8f 15 3e
       -0.41337916 -0.17601596 -7.908146e-05 0.14605448
0003d0 a5 81 3a bc 97 f3 34 be 8d 95 69 bd 63 19 c0 3b
       -0.011383449 -0.17671047 -0.05702739 0.0058624013
0003e0 ea 52 19 be 15 89 7a be 18 3f fd bd ac bf 01 3d
       -0.14973035 -0.24466355 -0.1236555 0.031676933
0003f0 6a 41 66 3e 3b d4 4b bd fb b2 b3 3d 80 3d d7 3c
       0.22485891 -0.049762946 0.08774372 0.026274443

conv2.lin_l.weight f4 [6, 32]
000000 2a b0 b8 bc 2a 91 07 bd a2 21 3e 3c d9 8a ab bd
       -0.02254494 -0.033097424 0.011604698 -0.083760925
000010 66 a8 2e 3e c7 35 c8 bd 93 5c 23 bd 61 af 9e bd
       0.17056426 -0.09775882 -0.039883208 -0.077482946
000020 62 94 e2 3d ac de 07 be 7d b4 18 bc 6b 0d 90 bd
       0.11063458 -0.13268536 -0.0093203755 -0.07033809
000030 4b 99 84 3d b8 d4 03 bd e6 ea 1f bd 80 6e b4 bd
       0.06474551 -0.032185286 -0.039042376 -0.08810139
000040 f6 dd 41 3b 06 94 2f 3e e4 f9 83 3d 42 91 96 3e
       0.0029581762 0.1714631 0.06444147 0.29407698
000050 38 90 84 3e 7b cf 0a be 84 b5 a9 3c 9f 62 56 3c
       0.2589128 -0.1355571 0.020716436 0.013085037
000060 23 6c ee 3d e4 29 ac bc 9d ad cb bd 64 26 26 3e
       0.11641719 -0.021016069 -0.099452235 0.16225582
000070 20 dd 60 be 9d 5e 04 3d 34 19 d5 3c b9 25 c4 bc
       -0.21959352 0.032316793 0.026012994 -0.023943769
000080 a5 ff 5d 3e e6 4c b3 3d bc 6c a2 3e 4f a9 8e 3d
       0.21679552 0.087549016 0.31723583 0.06965887
000090 c2 b4 3d 3e ab e4 9a 3e 3b a9 5d 3e 34 09 cf 3d
       0.18525985 0.30252585 0.21646588 0.10109177
0000a0 07 f2 39 3c 7e 9c 3e 3e 39 64 72 bd 71 01 07 3e
       0.011349208 0.18614385 -0.05917761 0.13184144
0000b0 7a 30 b3 bd 1f 6e 4d bd 9e f5 f8 bc 0d d2 2b 3e
       -0.087494805 -0.050153848 -0.030390557 0.16779347
0000c0 1b 30 a7 bb 81 42 bd be 79 77 43 be d7 24 80 be
       -0.00510217 -0.369648 -0.19088544 -0.25028107
0000d0 e7 83 6d be e5 df 11 3e 14 92 53 3e 74 1b 96 bd
       -0.23194848 0.14245565 0.20661193 -0.07329455
0000e0 ab 77 db bc 3b bf 8d bd ab cc 56 be 71 79 09 be
       -0.02679046 -0.0692124 -0.20976512 -0.13425232
0000f0 8d bb 98 3e c8 3c 0f bc ca a5 e2 3d a3 2c 1a 3e
       0.2983059 -0.008742519 0.11066778 0.1505609
000100 72 4e 86 be ca 5b cc 3d 68 b4 36 be 3a 1f 5b be
       -0.26231724 0.09978445 -0.17842257 -0.2139863
000110 7c a1 07 be 9f 06 1a be 6a 17 68 bd 56 cc 89 be
       -0.13245195 -0.15041588 -0.056662954 -0.26913708
000120 1a 1d 3c be 04 4b fb 3d 95 bf b4 bd 1c ca 08 bd
       -0.18370476 0.122701675 -0.08825604 -0.03339587
000130 2a 2b 39 be 0f 1c 41 3d 5a c7 86 3e 8d a5 9c bd
       -0.18082872 0.0471459 0.26323968 -0.07648764
000140 9a d0 95 bc 67 fc 85 bc 4d 6f 8c 3e 47 35 09 be
       -0.018287946 -0.016355706 0.27428666 -0.1339923
000150 16 55 db bb 31 9e 2a be 03 9e 4f be 3e 4d 04 be
       -0.0066934926 -0.16661908 -0.2027512 -0.1292009
000160 27 46 bf 3b 5d c6 11 3d 88 52 bd 3e 91 48 88 3d
       0.0058372202 0.035589565 0.3697703 0.06654466
000170 ef 59 80 bd b8 e2 72 be 97 69 ae 3c a5 5f fc bc
       -0.062671535 -0.23719299 0.021290584 -0.030807326
000180 7e 9b 21 bd 97 b0 57 39 2b 5a 1f bb 67 15 8b 3e
       -0.03945493 0.00020569783 -0.002431522 0.27164766
000190 c2 ae e0 bd be 42 2d 3d 47 b4 4a 3c 0d ef e8 bd
       -0.109708324 0.04229998 0.012372083 -0.1137372
0001a0 47 48 63 3d 00 54 90 bd 75 d0 64 3c b7 4b be 3d
       0.05548885 -0.07047272 0.013965716 0.09291785
0001b0 d3 5b 8a 3e ef 6c 87 3c 61 d7 d1 bd 01 16 ac bd
       0.2702318 0.016531436 -0.102461584 -0.084026344
0001c0 33 19 5b be 37 1a 58 3e 6b 34 69 bc ca d1 9c 3e
       -0.21396331 0.2110375 -0.014233689 0.30628806
0001d0 81 d1 c6 3e 74 14 6d 3d 13 bf 89 3d 3c 0b 1b 3e
       0.38831714 0.057880834 0.06725898 0.15141004
0001e0 04 58 8f bd 72 9a f6 bd a0 b6 a2 bc d9 00 ad 3e
       -0.069992095 -0.12041177 -0.019862473 0.3378971
0001f0 b6 58 09 be 21 c3 5f 3e 0e a8 9e 3e 00 ec 19 3c
       -0.13412747 0.2185178 0.3098759 0.009394646
000200 d6 ef d2 bd d2 6e 52 be d1 82 ed 3d 35 de 2d 3e
       -0.10299651 -0.20550087 0.11597217 0.16979297
000210 3d 54 c5 bc 5d c1 8f 3c 4d b7 3b bc d4 4e 32 bd
       -0.02408802 0.017548257 -0.0114572765 -0.043532208
000220 69 b2 86 bb 10 da 95 bd 3b 81 49 be 9c bb c5 bd
       -0.0041106236 -0.07316983 -0.19678204 -0.09654924
000230 f8 cf 81 bd 66 fd ae bd 4a ee ab bd 7f 58 2f bd
       -0.06338495 -0.08544426 -0.083950594 -0.042809006
000240 91 b7 8b bd e6 f7 f8 3d 4b 6a 8e bd 66 2d f8 bc
       -0.06822122 0.12156658 -0.069538675 -0.030295085
000250 4b 6f 15 3e 4f 68 ce bd 45 2e 35 3e d3 92 aa 3e
       0.14593236 -0.10078489 0.17693432 0.33315143
000260 11 ba 96 bc 97 4c be 3d 76 8f 06 bd 38 d4 86 3c
       -0.01839927 0.09291952 -0.03285166 0.016458616
000270 ba cf c2 3d db e8 d9 3d d9 19 47 be 7d 5a 59 3d
       0.09512277 0.10640117 -0.19443454 0.053064812
000280 53 d6 9a 3c 36 eb 16 be 3b 8c 7a bc 83 bc 51 be
       0.018901026 -0.14738163 -0.015292223 -0.20482068
000290 8c 00 22 bc 52 f6 3a 3d 4c 38 36 bb 6e 0e aa bc
       -0.009887826 0.045645066 -0.0027804552 -0.020758834
0002a0 60 83 60 3d 53 40 65 bd 4c 97 68 3d 73 00 8e bd
       0.05481279 -0.055969547 0.056784913 -0.069336794
0002b0 ed 90 5b bd c8 59 a7 bd 7c 1e d1 bd 83 26 b5 bc
       -0.05360501 -0.08171421 -0.102108926 -0.02211309
0002c0 f2 26 16 be 26 3b 38 bd d7 26 95 bd 1c f5 a0 bd
       -0.14663294 -0.044978283 -0.07282799 -0.07859251
0002d0 7a b7 51 be cf d0 65 be 1d 5e e5 3d 79 c8 3d be
       -0.20480147 -0.22442935 0.11199591 -0.18533505
0002e0 19 d2 11 bd c5 6b b8 bc d1 46 7c bd 8f 66 c0 bd
       -0.035600755 -0.022512326 -0.061590973 -0.093945615
0002f0 a2 7f 9b bc d6 e3 09 bd b9 3b b4 3c 9f c9 d4 bd
       -0.018981759 -0.033664547 0.022001134 -0.10390019

conv2.lin_l.bias f4 [6]
000000 bc 3b 77 3d 65 69 98 bc 20 c2 1e 3d cd 57 19 3d
       0.0603597 -0.018604944 0.03875935 0.03743725
000010 5c 58 be 3c 47 9a af bd
       0.023235492 -0.08574348

conv2.lin_r.weight f4 [6, 32]
000000 7d 50 53 bd 42 b5 3e bd 5c fd b0 3e 2c 67 51 be
       -0.05159043 -0.04655958 0.34568298 -0.20449513
000010 c3 f0 7e bd 77 24 45 be e7 92 e5 3d b7 a8 e6 bd
       -0.062241327 -0.19252191 0.1120966 -0.112626486
000020 e0 57 63 3e fb 90 46 be 72 55 7c 3e c4 18 1d be
       0.2220149 -0.19391243 0.2464197 -0.15341479
000030 21 0d f4 3e 42 93 c2 3d 45 f8 a5 bd 39 c9 12 be
       0.47666267 0.095007434 -0.08103994 -0.14334573
000040 3f a7 25 3d 82 b0 ea 3e a2 88 a5 bc e2 26 1d 3f
       0.0404427 0.4583779 -0.020206753 0.61387455
000050 b6 b1 87 3e 92 94 ba bd 2b 81 13 be 3c af 9e 3e
       0.2650277 -0.09110369 -0.14404742 0.30993068
000060 4f 85 46 bd c8 07 62 3e 92 13 d8 bd 9b f1 ac 3e
       -0.048466977 0.22073281 -0.10550608 0.3377808
000070 c3 05 18 be 8a 6b e3 3e a0 59 77 3e 02 4c cc bd
       -0.14845948 0.44417983 0.24155283 -0.09975435
000080 95 e9 a0 3e 7c 4b 87 3e 6d b8 2f 3e 43 9a 54 be
       0.3142821 0.26424778 0.17160197 -0.20761971
000090 35 8e 3b be ab 89 37 3e 46 d7 80 3e 73 23 3a 3e
       -0.18315966 0.1792361 0.2516424 0.18177585
0000a0 e2 e0 68 3d e7 40 51 3e c2 b9 82 bd db cf 15 3d
       0.05685509 0.20434915 -0.06383087 0.03657518
0000b0 b7 59 9f 3c ce c5 2e bd 9e b9 09 3c 21 2e be 3e
       0.019451959 -0.04266911 0.008406071 0.3714457
0000c0 2e 38 9f 3d c5 c8 ce bd 52 55 24 be 15 3a 2f bc
       0.07774387 -0.100968875 -0.16048172 -0.010695
0000d0 ba f2 e1 3c 6a 00 d9 bd 28 83 f7 3e 12 3f fe bd
       0.027581561 -0.10595782 0.48342252 -0.124143735
0000e0 6d 55 04 3e 48 67 bf 3b fa 4e 17 be 1c 52 51 3d
       0.12923212 0.0058411695 -0.14776221 0.051103696
0000f0 a8 b8 00 3e 4f 94 27 be 7e d1 26 bd 79 34 62 3d
       0.12570441 -0.16365169 -0.04072713 0.055225823
000100 a0 5f 0b bd ae 52 88 bd 78 5e 06 be ab ff 73 3e
       -0.034026742 -0.06656395 -0.13121974 0.23827998
000110 40 95 92 3e 44 cf df 3d 74 eb da bd 3b be bd 3d
       0.28629494 0.10928205 -0.1068944 0.09264799
000120 13 21 cb bb a0 ac 35 be a6 af cb 3d a1 7c 50 3e
       -0.006199011 -0.17741632 0.09945612 0.20360042
000130 30 ed b1 bd 42 e8 91 3e f5 50 01 3e e7 93 3b be
       -0.08687818 0.2849751 0.12628539 -0.18318139
000140 ec 5a 8b be 92 d9 24 3b aa 22 3a 3e 03 07 78 bd
       -0.27217805 0.0025154096 0.18177286 -0.060553562
000150 3b 42 81 be 5a 3a 4d 3e 2b 39 78 be c2 6b 07 be
       -0.25245842 0.2004179 -0.24240558 -0.132247
000160 a5 89 0c be 01 ca ac 3a 67 f8 b4 3e 25 57 be bd
       -0.13724382 0.001318276 0.35345766 -0.09293965
000170 fb ec 26 3e 76 de 96 3d 8d 65 05 be 0c ed 30 be
       0.16301338 0.0736665 -0.1302702 -0.17277926
000180 49 9a d7 bc 7f 77 35 be 86 30 c4 be e3 f6 69 3d
       -0.026318686 -0.17721365 -0.3831827 0.057120215
000190 57 5d db 3d f4 4e 9e bd 70 45 dd bd f8 71 94 bd
       0.107111625 -0.07729903 -0.1080426 -0.072483
0001a0 bb bc 29 be af 5a ab bd 1c 9b 53 be 46 7e 40 3e
       -0.16575901 -0.08366906 -0.20664638 0.1879817
0001b0 82 f2 2c be 6c 78 6e bd af 7d 82 3d 3b e5 0c be
       -0.16889384 -0.058220312 0.063716285 -0.1375932
0001c0 f4 b2 19 be 4e ec 38 be 6c 26 78 3d 0e a7 ba be
       -0.15009671 -0.18058893 0.060583517 -0.36455578
0001d0 a6 a0 17 bd 52 c9 86 3e dc 38 82 bd 35 6b 88 3d
       -0.03701844 0.2632547 -0.06358501 0.06661073
0001e0 12 79 8b 3c 51 77 b4 be 18 2f 98 bd 0d ba 7d be
       0.017025504 -0.3524728 -0.074308574 -0.24778004
0001f0 71 1c f8 bd 1d c8 5a be 2d 6c a8 be 92 33 68 be
       -0.121148 -0.213654 -0.32895032 -0.22675923
000200 32 17 69 bc 15 8e 25 3d a5 8e 5f be b8 18 38 3e
       -0.014226722 0.040418703 -0.21831758 0.1797818
000210 69 6f 02 be 0b 09 3d bd 75 0b 30 3d 82 f9 ad 3c
       -0.12737812 -0.046151202 0.042979676 0.021237139
000220 94 3d 1d be bd 2f 4c 3c ee b7 4c bd dc f4 08 be
       -0.15355521 0.012462554 -0.049980097 -0.13374656
000230 57 46 8d be 21 44 ad bd 52 77 61 bc 53 6c 90 bd
       -0.27592728 -0.0846026 -0.013761358 -0.07051911
000240 9b fd 68 3c 37 49 82 be 44 d1 10 be cc ca 3e be
       0.0142206205 -0.25446483 -0.14142329 -0.18632048
000250 47 87 8a bd 45 0e 48 bd 29 06 69 3d fd 30 35 3e
       -0.06764083 -0.048841733 0.05689064 0.17694469
000260 17 b5 62 bc 8e 39 f4 3c cf 48 f8 bd f2 e4 a4 be
       -0.0138371205 0.0298126 -0.12123262 -0.3220592
000270 15 5d 08 3e f7 14 0d be f4 ac db bd af fe 8d 3d
       0.13316758 -0.13777529 -0.107263476 0.06933343
000280 31 a1 ba bc e7 ba 51 bd 9a b2 81 3d 40 8a 15 be
       -0.02278194 -0.051203635 0.06332894 -0.1460352
000290 ee a2 92 bd 70 4c 55 3d 72 cf c7 bd e9 6d 7e bd
       -0.071599826 0.05207485 -0.09756364 -0.062116537
0002a0 50 dd d4 3c e3 2e 11 bd 2b a4 c4 bb d7 6e 19 be
       0.025984436 -0.035445105 -0.0060010157 -0.14983688
0002b0 63 ce 6d 3d 4c 18 57 bd a6 4e 20 be c1 2f ea 3c
       0.058058154 -0.052513406 -0.15655002 0.028587224
0002c0 fa e2 58 be ff 37 26 3d 47 77 e4 bd 85 67 9f bd
       -0.21180335 0.040580746 -0.11155563 -0.07783417
0002d0 1b 4b a7 bc ae 08 2d be 48 19 ca 3d d3 c4 85 bd
       -0.020421555 -0.16897842 0.09868103 -0.06531682
0002e0 40 46 3a be b8 f9 a9 3d 2f 40 dd bd a2 1a 93 3d
       -0.18190861 0.08299583 -0.10803258 0.07182814
0002f0 a8 c2 96 bd 0b 72 5f bd 01 60 96 3c 1f 92 94 be
       -0.073613465 -0.05455212 0.018356325 -0.29017732
