trained_weights/fivedirections/lword2vec_gnn_five12_E3.pth (torch, 12247 bytes, 6 tensors)

conv1.lin_l.weight f4 [32, 30]
000000 0e d2 01 3e 4f 2e 86 bd b5 03 8e bd 70 83 f4 bc
       0.12677786 -0.065518014 -0.06934301 -0.02984783
000010 ce 59 34 3e 68 04 8d bb 73 9d 87 bb 5b 32 10 3e
       0.17612383 -0.004303504 -0.0041386425 0.14081709
000020 69 e9 46 3e 58 74 d3 bd 1e bf 10 be 57 59 45 3e
       0.19424976 -0.10324925 -0.14135405 0.19272362
000030 a9 87 ee bd 80 b3 fd bd 85 1e 2d be f1 0f 27 be
       -0.11646969 -0.123877525 -0.16906174 -0.16314675
000040 d8 31 69 be 3a 65 cf bd e2 34 75 bd 24 cd c1 3d
       -0.2277292 -0.10126729 -0.059864886 0.094629556
000050 b5 06 b5 3d 5e e7 d7 bd 06 a1 44 3d 71 97 56 bc
       0.0883917 -0.10542177 0.048005126 -0.01309763
000060 97 9d 2a 3d 07 63 14 3e 9e 72 70 3c 2f 6f e5 bc
       0.041654196 0.14490901 0.014675764 -0.028007118
000070 82 24 76 bc c7 93 41 bd 9e 7e e3 3d c3 a5 f7 3d
       -0.015023353 -0.047260072 0.11108135 0.120921634
000080 ac 5c be 3d 11 ce 1f be 98 29 37 3a 4d 9b a7 bd
       0.092950195 -0.15605952 0.0006987094 -0.08183918
000090 d2 8d 4d bd 94 34 0e 3e f3 95 64 be 8b 58 aa 3c
       -0.05018408 0.13887244 -0.22322826 0.020794174
0000a0 f2 11 58 3e 32 1a e9 bd e4 e5 fa 3c 1b df 37 3e
       0.21100596 -0.113819495 0.030627199 0.17956202
0000b0 bc 04 3b bd 19 9d c5 3d 21 7d 2a bd ad 38 98 3d
       -0.045658812 0.096491046 -0.04162324 0.07432685
0000c0 74 7c 1e bd 1d 06 cc bd e1 74 c1 3c c1 73 4a 3d
       -0.038692906 -0.099621035 0.023615303 0.049426798
0000d0 0c 46 7b 3d 8a 4b 19 be 24 f1 7e 3d ed 09 90 3d
       0.0613461 -0.14970222 0.06224169 0.07033143
0000e0 95 aa 80 bd 44 d0 0e 3e e7 52 1d be b9 9c df bb
       -0.06282536 0.13946635 -0.15363656 -0.0068241027
0000f0 9c 5e 1d be a5 cf 96 3d a9 41 18 3e e8 d5 06 bb
       -0.15368122 0.07363824 0.14868797 -0.0020574275
000100 46 8f 9e bc 14 d9 1d 3e 0a df 09 be 79 e4 ec bd
       -0.019355427 0.1541484 -0.13463989 -0.11567015
000110 5d 8f 0b be 03 9b ea bd 83 ae 87 3d d4 e0 b4 bd
       -0.13628908 -0.114553474 0.06625082 -0.08831945
000120 ea 3a 93 3d dc 1f ea bb 37 ea b3 3d 66 96 cc bd
       0.07188971 -0.007144911 0.08784907 -0.09989624
000130 cb 8d ce bc e4 5d cf 3d 84 df a4 bd 6b ac 08 3e
       -0.025214097 0.1012533 -0.08050445 0.13347022
000140 ea 27 48 bd 71 24 14 bc 49 46 7f 3b 57 6d b9 3d
       -0.04886619 -0.009041891 0.0038951805 0.09054058
000150 c7 58 88 3d 4d 4c 24 bd b5 86 e8 3d 34 a5 bc bb
       0.06657558 -0.04011183 0.11353818 -0.0057569984
000160 96 57 dd bd 20 07 1c 3c 69 0b 4d 3e 61 4d 36 3e
       -0.10807721 0.009523183 0.20023884 0.17802955
000170 40 a1 d9 3c 8e 89 20 bd c0 2f 09 3d 82 35 b8 bd
       0.026566148 -0.039193682 0.033492804 -0.08994581
000180 43 1e 2c be f7 37 f8 bd ac 27 42 be fa f7 1f 3e
       -0.16808419 -0.121200494 -0.18960446 0.1562194
000190 38 81 0a bd d7 62 0c be d3 fa 39 3d 55 a9 91 3d
       -0.03381464 -0.1370958 0.04540522 0.07112376
0001a0 5a f6 28 3e 9c c9 71 3e 2c 7f 77 bd a0 e6 af bb
       0.16500226 0.23612064 -0.060424015 -0.005368069
0001b0 c0 0a 20 bc ce 68 16 bc 6e a4 be bd 0a ff ad bc
       -0.009768188 -0.009180261 -0.09308706 -0.021239776
0001c0 ec ad e2 bc 6d c2 d0 3d 5d eb cb bd a1 49 10 be
       -0.027670823 0.10193334 -0.09957001 -0.14090587
0001d0 fc 3d 3b be 68 3c 1d be c7 bd f9 bc be d8 28 3d
       -0.18285364 -0.15355074 -0.030486 0.041222326
0001e0 e4 f1 00 be 72 0d 19 3e f0 90 b9 3d cc d5 52 3b
       -0.12592274 0.14946535 0.09060848 0.003217089
0001f0 b2 ff ad bc 97 dc 14 bc b5 26 98 3d 2f 0d 04 be
       -0.02124009 -0.009085796 0.07429258 -0.12895654
000200 ea 12 bc bd 6c 40 56 be 55 5a 51 be d6 77 fa 3d
       -0.09183295 -0.20923012 -0.20444615 0.12229888
000210 db 85 db bd 30 25 03 3c 08 e7 21 be 79 9e ee 3d
       -0.1071889 0.008004472 -0.15810788 0.1165132
000220 ca 52 5d be ac 6f f5 bd a0 a2 ca bc fe 11 8a bd
       -0.21613613 -0.1198419 -0.024735749 -0.06741713
000230 8e da f2 3d 94 08 23 be 1e 29 a0 bc ff 38 5b bc
       0.11858092 -0.15921241 -0.019550856 -0.013380288
000240 45 2b 87 3d e6 03 3a bc 61 2b ca bd 28 11 80 3e
       0.0660005 -0.0113534685 -0.09871555 0.2501309
000250 dc fd 81 bd 20 9f 8d 3d ca ff cf bc bf 1e 74 bd
       -0.06347248 0.06915116 -0.025390524 -0.059599634
000260 73 56 e3 3d 8b e0 f2 3d e5 d1 85 bd 9a e0 cd bd
       0.11100473 0.118592344 -0.06534175 -0.10052605
000270 3d ed 05 3e 29 16 03 3e d5 b0 3c 3d d9 10 6e bd
       0.1307878 0.12801422 0.046067078 -0.058121536
000280 c1 1d 55 3d cd da 1f 3e eb 1c 0d 3e 61 81 30 bd
       0.05203033 0.1561081 0.13780563 -0.043092135
000290 68 40 88 bd fc 8f 54 bd 7f 3f 6f 3e 5f 2a 66 3d
       -0.066529095 -0.051895127 0.23364066 0.056192752
0002a0 b9 3e 2b be 60 d6 37 3a 54 39 b6 bd 72 bd 1c bc
       -0.16723146 0.00070128404 -0.08897653 -0.009566652
0002b0 13 3f 69 bd cc 80 fd 3d 95 0b 19 3e 9f 4a 18 3e
       -0.056944918 0.12378082 0.14945824 0.14872216
0002c0 eb 17 20 3e 26 64 3e be af d2 69 be 02 4f 80 3a
       0.15634124 -0.18592891 -0.22834276 0.0009789171
0002d0 31 fd bf bd 25 23 0d 3d 0d ef 0a bd b0 44 1f 3a
       -0.09374464 0.034457345 -0.033919383 0.0006075604
0002e0 0d ac 01 3e 5a e0 3d be 7a e9 a8 3d e5 27 12 3d
       0.12663288 -0.18542615 0.08247657 0.035682578
0002f0 da 58 27 be 02 11 82 3e 5c a9 8b bd 2a a9 35 be
       -0.16342488 0.254036 -0.06819412 -0.17740312
000300 d0 92 de ba 65 b0 51 3d 91 cc 0a 3e 33 ca 40 3d
       -0.0016981009 0.051193614 0.13554598 0.047067832
000310 2b 1a 9e bd ec e1 80 bd 2e e2 28 3d ef 59 7a 3d
       -0.07719835 -0.06293091 0.041231327 0.061120924
000320 28 e9 46 3d 82 ba fa 3c 15 70 a2 bc 39 ca 54 be
       0.0485622 0.030606512 -0.019828836 -0.20780267
000330 ee d4 06 3e 2a 22 4d be 83 18 08 be 21 5c e9 bd
       0.13167164 -0.20032564 -0.132906 -0.11394525
000340 dc 87 23 3b 9c 21 8d bd f7 84 d7 bd 06 5c 88 bc
       0.0024952805 -0.06891176 -0.10523408 -0.016645443
000350 1e 6e d7 bd 9b f5 36 bc 19 28 ff 3d 4d e2 de bd
       -0.1051905 -0.011166955 0.1245882 -0.10883007
000360 f1 3e 11 3c 78 79 ff 3d fe 4c e1 bd dc 2d 4e bb
       0.008865104 0.1247434 -0.11001013 -0.003146044
000370 fc 83 26 3e 08 b7 9a 3d a5 b8 e4 bd e1 08 93 3d
       0.16261286 0.07554442 -0.11168031 0.07179428
000380 57 61 1f 3e 09 65 b5 bd de ec 38 bd 08 0a 9a bc
       0.15564476 -0.088571616 -0.04514777 -0.018803611
000390 4f c2 32 3e 52 bc 0f 3d cc fe d5 3d a6 24 c9 bd
       0.17456935 0.035091706 0.10448989 -0.09821443
0003a0 66 9d e7 bd 94 83 e2 3d 32 21 aa bc a0 43 41 3d
       -0.11309318 0.11060253 -0.020767782 0.047183633
0003b0 0e b1 26 3d e4 18 c8 bd d0 c8 71 bd 45 38 d9 3d
       0.040696196 -0.097703725 -0.0590294 0.10606436
0003c0 c8 15 cf bd 05 c5 f2 bd 23 3b 04 3e 2e 1c 91 bd
       -0.10111576 -0.11853985 0.12913184 -0.07085453
0003d0 fa 5e 3f 3d 34 a6 47 be a0 fc 1e bd 70 53 bc bb
       0.046721436 -0.19496995 -0.03881514 -0.005747251
0003e0 84 b4 2b 3e b7 c8 9d bd 38 2d 80 3e c3 ba 1b 3e
       0.1676808 -0.07704299 0.250345 0.15207963
0003f0 f4 12 dd bc 93 b3 b7 3d cc b4 98 bd 74 96 e1 bc
       -0.026986577 0.08969798 -0.07456359 -0.027537562

conv1.lin_l.bias f4 [32]
000000 4e 5d 06 3e e1 33 6f be 89 37 d5 3d 9e c2 4a 3d
       0.1312153 -0.23359634 0.10410983 0.049502008
000010 3b e4 47 be 66 80 36 3e f8 b7 3f be e1 73 94 bc
       -0.19520657 0.17822418 -0.18722522 -0.018121662
000020 e1 76 bd 3d 63 dc 84 3c c7 d7 2a 3e 20 e3 0e be
       0.0925119 0.01621837 0.16683875 -0.13953829
000030 e8 44 21 3d 0b 6f 43 bd fb f3 08 be b3 e5 9c 3e
       0.039372355 -0.04771332 -0.13374321 0.30643997
000040 15 aa 58 3e 22 81 ae 3d e1 68 ab bd 52 c6 1a be
       0.21158631 0.08520724 -0.083696134 -0.15114716
000050 12 13 5a 3d 7c 03 f9 3c 92 d2 d6 bc 45 01 f2 bd
       0.053240843 0.03039717 -0.026223455 -0.118166484
000060 70 ec 54 3e c3 83 bc 3d ba 0c c7 3c d2 4d 98 3c
       0.20793319 0.09204819 0.02429806 0.018591795
000070 74 82 47 be b3 72 7f 3d b7 8f 9b bc 9e 9c 7c 3d
       -0.19483358 0.062365245 -0.018989427 0.0616728

conv1.lin_r.weight f4 [32, 30]
000000 d9 1f 6b bd ef e7 99 bd c2 5d 13 3e 5e d8 09 3e
       -0.05740342 -0.07514941 0.14391235 0.13461444
000010 4a d9 10 bd 8b de 4c 3d e1 63 cb 3c 8a 5b 91 bc
       -0.035363473 0.05001692 0.0248279 -0.017743845
000020 88 e6 db 3d 8e bd 4a be f8 b7 13 3e 70 66 1b 3e
       0.1073733 -0.19798872 0.14425647 0.15175796
000030 ff a9 54 bd 52 41 ec bd b6 46 af bc e0 bd 13 be
       -0.051919933 -0.11535896 -0.021396022 -0.144279
000040 0a fc 15 3d 1a fd 02 be 57 d5 d9 3d 90 ee 65 bd
       0.036617316 -0.12791863 0.106363945 -0.056135714
000050 e3 12 bc 3d 25 54 12 3e 67 b8 33 3e e9 a2 1c 3d
       0.0918329 0.14289911 0.17550813 0.0382413
000060 b5 a8 8f 3d c4 a1 d8 3c 7c d3 1e 3e b0 6e 1a 3e
       0.070146 0.026444323 0.15510362 0.15081286
000070 a3 f2 73 bc 17 08 9b 3d 55 a2 6b bb fe 16 ec bc
       -0.014889392 0.075699024 -0.0035954912 -0.028819557
000080 5a 90 ea 3d 4c 99 46 bc 75 cc 87 3c d5 40 26 3e
       0.11453314 -0.01212151 0.016576985 0.16235669
000090 82 9b 54 3d 02 ee 24 3e 4e 3f 21 bd e5 a2 85 bd
       0.051906116 0.16106418 -0.039367013 -0.0652521
0000a0 1d d6 46 be 90 36 89 3d 80 b0 d8 b9 2e 84 c8 bc
       -0.19417615 0.0669986 -0.00041330233 -0.02447709
0000b0 8e 5d e6 3d 8f 30 86 3e 7f f6 17 3e 16 96 aa 3c
       0.11248313 0.26208922 0.14840125 0.02082352
0000c0 19 00 4b bd 06 7f b0 bd bd 11 a4 3c 3e ce c6 bd
       -0.04956064 -0.08617978 0.02002799 -0.09707306
0000d0 72 a5 65 3d d1 4a f4 bd 2a de ce bc dc f7 13 be
       0.056065984 -0.119283326 -0.02525242 -0.1445002
0000e0 61 a4 88 bd 4e 07 30 bc 4b 39 2f be 7f f8 d9 3d
       -0.06671978 -0.010743929 -0.171117 0.106431
0000f0 b2 92 30 3d 79 5a 30 be 33 8a 39 bd 14 21 07 3e
       0.04310865 -0.17222013 -0.045297813 0.13196212
000100 2a f8 80 3e 65 af 89 3d 09 6f 38 3e 04 ac 91 3d
       0.25189334 0.06722907 0.18011107 0.071128875
000110 a9 3f b7 bc 2c 54 84 3d 5b 04 40 be a2 27 72 3e
       -0.022369223 0.06461367 -0.18751661 0.23647931
000120 67 26 05 3e 18 89 e5 bd 4c 6f 9f bc b1 3f 83 3e
       0.1300293 -0.11207789 -0.01946225 0.2563453
000130 1c 49 80 bc 2d f2 1a 3e d4 45 ec 3d 50 3e 82 bb
       -0.015659861 0.15131445 0.11536756 -0.0039747134
000140 2b 09 b1 3c 8f 5c 0b be de 1e 83 3e 80 bc 9b 37
       0.021610817 -0.13609527 0.25609487 1.8565217e-05
000150 c0 95 06 bd 29 a6 1e 3d 4e 62 52 3d ae 1e ac 3d
       -0.032857656 0.03873268 0.051363282 0.08404289
000160 d4 d4 63 3d 32 f7 5a 3b b1 00 1b bd d9 83 1d 3e
       0.05562289 0.00334115 -0.037842456 0.15382327
000170 58 eb 2f be 37 f9 52 be 2d ce 1f 3b 9b 86 0b be
       -0.1717962 -0.2060288 0.0024384365 -0.13625567
000180 1d 8d 0d be 81 c7 da bd 67 e5 64 bd c5 61 b1 3c
       -0.13823362 -0.106825836 -0.055882838 0.021653065
000190 81 87 08 be 38 8f e7 bd 3c 5a 5e 3d be ea 00 3e
       -0.1333294 -0.11306614 0.054285273 0.12589547
0001a0 36 40 1c be c4 ed 51 bd d6 4b eb 3c 80 3f 01 b7
       -0.1525887 -0.05125214 0.028722685 -7.703784e-06
0001b0 24 a9 0d bd 09 82 43 3d a8 80 a7 3d 18 75 57 bc
       -0.034585133 0.047731433 0.08178836 -0.013150476
0001c0 07 73 b8 bb f1 19 2b 3d 53 d2 e4 3b bc 93 0a bd
       -0.0056289467 0.041772787 0.0069830804 -0.033832297
0001d0 bb 31 91 3d 91 11 11 be 65 a0 35 bd 65 a9 11 be
       0.070895635 -0.14166857 -0.044342417 -0.14224775
0001e0 88 80 0b be 8c d4 4d 3d f8 75 b5 3d 84 df bc 3a
       -0.1362325 0.05025153 0.088603914 0.0014409875
0001f0 77 35 c8 3c 0f ec 05 3d 04 fa 2b 3e 50 a7 96 3d
       0.024439557 0.032695826 0.16794592 0.07356131
000200 a4 b6 f9 3d 1c b6 23 3d 2f c3 56 be 47 53 a1 bd
       0.12193039 0.039968595 -0.20972894 -0.07877212
000210 2a c0 aa 3c d4 d7 ed bd c9 3b aa bc 42 90 0a be
       0.020843584 -0.116134316 -0.02078046 -0.13531592
000220 a9 94 75 bd ef b0 81 3d cd fe 0b 3e 52 cb 95 3e
       -0.059956226 0.063325755 0.13671418 0.29256684
000230 32 24 89 bd 70 ff 4f 3d ec 55 f2 3d ca 9c 99 3d
       -0.06696357 0.050780714 0.118327945 0.07500608
000240 e1 65 e7 bd e3 d3 01 3e 4a 52 89 bd 9c 26 65 3e
       -0.11298729 0.12678485 -0.067051485 0.2237801
000250 1a 73 60 3e 2b 7c 13 bb 93 d1 fd bd d2 87 73 3c
       0.21918908 -0.002250443 -0.12393489 0.014863925
000260 ee 5c 5b bc 22 11 2f bd 42 29 8d bd 48 54 b4 3d
       -0.013388855 -0.04274095 -0.06892635 0.08805138
000270 f8 1c 7b be fe 1e cc bc be 16 99 3d 2c 99 df 3d
       -0.2452277 -0.024917122 0.07475041 0.10917887
000280 fe f8 73 3e d8 3d b1 bd be 60 40 bd 8c a6 39 3e
       0.23825452 -0.08654374 -0.04696726 0.18129939
000290 a4 64 14 3e da 81 30 3e e8 d3 43 3b d1 64 30 bd
       0.14491516 0.17237034 0.0029880945 -0.043064896
0002a0 b7 2f 3e be 4d d6 d0 bd 0a 12 f8 3d 77 6a 33 bd
       -0.1857289 -0.10197125 0.12112816 -0.043802705
0002b0 39 8c a9 bd 48 92 b7 bd eb cb 38 3e 66 36 48 3c
       -0.082786985 -0.08963448 0.18046539 0.012220001
0002c0 a5 bb 09 3e a3 75 3c be 55 4a 63 be 0e 53 57 be
       0.13450487 -0.1840425 -0.22196324 -0.21027777
0002d0 ec 8c 44 3e de 6c ff bc b9 8c f5 3c 2e 61 12 be
       0.19194382 -0.031179842 0.029974328 -0.14294884
0002e0 78 d0 f6 3d 34 2d f1 3c b5 23 6b be e8 31 de bb
       0.12051481 0.0294405 -0.2296284 -0.0067808516
0002f0 bf 16 f3 bc 37 87 6d bd 0a cf 26 bb b8 d6 f4 3d
       -0.029673932 -0.05799028 -0.0025452995 0.11955017
000300 df ce 5b 3d b4 c0 82 3d c7 5f a4 bd b8 30 28 3e
       0.053664085 0.063844115 -0.080260806 0.16424835
000310 0f 7a ee 3c 9f 09 0f 3e c0 de 98 3d 99 69 c7 3c
       0.029110936 0.13968514 0.07464361 0.024342345
000320 bb 91 f2 bd f3 b9 4f be da ab 29 be 39 50 f1 3d
       -0.11844202 -0.20285778 -0.16569462 0.117828794
000330 42 23 da bd c1 b8 54 be 54 6f cf bd dc 66 db bb
       -0.10651256 -0.20773603 -0.10128656 -0.0066956114
000340 17 52 70 be 8d 26 73 be c1 a1 fb bc 7b 7c 06 be
       -0.23468815 -0.23745175 -0.030716779 -0.13133423
000350 73 dd b3 3d 91 0c 65 3d f5 e0 34 be d9 fb 5f be
       0.087824725 0.055920187 -0.1766394 -0.21873416
000360 7a 17 1d 3e 9c 0d 90 bd e2 2e 90 bd 31 44 fd bc
       0.15340987 -0.07033846 -0.07040192 -0.030916305
000370 31 72 47 bd a2 5f a1 3d 88 66 8b 3b e7 fd eb bd
       -0.048692886 0.07879569 0.004254166 -0.115230374
000380 27 27 45 be 13 52 0d 3c 52 e6 20 be 27 06 e2 bd
       -0.19253217 0.008625525 -0.1571286 -0.1103633
000390 12 85 fb 3d 87 d4 6c be 86 f3 f4 3d 43 9b 27 be
       0.122812405 -0.23127948 0.11960511 -0.16367821
0003a0 ef 11 ac 3d 13 ca 39 3d 66 de 3f 3d 96 7c 5b be
       0.08401858 0.04535873 0.046842955 -0.21434245
0003b0 cf b1 53 3d d4 67 ba 3d d4 11 1d bc 62 25 8a 3d
       0.051683243 0.09101835 -0.00958677 0.067454115
0003c0 b1 c9 94 3d f7 b6 bc 3d 82 a4 68 3d df f5 bd bd
       0.07265032 0.09214585 0.056797512 -0.09275412
0003d0 6e 48 80 bc 84 e2 c3 bd b6 cd 30 bd d3 b1 53 be
       -0.015659537 -0.09564689 -0.04316493 -0.20673303
0003e0 99 d8 0b 3e 98 8f 77 3e 42 27 35 3e 29 f4 ad 3d
       0.13656844 0.2417587 0.17690757 0.084938355
0003f0 45 5b 3a 3d c2 c7 f3 3d f4 54 cf 3d 63 9a 1b be
       0.045497198 0.11903335 0.101236254 -0.15195613

conv2.lin_l.weight f4 [9, 32]
000000 42 16 1a be 53 9c 67 3d 51 89 97 3d 61 5b 7b 3d
       -0.15047553 0.056545567 0.07399238 0.061366443
000010 16 23 c5 3d f2 2f 83 bd 00 ca d4 3d 9e 9a a7 bd
       0.09625833 -0.06405629 0.10390091 -0.08183788
000020 25 f0 0d 3d 23 13 1c 3d d7 27 4f bd 44 e6 ef 3c
       0.034652848 0.038104188 -0.050575104 0.029284604
000030 2b eb 65 3c c7 41 9d 3d df 2f 05 3e 83 94 26 3e
       0.014033119 0.07678562 0.13006543 0.1626759
000040 dd 98 11 be e7 73 58 3e da 3c 55 3e 84 43 5a 3d
       -0.14218469 0.21137963 0.20823994 0.053287044
000050 65 32 ed bc 9a 9f 8d 3d 01 24 ae 3d 44 f8 cf bd
       -0.028954694 0.06915207 0.08502961 -0.10154775
000060 b0 3c a7 bd bc c3 91 3d 20 f6 9c bd 13 dd 29 be
       -0.08165872 0.071174115 -0.07664132 -0.1658824
000070 0e af ff 3c 02 2a 62 3b 4c 39 a3 bc 01 aa 7b bb
       0.031211402 0.0034509902 -0.019924782 -0.003840089
000080 36 10 94 bd 02 38 af 3d 0e eb 3a 3d bf 5f 32 3d
       -0.072296545 0.085556045 0.045634322 0.04354834
000090 95 c6 21 3d 39 ca 38 be 26 6c b1 bc 0b fe 05 be
       0.039496023 -0.18045892 -0.021658015 -0.13085191
0000a0 a6 5e 78 3c e8 62 08 be 53 e6 40 be 32 a6 7b be
       0.015159285 -0.1331898 -0.18837862 -0.24575117
0000b0 dd df 45 3d c6 ef 51 bd 64 7e ca bd 2b cd 74 3d
       0.048309196 -0.051254056 -0.09887388 0.059765976
0000c0 9c b8 db bd b2 0a 67 bc f8 90 ea bc 56 3d 84 bd
       -0.10728571 -0.014101671 -0.02863358 -0.064570114
0000d0 1d d1 3a be 60 15 ba bd 78 6a 66 3d f7 8a 63 be
       -0.18243833 -0.09086108 0.05625388 -0.2222098
0000e0 f1 49 12 3c 1a e4 48 be f8 24 0d be 91 84 58 bd
       0.008928762 -0.19618264 -0.13783634 -0.0528608
0000f0 6c a6 32 bd c4 08 d7 3b 7d 2b 5e bd db 8f c6 bd
       -0.043615744 0.0065623242 -0.054240692 -0.09695407
000100 c2 8c 29 bc 9e 3c da 3c 0b 56 b2 bd 72 88 a3 bd
       -0.010348501 0.026640233 -0.08707818 -0.07985009
000110 8e 0e de bc aa 99 a9 3d d6 08 19 be 7a 8e 4f be
       -0.02710655 0.08281262 -0.14944777 -0.20269194
000120 2c 6b 59 3e f8 86 8c 3d c7 8f 88 bc e3 dc b7 bd
       0.21232289 0.06861681 -0.01667012 -0.08977678
000130 f4 22 72 ba d7 17 ae 3d 83 9e 9e 3d ee 3a 15 be
       -0.0009236776 0.08500641 0.077450775 -0.14573261
000140 16 e8 b7 bd 28 1a 83 bd 95 fb 85 bd c0 d0 bc bb
       -0.08979814 -0.06401473 -0.06542126 -0.0057621896
000150 ff 23 5b bc 6c a2 4a 3e 83 44 c8 3d 8d 48 51 3d
       -0.013375281 0.19788522 0.097786926 0.05109458
000160 9d 59 38 be ae c4 48 3e 5e 58 89 3b 3f 24 4e 3e
       -0.18002935 0.19606277 0.0041914424 0.20131014
000170 cd ee df bc df 2d a3 bd cb 97 a1 bd 4e 44 c5 bd
       -0.027335549 -0.079677336 -0.0789028 -0.09632169
000180 ce 5e 8c bd fc 76 af bd 63 1a 83 3d 70 d2 60 be
       -0.0685402 -0.08567616 0.06401517 -0.21955276
000190 c0 74 19 3d f7 41 72 3d 45 f8 46 bd 06 1d 9e bd
       0.037464857 0.05914494 -0.048576612 -0.077203795
0001a0 68 ac 9f bd 60 c3 37 39 66 94 11 3d 38 98 fe bd
       -0.07796556 0.00017525023 0.035541914 -0.12431377
0001b0 50 33 ef bc fe 7f bd bd 41 bf 8e bd 19 34 54 3d
       -0.029199272 -0.09252928 -0.069700725 0.051807497
0001c0 4c fa 16 be a8 c3 7c bc 88 77 67 bd 4d f5 da 3d
       -0.14743918 -0.015427507 -0.05651048 0.10691319
0001d0 b2 53 a9 3d c3 d2 34 be b5 ee 9c 3d 44 2b 8e 3d
       0.08267917 -0.17658524 0.07662717 0.06941846
0001e0 23 87 84 3d 89 43 3f bd ea 52 82 3d e4 15 db 3b
       0.06471088 -0.046695266 0.06363471 0.006685959
0001f0 02 e0 48 be 5e 70 8a bc fe 92 09 bd b7 6e 08 be
       -0.19616702 -0.016899284 -0.03358745 -0.13323484
000200 81 23 e0 bd 6b 26 95 3d 29 2b c3 3c dd ac b5 3d
       -0.10944272 0.07282718 0.023824291 0.08870862
000210 52 ee 85 bd 23 be 35 be ab b4 4f 3d 0d ae 9d bc
       -0.065395966 -0.17748313 0.050709408 -0.019248033
000220 e6 92 80 bd 5c 74 b4 bd c9 1d a7 bb e3 98 4b be
       -0.06278019 -0.08811256 -0.005099986 -0.1988254
000230 13 46 c4 3d 1f 53 17 3d a3 b4 8d bd 25 15 92 3d
       0.09583678 0.036944505 -0.06919219 0.07132939
000240 f6 4e b0 3b 2a ea 29 bb c3 56 f4 bc cc 77 ec bc
       0.0053805066 -0.0025926926 -0.029826527 -0.028865717
000250 a5 45 f7 3c be 5c b8 bd d5 e5 6b bd 77 87 60 3d
       0.030184576 -0.09002064 -0.05759223 0.05481669
000260 ff 1d f2 bb f3 b9 16 3d 9a b2 42 bd 0b cb 76 bd
       -0.0073888297 0.03679843 -0.04753361 -0.06025223
000270 d9 b5 ec bd 70 a8 ed bb 06 98 0e be 6a 10 13 3d
       -0.11558122 -0.0072527453 -0.1392518 0.035904326
000280 ec fa 4d 3d 5e eb 56 bc 8a 36 5f bd dc ab f1 bd
       0.050288126 -0.013117639 -0.054495372 -0.11800358
000290 de 41 4a be d3 17 f8 bd bc 08 1c be a3 96 0e be
       -0.19751689 -0.12113919 -0.15237707 -0.13924651
0002a0 7e dd fa bd 20 4f 5a bd 1e d1 0d bd 6d bd 47 be
       -0.122492775 -0.053298116 -0.034623258 -0.19505854
0002b0 b1 44 bc 3d b1 67 ff bd ec ea 79 bd ce ae 6d 3c
       0.09192789 -0.124709494 -0.061015055 0.014507009
0002c0 ea bf 60 bd 13 2d ad bc 8d f9 69 bd 7c c5 1a bd
       -0.054870524 -0.021139657 -0.057122756 -0.037785992
0002d0 2b 04 f9 bd d6 cb f7 bd 2c 11 91 bd 40 44 08 bd
       -0.12158998 -0.120994255 -0.070833534 -0.033268213
0002e0 df 69 ea bd 4e 00 31 be f2 22 82 3d 50 e1 0f 3c
       -0.114459746 -0.17285272 0.063543215 0.008781746
0002f0 38 26 96 bd 84 cb 30 bc 2d 8b 10 bd af 5f c6 bc
       -0.073315084 -0.010790709 -0.03528898 -0.024215547
000300 42 c0 27 bd 79 d0 c4 3b 26 4c 77 be 87 0b 36 be
       -0.040954836 0.006006297 -0.24150142 -0.17777835
000310 f9 ac a9 bd e0 b6 57 3d d9 4f 00 3e 97 05 8b 3d
       -0.08284945 0.052664638 0.1253046 0.067881756
000320 8b da 88 3d 07 1c b7 3d 79 ed 1e 3e e8 32 22 bd
       0.06682309 0.08940893 0.15520276 -0.03959933
000330 99 cf 3c bd d9 63 11 3d 04 c8 91 bd 63 bb 1d bd
       -0.046096418 0.035495613 -0.07118228 -0.038508784
000340 30 2c 02 be 1a 1c a0 bd 03 24 b9 bc 84 1a 17 3e
       -0.12712169 -0.0781786 -0.02260018 0.14756209
000350 e6 7f 1f be 7d ab 73 3e cc 24 e3 3d 16 d8 93 bd
       -0.15576133 0.23795886 0.11091003 -0.072189495
000360 7b 19 5d 3e 63 a3 de 3d 3c a1 03 be de 77 a9 bc
       0.21591751 0.10871007 -0.12854475 -0.02068704
000370 18 ad b2 3d 19 be 1a bd e4 13 d3 bc 76 67 9f 3d
       0.08724421 -0.037778948 -0.02576632 0.077834055
000380 73 43 dc bc 22 e2 83 3d 1d dc 9f bd 49 d5 19 be
       -0.026887631 0.06439616 -0.07805655 -0.15022768
000390 37 1a fc 3d 9f 75 47 be ca 82 86 3d d5 97 da 3d
       0.123096876 -0.19478463 0.06567915 0.10673491
0003a0 d9 2c d0 bd ad 59 7b 3d af 6e c7 bd 0c 9d d5 3d
       -0.10164804 0.06136482 -0.09737908 0.10430345
0003b0 c8 3f 0e 3d ee 47 52 bd e8 20 52 bd 22 17 9d bc
       0.034728795 -0.05133813 -0.051300913 -0.01917607
0003c0 9a d0 50 3b ef a2 b7 bd 5a b7 01 bd 41 99 c3 bd
       0.0031862617 -0.08966624 -0.031669 -0.09550715
0003d0 57 bf 0e be 48 5c 44 bd d2 39 ae 3d 7b 41 b3 bd
       -0.13940178 -0.04793957 0.08507122 -0.08752724
0003e0 f7 04 58 3d 49 8f 06 bd d8 d7 c4 3b 25 8e 84 bd
       0.05273911 -0.03285149 0.006007176 -0.064724244
0003f0 c4 18 0c be 6f 86 17 3d 64 69 a1 3d e6 f3 c6 bd
       -0.13681322 0.03699344 0.0788143 -0.09714489

conv2.lin_l.bias f4 [9]
000000 64 55 97 3d fe 2f a9 3d 7a b3 9e 3d ae f2 1f 3d
       0.07389334 0.08261107 0.07749076 0.039049797
000010 44 04 cf bd 5d dd 0e 3d 65 7b 95 bc c1 52 02 be
       -0.101082355 0.034879077 -0.018247316 -0.1272688
000020 3d f5 3e 3e
       0.18648238

conv2.lin_r.weight f4 [9, 32]
000000 60 2d bb 3b 98 e9 34 bd 43 c7 23 bd 28 d2 4b bd
       0.005712196 -0.044168085 -0.039984953 -0.049760967
000010 9e 0d d2 bc d0 12 98 3c 27 3e 19 be 5a 6a ae bd
       -0.025641259 0.018563658 -0.14965115 -0.08516379
000020 6c d8 38 3d f7 0c 01 be ec da 2e be 7f ee a8 bd
       0.04512827 -0.12602602 -0.170757 -0.082486145
000030 79 65 a7 bc 02 db 53 bd 7c dd bd 3c a3 41 fc 3c
       -0.020434128 -0.051722534 0.023176901 0.030793017
000040 e7 7f b7 3c 11 7b 42 be 4c 20 57 be 6e 7e 31 be
       0.022399856 -0.18992259 -0.21008414 -0.17333385
000050 c0 92 95 bd 7c ec 0b 3d c5 00 02 3e bf b0 06 be
       -0.07303381 0.034161076 0.12695606 -0.13153361
000060 60 36 07 be ea e0 90 bd 38 f2 c7 3d c9 6e 37 bd
       -0.13204336 -0.07074149 0.097629964 -0.044783387
000070 33 26 ae 3d b2 46 bd bb 91 ec f3 bd d4 92 48 3c
       0.0850338 -0.00577625 -0.11910356 0.012242038
000080 96 61 ee bb 7c 8c 2b be 97 2c a1 bd f0 c6 de 3d
       -0.0072748167 -0.1675281 -0.07869833 0.10877788
000090 d1 53 02 3d 17 03 49 be bf 86 d4 bd 45 8b 53 3d
       0.031818215 -0.19630085 -0.10377263 0.05164649
0000a0 8a dd 9d bc b6 2b 22 3d 6f 58 11 be 86 54 58 be
       -0.019270677 0.039592467 -0.14193891 -0.21125993
0000b0 0d a7 05 be b9 bc df bc f0 88 ce bd 34 95 9e bd
       -0.13052006 -0.02731167 -0.100847125 -0.07743302
0000c0 32 32 a9 bd 98 37 9a 3c d3 ff 39 be c8 73 da bd
       -0.08261527 0.018825337 -0.18163995 -0.10666615
0000d0 90 8d 05 3d 25 d3 6a 3c 39 e2 44 be 4b dc 9d be
       0.032605708 0.014332567 -0.19226922 -0.30832133
0000e0 20 f4 5d bd 4c c0 a4 3d d2 c9 22 be 1d a6 b3 bd
       -0.054187894 0.0804449 -0.15897301 -0.08771918
0000f0 13 35 9d 3d 10 5b 17 be 37 d1 00 be f8 11 18 be
       0.07676139 -0.14780831 -0.12579809 -0.14850605
000100 74 55 11 3d 7d 02 5c 3d 86 b9 52 bd 2a 2d 11 3e
       0.035481885 0.05371331 -0.05144646 0.14177385
000110 19 b5 a3 3c be 63 9f 3d 66 35 b2 bd 06 50 05 bd
       0.019983815 0.07782696 -0.08701591 -0.03254702
000120 cd 06 82 3d 8b 46 72 be 32 c2 2c be f2 e9 23 3e
       0.063489534 -0.23659723 -0.16870955 0.16007212
000130 f1 d8 73 3e f8 05 6d bd e6 15 89 bd 40 7f 2f be
       0.23813225 -0.05786702 -0.0669363 -0.17138386
000140 33 94 c5 bd 80 88 1a 3e 90 3b 43 3d 14 d0 93 bd
       -0.096474074 0.15091133 0.047664225 -0.07217422
000150 c2 ec 29 3e 6c 39 36 3e 7d f8 1c 3e f0 52 59 3e
       0.16594222 0.17795342 0.15329166 0.21223044
000160 40 7b 52 bd 28 b0 13 bd fd 71 82 3c a3 47 bc bc
       -0.05138707 -0.036056668 0.015923494 -0.022983378
000170 b8 eb 7c bd 3f 62 21 3e 75 55 b2 3d 72 c4 4d be
       -0.061748236 0.15760134 0.08707706 -0.20094469
000180 7c 26 e4 bd ba c8 42 be b0 e8 dc 3d 6e bc 5d 3d
       -0.11140153 -0.19021884 0.10786569 0.05413478
000190 35 25 eb bd 21 36 ad bd b9 34 bd bd f7 a8 22 3e
       -0.11481706 -0.0845759 -0.09238572 0.15884767
0001a0 51 9a 6d be 85 37 b0 bd ca db d0 bd f4 5f 4a 3c
       -0.23203398 -0.086043395 -0.101981714 0.012351979
0001b0 34 6d f1 bd da df 67 3c e3 a5 7e bd 02 5d 07 bd
       -0.11788407 0.014152491 -0.06216992 -0.033047684
0001c0 c7 16 34 bd bc 37 20 be f3 6f 69 bd 67 09 aa bc
       -0.043967035 -0.15646261 -0.05699153 -0.020756437
0001d0 23 13 32 bc 06 e7 0a be 3e 02 14 be 22 7f 87 be
       -0.01086882 -0.13564691 -0.1445398 -0.26464182
0001e0 46 00 90 bd 20 32 20 3d a4 23 a7 bc c7 61 b8 bd
       -0.07031302 0.039110303 -0.020402737 -0.090030245
0001f0 85 9d 32 be cd f4 6f be 60 0d c7 bd ce 75 c7 bd
       -0.17442901 -0.23433228 -0.09719348 -0.09739266
000200 a1 cf 2b be 4d 22 64 be 8e 34 47 bd 2b e9 5f be
       -0.16778423 -0.2227871 -0.048634104 -0.2186629
000210 f7 34 44 3b c6 01 13 bd ea bb 97 3c 0b 67 1c be
       0.0029938796 -0.035890363 0.018522222 -0.15273683
000220 ea 40 50 3c a9 c9 7b 3d ba f7 ea 3c 49 dd f6 bd
       0.012710789 0.061471615 0.028682578 -0.120539255
000230 10 4f 03 3b 2f 87 02 be 5a c9 61 3d 88 f6 cf 3d
       0.0020036139 -0.12746881 0.055123664 0.10154444
000240 ac 6c d4 3c ee 50 ec bd 5c 46 bf bc fb 0b 3b bd
       0.025930725 -0.115388736 -0.02334898 -0.045665722
000250 a0 ef 25 3c 66 f0 1c be 7b 92 49 bd de 0d 54 be
       0.010127932 -0.1532608 -0.04921196 -0.20708415
000260 52 a5 a7 bc 67 60 ae bd 73 3c 1d be 6c 64 46 be
       -0.020464573 -0.08514481 -0.15355091 -0.19374245
000270 15 26 9c 3d c2 5c 83 3d a9 a7 96 bd 75 97 da 3d
       0.07624451 0.064141765 -0.073561974 0.106734194
000280 53 2e f4 3c 07 0b 40 be 80 f0 be bd e6 f8 33 be
       0.029807245 -0.18754207 -0.093232155 -0.17575416
000290 b7 99 38 bc 4b a7 da bd 55 1a a2 bd 76 0f 81 3d
       -0.011267117 -0.1067644 -0.07915179 0.06301777
0002a0 df 59 17 be d9 60 b1 bd 99 36 fd bd 1b 70 24 be
       -0.14780377 -0.0866105 -0.12363929 -0.1605839
0002b0 4e 3f 2c 3d 62 8f b5 bd 26 81 bf bd 68 d0 0c 3d
       0.04205256 -0.08865239 -0.09350805 0.03437844
0002c0 a0 16 08 be 22 39 68 be 9e 40 9e 3c 78 b3 5f bd
       -0.13289881 -0.22678044 0.019317921 -0.054614514
0002d0 a8 3d 2a be 6d 65 2d be 71 0c b6 bd 1e 90 f9 bd
       -0.16625082 -0.16933222 -0.08889092 -0.12185691
0002e0 eb 55 4e bc 07 da 4a be 6a 6c c6 3d 7a b5 71 be
       -0.012593727 -0.19809733 0.09688647 -0.23604384
0002f0 24 e9 2b bc fd ed de bd 18 ab 15 be a9 bc a5 3d
       -0.010492597 -0.108852364 -0.14616048 0.08092625
000300 60 ba a4 bd a1 b4 2e 3e ce bc 9b 3d 9c 2f e6 3d
       -0.08043361 0.17061092 0.07604371 0.112395495
000310 84 69 02 be 99 9f 3f 3e e3 b2 ff 3d cf 5a 92 bd
       -0.12735564 0.18713225 0.12485292 -0.071462266
000320 42 c9 bc 3d 5a 40 07 bd 2f 4a a2 3d 04 c2 f6 bd
       0.092180744 -0.033020355 0.07924306 -0.12048724
000330 74 f6 48 3e 0b 51 64 3d f2 3b 08 bc e4 56 a4 bd
       0.19625264 0.05574135 -0.008315073 -0.080243856
000340 73 c7 3a bd 4e b5 3b 3d 26 99 ef bc 4a 97 d9 bc
       -0.045600366 0.045827202 -0.029247832 -0.026561398
000350 ad f7 a7 3d 54 0f f2 3c f1 45 94 3e 9d 41 61 3d
       0.08201537 0.029548325 0.2895961 0.054994214
000360 a7 83 62 3d e1 75 b4 3d 6f 7b 83 bd 0a 29 8c bd
       0.055301335 0.08811546 -0.064200275 -0.06843765
000370 53 28 a0 bd da 8f 3d be e2 9c 91 3d aa 1b aa 3d
       -0.07820191 -0.18511906 0.07110001 0.08306058
000380 1c 9e 23 3c 40 bb 4f 3e 1e ce 37 3d 7f 78 31 bd
       0.009986427 0.20286274 0.044874303 -0.043327805
000390 b3 af 10 3e 12 9f a6 bd df 3a 9f bd e2 22 df 3d
       0.14129524 -0.08135809 -0.07774901 0.10895325
0003a0 c7 21 8e 3d 1d 1c 89 bd 0a 2e 03 3e d6 8f f6 bd
       0.06940036 -0.06694815 0.12810531 -0.12039153
0003b0 ae ca 23 bd 8d 3e 2c bd a2 2d 6c bc 51 85 ab bd
       -0.039988212 -0.04205184 -0.014415177 -0.083750375
0003c0 a2 ab e0 3c 0f b5 05 be c5 d9 31 3d 06 a4 eb 3d
       0.02742559 -0.1305735 0.04342057 0.11505894
0003d0 7e 6b 84 bd 64 95 12 be 54 7a 1c bd 13 3a 9c bd
       -0.06465815 -0.143148 -0.0382026 -0.07628264
0003e0 8d 86 1d bd 88 4f 01 bc a8 a2 cd 3d d6 81 33 be
       -0.038458396 -0.007892497 0.1004079 -0.17529997
0003f0 f9 d3 b5 bd 82 4b ca 3d 8a e1 86 bd cb 79 c4 bb
       -0.08878321 0.09877683 -0.06585987 -0.005995964
