trained_weights/fivedirections/lword2vec_gnn_five1_E3.pth (torch, 12247 bytes, 6 tensors)

conv1.lin_l.weight f4 [32, 30]
0.116820425 -0.036251437 -0.05004506 -0.06956965 0.15057921 -0.006936674 -0.02119119 0.16481851
0.208895 -0.051105976 -0.10825584 0.1901916 -0.07003449 -0.12601127 -0.11795481 -0.12542902
-0.14844057 -0.08526224 -0.14770901 0.012447607 0.113655455 -0.09893943 0.043806493 -0.022678532
0.045224704 0.18121132 0.022572346 -0.04734776 -0.11457335 -0.06020626 0.09551673 0.053315844
0.09036959 -0.08069926 0.072592504 -0.12186338 -0.0016455832 0.13455556 -0.2229857 -0.045517467
0.15221106 -0.073714115 -0.04432106 0.15505387 -0.029511169 0.049740985 -0.08570604 0.11394685
0.049830697 -0.008370813 -0.0070537413 0.05882239 0.089536324 -0.123133175 0.026210885 0.06422104
-0.115186945 0.15345466 -0.09712182 0.034995925 -0.12641196 0.041370418 0.14913893 -0.008319721
-0.0060871015 0.10790378 -0.15036696 -0.13827878 -0.16094291 -0.104400635 0.053386293 -0.0974316
0.09223251 0.012073834 0.11800554 -0.08444652 -0.024958132 0.10566669 -0.08069653 0.15239777
-0.07651964 -0.011215294 -0.037204377 0.07106259 0.081966124 -0.07779519 0.096878596 -0.03413957
-0.064078934 -0.021404011 0.1710428 0.17461072 0.05129904 -0.009802999 0.07481852 -0.089619
-0.13852645 -0.094847485 -0.16159305 0.12383905 -0.016957467 -0.106606096 0.018831693 0.040669266
0.16298126 0.20644398 -0.09645665 0.023707896 0.02489879 0.02396318 -0.0667877 0.0034785806
0.0026322897 0.13307455 -0.13052164 -0.113429084 -0.16042691 -0.12844808 0.0072618956 0.06970372
-0.10746033 0.16355276 0.10665365 -0.060896285 -0.013143231 -0.044864886 0.028923502 -0.12364217
-0.10459098 -0.12939364 -0.19680156 0.11078973 -0.073816344 0.027337754 -0.13607612 0.15302502
-0.15877612 -0.116131835 -0.0868946 -0.14833032 0.12295316 -0.17253701 -0.05271014 -0.06481392
0.09415391 0.0021815277 -0.138188 0.19129016 -0.1294872 0.016096 -0.0010543109 -0.08496555
0.11120127 0.13658734 0.008967337 -0.108725175 0.1209663 0.10165683 0.020409893 -0.0628591
0.005662915 0.1517406 0.07135023 -0.025219707 -0.13179772 -0.08483939 0.14215237 0.017808348
-0.058908015 0.07794881 -0.12939721 -0.023770124 -0.06919636 0.08724538 0.16136992 0.10542469
0.121769905 -0.20458888 -0.117785 0.00090957247 -0.119513325 0.016036265 -0.07283932 0.036562964
0.16159803 -0.18816113 0.11441695 0.052908424 -0.14966844 0.21723312 -0.11406114 -0.15386187
-0.04413624 0.025432212 0.085216254 -0.012059523 -0.12759264 -0.04562436 0.092237264 0.10226313
0.061978154 0.022519715 0.008204441 -0.18001546 0.10723788 -0.2026944 -0.11321049 -0.087345324
0.08380851 -0.042442974 -0.1222401 0.00920968 -0.103742 -0.034743454 0.09896483 -0.06750554
0.018770183 0.14796937 -0.09630823 -0.061066505 0.21431315 0.079559065 -0.040819764 0.054948814
0.1554852 -0.074041046 -0.036386512 0.012380371 0.0900935 0.025073364 0.13971841 -0.103292346
-0.08264962 0.14788172 -0.020519298 0.07740534 0.077690735 -0.064947695 -0.108092904 0.094339006
-0.060185 -0.11865228 0.070801094 -0.00088254455 0.026821783 -0.17214817 -0.0372693 -0.07556385
0.112274006 -0.110636845 0.18809839 0.110722646 -0.10439074 0.12342897 -0.13154286 -0.042096354
00000000: 8c3f ef3d 637c 14bd 0dfc 4cbd 887a 8ebd
00000010: 7031 1a3e 0a4d e3bb 2699 adbc 2fc6 283e
00000020: 92e8 553e 8054 51bd 3db5 ddbd 96c1 423e
00000030: 3e6e 8fbd 1909 01be 4b92 f1bd 7770 00be
00000040: ce00 18be f89d aebd 0841 17be 0cf1 4b3c
00000050: 31c4 e83d c2a0 cabd 706e 333d 54c8 b9bc
00000060: 8a3d 393d 768f 393e a4e9 b83c baef 41bd
00000070: 6fa5 eabd d79a 76bd 469e c33d b761 5a3d
00000080: b113 b93d a745 a5bd 61ab 943d 8293 f9bd
00000090: 9cb0 d7ba efc8 093e 5d56 64be 8670 3abd
000000a0: 37dd 1b3e 6df7 96bd 008a 35bd 71c6 1e3e
000000b0: 68c1 f1bc 34bd 4b3d a686 afbd f75c e93d
000000c0: 461b 4c3d bc25 09bc 1223 e7bb bfef 703d
000000d0: d25e b73d 3f2d fcbd 36b8 d63c 5286 833d
000000e0: 22e7 ebbd 3823 1d3e cee7 c6bd e357 0f3d
000000f0: 2372 01be 0774 293d e0b7 183e 704f 08bc
00000100: 4f76 c7bb a8fc dc3d ccf9 19be f498 0dbe
00000110: 38ce 24be 00d0 d5bd 96ab 5a3d 388a c7bd
00000120: 66e4 bc3d 55d1 453c e3ac f13d 4cf2 acbd
00000130: ff74 ccbc c767 d83d 3944 a5bd 290e 1c3e
00000140: 54b6 9cbd 5ac0 37bc 9e63 18bd 4389 913d
00000150: dbdd a73d 1653 9fbd 4968 c63d efd5 0bbd
00000160: d13b 83bd 7757 afbc d825 2f3e 27cd 323e
00000170: f11e 523d c29c 20bc 743a 993d 2b8a b7bd
00000180: e1d9 0dbe 663f c2bd a678 25be 549f fd3d
00000190: 63ea 8abc 4c54 dabd ec44 9a3c d194 263d
000001a0: 8fe4 263e 0d66 533e 108b c5bd 1037 c23c
000001b0: 8cf8 cb3c 6e4e c43c fdc7 88bd e6f8 633b
000001c0: 7e82 2c3b b244 083e 77a7 05be 824d e8bd
000001d0: f446 24be e587 03be 32f5 ed3b d3c0 8e3d
000001e0: 2914 dcbd 607a 273e 3b6d da3d 626e 79bd
000001f0: b556 57bc 3ec4 37bd fbf0 ec3c 1b38 fdbd
00000200: cc33 d6bd c47f 04be 5986 49be bae5 e23d
00000210: 062d 97bd 6df3 df3c 8a57 0bbe 97b2 1c3e
00000220: 3596 22be 87d6 edbd ccf5 b1bd e7e3 17be
00000230: dece fb3d 8bad 30be 96e6 57bd 29bd 84bd
00000240: c4d3 c03d f6f7 0e3b 2881 0dbe 91e1 433e
00000250: 4b98 04be c2db 833c ce30 8aba 6b02 aebd
00000260: 7ebd e33d 8ddd 0b3e bdeb 123c 4eab debd
00000270: 2ebd f73d 7531 d03d a632 a73c 46bc 80bd
00000280: f98f b93b e361 1b3e 1220 923d 8f99 cebc
00000290: fbf5 06be 46c0 adbd 6490 113e d0e2 913c
000002a0: 8849 71bd a0a3 9f3d b480 04be 90b9 c2bc
000002b0: d2b6 8dbd b5ad b23d 283e 253e e6e8 d73d
000002c0: 8062 f93d bf7f 51be 4339 f1bd 6070 6e3a
000002d0: 67c3 f4bd 7c5e 833c c82c 95bd 0cc3 153d
000002e0: f479 253e 50ad 40be 6f53 ea3d 81b6 583d
000002f0: af42 19be 5c72 5e3e e398 e9bd f78d 1dbe
00000300: 34c8 34bd 3757 d03c dc85 ae3d 4e95 45bc
00000310: a5a7 02be 9ce0 3abd e4e6 bc3d 556f d13d
00000320: cedc 7d3d 447b b83c eb6b 063c f955 38be
00000330: 899f db3d 1f8f 4fbe e7da e7bd 1be2 b2bd
00000340: cca3 ab3d afd8 2dbd 0459 fabd 33e4 163c
00000350: b076 d4bd 274f 0ebd 13ae ca3d 5840 8abd
00000360: edc3 993c 4885 173e 403d c5bd df20 7abd
00000370: e874 5b3e ddef a23d a032 27bd 0212 613d
00000380: 8337 1f3e d5a2 97bd 060a 15bd 0ad7 4a3c
00000390: f182 b83d a866 cd3c 5812 0f3e f08a d3bd
000003a0: 3444 a9bd 4e6e 173e 1618 a8bc b186 9e3d
000003b0: 521c 9f3d 4c03 85bd d05f ddbd cf34 c13d
000003c0: 8c84 76bd f7ff f2bd 2a00 913d 905a 67ba
000003d0: 5bb9 db3c 9c47 30be b2a7 18bd 38c1 9abd
000003e0: eaef e53d 9295 e2bd dd9c 403e 8ec2 e23d
000003f0: d0ca d5bd 54c8 fc3d 2cb3 06be 3a6d 2cbd

conv1.lin_l.bias f4 [32]
0.14845729 -0.21384424 0.07585291 0.07763359 -0.20525521 0.1560296 -0.16780235 0.0024414796
0.075286575 -0.031799212 0.19012095 -0.114753224 0.028585967 -0.07163521 -0.114253365 0.237097
0.19106887 0.02878454 -0.011317462 -0.1468408 0.08910224 0.014258696 -0.025337175 -0.14824824
0.20240931 0.11357335 0.060140107 0.048092287 -0.16833131 0.095398396 0.0008766275 0.046740208
00000000: 3005 183e fcf9 5abe c558 9b3d 5cfe 9e3d
00000010: 6c2e 52be 39c6 1f3e 61d4 2bbe 3b01 203b
00000020: d92f 9a3d e43f 02bd 11af 423e bd03 ebbd
00000030: 1e2d ea3c 7bb5 92bd abfd e9bd 8ec9 723e
00000040: 8fa7 433e 8ecd eb3c e06c 39bc 6f5d 16be
00000050: 3c7b b63d 4e9d 693c e88f cfbc 63ce 17be
00000060: 6344 4f3e 2599 e83d 7955 763d 6bfc 443d
00000070: 0b5f 2cbe 3c60 c33d 7acd 653a a972 3f3d

conv1.lin_r.weight f4 [32, 30]
-0.08262675 -0.043306865 0.16479309 0.1037049 -0.06216656 0.061279926 0.004595899 0.020382259
0.13641123 -0.14174414 0.18284334 0.15864216 -0.0031098127 -0.11453216 0.024561744 -0.07564955
0.105399154 -0.078842305 0.03387733 -0.12893955 0.12312432 0.1587338 0.17927344 0.05481817
0.069496624 0.081475 0.16422261 0.14455605 -0.11166282 0.06329882 -0.018288063 -0.072911754
0.12528181 -0.01963023 0.037551716 0.12525938 0.08100773 0.124049194 -0.049999066 -0.11532382
-0.18178742 0.073023826 -0.0036001466 -0.065627776 0.10479226 0.21009897 0.10911021 0.001923623
-0.004008511 -0.07956837 0.0361277 -0.10117574 0.08126563 -0.13281918 -0.057590365 -0.15443376
-0.07207645 -0.025178647 -0.108828865 0.107667066 0.07676233 -0.18157333 -0.030306637 0.095221914
0.22752915 0.0034893877 0.14367287 0.035094418 -0.065136544 0.0894706 -0.17738052 0.20060827
0.15506625 -0.076945014 0.036114786 0.23464823 0.01820188 0.11890113 0.09185427 -0.0319516
0.018952286 -0.119906865 0.19762114 -0.03922576 0.008641938 -0.001121873 0.05625964 0.039506935
0.058094185 -0.027805908 -0.063914 0.11145634 -0.14565688 -0.18485662 0.029447626 -0.13164826
-0.11025937 -0.084771335 -0.029607326 -0.015293747 -0.1083924 -0.0866996 0.083922364 0.09816784
-0.12841003 -0.08218658 0.021959193 0.022087613 -0.011171036 0.0714099 0.109948955 0.013228983
0.019722588 0.06673396 -0.019851748 -0.008873293 0.10231323 -0.121171944 -0.0059249345 -0.113934726
-0.10211718 0.08459841 0.099759676 -0.045203693 0.023883946 0.047165036 0.09417269 0.06198611
0.12844716 0.09114529 -0.20445588 -0.107541665 0.048172317 -0.07334729 -0.013586162 -0.08346428
-0.016220052 0.046630412 0.10620038 0.1919738 -0.06301673 0.058768205 0.06110977 -0.0031837341
-0.09223025 0.1215152 -0.06461987 0.1885235 0.16922148 -0.0152070355 -0.106461644 -0.008583166
-0.047646616 -0.0030366983 -0.03579832 0.093616076 -0.21455969 -0.06545723 0.02792084 0.060957417
0.18792592 -0.07658219 -0.09923327 0.16589066 0.09996385 0.112347305 -0.058559403 -0.11538438
-0.118794724 -0.038685083 0.06480696 -0.08110372 -0.065563835 -0.07809027 0.18240559 -0.06752811
0.12880519 -0.16165668 -0.12918861 -0.18725064 0.17004576 -0.08306968 0.04726835 -0.107214525
0.15150811 0.013711595 -0.19707322 0.0026177794 -0.010349383 -0.124647066 0.008939298 0.14235973
0.038188092 0.034983136 -0.06599579 0.09787427 -0.033110604 0.15097135 0.14542085 0.052173473
-0.10068143 -0.19643624 -0.14148238 0.14067045 -0.1330497 -0.20218304 -0.062222816 0.019030582
-0.17157997 -0.20779602 -0.03934287 -0.08469949 0.13386258 0.066591956 -0.1708792 -0.17936343
0.16131979 -0.017601408 -0.044024557 0.006358287 -0.017366907 0.113669395 0.036693282 -0.121507555
-0.16118947 0.047572687 -0.11746943 -0.05747824 0.07122274 -0.16424425 0.13841268 -0.10948808
0.084564626 0.056955654 0.02926793 -0.16991206 0.049560968 0.10601824 -0.07039377 0.07821803
0.049301 0.101736605 0.010125972 -0.04966727 -0.03572197 -0.09460913 0.0010055183 -0.21952827
0.112811 0.18180719 0.12579542 0.10127541 -0.0060719494 0.086825 0.057117544 -0.1704305
00000000: 3738 a9bd 8a62 31bd 85bf 283e 3c63 d43d
00000010: 5da2 7ebd a900 7b3d 3299 963b b2f8 a63c
00000020: 63af 0b3e 6025 11be 493b 3b3e 1773 223e
00000030: 00ce 4bbb d68f eabd b635 c93c 27ee 9abd
00000040: 83db d73d 1378 a1bd f5c2 0a3d bb08 04be
00000050: 9a28 fc3d 1d8b 223e 7593 373e 0489 603d
00000060: 3f54 8e3d 5ddc a63d f929 283e 8006 143e
00000070: 7aaf e4bd d0a2 813d d9d0 95bc c252 95bd
00000080: e049 003e 93cf a0bc d4cf 193d ff43 003e
00000090: 61e7 a53d 810d fe3d d2cb 4cbd e52e ecbd
000000a0: 7b26 3abe 848d 953d 70f0 6bbb db67 86bd
000000b0: 539d d63d 2f24 573e 2c75 df3d 1422 fc3a
000000c0: d459 83bb bef4 a2bd a4fa 133d 3a35 cfbd
000000d0: 986e a63d c001 08be e0e3 6bbd e223 1ebe
000000e0: d19c 93bd 7343 cebc abe1 debd 8d80 dc3d
000000f0: 9235 9d3d 5cee 39be a045 f8bc b503 c33d
00000100: 67fd 683e 36ae 643b fb1e 133e 2abf 0f3d
00000110: 4f66 85bd 5d3c b73d 3da3 35be 416c 4d3e
00000120: b0c9 1e3e 5995 9dbd 19ed 133d a047 703e
00000130: 1c1c 953c 7082 f33d 171e bc3d aedf 02bd
00000140: d341 9b3c bb91 f5bd 325d 4a3e 31ab 20bd
00000150: ea96 0d3c d00b 93ba 8270 663d 06d2 213d
00000160: 2bf4 6d3d 37c9 e3bc 58e5 82bd 3943 e43d
00000170: 1427 15be 0e4b 3dbe 263c f13c cdce 06be
00000180: aacf e1bd 989c adbd 108b f2bc a092 7abc
00000190: d6fc ddbd 8f8f b1bd 7ddf ab3d 380c c93d
000001a0: eb7d 03be 7051 a8bd c4e3 b33c 15f1 b43c
000001b0: b906 37bc 5b3f 923d eb2c e13d 60be 583c
000001c0: 4491 a13c d0ab 883d 22a0 a2bc 4a61 11bc
000001d0: 9989 d13d ff28 f8bd f425 c2bb 9c56 e9bd
000001e0: d022 d1bd ee41 ad3d cd4e cc3d 8227 39bd
000001f0: 44a8 c33c 2030 413d 9cdd c03d 26e5 7d3d
00000200: a787 033e 62aa ba3d e25c 51be ce3e dcbd
00000210: 5650 453d 1b37 96bd 7e98 5ebc 52ef aabd
00000220: eadf 84bc 88ff 3e3d 967f d93d c894 443e
00000230: ea0e 81bd eeb6 703d 3d4e 7a3d 32a6 50bb
00000240: 37e3 bcbd f6dc f83d 6c57 84bd 4e0c 413e
00000250: 6548 2d3e ee26 79bc 9008 dabd 68a0 0cbc
00000260: 1929 43bd 5803 47bb 42a1 12bd c9b9 bf3d
00000270: 89b5 5bbe 710e 86bd 3fba e43c 7cae 793d
00000280: a76f 403e 20d7 9cbd d03a cbbd 3edf 293e
00000290: d9b9 cc3d 5816 e63d fcdb 6fbd a54e ecbd
000002a0: a64a f3bd 4074 1ebd 83b9 843d b519 a6bd
000002b0: 5546 86bd cbed 9fbd 88c8 3a3e 2e4c 8abd
000002c0: 82e5 033e 5489 25be 054a 04be a2be 3fbe
000002d0: 7a20 2e3e 7020 aabd 759c 413d 4a93 dbbd
000002e0: f124 1b3e 99a6 603c 90cd 49be 0d8f 2b3b
000002f0: 7590 29bc f646 ffbd 2276 123c c0c6 113e
00000300: 1e6b 1c3d 7a4a 0f3d cd28 87bd 4e72 c83d
00000310: fc9e 07bd 3c98 1a3e 34e9 143e dab3 553d
00000320: 1132 cebd 9526 49be c2e0 10be ea0b 103e
00000330: 2e3e 08be 1209 4fbe 5add 7ebd 06e6 9b3c
00000340: a9b2 2fbe 7bc8 54be fd25 21bd ed76 adbd
00000350: 4613 093e 5d61 883d f5fa 2ebe 0cab 37be
00000360: 0431 253e d430 90bc 1853 34bd 2d59 d03b
00000370: 0b45 8ebc 80cb e83d b24b 163d f4d8 f8bd
00000380: da0e 25be 94db 423d d093 f0bd 4e6e 6bbd
00000390: 3add 913d a52f 28be 0ebc 0d3e 493b e0bd
000003a0: 3830 ad3d 554a 693d 4cc3 ef3c 6dfd 2dbe
000003b0: 7100 4b3d 1720 d93d 9c2a 90bd c630 a03d
000003c0: d8ef 493d 485b d03d 68e7 253c e86f 4bbd
000003d0: 3351 12bd 6ec2 c1bd 98cb 833a 05cc 60be
000003e0: 7409 e73d aa2b 3a3e 84d0 003e 7b69 cf3d
000003f0: 34f7 c6bb 4ed1 b13d 16f4 693d 5585 2ebe

conv2.lin_l.weight f4 [9, 32]
-0.20308891 0.078482844 -0.025883757 0.08153596 0.08981188 -0.02251888 0.089150146 -0.1274566
0.08472073 0.053781476 -0.06932282 0.058974516 -0.044216253 0.08706544 0.04703182 0.104479566
-0.19751775 0.1399937 0.1117753 0.048637588 -0.0011616009 0.10282963 0.11992394 -0.058907792
-0.1616343 0.11387082 -0.06964925 -0.12750216 0.062158868 0.046463165 -0.01637156 -0.04945302
-0.07305298 0.11498642 0.06466719 0.06695161 0.0669014 -0.1391006 -0.00026682485 -0.175284
0.058280725 -0.20790468 -0.20397082 -0.21763124 0.060536664 -0.032139197 -0.04473128 0.0059889746
-0.10954732 -0.06455298 -0.09186995 -0.075952984 -0.15453275 -0.040179044 0.0925529 -0.18828887
0.03828741 -0.17335065 -0.113297105 -0.012378903 -0.013579685 0.08979538 -0.04093897 -0.10778937
-0.033305153 0.031603094 -0.09990251 -0.10144583 -0.04040887 0.050171673 -0.16021255 -0.15246554
0.16967665 0.15977372 -0.02044633 -0.11491524 -0.020952493 0.10530627 0.022639655 -0.064856224
-0.11247869 -0.06598043 -0.020701967 0.04883243 -0.04569447 0.15236937 0.07073959 0.014360048
-0.14256808 0.1971728 -0.016237605 0.1583644 -0.051604334 -0.12671776 -0.10162931 -0.07552404
-0.08184975 -0.06724113 0.112376615 -0.20055941 0.051574245 0.10225327 -0.033197235 -0.11694329
-0.038547195 0.020284947 0.045568373 -0.09603957 -0.07066995 -0.11157928 -0.11393561 0.056033682
-0.16160017 -0.061378196 -0.029575756 0.10820749 0.11089772 -0.15834852 0.11371984 0.11348232
0.110817984 -0.021262553 0.09661179 0.041098222 -0.16917464 -0.07893799 -0.029614499 -0.15289965
-0.10393099 0.09692797 0.03930779 0.11383607 -0.044050664 -0.13751443 0.077012464 -0.02520398
-0.019760579 -0.113456346 0.024116619 -0.17231128 0.097832605 0.09939138 0.013410162 0.08730183
0.054005973 -0.0677928 -0.0976914 -0.017956669 0.061799463 -0.06447064 -0.032914214 0.09020851
0.022958644 0.0804922 -0.01828834 -0.028795058 -0.08624367 -0.045091204 -0.13462336 0.066935375
0.105377756 0.01908968 -0.036194373 -0.09649638 -0.20248608 -0.0801227 -0.15579107 -0.16886084
-0.085277915 -0.07006713 -0.01084133 -0.16912141 0.09511823 -0.19028136 -0.069614984 -0.07557312
-0.034472298 0.027238281 -0.02286808 -0.019497085 -0.09069231 -0.11245906 -0.06621844 -0.0038429233
-0.17778581 -0.16210261 0.09451445 0.033345804 -0.04613894 -0.027009005 -0.01657796 -0.006572626
-0.09809124 -0.025758497 -0.18072282 -0.16587941 -0.05363778 -0.025188645 0.17140062 0.056456473
-0.02473549 0.014636381 0.10558975 -0.061782856 -0.027243795 -0.016891684 -0.08466484 -0.0033086613
-0.16883332 -0.045722947 -0.056655955 0.15676577 -0.16771437 0.15565361 0.054172218 -0.13460587
0.1635659 0.014578905 -0.14626227 -0.05148856 0.07439006 -0.11659895 -0.029794965 0.077336065
-0.04323779 0.054249525 -0.07649579 -0.14183597 0.1301761 -0.16177875 0.04271986 0.105332315
-0.104226455 0.09987904 -0.12428975 0.1305354 0.08280226 -0.01087168 -0.08889884 0.029251661
0.046389375 -0.05732588 0.023230435 -0.12764044 -0.16375194 -0.017912608 0.13708179 -0.04798891
0.07565492 -0.04517732 -0.01697743 -0.04640115 -0.119461805 0.064396046 0.09530363 -0.11794443
00000000: 8af6 4fbe 9dbb a03d 2c0a d4bc 53fc a63d
00000010: 4aef b73d 8479 b8bc 5a94 b63d fc83 02be
00000020: 1082 ad3d f749 5c3d 1ff9 8dbd 438f 713d
00000030: 1a1c 35bd 5e4f b23d 70a4 403d 62f9 d53d
00000040: 1842 4abe 825a 0f3e 73ea e43d 3538 473d
00000050: dc40 98ba 5798 d23d af9a f53d 4c49 71bd
00000060: 7683 25be 1b35 e93d 44a4 8ebd ed8f 02be
00000070: 4c9a 7e3d 2950 3e3d a61d 86bc 408f 4abd
00000080: cd9c 95bd 007e eb3d 3b70 843d ed1d 893d
00000090: 9a03 893d 6370 0ebe a0e4 8bb9 a67d 33be
000000a0: c5b7 6e3d f7e4 54be badd 50be b9da 5ebe
000000b0: 4bf5 773d 64a4 03bd 2638 37bd 293f c43b
000000c0: 585a e0bd 5a34 84bd 5026 bcbd 3d8d 9bbd
000000d0: d53d 1ebe c892 24bd 608c bd3d ccce 40be
000000e0: 42d3 1c3d d582 31be 5008 e8bd e2d0 4abc
000000f0: 547d 5ebc a4e6 b73d 9faf 27bd acc0 dcbd
00000100: fc6a 08bd 3f72 013d b099 ccbd d5c2 cfbd
00000110: c583 25bd d080 4d3d c20e 24be ed1f 1cbe
00000120: b7bf 2d3e b99b 233e 107f a7bc ae58 ebbd
00000130: 90a4 abbc d0aa d73d cc76 b93c 57d3 84bd
00000140: 3a5b e6bd bf20 87bd 2c97 a9bc 8404 483d
00000150: 202a 3bbd b706 1c3e ebdf 903d 6846 6b3c
00000160: 5efd 11be abe7 493e ba04 85bc 472a 223e
00000170: 115f 53bd 4dc2 01be 0723 d0bd 59ac 9abd
00000180: d7a0 a7bd b8b5 89bd b625 e63d 725f 4dbe
00000190: 843f 533d 2a6a d13d d3f9 07bd f77f efbd
000001a0: aae3 1dbd 9e2c a63c e7a5 3a3d 65b0 c4bd
000001b0: 68bb 90bd ad83 e4bd 1357 e9bd 9383 653d
000001c0: 847a 25be b467 7bbd db48 f2bc e39b dd3d
000001d0: 581e e33d 1d26 22be f3e5 e83d 6b69 e83d
000001e0: 8af4 e23d ce2e aebc 67dc c53d 9c56 283d
000001f0: 1e3c 2dbe 3eaa a1bd 1b9a f2bc ba91 1cbe
00000200: c5d9 d4bd 2c82 c63d 3501 213d e322 e93d
00000210: 786e 34bd 95d0 0cbe b6b8 9d3d 9478 cebc
00000220: f0e0 a1bc cd5b e8bd 3790 c53c 5e72 30be
00000230: 765c c83d b58d cb3d 4cb6 5b3c 4dcb b23d
00000240: 5e35 5d3d f4d6 8abd 6e12 c8bd dd19 93bc
00000250: 6f21 7d3d 2f09 84bd 0ed1 06bd 3dbf b83d
00000260: c413 bc3c 18d9 a43d 6ed1 95bc 9de3 ebbc
00000270: 85a0 b0bd 8eb1 38bd b5da 09be 6a15 893d
00000280: 4bd0 d73d f661 9c3c 8d40 14bd e59f c5bd
00000290: 8358 4fbe 5f17 a4bd b287 1fbe dbe9 2cbe
000002a0: 30a6 aebd 5b7f 8fbd d59f 31bc 2a2e 2dbe
000002b0: 59cd c23d 1ed9 42be 4d92 8ebd 14c6 9abd
000002c0: d332 0dbd d122 df3c d755 bbbc 5ab8 9fbc
000002d0: e4bc b9bd f050 e6bd 899d 87bd 8ed9 7bbb
000002e0: 7c0d 36be 3afe 25be cb90 c13d 9c95 083d
000002f0: 2ffc 3cbd fd41 ddbc 81ce 87bc 2f5f d7bb
00000300: 0fe4 c8bd 7c03 d3bc 670f 39be 4bdc 29be
00000310: 4ab3 5bbd 6b58 cebc a583 2f3e e73e 673d
00000320: 15a2 cabc 6ecd 6f3c 703f d83d 0510 7dbd
00000330: 612e dfbc 6e60 8abc c264 adbd 20d6 58bb
00000340: a4e2 2cbe fc47 3bbd 1310 68bd 3587 203e
00000350: 51bd 2bbe a963 1f3e b0e3 5d3d 1fd6 09be
00000360: d27d 273e 5cdc 6e3c c7c5 15be abe5 52bd
00000370: d159 983d 6ecb eebd 9214 f4bc 5f62 9e3d
00000380: 1c1a 31bd c034 5e3d d3a9 9cbd 733d 11be
00000390: e24c 053e 54a9 25be 05fb 2e3d 78b8 d73d
000003a0: ae74 d5bd 628d cc3d a08b febd 12ab 053e
000003b0: 3b94 a93d 221f 32bc 9810 b6bd 2ea1 ef3c
000003c0: c902 3e3d 8bce 6abd c14d be3c 2db4 02be
000003d0: 97ae 27be 76bd 92bc 2b5f 0c3e 0590 44bd
000003e0: f7f0 9a3d da0b 39bd 4014 8bbc 220f 3ebd
000003f0: 64a8 f4bd 13e2 833d 8d2e c33d d98c f1bd

conv2.lin_l.bias f4 [9]
0.078464694 0.109884426 0.065432526 0.04361867 -0.09215155 0.059462648 -0.065221176 -0.13269491
0.13841678
00000000: 19b2 a03d 160b e13d 7d01 863d 7ea9 323d
00000010: f4b9 bcbd 1b8f 733d ae92 85bd 2de1 07be
00000020: 21bd 0d3e

conv2.lin_r.weight f4 [9, 32]
0.014509021 -0.008022612 0.022644766 -0.02150257 0.013004765 0.027402852 -0.1309349 -0.058333024
-0.017528867 -0.07591627 -0.18451868 -0.035071835 0.054045867 -0.12556519 0.12027183 -0.008650472
0.0260646 -0.09108265 -0.18786237 -0.1172995 -0.042182237 -0.072425395 0.10844694 -0.13098733
-0.15485978 -0.10437878 0.11922225 -0.11638255 0.11900576 0.037034716 -0.076521754 0.0405833
0.033046797 -0.1345748 -0.081047595 0.13313201 0.0578539 -0.13456464 -0.08354196 0.05467185
0.045741566 -0.010047512 -0.14833233 -0.17560671 -0.087273024 0.013235619 -0.06831287 -0.16730884
-0.08567086 0.12308579 -0.1924629 -0.1616428 0.065259926 0.117090054 -0.20552954 -0.21423532
-0.0907533 0.12604997 -0.13740756 -0.03601733 0.10426103 -0.11232878 -0.097766854 -0.1581692
0.04445572 0.11126842 0.049830426 0.15234607 0.019897904 0.018935846 -0.06870793 0.045238458
-0.0024085492 -0.15324032 -0.09247173 0.11673385 0.21700896 -0.0014829892 -0.106563695 -0.11433659
-0.09781882 0.11887123 0.13263279 -0.00057375664 0.10609072 0.12933868 0.15269978 0.15387246
0.042532083 -0.007319801 0.049166996 -0.07189113 -0.080231756 0.099990435 0.06843278 -0.14919037
-0.14752726 -0.17156626 0.117366314 0.07845751 -0.12297504 -0.019355986 -0.07504137 0.13438047
-0.1943013 -0.14213547 -0.14848568 0.055234198 -0.11849329 0.06899738 0.010617178 -0.09239716
-0.07099661 -0.111509494 0.024132218 -0.073831275 0.016896479 -0.037124388 -0.16041102 -0.16691537
-0.12457608 0.060614623 0.0030390183 -0.05008109 -0.14725581 -0.22124222 -0.094436176 -0.1462124
-0.20975013 -0.20416987 -0.13062248 -0.20538591 0.0141342925 0.017523251 0.037466343 -0.20031935
0.06491306 0.0033226092 0.041996993 -0.087676466 0.03555678 -0.19717492 0.015308231 0.09869126
0.029621083 -0.19550966 -0.08825032 -0.065128535 0.043839537 -0.10649493 -0.02202703 -0.11591859
-0.063053496 -0.05130471 -0.13826148 -0.16561176 0.102685094 0.09756193 -0.051574275 0.10858471
0.08298516 -0.15408406 -0.11211351 -0.1574587 0.014765904 -0.046783574 -0.059664942 0.081306785
-0.11409867 -0.13362975 -0.15041146 -0.13257547 0.11508759 -0.12760185 -0.09303297 0.040718272
-0.16916518 -0.15227431 0.08015444 -0.10334923 -0.13740498 -0.07824338 -0.07209651 -0.024987537
0.012997495 -0.17605151 0.12231569 -0.21064988 0.01776017 -0.097200796 -0.11789482 0.1164691
-0.14942859 0.06632527 0.12174587 0.12981708 -0.13659215 0.074780226 0.14648497 -0.120951906
0.08840911 -0.084933184 0.053072494 -0.17549405 0.092935875 -0.012076538 0.06265961 -0.007667062
-0.029727155 -0.05613637 -0.104118176 -0.043975018 0.021909826 -0.08344129 0.18084359 -0.057562985
-0.017420478 0.005514506 -0.094663985 -0.03376275 -0.093284726 -0.1764399 -0.00015156507 0.15029758
0.04813021 0.1934119 0.030719474 -0.06507798 0.13842884 -0.07273396 -0.11534659 0.08710075
0.11225657 -0.083577126 0.109686896 -0.09674083 -0.020516865 -0.015344474 -0.06803612 -0.12995331
0.048807807 -0.08399845 0.098409876 0.08167433 -0.09724448 -0.081284806 -0.040212408 0.028347988
-0.06307729 -0.031949606 0.07660877 -0.15254025 -0.095214695 0.12185206 -0.084737875 -0.03205987
00000000: 3fb7 6d3c 4671 03bc 8481 b93c 2826 b0bc
00000010: f011 553c f27b e03c cc13 06be 9cee 6ebd
00000020: b398 8fbc fd79 9bbd 77f2 3cbe 7ca7 0fbd
00000030: 335f 5d3d 2994 00be 1451 f63d b6ba 0dbc
00000040: 6e85 d53c 8a89 babd fe5e 40be b83a f0bd
00000050: 48c7 2cbd c453 94bd 6e19 de3d 8b21 06be
00000060: 9093 1ebe 8bc4 d5bd cc2a f43d f959 eebd
00000070: 4bb9 f33d b7b1 173d 70b7 9cbd ad3a 263d
00000080: 145c 073d facd 09be 48fc a5bd c253 083e
00000090: 36f8 6c3d 50cb 09be 0c18 abbd 97ef 5f3d
000000a0: 825b 3b3d 529e 24bc 6ee4 17be 3fd2 33be
000000b0: 33bc b2bd 36da 583c 9ee7 8bbd 0253 2bbe
000000c0: 3474 afbd 6714 fc3d ff14 45be b185 25be
000000d0: ffa6 853d e9cc ef3d 5676 52be 8160 5bbe
000000e0: dedc b9bd 3e13 013e 91b4 0cbe e886 13bd
000000f0: cf86 d53d a20c e6bd fd39 c8bd 1bf7 21be
00000100: 3317 363d b3e0 e33d fd1a 4c3d 9c00 1c3e
00000110: ee00 a33c 591f 9b3c beb6 8cbd f64b 393d
00000120: c0d8 1dbb 08eb 1cbe d261 bdbd 2812 ef3d
00000130: 9937 5e3e dc60 c2ba 113e dabd 4d29 eabd
00000140: 3c55 c8bd c272 f33d e4d0 073e 2868 16ba
00000150: 1746 d93d 5c71 043e 555d 1c3e be90 1d3e
00000160: 1f36 2e3d f1da efbb 5563 493d a83b 93bd
00000170: 8c50 a4bd c9c7 cc3d 7c26 8c3d 5cc5 18be
00000180: 6311 17be 11af 2fbe c05d f03d 55ae a03d
00000190: 56da fbbd 7290 9ebc 4aaf 99bd 099b 093e
000001a0: ecf6 46be f68b 11be a10c 18be 413d 623d
000001b0: 9cac f2bd 804e 8d3d acf3 2d3c b93a bdbd
000001c0: ac66 91bd 175f e4bd eeb0 c53c da34 97bd
000001d0: 7c6a 8a3c be0f 18bd c942 24be ddeb 2abe
000001e0: be21 ffbd 0a47 783d 442a 473b d421 4dbd
000001f0: 3aca 16be 528d 62be c167 c1bd b4b8 15be
00000200: bdc8 56be e811 51be e6c1 05be af50 52be
00000210: 8593 673c ec8c 8f3c 4f76 193d 8420 4dbe
00000220: 23f1 843d 22c0 593b 0a05 2c3d b88f b3bd
00000230: fca3 113d 39e8 49be 60cf 7a3c a51e ca3d
00000240: eaa7 f23c af33 48be 95bc b4bd 1c62 85bd
00000250: 1691 333d 041a dabd 0872 b4bc ba66 edbd
00000260: 3122 81bd e324 52bd 6b94 0dbe 2196 29be
00000270: 904c d23d 8dce c73d 8c3f 53bd a961 de3d
00000280: 20f4 a93d 36c8 1dbe c59b e5bd da3c 21be
00000290: b1ec 713c 22a0 3fbd 3a63 74bd 2c84 a63d
000002a0: 90ac e9bd 3dd6 08be 7605 1abe ddc1 07be
000002b0: 0bb3 eb3d 0faa 02be 1288 bebd 34c8 263d
000002c0: a339 2dbe cced 1bbe 0328 a43d c3a8 d3bd
000002d0: e4b3 0cbe 113e a0bd 56a7 93bd aab2 ccbc
000002e0: 72f3 543c d946 34be a680 fa3d 9ab4 57be
000002f0: c77d 913c 3611 c7bd d772 f1bd 5a87 ee3d
00000300: cf03 19be 8bd5 873d e655 f93d c5ee 043e
00000310: d0de 0bbe 6026 993d 2800 163e a2b5 f7bd
00000320: d60f b53d 73f1 adbd 8b62 593d b6b4 33be
00000330: 2a55 be3d acdc 45bc ae53 803d fa3b fbbb
00000340: 5d86 f3bc 40ef 65bd e93b d5bd 261f 34bd
00000350: 3c7c b33c 44e3 aabd 102f 393e 2ac7 6bbd
00000360: 64b5 8ebc 07b3 b43b 31df c1bd cf4a 0abd
00000370: 100c bfbd a9ac 34be 70ed 1eb9 9ce7 193e
00000380: 2f24 453d c50d 463e 68a7 fb3c 9b47 85bd
00000390: 4ac0 0d3e 8bf5 94bd d53a ecbd e161 b23d
000003a0: c6e6 e53d 7c2a abbd 86a3 e03d 0e20 c6bd
000003b0: fc12 a8bc 6467 7bbc 8556 8bbd 7b12 05be
000003c0: b2ea 473d 6107 acbd 1e8b c93d df44 a73d
000003d0: 1d28 c7bd a678 a6bd c4b5 24bd 0a3a e83c
000003e0: ab2e 81bd 97dd 02bd 0fe5 9c3d 8333 1cbe
000003f0: ecff c2bd 938d f93d 0d8b adbd 3651 03bd
