trained_weights/fivedirections/lword2vec_gnn_five0_E3.pth (torch, 12247 bytes, 6 tensors)

conv1.lin_l.weight f4 [32, 30]
00000000: 47f9 f43d 234c 22bd 7839 4abd d33b 9abd
00000010: 5002 1b3e 02f0 3dbc 7381 d4bc 2b8d 263e
00000020: f07a 533e e9c1 3bbd a93d dbbd bce9 3f3e
00000030: 9679 86bd 8f6f fcbd 8973 ebbd 6e1d fbbd
00000040: 5cc8 12be b7af acbd 1526 1ebe 297a cb3b
00000050: aee2 e43d 3e83 cfbd 0670 243d 6e28 ddbc
00000060: 0d4e 463d adad 3a3e 6a31 953c 1af1 56bd
00000070: 3781 fabd e4c0 84bd c3b1 b93d 607c 483d
00000080: c7f6 bd3d 8a3a 94bd fc1c a23d 2180 01be
00000090: 5430 ba3b 5166 0e3e d56c 5fbe 5897 57bd
000000a0: ddc8 173e 3c0c 8abd 3118 55bd de71 193e
000000b0: c18b cebc 1873 363d b882 afbd a911 f63d
000000c0: c76e 6c3d 80dc bfb9 59d7 8fbb 2c06 823d
000000d0: 777f c43d f270 efbd d02f a63c b772 8a3d
000000e0: e41e eabd 63d9 1f3e 6566 c5bd 7ca9 2a3d
000000f0: 464f fdbd aaae 3a3d 7332 153e 2cda d9bb
00000100: 1469 03bc 57fc d63d 874f 1abe 7b6a 0ebe
00000110: 9713 27be b1fd cfbd c28b 433d 9ca7 c8bd
00000120: fe95 b43d 4e88 6a3c 425d fb3d 9916 a5bd
00000130: 1847 bfbc f84c d73d 50a2 a1bd ad4d 1d3e
00000140: cafd a1bd 0dde 39bc 6f2c 2dbd f3f5 8d3d
00000150: 93f4 a93d 5103 acbd 7985 c73d 5f73 0dbd
00000160: da23 84bd 4bde b2bc 7b43 2a3e 8542 323e
00000170: ec30 613d 9ea3 aabb 5892 a33d 195f b6bd
00000180: 2f04 09be d00e b9bd c6b4 20be 3d40 f33d
00000190: fa89 63bc 5475 d0bd b1e7 713c f9be 123d
000001a0: 41dd 263e caa0 4e3e 6303 d0bd 90e7 e73c
000001b0: ec48 f63c 5810 ee3c f450 7fbd 6c0f 003c
000001c0: 69b2 f23b 1c51 0d3e 9aa3 0abe 24bf debd
000001d0: 1c46 20be e05c febd 4064 333c aa05 983d
000001e0: bfca ddbd 2548 243e 1900 e43d 0d4b 8cbd
000001f0: ee3d 14bc c4f0 4fbd 7c46 d23c 36b5 f6bd
00000200: cf57 d3bd f3fb fabd 944c 45be 6e61 e63d
00000210: cdb2 8abd ce75 d63c 0ec4 06be 15a7 1d3e
00000220: e1de 1abe 28bb e6bd b15d c2bd 4ad0 1ebe
00000230: 3425 013e 3694 2fbe a442 58bd 2bd6 8abd
00000240: cd68 c13d b22c e83b 4a07 12be d9c3 3c3e
00000250: adb4 0cbe 8dc5 373c 5a9b 6ebb 2ff2 a6bd
00000260: 9e02 eb3d b2c3 0f3e 1758 6c3c 397f d5bd
00000270: c2db fd3d 7959 d53d 5e8a bb3c ca64 7fbd
00000280: f8f9 e13b 0753 1e3e 1983 853d 26f1 e1bc
00000290: c15a 0abe 76a4 b5bd a9fb 0d3e 6cc8 7f3c
000002a0: debc 4ebd a384 a53d b2d2 02be f2d7 aabc
000002b0: 5fa8 86bd 8c5d b53d c96d 223e 1b91 db3d
000002c0: d8f3 fd3d 9626 4ebe 3353 debd 40ed 9f3b
000002d0: 66cf fcbd 8411 9c3c c12f a1bd fe43 2a3d
000002e0: a864 233e 0793 3dbe ed86 f33d f456 663d
000002f0: de71 16be 2b33 593e df12 f5bd 7c41 1abe
00000300: 72bd 4cbd b668 b13c 28c7 9f3d 2649 8ebc
00000310: 19b9 08be f725 32bd d802 c93d b4f9 da3d
00000320: fdc2 843d 2246 af3c d822 4c3c f4c3 33be
00000330: 2763 d43d 8957 4ebe 4a68 dfbd 02a8 a9bd
00000340: 3f49 bb3d 4bca 1cbd 608f f7bd 9a56 8f3c
00000350: 4d68 ddbd b56e 15bd aced be3d e22a 73bd
00000360: e1de 903c 77cb 163e db2b c9bd 8f05 8abd
00000370: b460 5c3e ba52 9d3d 831d 13bd 6da5 673d
00000380: 72c8 1b3e 7f76 8fbd b68f 1fbd 28d4 343c
00000390: b428 a83d ff03 a53c bbee 0f3e 2e28 dabd
000003a0: d8f3 a6bd 6dda 183e feb6 8ebc 5664 9b3d
000003b0: 5f67 a83d 179a 71bd 998f ddbd 19dc bb3d
000003c0: a0a5 69bd 29d3 e7bd d35c 833d e270 d73b
000003d0: 70f6 ab3c 1b39 2abe 3d92 15bd 2338 a0bd
000003e0: 88a6 dc3d e9a7 e5bd 0336 3a3e 9995 d93d
000003f0: dc8c e6bd d8dd 013e 666c 0dbe a5a1 23bd
0.119616084 -0.03962339 -0.049371213 -0.07530942 0.15137601 -0.011592867 -0.025940632 0.16264789
0.20652366 -0.045839224 -0.1070512 0.18741506 -0.065661594 -0.123259656 -0.11496646 -0.12261473
-0.14334244 -0.084319524 -0.15444215 0.006209631 0.11176048 -0.10132454 0.040145896 -0.026996817
0.04841428 0.18230315 0.018212039 -0.052476026 -0.12231677 -0.064821035 0.090671085 0.04894674
0.09275585 -0.07237728 0.079156846 -0.12646534 0.0056820307 0.13906218 -0.2181886 -0.052634567
0.14822717 -0.06740615 -0.052025024 0.14984843 -0.025213124 0.044543356 -0.085698545 0.12015087
0.057722833 -0.00036594644 -0.004389685 0.063488334 0.095946245 -0.116914645 0.02028647 0.06760161
-0.11431673 0.1561027 -0.09638671 0.04166554 -0.12368636 0.04557673 0.14570026 -0.0066483226
-0.008020658 0.10497349 -0.150694 -0.13907807 -0.16316067 -0.1015581 0.047740705 -0.09797594
0.08817671 0.014314724 0.12273647 -0.08060951 -0.02334933 0.105127275 -0.07892287 0.15361662
-0.079097345 -0.011344445 -0.042278703 0.06931677 0.08298602 -0.0839907 0.09742255 -0.034533855
-0.06452151 -0.021834513 0.16627304 0.17408188 0.054978296 -0.005207493 0.07986897 -0.08904857
-0.13380502 -0.090360284 -0.1569396 0.11877487 -0.013887877 -0.101786286 0.014764712 0.035826657
0.16295339 0.20178524 -0.10156896 0.02830866 0.030064069 0.029060528 -0.062333062 0.007816177
0.007406522 0.13800472 -0.13538972 -0.10876301 -0.15651745 -0.12420058 0.010949194 0.07422955
-0.108296864 0.16043146 0.11132831 -0.06850252 -0.009047968 -0.05076672 0.025668375 -0.12046282
-0.103194825 -0.12255087 -0.19267493 0.11249052 -0.06772385 0.02617922 -0.13160726 0.15395768
-0.15124084 -0.11266166 -0.094905265 -0.15509143 0.12611848 -0.17146382 -0.05279793 -0.067791305
0.09443817 0.007085406 -0.14260593 0.18434085 -0.13740797 0.011216533 -0.0036408515 -0.081516616
0.114751086 0.14039496 0.014425299 -0.104246564 0.12395431 0.10417456 0.022893127 -0.06235198
0.0068962537 0.1546136 0.065191455 -0.027580809 -0.13511182 -0.08869259 0.13865532 0.015611749
-0.050473087 0.08081939 -0.12775686 -0.020854924 -0.06575083 0.08855733 0.15862192 0.10721036
0.12400025 -0.20131907 -0.10855713 0.0048805773 -0.123442456 0.01905132 -0.078704365 0.04156875
0.15956366 -0.18513118 0.118909694 0.05623527 -0.14691874 0.21210925 -0.1196649 -0.15064043
-0.049985357 0.021656375 0.07801658 -0.017368864 -0.13351859 -0.043493237 0.098149955 0.10692158
0.064825036 0.021395747 0.012459479 -0.17555219 0.10370474 -0.2015058 -0.109085634 -0.08283998
0.0914483 -0.03827886 -0.120878935 0.01749735 -0.108109094 -0.03648253 0.09322676 -0.059367068
0.017684402 0.14726053 -0.09822818 -0.067393415 0.21521264 0.076817945 -0.035916816 0.056554247
0.15213183 -0.07005023 -0.038955413 0.01103691 0.082108885 0.020143507 0.14055912 -0.10652195
-0.08151978 0.14927073 -0.017421242 0.07587497 0.082228415 -0.058984842 -0.10818405 0.0917284
-0.057042718 -0.113195725 0.06414189 0.006574736 0.020991534 -0.16623347 -0.036516417 -0.07823207
0.10773951 -0.11213667 0.18184666 0.106242366 -0.112573355 0.12682283 -0.13810882 -0.039949078

conv1.lin_l.bias f4 [32]
00000000: 1b69 163e 2900 55be b29d 963d 3b65 a83d
00000010: b643 4fbe 4204 223e 3997 28be 069a ed3a
00000020: e4d8 9b3d 2183 1bbd e2f6 423e dd39 e3bd
00000030: 31d0 aa3c 681d 9ebd c1a7 e3bd f865 693e
00000040: 0559 3d3e b6a4 c83c c616 acbb 74de 15be
00000050: 011d c33d 6c28 313c 5c87 ffbc 9ef7 1bbe
00000060: 0407 4a3e 9f88 e83d 6b39 873d 05e0 463d
00000070: 789d 27be 93e3 cb3d e803 f73a 90d5 3a3d
0.14688532 -0.20800842 0.07354297 0.08222433 -0.20240673 0.15821937 -0.16463937 0.0018127568
0.07609728 -0.03796685 0.19039491 -0.11095021 0.020851227 -0.077204525 -0.11115981 0.22792804
0.1849099 0.024492603 -0.0052517382 -0.1463564 0.095270164 0.01081286 -0.031192474 -0.15231177
0.19729239 0.113541834 0.066027485 0.048553485 -0.16368663 0.09955516 0.0018845769 0.045613825

conv1.lin_r.weight f4 [32, 30]
00000000: 2d04 a6bd 74d9 3abd f56c 2a3e 8408 ca3d
00000010: 8cbf 7bbd 308f 6c3d e093 0d39 2757 a13c
00000020: 25ec 0a3e 4938 0dbe 5d00 3d3e 3edb 203e
00000030: 8827 653a 5df6 e4bd 8e8d f43c 7d0c 9bbd
00000040: ed9e e33d 57c2 9dbd d189 ef3c 08f9 0abe
00000050: 4940 fa3d d162 213e 27e8 333e 1e68 513d
00000060: 0209 933d b5b9 aa3d f3d7 243e 0f6d 0f3e
00000070: 2adb f4bd eed8 723d 2c32 c2bc e401 9dbd
00000080: 7eec 023e fdc4 b0bc 176a 1d3d 420d fa3d
00000090: a2ac b13d 0ca0 fb3d 370b 3bbd 3cec f7bd
000000a0: ae33 37be adb5 963d 54c3 1bbb d01c 94bd
000000b0: 9397 d23d beee 513e 1d6a df3d 88b6 12ba
000000c0: 30d6 9aba dcee a7bd 002c 2e3d 63cb d4bd
000000d0: d439 b13d 7f7e 02be 183e 80bd 0723 1cbe
000000e0: 3706 8fbd efc3 d0bc caaf d8bd 9688 e03d
000000f0: ea05 a33d c3d8 39be ad85 f4bc a186 ba3d
00000100: 5a22 633e 07a8 89bb 3654 0f3e ce4d f03c
00000110: be1f 8dbd 5e92 ba3d 3b02 35be 082f 473e
00000120: e5a0 213e 8f01 98bd 8c00 293d 1268 693e
00000130: ff64 b93c dd5f e73d d896 b73d 8276 17bd
00000140: 7179 a83c bb19 f2bd e22a 443e 2ba7 34bd
00000150: e1f3 4d3c bb6c fdbb 00fb 723d 67d6 0d3d
00000160: a92f 7f3d 1a54 f3bc 3d64 8cbd 7e5a db3d
00000170: 7b7d 10be a4a9 39be 0977 0a3d 0a47 05be
00000180: ac93 d8bd c065 a5bd 8d5d cdbc 04c2 abbc
00000190: 3dd2 d4bd 3dbd a8bd 523b b53d fc5c bf3d
000001a0: 74ef febd 1257 b2bd d26c aa3c fe5d d23c
000001b0: de9e 23bc b9b8 993d bdcc ea3d dca5 8e3c
000001c0: 94a0 c43c ee1a 913d 8424 c8bc 5698 95bb
000001d0: 92f0 db3d 905f f1bd b8a8 56bb c5e4 dfbd
000001e0: cff8 d6bd aa20 ae3d 2ab9 d53d 521f 55bd
000001f0: 26a1 e13c 60b5 3c3d 45eb b43d 0fed 843d
00000200: 5aaf 073e 63ed c53d 321d 4dbe 99a7 d8bd
00000210: 5d40 5b3d 0f63 98bd 9223 09bc 0ea8 aabd
00000220: a4dc 1abc e621 4a3d f32a ce3d bd91 3a3e
00000230: 1808 72bd 8bb9 7e3d d736 6a3d 8df5 2bbc
00000240: 62be c1bd 69a4 003e ad43 82bd 63ef 3a3e
00000250: 1c88 253e 686b 86bc d401 e2bd 58f0 85bb
00000260: ee45 56bd 62a9 533b b062 1dbd c6df ca3d
00000270: 1eb6 55be b989 80bd b846 e83c 4fff 643d
00000280: 94bd 3b3e b12b 94bd ec35 d7bd 5214 253e
00000290: 4b49 c03d a3ec e93d 7f32 85bd 13f0 ecbd
000002a0: 157a e7bd 9278 02bd 90b3 833d 0c7e aabd
000002b0: 6f99 76bd 19e4 95bd d854 373e a7b4 8ebd
000002c0: c411 093e faaa 1fbe a334 f8bd a5d0 39be
000002d0: 014b 2a3e 93de b2bd fbdd 4a3d 34dc cfbd
000002e0: 7811 1e3e 4337 6b3c e708 45be 863e a93b
000002f0: 1c99 eabb 7322 07be 9ebf 333c cf04 153e
00000300: e166 173d 8f3e fe3c b4e4 82bd 4f8f bb3d
00000310: d774 24bd f2df 1c3e 91c2 1a3e f7c0 633d
00000320: 6d71 c7bd b648 47be 8eb5 0cbe 772a 143e
00000330: d801 0cbe 1516 4dbe 031b 61bd b307 c63c
00000340: ff3f 2cbe 67d6 4fbe 3e9c 19bd 51b8 9dbd
00000350: 9aa2 0a3e 0d0b 8d3d da4b 2ebe 76d5 30be
00000360: 7b1c 243e 56ff 51bc 9a68 32bd 42ee 573c
00000370: d6d1 8fbc 56a4 ec3d 7478 183d 34a3 f3bd
00000380: 81c0 22be 5030 5d3d 286d ecbd bb75 52bd
00000390: 86c4 833d 74ce 1fbe 6b13 0d3e 874f d4bd
000003a0: 7bbe a83d ce81 643d f8e2 f43c 88b4 2bbe
000003b0: d36c 423d 0df5 dc3d ce16 9fbd b1a6 9f3d
000003c0: 9dc8 303d 539d dd3d 4e45 6d3b 73aa 30bd
000003d0: e3ca 2abd fad1 b6bd c1e1 fa3b c350 5cbe
000003e0: 5734 ea3d fc13 333e c37f f43d 5747 d63d
000003f0: 4c97 51bc 843c a63d 7fa9 503d 750d 2abe
-0.08106265 -0.045617536 0.16643126 0.098649055 -0.06146197 0.05775374 0.00013501896 0.019694878
0.13566644 -0.13791002 0.1845717 0.15708634 0.00087415474 -0.111798026 0.029852655 -0.07570741
0.11114297 -0.07703083 0.02924052 -0.1357156 0.12219293 0.15760352 0.17569028 0.051124685
0.071794525 0.08336202 0.16098003 0.14006446 -0.11955865 0.05928891 -0.023705564 -0.07666376
0.12785527 -0.021578306 0.038431253 0.1220956 0.08675505 0.12286386 -0.045664992 -0.12105605
-0.17890808 0.07358871 -0.0023767548 -0.07232058 0.10282817 0.20501229 0.109089114 -0.0005596657
-0.00118131 -0.08199856 0.04252243 -0.103903554 0.08653608 -0.12743567 -0.062618434 -0.15247737
-0.06983607 -0.025484053 -0.10580404 0.10963552 0.079601124 -0.18149094 -0.029848898 0.0910771
0.22181073 -0.0042009386 0.13996968 0.029333975 -0.0689082 0.091099486 -0.17676632 0.19451535
0.15784033 -0.07422172 0.041260287 0.22793606 0.022631167 0.11297581 0.08964318 -0.036978252
0.02056572 -0.11821314 0.19156983 -0.044104736 0.012570352 -0.007733909 0.059321404 0.034628298
0.06230131 -0.029703189 -0.068550564 0.107106194 -0.14110367 -0.18131119 0.033804927 -0.1301538
-0.10575041 -0.08076048 -0.025069023 -0.020966537 -0.10391662 -0.08239219 0.08849205 0.09343907
-0.12448016 -0.087080136 0.020803843 0.025679585 -0.009986607 0.07505936 0.11464832 0.017413072
0.02400235 0.070852146 -0.024431475 -0.004565279 0.107392445 -0.11785805 -0.0032754373 -0.10932306
-0.10496675 0.08502324 0.10435708 -0.052031823 0.027542662 0.04607141 0.088339366 0.06490528
0.13250485 0.096644185 -0.20030668 -0.10578842 0.05352818 -0.07440769 -0.008370297 -0.08332835
-0.009452019 0.049348734 0.10066786 0.18219657 -0.05908975 0.062188666 0.057181206 -0.010495556
-0.09460141 0.12562717 -0.063605644 0.18255381 0.16165203 -0.016408637 -0.11035505 -0.004087489
-0.052312784 0.0032297005 -0.038424194 0.09905963 -0.20870253 -0.062762685 0.028354034 0.055907544
0.18334037 -0.07234896 -0.10508332 0.16121033 0.093889795 0.11422088 -0.06503772 -0.11569228
-0.11302582 -0.031853266 0.06430733 -0.08324823 -0.06020492 -0.07318897 0.17903459 -0.069680505
0.13385683 -0.15592566 -0.12119415 -0.18145998 0.16630174 -0.08733859 0.049528103 -0.10149422
0.15436351 0.014356437 -0.19241677 0.005164924 -0.0071593653 -0.13196735 0.010970978 0.14552616
0.036963347 0.03103569 -0.06391278 0.09158193 -0.04015049 0.15319803 0.15113284 0.055603947
-0.09738431 -0.19461331 -0.13741133 0.14469324 -0.13672578 -0.20027955 -0.0549574 0.024173593
-0.16821288 -0.20296632 -0.03750252 -0.07701171 0.1353859 0.068868734 -0.17021123 -0.17268929
0.1602649 -0.0128172245 -0.043556787 0.013179364 -0.017556112 0.11554782 0.037224248 -0.11896363
-0.15893747 0.054001153 -0.115442574 -0.051381808 0.06433968 -0.156061 0.13776939 -0.10366731
0.08239456 0.055787854 0.029893383 -0.16768086 0.047467064 0.10788927 -0.077680215 0.07795466
0.04316007 0.10821023 0.003620464 -0.043131303 -0.041697394 -0.089267686 0.0076563065 -0.21515183
0.11435764 0.17488092 0.11938431 0.10462826 -0.01279242 0.08117011 0.050942894 -0.16606696

conv2.lin_l.weight f4 [9, 32]
00000000: a1ca 4ebe 3a0e aa3d d211 06bd 16dd ae3d
00000010: 8038 c03d cea4 8fbc 712f b03d d158 04be
00000020: 7630 b93d 96a2 6e3d a056 89bd 4a33 803d
00000030: a5e8 3abd 7343 bf3d e6cf 563d 5e94 db3d
00000040: 0e62 48be 77fb 0f3e 33ad d63d 78b8 533d
00000050: 7c04 653b adff de3d 7612 013e d858 5cbd
00000060: 184c 2abe e6bc f53d 2cad 89bd 8303 fabd
00000070: 20ac 8a3d 5824 5e3d e52a 62bc ba7f 42bd
00000080: de57 90bd 5996 f63d 185a 8e3d 4823 913d
00000090: d816 933d c0a1 08be 6aac 623b a294 36be
000000a0: 2cc6 823d e17a 58be ed78 51be b5dc 59be
000000b0: fd4e 863d 9cfe ddbc 7aae 1ebd 74af dc3a
000000c0: e43a d8bd eb95 73bd ecfd cdbd bd37 9abd
000000d0: 0139 19be 6c52 0fbd 737b c83d b301 3cbe
000000e0: 1cbc 343d 559b 2ebe 7164 dfbd 0850 e2bb
000000f0: b6a2 0bbc 380c ca3d 4dd1 19bd a845 d7bd
00000100: 0378 1abd a73c 023d e26e d2bd df4d d7bd
00000110: b9d7 31bd 640c 383d ccbe 20be c279 15be
00000120: 05ad 273e 8d6a 2b3e 6d66 b8bc 3161 f3bd
00000130: 3fab e5bc a48d d63d c49f 973c 224a 6cbd
00000140: 7b6c efbd 28ec 86bd 8d80 94bc 12fa 683d
00000150: 2fd5 4fbd 7c1f 153e cb8a 863d bf79 133c
00000160: f3c4 11be fd16 4b3e f116 80bc 09ef 1b3e
00000170: d405 64bd cda4 08be 5b83 d8bd ec81 98bd
00000180: d44f abbd 5609 81bd a27e eb3d 8aa2 49be
00000190: 17bc 5a3d 59d9 dc3d ed01 f6bc 4817 fbbd
000001a0: ce1e 09bd 5cfc 863c d452 3c3d 88fc babd
000001b0: e50a 9cbd cc4d eabd 449c fbbd a001 4a3d
000001c0: 2919 26be cf43 8abd 17fd ecbc e9f9 dc3d
000001d0: 460c ed3d d6be 23be 7d25 ef3d 8f5a f33d
000001e0: e4b4 e33d da51 a1bc 41a8 d03d a0c9 393d
000001f0: 9765 28be a8ce afbd 67ba ebbc 8b6d 1ebe
00000200: 2238 ccbd bef6 cf3d 05c7 323d bfa9 f13d
00000210: f801 22bd 1cfd 06be 2758 a63d de44 bfbc
00000220: aeac 63bc a080 e7bd 3255 f03c bdc5 2bbe
00000230: 3d04 cd3d 199d da3d e81d ac3c f968 be3d
00000240: da94 7a3d 3ce4 93bd 0433 dbbd 9486 6abc
00000250: e1d6 893d 8f33 7fbd 65b0 e2bc 7578 c23d
00000260: aa65 e93c 35de b13d 197c 58bc c98b c4bc
00000270: 9e55 a6bd dccd 4bbd 13fe 06be 4ef4 943d
00000280: 61f5 e73d e494 c63c b372 06bd 2cce bdbd
00000290: c0e7 4ebe 0462 98bd ec6c 1dbe d6d6 2dbe
000002a0: a043 a2bd 42ce 91bd dcda d6bb 217c 28be
000002b0: 16c0 bf3d 28a0 45be 52a7 9dbd c752 aabd
000002c0: 5608 f2bc 32cf 003d d97e a3bc 3c5c 76bc
000002d0: b77b aebd 0041 e2bd 36be 81bd 50fc d539
000002e0: d290 3cbe 94eb 24be bad5 cb3d 94dc 193d
000002f0: f21f 2abd ec64 d2bc 3192 5ebc 521a 18bb
00000300: ad7a d9bd dd8e 03bd c43b 38be 1097 27be
00000310: e02e 58bd 95a3 f2bc b948 2f3e 1858 523d
00000320: bf3a 02bd d710 f23b 8eeb cc3d ca42 82bd
00000330: f9eb febc 15d6 bfbc 7d63 bebd 9a92 43bc
00000340: cdd4 31be 631b 58bd 1aae 84bd cf0b 1b3e
00000350: a0df 2dbe 6fc5 193e cfe7 4d3d 9625 0bbe
00000360: fa45 203e 6e76 d23b d438 19be ef24 4cbd
00000370: 625a 943d dd4d ffbd 3221 f3bc 5fd0 973d
00000380: fc88 4abd cc32 4f3d 5b45 a0bd 3378 0fbe
00000390: c5dd 043e af97 21be 2ac5 1b3d 7807 cd3d
000003a0: ce50 dbbd fc8a c53d 3570 05be e9ee 093e
000003b0: bc75 aa3d 07f5 7cbc c0c1 c7bd e0e8 c13c
000003c0: 51e8 413d 4ae2 6cbd 2c49 ac3c f834 09be
000003d0: ebe2 2bbe c8e2 c9bc 10e3 0c3e a9b3 31bd
000003e0: b886 943d 1f90 50bd 456c acbc 5c02 3abd
000003f0: 4081 eebd 9f0f 843d 4254 c43d a132 fcbd
-0.20194484 0.08303495 -0.03273184 0.085382625 0.093857765 -0.01753464 0.08602799 -0.12924506
0.09042446 0.058260523 -0.067059755 0.062597826 -0.045632023 0.09339037 0.05244436 0.10721658
-0.19568655 0.1406077 0.10482254 0.051689595 0.00349453 0.1088861 0.12604699 -0.053795666
-0.1663059 0.1199892 -0.06722483 -0.12207701 0.067711115 0.05423388 -0.013804172 -0.04748509
-0.07048009 0.12040395 0.06950778 0.070868075 0.071820915 -0.13342953 0.003458763 -0.17830136
0.063854545 -0.21140625 -0.20456286 -0.212756 0.065580346 -0.027098946 -0.038740613 0.0016836957
-0.105581075 -0.059469145 -0.100581974 -0.075301625 -0.14963152 -0.034990713 0.09789171 -0.18360023
0.044124708 -0.17051442 -0.109078296 -0.006906513 -0.00852268 0.09865612 -0.03755312 -0.10511333
-0.03771211 0.031796124 -0.102750555 -0.105128996 -0.04341862 0.04493369 -0.15697783 -0.14597228
0.16374595 0.16739865 -0.022509778 -0.11883772 -0.028035758 0.104762346 0.0185088 -0.057687886
-0.11690613 -0.06588012 -0.018127704 0.05687911 -0.050740417 0.14562792 0.065694414 0.0090011945
-0.14235286 0.19832988 -0.01563594 0.15227903 -0.05566962 -0.13344117 -0.10571929 -0.07446656
-0.083648354 -0.06300609 0.11498763 -0.1969091 0.053402033 0.10783643 -0.030030215 -0.122603
-0.033476643 0.016477756 0.04597743 -0.09130198 -0.076192655 -0.1144062 -0.12285665 0.049317956
-0.16220535 -0.06751215 -0.028929276 0.10789854 0.115746066 -0.15990767 0.11677072 0.11882507
0.111184865 -0.01969235 0.10188342 0.0453583 -0.16445003 -0.085843384 -0.028775407 -0.15471475
-0.09971644 0.10154484 0.04364683 0.117999546 -0.03955266 -0.13182491 0.081222825 -0.023348268
-0.0138961505 -0.1130383 0.0293375 -0.1677465 0.10010574 0.10674495 0.021010354 0.09297366
0.061177112 -0.072212666 -0.1070309 -0.0143143125 0.06730438 -0.06230503 -0.027672002 0.094956316
0.02849086 0.08684961 -0.013213181 -0.023992436 -0.08121799 -0.04975687 -0.13182859 0.0727316
0.11326099 0.024240918 -0.03282423 -0.0926784 -0.20205593 -0.0744057 -0.15373582 -0.16976485
-0.07923055 -0.07119419 -0.006556852 -0.16453601 0.09362809 -0.19299376 -0.076979294 -0.0831657
-0.02954499 0.031447597 -0.019957947 -0.015036639 -0.085196905 -0.11047554 -0.06335108 0.00040814513
-0.1841462 -0.16105491 0.099528745 0.037563875 -0.04153437 -0.025682889 -0.013584659 -0.0023209048
-0.10619102 -0.032118667 -0.17991549 -0.1636622 -0.05277908 -0.029619018 0.17117585 0.051353544
-0.031794306 0.0073872614 0.10005866 -0.06360395 -0.03111838 -0.023417512 -0.0929632 -0.011936808
-0.17366333 -0.052760493 -0.0647852 0.15141223 -0.16979837 0.15016721 0.050269898 -0.13588557
0.15651694 0.0064228093 -0.14963084 -0.04983991 0.07243802 -0.12466023 -0.029678915 0.074127905
-0.049447045 0.050585553 -0.078257285 -0.14010696 0.12975223 -0.15780519 0.038029827 0.1001119
-0.10708772 0.0964565 -0.13031085 0.13470043 0.08323237 -0.015439278 -0.09753752 0.023670614
0.047340695 -0.057832994 0.021030985 -0.13399112 -0.16785781 -0.02464427 0.13758492 -0.043384228
0.07252258 -0.050918695 -0.02104772 -0.045412406 -0.11645746 0.06448292 0.095863834 -0.12314344

conv2.lin_l.bias f4 [9]
00000000: bced ab3d b774 eb3d 06fc 7b3d 4e96 323d
00000010: f1a1 b4bd f92e 833d caec 8fbd 4bcc 0cbe
00000020: ecd4 053e
0.083949536 0.11496871 0.061519645 0.043600373 -0.0881995 0.06405444 -0.07027586 -0.13749807
0.13069504

conv2.lin_r.weight f4 [9, 32]
00000000: ec05 a83c 1260 1cbb 2ea9 f83c daaf 89bc
00000010: 6fc0 973c a4f2 063d fc83 02be dcea 57bd
00000020: 6e0c 56bc 45c2 8dbd 1613 3cbe 7da4 e3bc
00000030: 5702 803d ebc4 02be 5896 033e 4d80 bdbb
00000040: 129e fe3c 0487 abbd 0df6 3abe 2a60 e1bd
00000050: fd57 16bd 2fae a4bd c6cd ea3d 66d1 fdbd
00000060: 2f49 1ebe 1935 d0bd 7877 fc3d 4992 ecbd
00000070: 4ab3 fd3d 0e6a 353d 0f03 90bd 4839 3f3d
00000080: 0656 223d 3482 04be 83fe 9bbd d761 0c3e
00000090: 065f 803d 5f43 03be 62c9 a3bd 6030 703d
000000a0: b189 513d 4829 53bc 2b8f 16be 447d 2ebe
000000b0: 56fc a5bd 21bc a43c 6b8e 7cbd 1751 30be
000000c0: 14fd a7bd 0ed6 063e 8bbe 3ebe 62d7 27be
000000d0: 1653 903d 9edb 013e a3ce 51be 58ad 52be
000000e0: 75ee b8bd c15a 073e 67eb 08be 3a76 f0bc
000000f0: e274 de3d 10a3 d9bd ab4d bfbd 45e7 1ebe
00000100: 8ef8 2b3d baf6 f23d 082b 6e3d 2e75 1a3e
00000110: 8d8a 963c c056 3e3c 8b0b 85bd 8237 5f3d
00000120: 70e7 0fbc 79f2 15be 0861 abbd ac34 e23d
00000130: 67de 583e 1ec5 9fba 7290 e7bd 2416 e4bd
00000140: 4750 cfbd da16 e43d bd51 0c3e b6e8 e43b
00000150: eafd cb3d 5bd9 fd3d 872d 193e 309f 163e
00000160: 3681 543d 606c 5bba bb7c 5c3d adce a0bd
00000170: efeb aabd fbec bc3d a7c6 833d f7c8 14be
00000180: 69ff 1abe b90f 2ebe 6b5b ec3d d879 a83d
00000190: 42fe fabd 6e0e 60bc 001b 93bd cec6 053e
000001a0: 9ee1 46be 95d7 17be 7c8a 1ebe c256 793d
000001b0: fb1c f5bd ecfa 8f3d 37e2 8d3c d737 cbbd
000001c0: cdcd 96bd b24e dabd f403 053d 1eee a4bd
000001d0: b45c ac3c 2754 00bd 649a 28be 0531 23be
000001e0: 4c87 06be 297a 7a3d cf29 d43b 9e32 3abd
000001f0: e71c 12be 900d 5fbe b89a c0bd 60e3 1abe
00000200: 5b2b 57be ea6a 4ebe 8130 0abe dd3a 4fbe
00000210: 1b65 913c 7b5b c13c 1b85 263d 9933 50be
00000220: 90b5 8d3d c6d6 e13a 7cc0 3e3d c901 aabd
00000230: d861 263d 4581 4cbe 4aea a23c 4f22 cc3d
00000240: 83f2 073d 5c9c 46be 211c afbd 9fcc 7fbd
00000250: 6efe 493d 9073 dbbd e4ef 90bc a89b debd
00000260: cd6d 82bd 271f 3ebd 7102 0abe 8dbf 25be
00000270: 19e8 db3d 2674 d33d a82a 41bd ea5a e53d
00000280: bec6 b83d e4ab 18be a1e0 ddbd 449d 1dbe
00000290: c83b 9f3c 6d30 24bd a62a 66bd 7bf6 b03d
000002a0: 8a36 e1bd fb45 0abe c0ee 1bbe 7525 03be
000002b0: 2285 fc3d 0c9d 01be 3c3b b4bd f734 263d
000002c0: 7f17 2dbe 2fcc 14be 432c b23d 58e2 d4bd
000002d0: 4692 07be 04bf 91bd 92a1 8cbd a888 84bc
000002e0: b097 963c ce26 32be 685b 013e 61a5 53be
000002f0: 9929 b83c 2e7f bebd dfca e8bd 4c80 fa3d
00000300: 9c4d 21be e44b 6d3d e150 ed3d 465f 073e
00000310: 5544 11be 0bdb 863d 11a2 183e ce9f 04be
00000320: 4fff ae3d f848 bfbd 839d 413d 3b9e 35be
00000330: aa2c b03d 0204 a9bc 3cb1 893d 769b 21bc
00000340: 89b0 06bd 9224 80bd f937 e9bd e6cc 54bd
00000350: 4a9e 843c 0e44 bebd d100 313e 60fe 88bd
00000360: 0692 d3bc ec17 15bb c1f7 cdbd ace1 fbbc
00000370: 8e0b c3bd 04a0 33be 73e9 7abb ccec 183e
00000380: f2ef 3a3d aa85 403e 46b1 b43c 5a3f 89bd
00000390: 5d05 0c3e 0092 9ebd 9f06 f8bd 54a1 a53d
000003a0: 7cad d73d 2fa3 b8bd a148 d53d 264f c0bd
000003b0: e772 cbbc 7e13 abbc b8bc 8abd e9fd 0bbe
000003c0: 8a47 3b3d fa0e a1bd 2d7d d63d 78ba 973d
000003d0: ee85 d3bd de5c b8bd 911d 43bd 6250 123d
000003e0: dac8 8fbd 7d4d 1cbd c530 933d fb47 1abe
000003f0: d058 c4bd 0920 003e 615c b6bd 4cb0 1ebd
0.020510636 -0.0023860973 0.030354109 -0.016807485 0.018524377 0.032946244 -0.1274566 -0.052714214
-0.013064487 -0.069218196 -0.18366656 -0.027788395 0.06250446 -0.1277043 0.1285032 -0.005783117
0.031081233 -0.083753616 -0.18257923 -0.1100467 -0.036705006 -0.080410354 0.114650294 -0.12393455
-0.15457605 -0.101663776 0.12327474 -0.11551339 0.12387712 0.044290595 -0.070318334 0.046685487
0.03963282 -0.12940294 -0.07616904 0.13709198 0.06268124 -0.12818669 -0.07997395 0.058639884
0.051156703 -0.01288826 -0.14703052 -0.17039973 -0.0810477 0.020109238 -0.061659258 -0.17218433
-0.08202568 0.13167593 -0.18627374 -0.16390756 0.070470974 0.12681434 -0.20488982 -0.20573938
-0.09029857 0.13218214 -0.13371049 -0.02935325 0.108621374 -0.10626805 -0.09340986 -0.1551791
0.041985087 0.118634656 0.058146507 0.15083763 0.018376613 0.0116173625 -0.06496342 0.054496296
-0.008783206 -0.14643277 -0.083681166 0.110452026 0.2117859 -0.0012189483 -0.11306848 -0.111370355
-0.101227336 0.11137171 0.13703056 0.006985749 0.0996054 0.12394973 0.14958774 0.14709163
0.051881038 -0.0008370336 0.05382989 -0.0785192 -0.08345782 0.09224888 0.06434374 -0.14529787
-0.15136494 -0.16998185 0.11540874 0.08226365 -0.12255527 -0.013675315 -0.07182884 0.13064119
-0.19422004 -0.14828332 -0.15482515 0.060873754 -0.11968418 0.070302814 0.017319782 -0.0992276
-0.07363472 -0.10659541 0.032474473 -0.0805323 0.021040298 -0.031330254 -0.16465145 -0.15936668
-0.13137549 0.061151657 0.0064747105 -0.04545843 -0.14268838 -0.21782517 -0.0940451 -0.15125799
-0.21012633 -0.20157972 -0.13495065 -0.20237298 0.017748406 0.023603192 0.040654283 -0.20332183
0.06919396 0.0017230145 0.046570286 -0.08301122 0.040620655 -0.19971187 0.019887108 0.09967481
0.03319026 -0.19395584 -0.08550287 -0.062451 0.04931491 -0.10715401 -0.017692514 -0.10869533
-0.06368599 -0.046416428 -0.13477494 -0.16186352 0.107376285 0.10324888 -0.04715982 0.11198981
0.09022282 -0.14909321 -0.1083386 -0.15392023 0.019437686 -0.040085245 -0.056193016 0.086407624
-0.109967306 -0.13503258 -0.15227795 -0.12807257 0.123300806 -0.12657565 -0.088003606 0.040577855
-0.16903494 -0.14531015 0.086998485 -0.10394734 -0.13239393 -0.071165115 -0.068667546 -0.016178444
0.018382877 -0.17397615 0.12632525 -0.20668556 0.022480773 -0.09301601 -0.113668196 0.12231502
-0.15752262 0.057933703 0.11587692 0.13219938 -0.14186223 0.06584748 0.14905573 -0.12951586
0.0854479 -0.093400896 0.047269356 -0.17736141 0.08602269 -0.020631794 0.06723258 -0.009863725
-0.0328832 -0.06256975 -0.11387629 -0.05195322 0.01618876 -0.09290324 0.17285468 -0.06689143
-0.025826465 -0.0022749854 -0.10057021 -0.030747257 -0.09523688 -0.1754151 -0.003828612 0.14934081
0.045638986 0.18800989 0.022057187 -0.067015365 0.13673921 -0.07742691 -0.12110638 0.080874115
0.105311364 -0.090155 0.104142435 -0.09390096 -0.024835063 -0.020883318 -0.067742765 -0.13671078
0.04572252 -0.07864185 0.10473094 0.07408613 -0.103282794 -0.09002088 -0.04763562 0.03572119
-0.07020731 -0.038159836 0.071870364 -0.15066521 -0.09587252 0.1251222 -0.08904339 -0.03874235
