trained_weights/trace/lword2vec_gnn_trace9_E3.pth (torch, 12759 bytes, 6 tensors)

conv1.lin_l.weight f4 [32, 30]
000000 6a 06 3f bd d6 3b 96 3c 6d b0 9e 3d 47 4a ff bc
       -0.046636976 0.018339079 0.07748494 -0.031163348
000010 ad 73 4d 3a 0d 3a 29 3e 32 40 55 3d 9c 02 9a 3e
       0.00078373664 0.16526051 0.052063175 0.30080116
000020 c9 9b 68 3e 00 a3 a2 3d 56 e6 e9 3d 40 d2 42 be
       0.22715677 0.07941246 0.11420886 -0.19025517
000030 e1 6a 4a 3b 5b be 14 be 1d 84 16 be 6a 3d 11 3e
       0.0030886459 -0.1452574 -0.14698835 0.14183584
000040 c5 e7 e0 bc 8f 65 e4 bc fc 9d 7f 3e d1 5a f4 3d
       -0.027454266 -0.027880458 0.2496261 0.11931384
000050 7d e8 7c 3d 4f 38 62 be 21 75 3a 3e da f0 26 be
       0.061745156 -0.22091793 0.18208744 -0.16302815
000060 4e fe 8d be 1f f5 52 3e bb 44 80 3d b7 b4 72 bd
       -0.27733082 0.20601319 0.06263109 -0.059254374
000070 bd 1d 81 bd 4e b2 ba 3c 77 b8 7b 3d de 39 24 3d
       -0.063045 0.0227901 0.061455216 0.04009425
000080 23 cb af bd 81 e4 f2 3c 7b 2a da 3c 88 b2 88 bd
       -0.08583667 0.029649975 0.026631584 -0.06674677
000090 88 35 da 3c 38 14 c3 bd b0 49 e4 bd 64 5a ac bd
       0.026636854 -0.09525341 -0.11146867 -0.08415678
0000a0 41 f9 ef 3c be 2f fd 3c 8a 74 89 bc bd 11 81 3d
       0.029293658 0.030906554 -0.016779203 0.063022114
0000b0 3b 34 6a 3d a5 48 e7 bd 99 a3 b8 bd b4 a5 55 bb
       0.057178717 -0.11293153 -0.09015579 -0.0032599987
0000c0 ea dc 51 3d 56 8f 3d be 61 a8 e6 bd 15 41 10 bc
       0.05123607 -0.1851171 -0.112625845 -0.008804579
0000d0 2a c0 b0 bd fc bf 10 be c0 64 aa 3d 70 80 2f be
       -0.086304024 -0.14135736 0.08319998 -0.17138839
0000e0 2c 69 e1 bb 66 0b 8f 3c 69 0f 89 bc 27 ff e9 bd
       -0.0068789925 0.01746149 -0.016730981 -0.114256196
0000f0 3b 42 af bd 1c 56 9f bc 5f 23 dc 3b dc ef 10 3d
       -0.08557554 -0.01945024 0.0067180838 0.035384998
000100 7b ad 16 3e a3 c2 59 bd a2 12 9c 3d 0b b5 f8 3c
       0.14714615 -0.053164136 0.076207414 0.030359766
000110 10 b3 19 be e5 70 99 bd 25 18 6f bd 1e db ac bc
       -0.15009713 -0.07492236 -0.058372635 -0.021100577
000120 d6 e7 4f bd 01 81 fa ba 90 94 73 bd f9 84 a3 3d
       -0.050758205 -0.0019111932 -0.059467852 0.07984347
000130 46 8f 49 bc 99 6f a0 bc 3d 22 91 bd 61 db 2e 3e
       -0.012302225 -0.019584464 -0.070866086 0.17075874
000140 20 a6 0a bd 64 0a 07 3e 67 e0 fd 3c 43 5b f7 3d
       -0.033849835 0.13187557 0.030990792 0.12077954
000150 b0 5c 7d 3d 91 d7 9b 3d b5 0c b4 bc 24 56 3d 3d
       0.06185597 0.076094754 -0.021978715 0.04622473
000160 f7 28 72 3d dc 9c 3f bd 08 31 37 bb 9a 77 90 bd
       0.0591211 -0.046780452 -0.002795281 -0.07054062
000170 ab 12 98 3d a6 7c 1b 3e e5 a4 83 3e 5c b1 c8 3d
       0.07425436 0.15184268 0.25711742 0.097994536
000180 d2 07 22 3d 00 30 00 3d c4 81 27 bc 52 c1 b3 3c
       0.03955824 0.031295776 -0.01022381 0.021942768
000190 6c b9 01 3c df 5d 74 bd 04 2a 43 3d 53 22 00 3e
       0.007917743 -0.059659835 0.04764749 0.12513094
0001a0 95 1a 86 bc 73 29 b7 bc 6d 30 10 be c4 cd 7e 3b
       -0.016370097 -0.022358632 -0.14080973 0.003887997
0001b0 e4 18 05 3c 3c 2f 64 3d cd 25 be 3c d9 da aa 3c
       0.00812361 0.05570911 0.023211384 0.020856308
0001c0 1a e3 ee 3d 90 d6 f0 3c e9 20 0c 3a 47 b4 25 3d
       0.1166441 0.029399186 0.000534548 0.04045513
0001d0 69 87 68 3d af 7f 35 3c 3b 43 b5 bc 49 94 ab 39
       0.056769762 0.011077805 -0.022126785 0.00032726143
0001e0 5d c0 07 3e 79 76 08 3e 87 5f 8a 3c 4c b0 d7 3b
       0.13256975 0.13326444 0.016891254 0.0065822955
0001f0 92 53 55 3e f4 3e b1 3d 83 4a 93 3e 6b 95 6b 3c
       0.20832661 0.086545855 0.28767785 0.014378886
000200 cc 5c 9b be 6e 29 89 bb ef c2 c4 3e 9a c1 a8 be
       -0.30344236 -0.004185847 0.38429973 -0.32960206
000210 e4 0b a3 3e ca d2 f7 bd 11 71 f6 3d c5 e5 4c 3e
       0.3184501 -0.12100752 0.120332845 0.20009525
000220 d8 92 11 be 26 4d 91 3c c4 b1 44 3c 0a 8c 07 3d
       -0.14216173 0.017736983 0.012005273 0.033092536
000230 5d 02 f0 3c f1 17 a5 3e 4e a7 03 3e f1 0a 15 3e
       0.029298002 0.32244828 0.1285679 0.14554955
000240 30 ef 79 be 3b b8 c9 3d 5e 98 e0 3d 04 83 04 3e
       -0.24407649 0.09849592 0.10966562 0.12940603
000250 db 79 82 be 4e a8 e0 bd 6b ab 21 be c0 c6 b5 bd
       -0.25483593 -0.109696016 -0.15788047 -0.08875799
000260 09 c4 e2 3c c9 99 cd 3d 48 5e 0b 3e 10 b3 b0 3c
       0.027681367 0.10039098 0.13610184 0.021569759
000270 e6 f1 84 bd 18 37 7e be 48 21 ce bd a3 ef 78 bd
       -0.06491451 -0.24825704 -0.10064942 -0.06077541
000280 21 33 38 be f9 cc 45 3d be 87 01 3d 8e 46 10 3e
       -0.17988254 0.04829118 0.031623594 0.14089414
000290 87 7d 22 ba ef 5c d7 bd c4 0b 56 bd ee 19 c0 3b
       -0.00061985146 -0.105157726 -0.052257314 0.005862466
0002a0 a9 d1 78 be 72 a9 d3 bc 41 71 24 3d 94 73 7d 3d
       -0.24298729 -0.025837634 0.04014707 0.061877802
0002b0 b3 ff 8a 3c ad 64 97 3d a1 ef 3f 3e 22 0c 95 bd
       0.01696763 0.07392249 0.18743755 -0.07277705
0002c0 71 53 fa 3c c2 a7 1e 3c b9 73 c6 3c 63 43 6e 3c
       0.030557366 0.009683551 0.024225103 0.014542433
0002d0 2e fd 09 bd dd b6 90 bc 59 90 03 3d 44 fe d7 39
       -0.033688717 -0.017665321 0.032120083 0.00041197438
0002e0 4a 35 9b 3c 51 f3 49 3c 33 0b d0 bc be 0d 34 3d
       0.018946309 0.012326078 -0.025395965 0.043958418
0002f0 c0 fc 94 3c 2c 5e 1e 3d 58 ce 3d bd 9d ab 04 3d
       0.018186927 0.038664028 -0.046339363 0.032390226
000300 b6 e6 2a bd 8e 23 82 3b ac f2 0a bc b1 10 eb 3c
       -0.04172393 0.0039715236 -0.008480709 0.028694483
000310 cc 92 89 3c 89 7f 4b 3c d8 62 c8 3c b7 9a 4b 3d
       0.016793631 0.0124205435 0.024461195 0.049708094
000320 3a fa 54 3d 16 78 03 ba f0 85 d2 3c 83 9c 66 3d
       0.051996447 -0.00050151476 0.025698632 0.056301605
000330 81 6f 94 bc 23 28 38 3d 8a 9f 56 bc 43 9d c2 3c
       -0.018119575 0.044960152 -0.0130995605 0.023756629
000340 8d 23 1a 3d c2 a0 10 3d 17 d4 6d 3d 87 28 80 3d
       0.03763156 0.03530956 0.058063593 0.0625773
000350 b8 ee 80 bd 69 a7 b3 bb 01 0a c3 3c 27 2c ed bc
       -0.06295532 -0.0054826033 0.023808481 -0.028951718
000360 dd 94 a0 3c 59 df 90 bb 25 24 4f 3c 37 47 2f bb
       0.019602234 -0.0044211564 0.012642895 -0.0026745328
000370 7c 63 b7 3d ef 74 87 bd 06 f5 bc 3d 36 01 ce 39
       0.08954522 -0.066141 0.09226422 0.00039292284
000380 0a 3a 40 3d 9f a1 98 3a fb ae 7c bc bf 97 92 3c
       0.04693035 0.0011644847 -0.015422578 0.017894624
000390 37 59 de 3c 22 14 4e bd ac 57 ae bc 87 e1 60 3d
       0.02714215 -0.05031217 -0.02128204 0.05490258
0003a0 0a d6 20 bd e4 10 37 bd 62 00 8d bd f0 08 21 bd
       -0.039266624 -0.044693843 -0.06884839 -0.039315164
0003b0 25 e8 12 bb 05 1f fc 3c 69 4d 8c bd d4 18 1c bd
       -0.00224162 0.03077651 -0.06850702 -0.038109615
0003c0 60 f3 90 3c a5 a9 79 3d 2c ea f5 bd 08 19 47 bc
       0.017694175 0.0609528 -0.12007555 -0.012151964
0003d0 97 1d ac bc 5a b5 cd bd ef de 6b bd 61 b7 30 be
       -0.021010203 -0.10044356 -0.057585653 -0.17257454
0003e0 ef 58 16 be 17 57 ad bd c6 e2 b2 bd 5f 60 bd 3d
       -0.14682363 -0.08463877 -0.0873466 0.09246897
0003f0 f5 5c 85 bd de 55 ec 3c 2b de 8a 3d 20 4c ad bd
       -0.06511871 0.028849538 0.067806564 -0.08461785

conv1.lin_l.bias f4 [32]
000000 b9 29 e3 3b 4c 76 c2 bd a7 c8 38 bd 23 64 3c 3c
       0.006932464 -0.094952196 -0.045113232 0.011498484
000010 a2 29 59 bd 8c 2d 91 3a 12 45 39 3d 0a d7 1a bb
       -0.05301822 0.0011076196 0.045231886 -0.0023626708
000020 87 7a 93 bd e0 2d f7 3c d1 ce 47 3e 9b c8 a3 bc
       -0.072011046 0.030173242 0.19512488 -0.019993117
000030 2b 50 8a bd 41 d0 bd bd 07 c6 37 3a bf 6f ce bd
       -0.06753572 -0.09268237 0.00070104044 -0.100799076
000040 db 9c 85 3d 87 5f 03 bc e5 2d 18 3b ca cc 95 3d
       0.065240584 -0.008018381 0.0023220715 0.07314451
000050 8b 7b 92 bd 33 64 53 bb f0 1a cf bb 96 9c c5 bd
       -0.0715247 -0.0032255768 -0.00632035 -0.09649007
000060 6b 9e 8a bc 9e 6c f0 bc 68 7a 8c bd 2f ba 86 3a
       -0.016921243 -0.029348668 -0.06859285 0.0010278876
000070 0d 3b 44 3c 5e a3 de bc 71 ac 94 ba 5d 1b 87 3d
       0.011976969 -0.027177509 -0.0011342895 0.06597016

conv1.lin_r.weight f4 [32, 30]
000000 03 b9 2f 3e f3 7a 1f 3e 04 c1 ba 3d 2a 96 42 3d
       0.1716042 0.15574245 0.09118846 0.04750649
000010 e9 ff a2 3d 58 c2 22 3e 60 90 84 3e b1 e6 9f 3e
       0.07958967 0.15894449 0.258914 0.3123069
000020 16 53 fb 3d 9c de 77 3d 2a 3d f6 3d de 56 a4 be
       0.12271707 0.06051503 0.12023385 -0.32097524
000030 73 65 af 3d 8d 73 8b bd cc 1a b4 bd 91 35 36 3e
       0.08564272 -0.06809149 -0.087941736 0.17793871
000040 74 02 d7 bd 8a fa 1d bc d6 c0 0f 3e 1e 50 93 3c
       -0.10498515 -0.009642253 0.14038405 0.017982539
000050 10 d7 3a bd 72 38 cc 3c f9 88 ca 3d b9 61 d4 bd
       -0.045615256 0.024929259 0.09889407 -0.103702016
000060 8a 9b 96 be 8c f4 87 3d d7 c8 90 3d 66 ec 89 bd
       -0.29415542 0.066384405 0.07069557 -0.067345425
000070 70 d2 82 be cf 86 8e bd 0a 1d b7 3d dc b7 36 3e
       -0.25551176 -0.069593064 0.08941086 0.17843574
000080 57 ec 85 be b4 1b 3b be d3 73 9e be f2 59 4b be
       -0.26156875 -0.18272287 -0.30947742 -0.1985853
000090 6f 84 58 bc f8 27 64 be ce c3 56 be ff 7e c5 bd
       -0.013215168 -0.22280872 -0.20973131 -0.09643363
0000a0 ff cf 1d bd c1 97 9f 3d dd f2 5e bd af 91 bc bd
       -0.03852844 0.07792617 -0.05443083 -0.092074744
0000b0 09 ac 34 3e 35 01 7e bd 62 47 3e 3d 6a 0e a2 3d
       0.17643751 -0.06201287 0.046454795 0.079129055
0000c0 82 b2 82 bd d7 b4 36 be ce 89 4b be fe 8e 77 bc
       -0.06381704 -0.17842422 -0.19876787 -0.015109776
0000d0 4f 20 9d be ad 64 35 be 1f d6 4e 3e 24 a9 58 be
       -0.30688712 -0.17714186 0.20198868 -0.21158272
0000e0 e7 7b 29 be 3e ca da 3d ae 64 39 3d 33 b3 b7 bd
       -0.16551171 0.10683106 0.04526203 -0.089697264
0000f0 31 77 82 be aa 41 82 bd d3 2f c5 3c 4b ea 6d 3d
       -0.2548156 -0.06360181 0.024070656 0.058084767
000100 fa ac d6 3c 68 99 fe 3d 7a e6 41 be 34 d9 5f 3e
       0.026205529 0.12431604 -0.18935576 0.218602
000110 b3 6b 20 be c3 57 9c bc fb 28 3a be dc c6 50 3e
       -0.15666084 -0.019084817 -0.18179695 0.20388359
000120 c8 6a c9 be dd cb fa bd c5 13 1e be be 4a d2 bb
       -0.3933928 -0.12245915 -0.15437229 -0.0064176014
000130 56 dc 44 3e 7f 4f 36 be 41 49 05 3e 96 4f d0 3e
       0.19224676 -0.17803763 0.13016225 0.4068572
000140 89 86 84 3e c9 e3 fc bc db 70 3a 3e 3e ee da 3d
       0.25883892 -0.030870335 0.18207113 0.10689972
000150 b9 8b 23 3d f5 57 01 3e 40 6a 2c 3e 5f 90 f7 bb
       0.03992817 0.12631209 0.16837406 -0.007555052
000160 a3 1a a0 3e 8f 1b 12 3e c3 d5 87 ba 98 0f 8e 3c
       0.31270322 0.14268325 -0.0010363389 0.01734142
000170 9e 88 cf bc 0c 67 7f bc 08 24 88 bc 44 10 5e bc
       -0.025333699 -0.015588533 -0.016618744 -0.013553683
000180 b3 71 d0 bc 5b 99 e3 ba e4 33 fe 3c 52 9b 8e 3c
       -0.025444841 -0.0017364429 0.031030603 0.017408047
000190 ab 06 b4 3d 6e 35 5c bb 38 10 17 3d e6 b3 95 bd
       0.08790334 -0.0033601183 0.0368807 -0.073097035
0001a0 c6 59 1f 3d d3 ba f2 3c 7c f6 77 3b c5 22 04 3d
       0.038903974 0.0296301 0.0037836125 0.03225972
0001b0 60 d8 08 3d 60 f2 26 3d 3a 0b 5b 3d 09 0a b3 3c
       0.033409476 0.04075849 0.053477503 0.021855371
0001c0 67 fb 76 bd cd f9 4f 3c a5 03 b6 bd 30 2e 04 bc
       -0.06029835 0.0126938345 -0.08887414 -0.008067653
0001d0 42 73 ae bc 91 19 1a 3c 9b 84 c1 ba e6 e0 b0 3b
       -0.021295194 0.00940551 -0.0014764251 0.0053979037
0001e0 04 17 28 3d 9a df 5c bd e0 50 35 3e 52 31 e2 3d
       0.041037574 -0.05392418 0.17706633 0.11044563
0001f0 a9 24 c2 3d 44 0a 82 3e 80 84 98 3e 24 09 b2 3d
       0.094796486 0.25398457 0.2978859 0.0869315
000200 e9 c1 61 3c e8 f9 85 3c 49 38 b0 3e 46 e4 27 be
       0.013779142 0.016354516 0.34417942 -0.16395673
000210 98 4f 8a 3e 7e 85 59 bd 4f b9 73 bd f2 b9 04 be
       0.2701385 -0.053105824 -0.059502896 -0.12961558
000220 0e e4 28 be ab 05 ab bd 74 c1 82 3e 2a 24 41 be
       -0.16493246 -0.083506905 0.25538218 -0.18861452
000230 45 56 60 3e aa a0 da 3c 10 7b 75 3d eb c5 68 3d
       0.21907909 0.026687939 0.059931815 0.056829374
000240 2c bb 88 be 7f ab 18 3d e3 e3 1a 3e fb 41 db bd
       -0.267053 0.037272926 0.15125994 -0.10705944
000250 b2 32 5c be d1 81 35 bd 5f 43 22 be 79 1e db bd
       -0.21503714 -0.044313256 -0.15846013 -0.106991716
000260 9c 3b 37 3d 36 5e 80 3d 69 c8 b9 3d 88 aa 83 bc
       0.044734582 0.06267969 0.09071428 -0.016072527
000270 d6 a1 2c bd a8 3a 80 be 1c 29 43 bd 14 50 55 bc
       -0.042146526 -0.2504475 -0.047646627 -0.01301958
000280 3f ed 00 be db 1c 6d 3d c8 2c 96 3d 98 63 06 3e
       -0.12590502 0.057888847 0.0733276 0.1312393
000290 14 64 dc 3b 54 c7 96 bd f6 c9 e6 bc 1a 87 ba 3c
       0.0067257974 -0.073622376 -0.028172474 0.0227695
0002a0 79 74 3b be fc 3a 5a bc 07 ec 2a 3d 78 b6 82 3d
       -0.1830615 -0.013319727 0.041729 0.063824594
0002b0 ff 8a 0c bc 56 07 e4 3d e6 49 17 3e 54 c9 1c bd
       -0.008578061 0.11134212 0.14774284 -0.03827794
0002c0 a6 13 84 3b c9 fc ae 3c 41 fc 07 ba b9 3c 9f 3c
       0.0040306626 0.021360772 -0.000518743 0.019438135
0002d0 46 a9 e4 bc 82 cf a2 bc e7 23 30 3d e1 91 8f bc
       -0.027912747 -0.019874338 0.04300299 -0.017525615
0002e0 e8 7d e8 bc e4 c3 01 bc 79 58 79 bd 11 2d 12 3d
       -0.02838035 -0.007920239 -0.06087539 0.03568751
0002f0 61 ec c5 3d 83 a6 33 3d e5 a3 84 bc f0 a9 2c 3d
       0.09664226 0.04385997 -0.016191432 0.042154253
000300 f3 f3 c4 bd af 5d a0 bb 3a d1 29 3c 62 a9 c4 3b
       -0.09616842 -0.0048939805 0.010364825 0.0060016373
000310 42 42 13 3d ee 66 e9 bb b3 d5 52 3d a4 4a 1c 3d
       0.03595186 -0.007122866 0.05147333 0.03815712
000320 50 d0 c6 3c b5 da a2 bd 62 f4 bf 3c ea 3c 33 3d
       0.024269253 -0.07951871 0.02343196 0.043759264
000330 bf 96 bc bc bb 4e 4a 3d 89 23 53 3b ba 4a 98 3c
       -0.0230211 0.04939149 0.0032217226 0.01859032
000340 ff bd 8e 3d c8 93 a6 3d eb cb cb 3d 72 ce 6a 3d
       0.06969833 0.08133656 0.09951004 0.057325788
000350 d9 9e 03 bd 55 22 26 3d 99 81 30 3d 1e 69 3e bc
       -0.03213391 0.040560085 0.043092344 -0.011621742
000360 0b 11 25 3d f6 33 07 bd bd c3 30 bd 4f b3 78 bc
       0.040299457 -0.03300854 -0.04315542 -0.015179469
000370 8e 10 21 3d 9f 93 6f bd f4 d0 23 3e e7 8f 49 3d
       0.03932243 -0.05849039 0.15997678 0.0492095
000380 77 96 6b 3d dc c0 0e bc 3f a6 52 bd a2 cf 3e 3d
       0.05751654 -0.008712973 -0.051428076 0.046584733
000390 f0 04 b3 bd db 3f 80 bd bb 86 89 bb 4a 34 f7 3d
       -0.08741176 -0.062621795 -0.0041969693 0.1207052
0003a0 3c 87 d6 bd 63 93 45 ba e5 c8 92 bb 6d d5 0b bd
       -0.10475013 -0.0007536916 -0.004479515 -0.034139086
0003b0 4f 97 94 bd 6e e6 de 3c e5 ee ea bd 7b 5c c0 bd
       -0.07255422 0.027209487 -0.11471347 -0.09392639
0003c0 63 96 40 3d 6f ef be 3d a2 66 26 be 90 7e da bd
       0.04701842 0.09323012 -0.16250089 -0.10668671
0003d0 1a 58 31 be 9d 04 28 be e6 6d ea bc 41 ca 36 be
       -0.17318764 -0.1640801 -0.028616857 -0.17850591
0003e0 f3 67 22 be c2 78 d0 bd 16 bb fc bd 9b 1f 1d 3d
       -0.15859966 -0.10179283 -0.12340371 0.03836022
0003f0 64 c3 2e bd 60 64 1f bd d0 c9 bf 3d 92 0c b1 bd
       -0.042666808 -0.038914084 0.093646646 -0.08644976

conv2.lin_l.weight f4 [11, 32]
000000 73 c3 c5 bd 54 ee f5 bd bb 49 1a 3f 98 66 2d b9
       -0.096564196 -0.12008348 0.60268754 -0.00016536785
000010 0b fc 5c be a6 fb 7d 3d 27 48 67 3d 58 10 95 3d
       -0.21580522 0.06200757 0.056465294 0.07278508
000020 a7 99 bf bd 9f a1 e7 bc 0e 28 e7 bc 02 05 a3 bb
       -0.09355479 -0.02827531 -0.028217342 -0.004974962
000030 e0 ba 06 be 4c 1c c8 bc 0d 84 20 bc 2b 98 bd bd
       -0.13157225 -0.024427556 -0.009797108 -0.09257539
000040 91 72 79 bd bf d3 59 bd 77 8f ee bd 94 30 a5 3c
       -0.060900275 -0.053180452 -0.116484575 0.020164765
000050 2b 6e a4 bd d0 2d 88 bc e7 42 c4 bd c8 c4 3c be
       -0.08028825 -0.016623408 -0.09583073 -0.18434441
000060 9f c3 ba bd 36 5a 8c bc 25 24 64 bd 01 28 57 3d
       -0.09119343 -0.01713286 -0.055698533 0.052528385
000070 72 f1 58 3c fa 4d 67 3c ba 55 12 bd 0d e9 bc 3b
       0.013241159 0.014117712 -0.035726286 0.0057650865
000080 49 18 97 3d d1 16 41 bc d5 55 0e be c2 54 f0 bc
       0.07377679 -0.011785225 -0.1389993 -0.02933729
000090 f8 39 0f 3e 7e 3e 76 bd 9d 72 08 bc ff a8 cc bc
       0.13986957 -0.06011819 -0.008328107 -0.024982927
0000a0 24 3e c0 3c 33 79 6a bc 09 ad cd bd 69 1d b9 bb
       0.023467131 -0.014311123 -0.100427695 -0.005649258
0000b0 0a 58 f1 3c 40 50 61 bd f8 f7 17 bc f7 97 04 3e
       0.029460926 -0.055008173 -0.009275429 0.12948595
0000c0 b4 b1 ca bc 53 81 24 bc 94 07 09 3e 63 5b ae bd
       -0.024742939 -0.010040599 0.13381797 -0.085135244
0000d0 32 b6 5f bd 1c 3f 2a 3d 7d fd 68 bc 5e 3f 61 3e
       -0.054617114 0.041564092 -0.014220593 0.21996829
0000e0 c3 b3 48 bd da 4a 1d bd 86 0b a2 3c ce 5e 92 3c
       -0.04899956 -0.038401462 0.019780885 0.017867472
0000f0 55 5d 1c bc e5 89 e5 bd 0f 97 bd 3c 71 ea 9d 3b
       -0.009543736 -0.11207942 0.02314332 0.0048192074
000100 e1 c5 52 bd bb ba e1 bd ab 48 81 bb 2f 42 b1 bc
       -0.051458243 -0.11021944 -0.0039454303 -0.021638004
000110 c3 62 fe bc 2b 71 df 3c 26 c4 9f ba 4d 84 20 3b
       -0.031052953 0.027275642 -0.0012189194 0.002449292
000120 1f 8f d9 3a 3b 5f b4 ba 68 dc a2 3d 89 6d 44 39
       0.001659844 -0.0013761291 0.079521954 0.00018732822
000130 4b 49 26 bd d2 61 e4 bd 74 a1 5b 39 d8 17 ae bd
       -0.04059724 -0.1115147 0.00020945614 -0.085006416
000140 5a 44 89 3c 53 06 a3 bd 00 a9 6d bc a6 f0 b3 bb
       0.016756225 -0.079601906 -0.014505625 -0.005491334
000150 11 00 a4 bc 57 76 ff bb 41 de 18 bb ce e6 bc 3c
       -0.020019563 -0.0077960896 -0.0023325833 0.023059275
000160 eb a1 17 3c 41 7c 44 3d 14 45 7a bd 5b fb b7 bc
       0.009254913 0.04797006 -0.061101034 -0.022458723
000170 ea 8f 87 bc 67 bf 29 39 ac ed 8b bc 91 eb 33 bd
       -0.016548116 0.00016188399 -0.017081104 -0.043925826
000180 e8 ba de 3d 36 9f 1a 3d cf b3 a6 bd ef f7 a8 bc
       0.10875493 0.03774949 -0.081397645 -0.020626036
000190 39 f1 67 3d fa ea 24 bd 6d c2 f1 3b fd ef 65 bd
       0.056626532 -0.040263154 0.0073779137 -0.056137074
0001a0 9c 3f 17 bd a0 71 2d 3b 8b ed ad 3e f5 e4 a9 bb
       -0.036925897 0.002646543 0.33970293 -0.0051847645
0001b0 ac 4f 07 bd e8 c4 e2 bd cc ec ce 3b 3c 74 19 3e
       -0.033034965 -0.11072713 0.0063148495 0.14985746
0001c0 34 2a 3d bc 38 7f 83 3c 32 b8 d1 3c 4e ff 9c 3e
       -0.011545707 0.016051874 0.025600526 0.30663532
0001d0 f5 39 1b bd 6b 9d 47 3b 99 b6 53 bb aa ea 84 3c
       -0.03789707 0.0030458819 -0.0032304882 0.016225178
0001e0 9e c7 76 bd 50 77 d2 bd dc f6 26 3e 90 a2 3a 3d
       -0.060248964 -0.10276663 0.16305107 0.045565188
0001f0 92 ed a8 3d 2e 0e 60 be 30 c0 44 3c 3b 2c 08 bd
       0.08248438 -0.21880409 0.012008712 -0.033245306
000200 d9 4c d0 bc 84 1f 27 bd ea 07 62 bd 0d 3a 02 bd
       -0.025427269 -0.04080154 -0.05518333 -0.031793643
000210 b4 8d 93 bd 77 49 5b bb 9d 72 4f 3b d7 b6 76 3b
       -0.07204762 -0.0033460537 0.0031654008 0.0037645602
000220 92 62 41 bd ec 59 5f 3e dc 33 ed bd 75 c6 0b bc
       -0.047213145 0.21811646 -0.11582157 -0.008531203
000230 0a ed 75 bd 22 dc 91 bd 17 ed d4 bb b9 e5 22 bd
       -0.06004051 -0.07122065 -0.00649799 -0.03976986
000240 37 86 cb 3e 40 15 40 bd bb 1f 50 bd 04 e1 0e 3d
       0.39750835 -0.046895266 -0.05081151 0.03488256
000250 83 2d 31 bd 4a 20 17 3c 07 d0 a3 bc 37 aa 06 3c
       -0.043256294 0.009224007 -0.019996656 0.008219293
000260 ae 57 21 3d d9 d5 a7 bd ab 4c 97 bc 30 c4 fd bc
       0.03939026 -0.08195085 -0.018469175 -0.030977339
000270 61 80 44 bb 8f fc 0b 3e 7b d1 52 bd eb 5f 15 3e
       -0.0029983746 0.13670562 -0.051469307 0.14587371
000280 b0 4f 2d bc 3a cc 2b 3f b0 cc 03 be 0e 19 29 bd
       -0.010578081 0.671085 -0.12871051 -0.04128366
000290 58 10 13 bd 37 6c b5 bc 07 e6 c2 3b d3 e3 c5 bb
       -0.03590426 -0.022146327 0.0059478316 -0.0060391217
0002a0 21 70 d3 3e c9 e3 07 3c f4 72 d7 bd 39 f7 fd bc
       0.41296485 0.008294054 -0.105199724 -0.031001674
0002b0 54 90 e1 3e 2d 37 22 bd e3 9e 7c 3b 60 84 e1 bb
       0.44055426 -0.0396034 0.0038546852 -0.0068822354
0002c0 23 dd ac bd ea 90 57 bd 3e c8 1e bd 11 7e f8 bc
       -0.08440616 -0.052628435 -0.038765185 -0.03033355
0002d0 1c a5 e2 3e 42 1b 1b 36 ed 0e ca 3e a7 74 5a bd
       0.44266593 2.3112666e-06 0.39464512 -0.053333905
0002e0 c2 6f 9f 3e ad 93 1f bd 80 6b 1a 3c 65 bb ea 3c
       0.31139952 -0.038959194 0.009425044 0.02865381
0002f0 89 73 e6 bc 94 9d e3 3d 7d 67 aa bc ed a2 c7 bd
       -0.028131263 0.1111404 -0.0208013 -0.097478725
000300 f1 68 c7 bc 7b 2f 07 bc 0c 5c 91 3d 2d 3b 8c bc
       -0.024342032 -0.008251066 0.07097635 -0.017118061
000310 a8 de b8 3b 58 d4 5b bd 43 38 08 3d a8 36 83 bc
       0.005641777 -0.053669304 0.03325678 -0.016017273
000320 4a 26 38 bd 57 78 09 bd e2 6e 4c bd 91 72 49 bc
       -0.04495839 -0.03356203 -0.049910434 -0.012295381
000330 8a 53 40 bd de 17 85 bd 51 fe 1e ba 3e 9a 4a bb
       -0.04695467 -0.06498693 -0.0006065118 -0.003091469
000340 9f 98 5c 3c c8 00 89 bd a3 1f 33 bd fe cb 9a 3c
       0.013464122 -0.06689602 -0.043731343 0.0188961
000350 8d 35 17 bd b9 d6 04 bb b3 57 6e bc 36 94 3e bd
       -0.036916304 -0.0020269586 -0.014547276 -0.046528064
000360 3f c0 d3 bc 0b 60 3e bd ed 48 ae 3c aa 31 c6 3c
       -0.025848506 -0.046478312 0.021275008 0.024193604
000370 eb 2e 23 bc 82 79 50 3d d8 55 b0 bc 1b 1c c2 bd
       -0.009959917 0.05089713 -0.021525308 -0.09478017
000380 fa 31 32 bd 53 3e e7 bd 82 a8 00 bc a5 72 aa bc
       -0.043504693 -0.11291184 -0.007852675 -0.02080662
000390 ab 94 9d bc 68 3f db 3c 6a b0 eb ba 0f 2a d0 3b
       -0.01923593 0.026763633 -0.0017981653 0.00635267
0003a0 1d 61 7d bb cf d2 20 bb aa 90 9c 3d b0 9d 9c bb
       -0.003866262 -0.0024539714 0.0764478 -0.00477954
0003b0 f0 43 27 bd 4a 93 de bd 99 db 67 39 87 8d a9 bd
       -0.040836275 -0.10867937 0.00022111683 -0.08278947
0003c0 55 c4 29 3c a5 ee 9e bd 87 7b 62 bc 4d f3 2c 3b
       0.010361751 -0.077603616 -0.0138233965 0.0026390136
0003d0 99 b1 b8 bc 7e 8c bd bb d6 e8 e7 ba 7d 73 97 3c
       -0.022545623 -0.0057845702 -0.0017693292 0.018487686
0003e0 f3 62 e3 3b 0a 53 35 3d 52 b1 6e bd ff 6e c7 bc
       0.006939286 0.044268645 -0.058274575 -0.02434492
0003f0 f5 37 85 bc 04 94 5d 3c 8a 2b 8b bc 43 ce 27 bd
       -0.016262034 0.013524059 -0.016988534 -0.04096819

conv2.lin_l.bias f4 [11]
000000 40 bf ab 3d 4f d0 50 3c 86 2e 49 bd 11 86 b1 3c
       0.083860874 0.012744977 -0.049116634 0.021670373
000010 49 e2 f0 bc 5a e3 d6 ba 94 a6 60 bc cd 21 46 bd
       -0.029404776 -0.001639466 -0.01371159 -0.04837208
000020 83 f3 17 3d 31 b7 56 bd 86 b0 8b bc
       0.037097465 -0.0524208 -0.017051946

conv2.lin_r.weight f4 [11, 32]
000000 f2 37 e1 bd 65 f3 2a be f3 00 9a 3e c3 f2 cb 3d
       -0.10996999 -0.1669441 0.3007885 0.099584125
000010 00 79 22 bd 09 a1 14 3d ad b8 12 3e 4f ca 40 3c
       -0.039666176 0.036286388 0.1432826 0.011766984
000020 66 e8 cc bd e4 23 67 bd b1 49 31 be f1 8f a8 bd
       -0.10005264 -0.056430712 -0.17313267 -0.0823058
000030 10 98 35 be f3 c4 6a bd ef 69 84 3b e1 1a c3 bd
       -0.17733788 -0.05731673 0.0040409486 -0.09526611
000040 e9 74 76 bd 31 d5 01 be 51 e7 ea bd d7 79 37 bd
       -0.060170088 -0.12678982 -0.11469901 -0.04479393
000050 43 b4 1a bc 50 7b c9 3c 65 4d b8 3d 9f dd 4b be
       -0.009442392 0.024594933 0.08999137 -0.1990876
000060 e6 e3 1e 3d 74 3c 46 bd 0b 6b c3 bd 98 53 f6 bb
       0.03879156 -0.048397496 -0.09541901 -0.0075172894
000070 d9 66 be bd 5d ab c8 3d 95 8b 9a bc 19 e6 b2 bc
       -0.092969604 0.0979831 -0.018865386 -0.021838235
000080 f7 4e 0c bd e5 09 a1 bd 61 fa bd 3e 53 31 ed bb
       -0.034254994 -0.07863215 0.37105086 -0.007238546
000090 55 63 7e 3d 99 dd 1c be 57 95 9a 3a ea 6f 82 bd
       0.06210645 -0.15318908 0.0011793774 -0.06369002
0000a0 e0 10 47 be c0 09 27 bd cd 81 35 be 03 86 9c bd
       -0.19440031 -0.040780783 -0.17725296 -0.07642748
0000b0 96 2d b8 bd dd 68 fd bb a5 a6 30 bb 59 77 ea 3d
       -0.0899307 -0.007733448 -0.0026954797 0.11448545
0000c0 61 3f 25 bd 27 b7 54 bd 91 b4 59 3c fc b0 9b bd
       -0.040343646 -0.05193248 0.013287679 -0.076021165
0000d0 ed 1f ff bd c4 b0 69 bd 55 a0 96 bd 28 a7 fc bc
       -0.12457261 -0.057053342 -0.073548 -0.030841425
0000e0 73 df 38 bd 1b 67 74 bd a8 31 19 3d 8b f1 cc 3d
       -0.045134973 -0.05966864 0.03740087 0.10007008
0000f0 e2 4a 7a bd 90 5d fc bd 71 c4 1e 3b ad b7 25 bd
       -0.06110657 -0.12322533 0.0024225975 -0.04045837
000100 b8 18 78 bd f0 29 09 b9 47 cb 0f bd 72 38 97 bc
       -0.06057045 -0.00013080961 -0.03510597 -0.018459532
000110 2a 27 91 bc 38 61 30 3d 17 09 a4 3b 2d 36 a3 3c
       -0.01771887 0.043061465 0.0050059664 0.019923294
000120 82 ea 75 3c 0b 57 82 bc 88 b9 22 be 05 52 c2 bd
       0.015009524 -0.015910646 -0.15891087 -0.094883
000130 b4 91 5c bc c7 fd ea bd 1b 5f 0d bb 6f 8b eb bd
       -0.013462473 -0.114741854 -0.002157158 -0.11501204
000140 33 48 8b bc b1 15 8b bd fb aa 14 be 2e 54 14 bd
       -0.0170022 -0.06791247 -0.14518349 -0.036213093
000150 4f 31 b9 bd f4 89 e4 bd 6d 33 7a 3d c2 f8 25 bd
       -0.09042608 -0.11159125 0.0610842 -0.040520437
000160 2f 36 4e bc 76 8d d7 bd 79 fb b8 bd a1 72 e8 bd
       -0.012586161 -0.105250284 -0.090323396 -0.11349989
000170 b6 25 03 bd 84 00 67 bc e4 61 8f ba 93 b9 38 bd
       -0.032018386 -0.014099244 -0.0010939208 -0.045098852
000180 0e 52 3f bd 71 d9 1a bd 12 99 a8 bd ea 8d 22 bc
       -0.046709113 -0.037805025 -0.08232321 -0.00992153
000190 41 63 37 bd f5 8e 83 3d be 66 8e 3c a0 47 db 3d
       -0.04477239 0.06423751 0.017382976 0.10707021
0001a0 e1 aa 33 be 1d a2 49 bb 65 55 46 3f dc a4 d8 bd
       -0.17545654 -0.0030766793 0.7747405 -0.105783194
0001b0 a1 1f 1e bd e8 3a 01 bd 34 cb 0b 3c 2a 8f ed 3d
       -0.038604382 -0.031550318 0.008532334 0.11599572
0001c0 ce 13 d7 bb d8 b5 24 3b 2a 14 a4 bc d6 1b 05 3e
       -0.00656364 0.0025132801 -0.020029146 0.129989
0001d0 0a 7a 2f be 71 4f 1d 3e 04 ea 9c bd c7 f7 ed bb
       -0.17136398 0.15362336 -0.076618224 -0.0072622034
0001e0 66 ff e1 3c 95 e1 a9 bd 73 16 69 3d 5d be 31 3e
       0.027587604 -0.082949795 0.056906175 0.17357774
0001f0 2d b7 43 3e b9 10 1a be 4b 1d 69 3c bb 42 60 3e
       0.19112845 -0.15045442 0.014228175 0.21900456
000200 16 4a 33 bd 90 61 4b bc 9f 09 5c bd 5a 64 a6 bd
       -0.043771826 -0.012413397 -0.053720113 -0.08124609
000210 59 e2 64 bd 87 9f 05 3e 45 64 91 bb 65 74 c1 bd
       -0.055879924 0.13049136 -0.004437002 -0.094460286
000220 d7 a8 89 bc ec 7d 06 3f e8 8a 8f bd 82 a0 14 bd
       -0.016804142 0.5253589 -0.07008916 -0.036285885
000230 68 44 50 bc 91 b9 41 bd 6c 23 8c b9 df df c1 bc
       -0.012711622 -0.04729611 -0.00026729272 -0.02366632
000240 39 0b 0c 3f 03 42 26 bd 9f 8b 67 bd 45 84 ee 3e
       0.54704624 -0.040590297 -0.056529637 0.4658529
000250 9c ca f8 3b 3e 21 15 bb 61 d9 7d bc d0 24 20 bd
       0.0075925123 -0.002275541 -0.015493722 -0.039097607
000260 dd fb d6 3b d5 61 30 bd 6b 2a da bc 30 0a 09 bd
       0.006560786 -0.04306205 -0.026631555 -0.03345698
000270 3a 31 a3 3e 92 65 ce 3d 09 09 4c bc 0e dd 11 3e
       0.31873494 0.10077967 -0.012453326 0.14244482
000280 3c 97 81 bd 8a e7 0a 3f 1d fa 2e be 45 9f 4f bd
       -0.06327674 0.5425955 -0.17087598 -0.050689
000290 8c 94 bf bd e4 2a e2 bd 5e 5d 36 bd ad 69 9e bc
       -0.09354505 -0.11043337 -0.044522636 -0.0193375
0002a0 b0 6e cd 3e 21 33 fe bd 45 bc 37 be 4b 4b dd bd
       0.4012351 -0.12412096 -0.17942913 -0.108053766
0002b0 3d b2 0d 3f dd 05 98 bd 98 c0 7d 3b 20 b5 f8 3c
       0.55350095 -0.07422993 0.003871953 0.030359805
0002c0 f9 1a 16 be b3 12 8e bd fd 82 b4 bd a8 10 10 be
       -0.14658727 -0.0693716 -0.088140465 -0.14068854
0002d0 24 28 48 bc dc f3 30 bd b7 f4 d3 3d 60 07 16 3f
       -0.0122166015 -0.043201312 0.1034941 0.58605003
0002e0 97 18 23 3e c3 00 c6 bd 43 e7 8c 3b 68 18 e5 3c
       0.15927349 -0.09668114 0.0043000295 0.02796574
0002f0 2e ba dd bd 99 c7 5e 3d e4 f2 93 3d fe b0 dc bd
       -0.108265266 0.05438957 0.07224062 -0.10775946
000300 dd 46 23 bd bf 48 d2 bc a2 15 9e bc a3 9d c9 bc
       -0.039862502 -0.025669454 -0.019297425 -0.0246113
000310 72 f1 87 bd 42 73 5b bd fa 48 00 bd 13 fe c9 3b
       -0.06637849 -0.053576715 -0.031319596 0.006164321
000320 21 6c f4 bc 63 d2 7d bc 67 54 63 bc 2d e7 21 bd
       -0.029836716 -0.015492055 -0.013875104 -0.039527107
000330 a9 92 33 bc da 66 67 bd b2 fa e1 ba 33 a2 a7 bb
       -0.0109602595 -0.05649457 -0.0017240851 -0.005115771
000340 2e 1a ce bc e8 a1 09 bd 26 56 bd bd be 24 d4 bc
       -0.025158968 -0.03360167 -0.09244947 -0.025896426
000350 59 65 b7 bd 34 06 2e bd 06 7e 43 bd f7 24 31 bc
       -0.089548774 -0.042486385 -0.047727607 -0.010812036
000360 dc 20 f7 ba 02 0d 9b bd 33 a1 f4 bc 01 13 61 3c
       -0.0018854397 -0.075708404 -0.029862022 0.013737441
000370 bc a3 5e bd 46 55 56 3c 6a 21 b1 b9 d1 49 58 bd
       -0.054355368 0.013081854 -0.00033784966 -0.05280477
000380 0a 34 79 bd 37 72 fc ba 05 ca 05 bd 47 b3 ad bc
       -0.060840644 -0.0019260113 -0.032663364 -0.02120365
000390 db 2c a9 bc 15 8b 2f 3d b1 c5 ed 3a 39 50 cc 3c
       -0.020651272 0.04285725 0.0018140582 0.024940597
0003a0 9d 21 85 3c 58 52 a9 bc 2f e5 1f be 7e 94 b5 bd
       0.01625138 -0.020669147 -0.1561477 -0.08866213
0003b0 32 ac 3b bc 58 88 e7 bd 0c 5d 12 bb 96 08 ee bd
       -0.011454629 -0.113053024 -0.0022333292 -0.116227314
0003c0 3b de b5 bc 46 d4 86 bd ac b8 1d be 02 41 1b bd
       -0.022200694 -0.06583457 -0.15402478 -0.037903793
0003d0 84 cd c5 bd 5d 9c d2 bd 0c 35 6e 3d e1 11 2f bd
       -0.096583396 -0.1028373 0.05815606 -0.04274166
0003e0 6b 16 32 bc 50 02 e5 bd 92 cf b9 bd f7 05 fa bd
       -0.010869603 -0.11182082 -0.09072794 -0.12208169
0003f0 9f 84 04 bd f2 6d 7e bc 12 69 c8 ba 84 e2 2d bd
       -0.03235304 -0.015529143 -0.0015290102 -0.04245235
