trained_weights/trace/lword2vec_gnn_trace6_E3.pth (torch, 12759 bytes, 6 tensors)

conv1.lin_l.weight f4 [32, 30]
0	0x3d8b8d55	0.06814066
1	0x3dad2452	0.08454193
2	0x3c87dfa0	0.016586125
3	0xbca9bd07	-0.020720018
4	0x3c72bd40	0.0148156285
5	0xbbd41ac2	-0.0064729163
6	0x3da9d4b0	0.0829252
7	0x3d84aa7a	0.06477828
8	0x3d9cbb33	0.07652893
9	0x3b1e2dbc	0.0024136147
10	0x3d48dee0	0.049040675
11	0xbe0892c7	-0.13337241
12	0x3dd0c045	0.101929225
13	0xbded8527	-0.115976624
14	0xbcdb938f	-0.02680376
15	0x3e251043	0.16119485
16	0xbd2a75a4	-0.041616097
17	0x3cf3700d	0.029716516
18	0xbd5dcaab	-0.054148357
19	0x3d1be286	0.038057826
20	0xbd0f0782	-0.03491927
21	0x3c3af79f	0.0114115765
22	0x3d1faa20	0.038980603
23	0xbcc3c913	-0.02389959
24	0xbd644863	-0.055733096
25	0x3db48b0d	0.08815584
26	0xbd44e73e	-0.048072092
27	0xbbb575a2	-0.0055377046
28	0xbdf7a15e	-0.12091325
29	0xbd90d3e6	-0.070716664
30	0xbba46cba	-0.005017844
31	0xbc8af86d	-0.016964162
32	0xbd09ee18	-0.03367433
33	0x3d86416b	0.06555446
34	0x3d810290	0.06299317
35	0xbcd20adf	-0.02563995
36	0x3cafd7cf	0.02146521
37	0xbdbd8758	-0.092543304
38	0xbe0bf668	-0.13668215
39	0xbdac0233	-0.08398857
40	0xbcd62cde	-0.026144441
41	0x3bf8f735	0.0075978287
42	0xbc003c4a	-0.007826874
43	0x3db9b242	0.09067203
44	0x3d51d0c9	0.051224504
45	0xbe1fc1d5	-0.15601285
46	0xbdecb5cf	-0.11558115
47	0xbd492ca0	-0.049114823
48	0xbd5c13e0	-0.05372989
49	0xbe1b8a6a	-0.1518952
50	0xbc8b365e	-0.016993698
51	0x3c8d7ce9	0.017271476
52	0xbd75a467	-0.05997124
53	0xbd0795c8	-0.033101827
54	0x3db92357	0.09039944
55	0xbe1c8416	-0.15284762
56	0x3d0edc7f	0.03487825
57	0x3c01d21f	0.007923632
58	0x3c6fd99f	0.014639287
59	0xbde2212b	-0.110414825
60	0xbd726731	-0.059180442
61	0xbcd82534	-0.026384927
62	0x3cece008	0.02891542
63	0x3d027fce	0.031860165
64	0x3e0f60be	0.14001748
65	0xbd069173	-0.032853555
66	0x3dba9267	0.09109955
67	0x3dbb7973	0.09154024
68	0xbe07a1a0	-0.13245249
69	0xbd7d4ef7	-0.061842885
70	0xbcb6ab55	-0.022298494
71	0xbccde53c	-0.025133722
72	0xbcbe7db9	-0.023253309
73	0xbc9f26d7	-0.0194277
74	0xbdd11547	-0.102091365
75	0x3dbaa981	0.091143616
76	0xbca96aa8	-0.02068074
77	0xbcc4e23b	-0.024033656
78	0xbcf29800	-0.029613495
79	0x3e3b2c35	0.18278582
80	0x3d0e700f	0.034774836
81	0x3db8848f	0.090096585
82	0x3d913acd	0.070912935
83	0x3e0fbfbf	0.14037989
84	0x3cf230a7	0.029564215
85	0x3e13ff84	0.1445294
86	0xbc7ef067	-0.015560246
87	0x3d423ab8	0.04741928
88	0x3d8d939e	0.06912921
89	0xbcb50d82	-0.022101168
90	0xbd4bb8d6	-0.04973682
91	0xbe17c366	-0.14820632
92	0x3e15b323	0.14619116
93	0x3e690a69	0.22757877
94	0x3ea8ab93	0.329434
95	0x3e301c04	0.17198187
96	0x3ddfd633	0.10929527
97	0xbc9db4fb	-0.019251337
98	0xbd833780	-0.0640707
99	0xbd3b2ed3	-0.045698952
100	0xbb1fd942	-0.002439097
101	0xbe008368	-0.12550128
102	0x3df35719	0.11881847
103	0x3e45875c	0.19289917
104	0xbda3c99a	-0.07997437
105	0xbdefced5	-0.11709372
106	0xbe6a88b2	-0.22903708
107	0xbd8b658b	-0.06806477
108	0xbcf2ed73	-0.02965424
109	0xba0f1910	-0.00054587517
110	0x3dab213b	0.083559476
111	0x3c985419	0.018594788
112	0x3e3b6465	0.18300016
113	0x3dce37ea	0.100692585
114	0xbbf58e4f	-0.007493771
115	0x3c0f651e	0.008752136
116	0x3dffe570	0.124949336
117	0xbd4fcf4f	-0.050734814
118	0xbd91bbc8	-0.071158946
119	0xbd96cf73	-0.073637865
120	0x3c99b0c8	0.018761054
121	0x3c2ef3e3	0.010678264
122	0x3b54a1f9	0.0032445176
123	0x3c657f08	0.014007337
124	0x3e0e390c	0.13888949
125	0x3d7e1c3c	0.062038645
126	0x3e1e8960	0.15482092
127	0xbb15cda4	-0.0022858167
128	0xbe874c00	-0.2642517
129	0x3d67b644	0.056570306
130	0x3df2f09e	0.118623
131	0xbe0644bb	-0.13112156
132	0x3e07e8e6	0.13272437
133	0xbd0f0c46	-0.034923814
134	0x3d54951c	0.051900014
135	0x3d3ca402	0.046054848
136	0xbe0043b7	-0.12525831
137	0x3b786e5d	0.0037907579
138	0xbdd089db	-0.10182544
139	0x3d124edb	0.035719734
140	0x3e1e9a7b	0.15488617
141	0x3e042738	0.12905586
142	0x3d5101a8	0.05102697
143	0x3c013214	0.007885475
144	0x3dd08f4e	0.10183583
145	0x3e00e281	0.12586404
146	0x3cd94369	0.026521401
147	0x3e2a1abe	0.16611764
148	0x3b4f133d	0.003159716
149	0xbc924ecb	-0.017859837
150	0xbd26d0be	-0.040726416
151	0xbd613e0c	-0.054990813
152	0x3d1ef1d2	0.038804837
153	0x3da416c9	0.080121584
154	0x3e0784ef	0.13234304
155	0x3d386792	0.045020647
156	0xbc994a8d	-0.018712306
157	0xbdd87bd2	-0.10570492
158	0xbcdde9ef	-0.027089087
159	0x3cf0fbed	0.029417003
160	0xbb2d9bb1	-0.0026490504
161	0xbcfce71d	-0.030871922
162	0x3c77b4b2	0.015118765
163	0x3dc38df9	0.095485635
164	0x3d69182b	0.056907814
165	0xbd4a0c62	-0.049328215
166	0xbd711165	-0.05885448
167	0xbcca54e7	-0.024698688
168	0x3bff3641	0.00778845
169	0xbd157743	-0.03649069
170	0xbcd728b5	-0.026264528
171	0xbb13e234	-0.0022565247
172	0x3cdb825c	0.026795559
173	0xbd5edcec	-0.054409906
174	0x3ca20c0b	0.019781133
175	0xbd3dc372	-0.04632897
176	0x3d38fba1	0.045161847
177	0x3c9658a1	0.018352808
178	0xbc122ad5	-0.008921345
179	0x3c3862d6	0.011254033
180	0xba2ac305	-0.00065140455
181	0x3a7b0908	0.0009576236
182	0xba8d9f4f	-0.0010804924
183	0x3c546e80	0.012965798
184	0x3d3858dc	0.045006618
185	0x396bd7b5	0.00022491704
186	0x3b80a5f2	0.003926032
187	0xbad00141	-0.0015869514
188	0xbc10e068	-0.008842565
189	0xba033862	-0.0005005655
190	0xba538012	-0.0008068095
191	0xbb524fe2	-0.003209107
192	0x3b9f3cf2	0.00485956
193	0x3c8ef341	0.017449977
194	0x3a8a33cd	0.0010544002
195	0x3b074911	0.0020642916
196	0xbc94788c	-0.018123887
197	0x3b050729	0.0020298457
198	0xbb976e6e	-0.0046213185
199	0xbb1bb296	-0.0023757569
200	0x3acecaba	0.001577697
201	0x3c4d30a7	0.012523807
202	0x3ac2456f	0.0014821718
203	0x3a4a8f64	0.00077270553
204	0x3b6921b7	0.0035573074
205	0x3b16cb8c	0.0023009507
206	0xbadf972b	-0.0017058601
207	0x3b6b38b1	0.0035891945
208	0xbae709c1	-0.0017626808
209	0xbc5a67d2	-0.013330417
210	0xbac10484	-0.0014726077
211	0xbc959e04	-0.018263824
212	0x3c6f4e78	0.014606111
213	0x3d1f4ecd	0.03889351
214	0x3d4bda6d	0.049768854
215	0x3c55c915	0.01304843
216	0x3c62f954	0.01385339
217	0x3bbb1039	0.005708721
218	0x3b7c8f17	0.0038537437
219	0xba93ad1e	-0.0011266803
220	0x3b860b6c	0.004090717
221	0xbcda8a5b	-0.026677301
222	0x3cf9cfa9	0.030494528
223	0x3d22d242	0.0397513
224	0xbc3fb2a4	-0.011700306
225	0xbcea0d52	-0.028570805
226	0xbd1aa796	-0.03775748
227	0x3b821470	0.0039697215
228	0xbd035c0f	-0.032070216
229	0xbc134d6b	-0.008990626
230	0x3c6a4efc	0.014301058
231	0xbb9486d0	-0.0045326725
232	0x3cc1ae99	0.023642825
233	0xb90010f3	-0.00012213345
234	0xba6bbf92	-0.0008993085
235	0x3c49bf68	0.012313701
236	0x392f5b3f	0.00016723292
237	0xbc18ceb0	-0.009326622
238	0xbc6cebe5	-0.0144605385
239	0xbbb7d47e	-0.005610048
240	0x3c7cd41e	0.015431432
241	0x3c3c7ff1	0.011505113
242	0xbd15142b	-0.036396187
243	0x3ce1f5a9	0.02758296
244	0x3cc111f5	0.023568133
245	0xbd1a39ad	-0.03765266
246	0xbaaf2354	-0.0013361969
247	0xbd7a52f6	-0.061114274
248	0xbd449454	-0.04799302
249	0xbd3fbfd9	-0.04681382
250	0xbc345d7b	-0.011008616
251	0x3c6aca0d	0.014330399
252	0xbb6e8e2a	-0.0036400654
253	0x3d7805aa	0.060552277
254	0x3cf61970	0.030041426
255	0xbda5ab0c	-0.08089265

conv1.lin_l.bias f4 [32]
0	0xbce44eb9	-0.02786957
1	0xbd51509c	-0.051102266
2	0xbd8d2228	-0.068912804
3	0x3cf5759f	0.029963313
4	0xbce40ec9	-0.027839081
5	0x3d4ce48b	0.050022643
6	0x390c9a36	0.00013408888
7	0xbbe090f3	-0.006853217
8	0xbc6e87a9	-0.014558711
9	0x3d6d7b53	0.05797894
10	0x3baec80b	0.0053339056
11	0xbc5c4050	-0.013443068
12	0xbd25062d	-0.040289093
13	0xbda43ec4	-0.08019784
14	0xb9f63b74	-0.00046965072
15	0xbd26f505	-0.040761013
16	0x3e00ce72	0.12578753
17	0xbc66257c	-0.014047023
18	0xbb851043	-0.0040607764
19	0x3dd9f6c9	0.10642774
20	0xbd4e0321	-0.050295953
21	0x3d2f3b82	0.04278136
22	0xbcc453e0	-0.023965776
23	0xbd94cbb7	-0.07265418
24	0xbc071ae5	-0.008246158
25	0xbba45d69	-0.005016018
26	0xbcbec24a	-0.023286004
27	0xbb905239	-0.004404333
28	0x3d706a78	0.058695287
29	0xbd84d5b3	-0.064860724
30	0xbc17fdbf	-0.009276806
31	0x3dab429e	0.083623156

conv1.lin_r.weight f4 [32, 30]
0	0x3d34615a	0.044038154
1	0x3d9ea927	0.07747107
2	0x3d68bb61	0.056819323
3	0x3ddbbf43	0.1072984
4	0x3dc34b02	0.09535791
5	0x3c1294c9	0.008946606
6	0x3d4672d0	0.048449337
7	0x3dbf33e4	0.09336069
8	0x3d51579c	0.05110894
9	0xbcf08da3	-0.029364413
10	0xbc3230e3	-0.010875913
11	0xbd902675	-0.07038585
12	0x3cabd96f	0.020977704
13	0x3ce4df25	0.027938435
14	0xbdaefef7	-0.085447244
15	0x3dba9f23	0.09112384
16	0xbd98a815	-0.07453934
17	0x3bdfb66f	0.0068271677
18	0xbd4ce02d	-0.05001848
19	0x3bfdcb63	0.007745193
20	0xbc66338c	-0.014050376
21	0x3d2bdd39	0.04195902
22	0x3d54276d	0.05179541
23	0x3d488f20	0.04896462
24	0xbd429570	-0.047505796
25	0x3cd03813	0.025417363
26	0xbc8bfb09	-0.017087476
27	0xbd810569	-0.0629986
28	0xbde2323a	-0.11044736
29	0xbdbd07fa	-0.09230037
30	0x3d9d2f3a	0.076750234
31	0x3e0b4f97	0.1360458
32	0xbe559565	-0.2085777
33	0xbe351a1c	-0.17685741
34	0xbe9fd7d1	-0.31219342
35	0xbe3654c5	-0.17805775
36	0xbd52483c	-0.05133842
37	0xbe0457ba	-0.1292409
38	0xbe2a6b9d	-0.16642614
39	0xbcf7d380	-0.030252218
40	0xbd2dc095	-0.04241999
41	0x3dd4b636	0.103863165
42	0xbddbbe0a	-0.107296064
43	0xbd952ed1	-0.0728432
44	0x3e302190	0.17200303
45	0xbd8d5cde	-0.06902479
46	0x3d82d896	0.06388967
47	0x3d3574fe	0.044301026
48	0xbd6329ad	-0.055459667
49	0xbe09dba6	-0.13462695
50	0xbdd2b14d	-0.10287724
51	0x3a77ce29	0.00094530225
52	0xbe9bfafe	-0.3046493
53	0xbdd81a89	-0.10551936
54	0x3e4b0f91	0.19830157
55	0xbe23bd28	-0.15990126
56	0xbe10d321	-0.1414304
57	0x3e033265	0.12812193
58	0x3e06c9f4	0.13162977
59	0xbca59529	-0.020212727
60	0xbe5649bf	-0.2092657
61	0xbd973347	-0.07382827
62	0x3c24aaa1	0.010050447
63	0x3c8d0eb6	0.017218929
64	0x3c7a008d	0.01525892
65	0x3dc8f32b	0.098120056
66	0xbe091cb4	-0.13389856
67	0x3e255969	0.16147389
68	0xbd94bad5	-0.07262198
69	0xbd7e091c	-0.062020406
70	0xbd84fda2	-0.06493689
71	0x3df5ce79	0.12002272
72	0xbe925571	-0.28580812
73	0xbe209d9a	-0.1568512
74	0xbe48b31d	-0.19599576
75	0xbcca92b4	-0.024728157
76	0x3e3714b9	0.17878999
77	0xbe29c4d6	-0.16578993
78	0x3e2177a8	0.15768301
79	0x3eb88f4a	0.3604682
80	0x3e559dbe	0.20860955
81	0xbdeab217	-0.11459749
82	0x3e80145e	0.2501554
83	0x3d9e423d	0.07727478
84	0xbd37a0f0	-0.044831216
85	0x3e292eed	0.16521807
86	0x3e003d81	0.12523462
87	0xbd42042a	-0.047367252
88	0x3e818ff9	0.25305155
89	0x3dd28984	0.10280135
90	0x3cad4c98	0.021154687
91	0x3d19473d	0.037421454
92	0x3abda86c	0.0014469749
93	0xbd1a281a	-0.0376359
94	0xbcc4f4b0	-0.024042457
95	0x3d06ffd7	0.03295883
96	0x3da76e6c	0.08175358
97	0x3d9f22af	0.07770287
98	0x3dc761f9	0.09735484
99	0x3d4cdbda	0.050014354
100	0x3e4a8901	0.19778825
101	0x3c33c938	0.010973267
102	0x3d7f1af1	0.062281553
103	0xbddda5d1	-0.108226426
104	0xbca4c9c3	-0.020115739
105	0x3d918192	0.07104792
106	0x3d2be366	0.04196491
107	0x3c912ccd	0.017721558
108	0x3e4239a3	0.18967299
109	0xbca4b755	-0.02010695
110	0xbccf0b9b	-0.025274089
111	0x3ce290cb	0.027656933
112	0x3d1f830c	0.038943335
113	0xbd257414	-0.040393904
114	0xbe3e4914	-0.18582565
115	0x3cd21917	0.02564673
116	0x3cb1fd9b	0.021727374
117	0xbc0859a6	-0.008322155
118	0xbd80e288	-0.062932074
119	0x3c77b994	0.015119929
120	0xbd8435c1	-0.06455565
121	0xbd0dae86	-0.034590267
122	0x3cf7dcaa	0.030256588
123	0xbc3061fd	-0.01076555
124	0xbcc99c52	-0.024610672
125	0x3daf8269	0.08569796
126	0x3deda93d	0.11604545
127	0x3ce0c36a	0.02743693
128	0xbcd7f6df	-0.026362834
129	0x3d8e19e9	0.06938536
130	0x3e86f1e0	0.2635641
131	0xbd106ccd	-0.03526001
132	0x3c135640	0.008992732
133	0xbdd7a4fa	-0.10529514
134	0x3d6f2694	0.0583864
135	0xbd9a9dbd	-0.075496174
136	0xbcb00b6b	-0.02148982
137	0xbdc390e0	-0.09549117
138	0x3e9016e8	0.28142476
139	0xbda8eff9	-0.08248896
140	0x3e5c495b	0.21512358
141	0xbdb83fe7	-0.089965634
142	0xbd0a9ee8	-0.03384295
143	0x3ce6db5d	0.028180772
144	0xbe104615	-0.14089234
145	0x3dc2b8e0	0.09507918
146	0x3da96de9	0.08272917
147	0x3d78f7a1	0.060783032
148	0x3d3d8961	0.046273593
149	0x3e240baa	0.16020074
150	0xbd03e4c3	-0.032200586
151	0xbd397071	-0.045273248
152	0x3cc11e7a	0.023574103
153	0x3d0a3a69	0.03374711
154	0x3d6899ca	0.05678729
155	0x3d4d242f	0.050083335
156	0xbc19b858	-0.00938233
157	0xbd213a5a	-0.03936229
158	0xbd019dce	-0.031644635
159	0x3db00efb	0.08596607
160	0x3b1a3311	0.0023528973
161	0x3d0adb81	0.03390074
162	0xbca01d7e	-0.019545313
163	0x3d6f340d	0.05839925
164	0x3dbe593c	0.09294364
165	0xbc655295	-0.01399674
166	0xbae231ae	-0.0017257237
167	0x3cb3b877	0.021938546
168	0x3ce8ed2c	0.028433405
169	0x3d09e1d9	0.03366265
170	0xbbbfc32b	-0.0058521233
171	0x3cf0d574	0.029398657
172	0xbc450dc4	-0.012027208
173	0xbc49c94d	-0.01231606
174	0x3bd76f05	0.006574514
175	0x3beffb59	0.007323664
176	0x3d16e90e	0.036843352
177	0x3d9e409d	0.07727168
178	0x3d2cff08	0.042235404
179	0x3dcbae9f	0.09945416
180	0xba5df83d	-0.00084674713
181	0x3bacc206	0.005272153
182	0xbb4a0e60	-0.0030831322
183	0xbb82f925	-0.0039969855
184	0xbc274138	-0.01020842
185	0xba482cfd	-0.00076360983
186	0xba9a0a6d	-0.0011752375
187	0x3a32dd0c	0.00068230997
188	0xbb11501f	-0.0022173
189	0x3a99bb0a	0.0011728716
190	0xbabfed20	-0.0014642812
191	0x3aba815c	0.0014229226
192	0xba4d7380	-0.000783734
193	0xbacb916e	-0.0015531012
194	0x3a20a260	0.00061277114
195	0xbbdfcd35	-0.0068298825
196	0x3ba0112f	0.004884861
197	0x3ae9c39c	0.0017834785
198	0xbac60cb6	-0.0015109989
199	0x3b3abbc6	0.002849327
200	0x3b6493cd	0.0034878135
201	0x390be93d	0.00013342961
202	0xbb4ed960	-0.003156267
203	0x3aa3706f	0.0012469421
204	0x3b006c56	0.0019595823
205	0x3b5df159	0.0033865778
206	0xbb4728e1	-0.0030389356
207	0x3b555a34	0.0032554986
208	0x3b4de026	0.003141412
209	0x3b850776	0.0040597273
210	0x3c2e3921	0.010633738
211	0xbb5b9cbd	-0.0033510171
212	0x3cad238b	0.021135112
213	0x3cf5129e	0.029916104
214	0x3cb8920c	0.022530578
215	0x3d479edf	0.048735496
216	0x3c543132	0.012951182
217	0x3ca44ffb	0.020057669
218	0x3cbfd08b	0.02341487
219	0x3b8d9c03	0.0043215766
220	0x3cd1d78e	0.02561548
221	0x3c73b70f	0.014875188
222	0x3d6c169f	0.05763876
223	0x3c9445f7	0.018099768
224	0xbcb993d0	-0.02265349
225	0x3bddc7c2	0.0067681978
226	0xbca6c99b	-0.020359805
227	0x3c91c3b4	0.017793514
228	0xbd41ff6b	-0.047362726
229	0xbcd86fe1	-0.026420536
230	0x3bf62090	0.007511206
231	0x3ce7e307	0.028306497
232	0x3d22b1b9	0.03972027
233	0x3d5a3f0a	0.053282775
234	0xbab4910b	-0.0013776136
235	0x3bdf0896	0.0068064434
236	0x3cc22c81	0.023702862
237	0xbba46e39	-0.0050180224
238	0xbce7fdfb	-0.02831935
239	0xbc9f7ee0	-0.019469678
240	0x3d67d617	0.056600656
241	0x3dc22c1c	0.094810694
242	0xbdf4619c	-0.1193268
243	0xbde315f4	-0.110881716
244	0xbe39eea2	-0.18157437
245	0xbdf0a202	-0.117496505
246	0xbcbb0f17	-0.022834344
247	0xbd92fe44	-0.071774036
248	0xbd1f0371	-0.03882164
249	0xbd19e979	-0.037576173
250	0xbd00e7e2	-0.03147114
251	0x3d6c7095	0.057724554
252	0xbd2cf771	-0.042228166
253	0xbd4e56eb	-0.05037586
254	0x3daf0070	0.08545005
255	0xbd438698	-0.04773578

conv2.lin_l.weight f4 [11, 32]
0	0xbd62ec4c	-0.05540113
1	0xbdc229c6	-0.09480624
2	0x3f06f077	0.5271067
3	0xbbe42586	-0.006962481
4	0xbd2e1db5	-0.0425088
5	0x3c785c91	0.015158788
6	0x3acf7494	0.001582759
7	0xbc905636	-0.017619234
8	0xbda0b055	-0.07846133
9	0xbd63695b	-0.055520397
10	0x3c4a8bae	0.012362404
11	0xbd05586a	-0.03255502
12	0xbd249975	-0.04018541
13	0xbd934507	-0.071909
14	0xbc935433	-0.017984485
15	0xbd3f3e89	-0.046690498
16	0xbd9205f9	-0.071300454
17	0xbd7caf72	-0.061690755
18	0xbcfa871f	-0.030582009
19	0x3d3cef6d	0.04612677
20	0xbd8d00ea	-0.0688494
21	0xbdcba1fa	-0.09943004
22	0xbd63b200	-0.055589676
23	0xbda21e47	-0.07915931
24	0xbd2576d3	-0.040396523
25	0x3d073dd3	0.033017945
26	0xbcd6b13c	-0.026207559
27	0x3c117b30	0.008879468
28	0x3ce4894d	0.027897501
29	0xbd000c7f	-0.031261917
30	0xbd3726fc	-0.044714913
31	0xbcbe3485	-0.023218403
32	0xb8e5e8cd	-0.000109629334
33	0x3a881055	0.0010380844
34	0xbdbdbe20	-0.09264779
35	0xbcab6da4	-0.020926304
36	0xbc386f65	-0.011257027
37	0xbbb3d043	-0.005487473
38	0xbae50e48	-0.001747557
39	0xbc1a18a2	-0.009405287
40	0x3ca927e0	0.020648897
41	0xbca96521	-0.020678105
42	0xbd9fa356	-0.07794826
43	0x3bbe604b	0.005809819
44	0xbc65dbcd	-0.014029455
45	0xbc8384e5	-0.01605458
46	0xbc85e0ef	-0.016342608
47	0x3b5f5b4a	0.0034081512
48	0xbcead854	-0.028667606
49	0xbcbae0b3	-0.022812223
50	0xbbdbc053	-0.0067062764
51	0xbce7687e	-0.028248068
52	0xbd66ebbe	-0.056377165
53	0x3d137df6	0.036008798
54	0xbd5cb4b5	-0.053883273
55	0x3c5dce05	0.013537888
56	0xbccf9a9c	-0.025342278
57	0xbd7c91d9	-0.06166253
58	0xb9179590	-0.00014456199
59	0xbcfc661f	-0.030810414
60	0xbcc427fb	-0.023944845
61	0xbb6fb0ba	-0.0036573843
62	0x3cd7b7a8	0.026332691
63	0x3c091fc3	0.008369389
64	0xbbd698b1	-0.006548964
65	0xbc548101	-0.01297021
66	0xbd7c37c2	-0.061576612
67	0xbc247250	-0.01003702
68	0xbca4a2aa	-0.020097096
69	0xbac7039f	-0.0015183574
70	0x38afae02	8.377062e-05
71	0xbcb44e30	-0.022009939
72	0xbaa03609	-0.0012223135
73	0x3b6cf0a5	0.0036154178
74	0x3bd35fb3	0.006450617
75	0xbc88f3b2	-0.016717765
76	0xbcc0365a	-0.023463417
77	0xbc3892fe	-0.011265514
78	0x397967b7	0.00023785127
79	0xbc2ca1d2	-0.010536628
80	0x3d0c2b4c	0.03422098
81	0xbcfb2176	-0.030655604
82	0xbcba27fc	-0.022724144
83	0xbdc510e3	-0.096223615
84	0xbdd64a14	-0.10463348
85	0x3d0bec43	0.034160864
86	0xbdbd2319	-0.0923521
87	0xbc85093e	-0.016239759
88	0xbc9a3870	-0.01882574
89	0x3c7fcf73	0.015613425
90	0xbc99c31a	-0.01876979
91	0xbd3f27a4	-0.046668664
92	0xbc1b3361	-0.009472699
93	0xbb87fd35	-0.0041500577
94	0xbcb8f9ea	-0.022580106
95	0xbdb58805	-0.08863834
96	0xbcb7fabd	-0.022458429
97	0xbd23c273	-0.039980363
98	0xbc5c961e	-0.013463525
99	0xbcddecae	-0.027090397
100	0xbcde63e9	-0.02714725
101	0x3b38e688	0.002821358
102	0xb8faa2cb	-0.000119512515
103	0xbce49769	-0.02790423
104	0x3b96a291	0.004597016
105	0x3b7ba2f7	0.0038396695
106	0x3de94ad0	0.113912225
107	0xbc71acbf	-0.014750659
108	0xbd0c357e	-0.0342307
109	0xbc37abba	-0.011210376
110	0x3c605316	0.013691684
111	0xbd0034db	-0.031300407
112	0xbd2c0eaa	-0.042006172
113	0xbd02e887	-0.031960037
114	0xbd058f33	-0.03260727
115	0x3e505441	0.2034464
116	0xbe103fe4	-0.14086872
117	0x3d368fa2	0.044570573
118	0xbd8ff5d5	-0.070293106
119	0xbc96744f	-0.018366007
120	0xbd5f612c	-0.05453603
121	0xbb892365	-0.0041851276
122	0x3c9f163e	0.019419786
123	0xbcb74093	-0.022369659
124	0x3d489d22	0.04897798
125	0xbaaee52a	-0.0013343443
126	0x3c2f5bd1	0.010703043
127	0xbd076931	-0.033059303
128	0xbc9cc1eb	-0.019135436
129	0xbd34c4be	-0.04413294
130	0xbde6bf1d	-0.11266921
131	0xbc3df732	-0.0115945805
132	0xbcb716f9	-0.022349821
133	0xbb0df635	-0.0021661643
134	0xbae5a35f	-0.0017520002
135	0x3c1378fb	0.009001012
136	0xbbc9861a	-0.0061500194
137	0x3e7b26cb	0.24526517
138	0xbd74ad05	-0.059735317
139	0x3ca46748	0.02006878
140	0xbd835047	-0.06411796
141	0x3d0f1244	0.03492953
142	0xbc0cacd6	-0.008586129
143	0xbcb119a7	-0.021618677
144	0x3ed9ec81	0.4256325
145	0xbd02f502	-0.03197194
146	0xbd1d1fe1	-0.03836048
147	0x3e21d17e	0.15802571
148	0xbdc15493	-0.094399594
149	0x3d12410f	0.035706576
150	0xbd11d103	-0.03559972
151	0x3cb46616	0.022021335
152	0x3d9f1d55	0.077692665
153	0xbda30d29	-0.079614945
154	0xbcc721d2	-0.024308119
155	0xbcbbc3fc	-0.022920601
156	0xba5d747d	-0.0008447839
157	0xbc02695f	-0.007959693
158	0xbd76d649	-0.060262952
159	0x3e2f87b2	0.17141607
160	0xbcde1161	-0.027107896
161	0x3f0e90b5	0.55689555
162	0xbda223af	-0.07916962
163	0xbd36d695	-0.044638235
164	0xbd46bf0d	-0.048522044
165	0x3b5d1cd2	0.0033739102
166	0x3c4cec77	0.0125075495
167	0x3c74c1f5	0.014938821
168	0x3ecb35ad	0.3968939
169	0x3c48e8ce	0.012262536
170	0xba9a5e66	-0.00117774
171	0xbcce5aed	-0.025189841
172	0x3eccc63e	0.39994997
173	0xbce9ccef	-0.028540103
174	0x3bc346da	0.005959374
175	0x3c26b199	0.0101741785
176	0xbdc4b7ae	-0.096053466
177	0xbc60e8f4	-0.013727415
178	0xbcab933f	-0.020944236
179	0xbd1fb1e3	-0.038988005
180	0x3eead90c	0.4586872
181	0x3c285c48	0.010275908
182	0x3ec85002	0.3912354
183	0xbd84760e	-0.0646783
184	0x3e830b46	0.25594538
185	0xbc9b9886	-0.018993627
186	0xbcb34768	-0.021884635
187	0x3d5db112	0.054123946
188	0xbcae9501	-0.021311285
189	0x3cce49c2	0.025181655
190	0xbcba2905	-0.022724638
191	0xbdd72e9a	-0.105069354
192	0xbc982673	-0.018573022
193	0xbdbd6079	-0.09246916
194	0x3dd7d7e0	0.10539222
195	0xbc79d65c	-0.015248861
196	0xbd18d793	-0.037314963
197	0xbaa8ff81	-0.0012893529
198	0xbaa97d04	-0.0012930934
199	0x3a597949	0.0008295966
200	0xbdc004ad	-0.09375892
201	0xbd629044	-0.055313364
202	0xbda69985	-0.0813475
203	0x3a766c65	0.00094003073
204	0xbcbf0697	-0.023318572
205	0xbc9c5c91	-0.019087108
206	0xb9fc9ef2	-0.0004818361
207	0xbcaabbc7	-0.020841492
208	0x3ce4d68c	0.027934335
209	0xbd105485	-0.035236854
210	0xbcc249f4	-0.023716904
211	0xbd9c1803	-0.07621767
212	0x3d7a78b6	0.061150275
213	0xbb7662d1	-0.003759552
214	0x3c74a2b1	0.014931367
215	0x3bb87ed6	0.0056303544
216	0x3c2219c2	0.009893836
217	0xbc926d08	-0.017874256
218	0xbc4c176f	-0.012456759
219	0x3c8360c6	0.016037356
220	0xbb867bbc	-0.0041041058
221	0x37c7d8cb	2.38236e-05
222	0xbce060db	-0.027389934
223	0xbdf67716	-0.120344326
224	0xbbd4af07	-0.0064905914
225	0xbc9e1ee8	-0.019301847
226	0xbd84ea5a	-0.064900115
227	0xbc4ed88e	-0.012624873
228	0xbcb490c7	-0.022041691
229	0xbad183d9	-0.0015984728
230	0x37f8fb93	2.9681052e-05
231	0xbc7a1eb4	-0.015266109
232	0xbc1a51d8	-0.009418927
233	0x3a75a12b	0.0009370024
234	0x3b616042	0.003438965
235	0xbc7f2ff1	-0.015575395
236	0xbcb25051	-0.021766813
237	0xbc4be189	-0.0124439085
238	0x38a28e70	7.751293e-05
239	0xbc2fb3f8	-0.01072406
240	0x3cce3601	0.025172235
241	0xbcf56b30	-0.029958338
242	0xbcc9926b	-0.02460595
243	0xbdc659c9	-0.09685094
244	0xbdaef727	-0.08543234
245	0x3d062385	0.032748718
246	0xbda98038	-0.08276409
247	0xbc3a0450	-0.011353567
248	0xbc85e0b9	-0.016342508
249	0x3c80fcea	0.015745599
250	0xbc8a5f53	-0.016891157
251	0xbd2224db	-0.03958593
252	0xbc185290	-0.009297028
253	0xbb888f98	-0.0041675083
254	0xbcb6a164	-0.022293754
255	0xbd9cef5c	-0.07662842

conv2.lin_l.bias f4 [11]
0	0x3d0830ca	0.033249654
1	0x3c2e01fe	0.010620592
2	0x3bc33214	0.0059568975
3	0xbb99c54b	-0.0046927086
4	0xbc66fba4	-0.014098082
5	0xbc0d08e5	-0.008608078
6	0xbc96cd46	-0.018408429
7	0x3b1e0938	0.0024114382
8	0x3d455e66	0.04818573
9	0x3c0c7506	0.008572822
10	0xbbbd5746	-0.005778226

conv2.lin_r.weight f4 [11, 32]
0	0xbd96b68e	-0.07359038
1	0xbd47a26f	-0.048738893
2	0x3e806795	0.25079027
3	0x3daf54b9	0.085610814
4	0xbd8ac911	-0.067766316
5	0xbd015297	-0.031572904
6	0x3c00e2f5	0.007866611
7	0xbdf68a57	-0.12038105
8	0x3ca23a1e	0.019803103
9	0xbd90cd7a	-0.070704415
10	0xba73f9e3	-0.00093069504
11	0xbde87892	-0.11351122
12	0xbd3973d5	-0.04527648
13	0xbdad425b	-0.08459922
14	0x3b822784	0.003971996
15	0xbd99933d	-0.074987866
16	0xbd9377b7	-0.07200568
17	0xbd9da227	-0.07696944
18	0xbd632afc	-0.055460915
19	0xbd9a023b	-0.07519957
20	0xbcaf47a7	-0.021396471
21	0xbd957f66	-0.0729969
22	0x3db138c6	0.08653407
23	0xbdb856c8	-0.09000927
24	0x3ba0e8f9	0.004910585
25	0xbc068e01	-0.008212567
26	0xbdd46c7c	-0.10372254
27	0x39da6b17	0.00041659988
28	0xbd42e6cb	-0.047583383
29	0x3d7f6b90	0.06235844
30	0xbcda9966	-0.026684474
31	0x3cc45f81	0.023971321
32	0xbc92c54e	-0.017916348
33	0xbd633545	-0.055470724
34	0x3ec394fe	0.3819961
35	0x3b8b5656	0.0042522354
36	0xbcbe09f6	-0.02319811
37	0xbabfde0e	-0.0014638321
38	0x39c30a93	0.00037201177
39	0xbbfee40a	-0.007778649
40	0xbdb9acd2	-0.09066166
41	0xbd37f0ef	-0.044907507
42	0xbc66c225	-0.014084374
43	0xbca6dd82	-0.020369295
44	0xbd7fbc30	-0.06243533
45	0xbbdaf614	-0.006682167
46	0xba3d067b	-0.00072107435
47	0xbbd912a2	-0.0066245357
48	0xbd3adb77	-0.045619454
49	0xbc957b19	-0.018247174
50	0xbd160fa8	-0.036636025
51	0xbd66cbaa	-0.056346573
52	0xbc3c3575	-0.0114873545
53	0xbd0aaf7f	-0.033858772
54	0xbd2467ce	-0.04013806
55	0xbda33b9f	-0.07970356
56	0xbca87468	-0.02056332
57	0xbdb58c6e	-0.088646755
58	0xbcc3dd7c	-0.023909323
59	0xbb92cd58	-0.0044800453
60	0xbcd7b955	-0.02633349
61	0xbce7b4d4	-0.028284468
62	0x3bbeaca2	0.0058189193
63	0x3bd84080	0.006599486
64	0xbd0e7def	-0.03478807
65	0xbcd951df	-0.026528297
66	0xbd5dd6ff	-0.054160114
67	0xbcb04c96	-0.021520894
68	0xbd7c331b	-0.061572175
69	0xbcb93eec	-0.022613011
70	0x393f5a15	0.00018248738
71	0x3b271967	0.0025497319
72	0xbd0a89b9	-0.03382275
73	0xbc07a30f	-0.008278622
74	0xbd34cc32	-0.04414005
75	0xbc99dc48	-0.018781796
76	0xbd6d4793	-0.057929587
77	0xbd060455	-0.032718975
78	0xb9b29c80	-0.00034067407
79	0xbcf1c0ed	-0.02951094
80	0xbc3c061b	-0.011476065
81	0xbd08f8d7	-0.033440437
82	0xbd429a22	-0.047510274
83	0xbb9041e0	-0.004402384
84	0xbd97695c	-0.073931426
85	0x3b02b7fe	0.0019946094
86	0x3bdce974	0.006741697
87	0xbda93a42	-0.08263065
88	0x3b545db1	0.0032404477
89	0xbd7326be	-0.05936312
90	0xbd2597ee	-0.040428095
91	0xbb18ae27	-0.0023297162
92	0xbd19d56a	-0.037557043
93	0x3ca457f1	0.020061465
94	0xbb8eaf38	-0.004354384
95	0xbdb47d32	-0.088129416
96	0xbd4e7f8b	-0.050414603
97	0xbd206747	-0.039160993
98	0xbd5fae21	-0.05460942
99	0xbbc54a4e	-0.0060208207
100	0xbd09eece	-0.033675008
101	0x3ce79a68	0.028271869
102	0xbab1d52c	-0.0013567558
103	0x3cd361aa	0.025803406
104	0xbcbd2bf0	-0.02309224
105	0xbd3b5d5b	-0.045743328
106	0x3e4f1290	0.20221925
107	0xbd1c6545	-0.038182516
108	0xbd80662a	-0.06269486
109	0xbd4ad343	-0.04951788
110	0xb99bd935	-0.00029725736
111	0xbd3f2809	-0.04666904
112	0xbd3049a3	-0.043038975
113	0xbd3c9dfc	-0.046049103
114	0xbd2002e3	-0.039065253
115	0xbb0f410e	-0.0021858844
116	0xbd9ff1e9	-0.078098126
117	0x3cd6394b	0.026150366
118	0xbcc7094e	-0.024296429
119	0xbd168c93	-0.036755156
120	0xbc8cb21b	-0.017174771
121	0xbd9216d8	-0.07133263
122	0xbd060899	-0.032723043
123	0xbc08e07e	-0.008354304
124	0xb8fb639f	-0.000119871685
125	0x3b7d5a36	0.0038658506
126	0x3cc803d9	0.024415897
127	0x3b260f89	0.002533885
128	0xbd0d3f8d	-0.034484435
129	0xbcf2afda	-0.029624868
130	0xbd53c9cd	-0.051706124
131	0xbdd0d742	-0.10197307
132	0xbd3aad7b	-0.0455756
133	0x3ed03af8	0.4066999
134	0x3b0e97b9	0.0021757914
135	0x3d143d11	0.03619105
136	0xbcc5ab3c	-0.024129502
137	0x3f11de78	0.56980085
138	0x3c1e6659	0.009667956
139	0xbd294ac1	-0.041331057
140	0xbd264b62	-0.040599234
141	0xbd016d8e	-0.03159862
142	0xbac2b8f0	-0.0014856141
143	0xbd00dc2a	-0.031459965
144	0x3f177621	0.59164625
145	0xbd025517	-0.03181943
146	0xbd478dfc	-0.04871939
147	0x3f0eb1ab	0.5573985
148	0xbd1cd066	-0.03828468
149	0xbdb30c56	-0.08742587
150	0xbd23d5bb	-0.03999875
151	0xbd13916a	-0.03602735
152	0xbd2d34c6	-0.042286657
153	0xbd7ecef3	-0.06220908
154	0xbd55ac79	-0.052166436
155	0xbb327131	-0.0027228112
156	0x3ee6037d	0.44924536
157	0x3c1b20f2	0.009468304
158	0xbc88e53b	-0.016710868
159	0x3e67c106	0.22632226
160	0xbcfc2a7e	-0.03078198
161	0x3ee35bde	0.44406027
162	0xbdbe7d9f	-0.09301304
163	0xbd83f3ba	-0.064429715
164	0xbc834293	-0.016022956
165	0xbdc033a0	-0.09384847
166	0x3ae257e8	0.001726863
167	0x3cb54656	0.022128265
168	0x3e92dda1	0.28684714
169	0xbe1609d2	-0.14652184
170	0xbd83ee1b	-0.064418994
171	0xbb55043a	-0.003250374
172	0x3eeb995f	0.4601545
173	0xbce9b5f3	-0.028529143
174	0x3c362a39	0.011118465
175	0xbcecc531	-0.028902622
176	0xbe344c29	-0.17607178
177	0xbcf8ec65	-0.03038616
178	0xba2c340f	-0.00065690366
179	0xbe39ca68	-0.18143618
180	0x3e5ba86a	0.21450964
181	0x3d179e31	0.037016097
182	0x3dd1fddf	0.102535
183	0x3ee87b8e	0.45406765
184	0x3e1f3f0c	0.15551394
185	0x3b1e8946	0.0024190708
186	0xbd2541c9	-0.04034594
187	0x3d4014ae	0.04689472
188	0xbdd74c86	-0.105126426
189	0xbddb52d2	-0.10709156
190	0x3db0df76	0.08636372
191	0xbdd1cabf	-0.10243749
192	0xbd3e9e66	-0.04653778
193	0xbd0a8389	-0.033816848
194	0xbc7f292a	-0.015573779
195	0xbcfa03bc	-0.030519359
196	0xbd17bc0a	-0.037044562
197	0xbd82bb5b	-0.063833915
198	0x3966d195	0.00022012585
199	0xbdad575f	-0.0846393
200	0xbbcaecec	-0.006192794
201	0xbc1cf501	-0.009579898
202	0xbd959e1a	-0.07305546
203	0xbd23f147	-0.040025022
204	0xbc58d59c	-0.013234522
205	0xbd2c2445	-0.042026777
206	0xb9cc9a9d	-0.00039025108
207	0xbd1fc93c	-0.03901027
208	0xbcc32804	-0.023822792
209	0xbd29ef96	-0.041488253
210	0xbbf2d50d	-0.0074106515
211	0x3a078901	0.00051702565
212	0x3cc10448	0.023561612
213	0xbd2e386f	-0.042534288
214	0xbd082119	-0.03323469
215	0xbb1d70bb	-0.0024023491
216	0xb9e6724c	-0.00043954176
217	0xbc0c2465	-0.008553599
218	0xbd4274be	-0.047474615
219	0xbad722fc	-0.0016413624
220	0xbd7724d0	-0.06033784
221	0x3cb9624f	0.022629885
222	0x38a73095	7.97223e-05
223	0xbddb0e51	-0.1069609
224	0xbd0ecd38	-0.03486368
225	0xbd056b69	-0.032573137
226	0xbd6075db	-0.054799896
227	0xbcd26394	-0.025682248
228	0xbd7b5c9d	-0.06136762
229	0xbcd2f802	-0.025753025
230	0xb7bd4725	-2.2563685e-05
231	0x3bace814	0.0052766893
232	0xbcf17241	-0.029473426
233	0xbc82d19f	-0.015969096
234	0xbd42ce1d	-0.047559846
235	0xbca3e8c1	-0.020008447
236	0xbd53f7b1	-0.05174989
237	0xbd076921	-0.033059243
238	0xb9a9d4e2	-0.00032392802
239	0xbcf461dc	-0.02983182
240	0xbca27e2b	-0.019835552
241	0xbd0d7776	-0.034537755
242	0xbd3f1836	-0.04665395
243	0xbc3d0851	-0.011537627
244	0xbd7cb1fa	-0.06169317
245	0x3ab9bd33	0.0014170766
246	0x3a7c6d45	0.00096293195
247	0xbd923670	-0.071392894
248	0x3ba24987	0.004952613
249	0xbd749d2a	-0.059720196
250	0xbd25bf08	-0.040465385
251	0xbb15a6c8	-0.0022835005
252	0xbd2b64f5	-0.041844327
253	0x3c974e32	0.018469904
254	0xbb96d1dd	-0.0046026544
255	0xbdb47cbc	-0.08812854
