trained_weights/trace/lword2vec_gnn_trace4_E3.pth (torch, 12759 bytes, 6 tensors)

conv1.lin_l.weight f4 [32, 30]
00000000: 4fe2 643d de00 953d bb30 213d eee8 79bc
00000010: b221 453c 3286 273d 72cd cf3d 2a13 bd3d
00000020: 4598 b73d 5303 0cbc b9d4 803d ac1f 49be
00000030: 7d38 093e d3b1 f8bd 9e30 96bd 3699 203e
00000040: 8881 3bbd 93e6 d93c 0ae9 80bd 6898 873d
00000050: 567b 9c3c 8113 26bc 2d12 9e3d ec5d 1bbd
00000060: df42 b4bd 4b8c 123e 48f3 32bd 5b11 dbbc
00000070: 696d 04be b07d 83bd 6b50 bdbb f7c2 ee3b
00000080: 470b 1ebd bc10 4a3d 026e 393d 2757 3dbd
00000090: cc17 a43c 26cb a0bd 48c3 0ebe 9acf b1bd
000000a0: d2c5 4abd 9313 993c a550 86bc 8c34 733d
000000b0: 3e1e 433d 8edb f9bd 0866 d1bd 3fad 22bd
000000c0: 2f5e eabc 8bc9 01be e2af cb3b f2eb 4e3d
000000d0: b8fd 88bd 4616 813c a182 c33d ffd0 0dbe
000000e0: 5224 893c 6817 963c 3506 c73c 1493 dabd
000000f0: 2640 d9bc 6cdd c1bd 093a e03d 290b d93d
00000100: f756 443e fae4 3a3d 245c 2d3e 86d2 803e
00000110: 5567 30be ff28 11be 11a9 683d 05c5 5bbd
00000120: 21fd 1a3d ee23 b53c e08b 97be adbc 453d
00000130: 30f9 a3bd 1123 a6bd 95c8 cdbd f91d 503e
00000140: 3dcc a03e eebc fd3c 1932 8e3e fa9c c43e
00000150: da07 df3c fb26 883e afef 383d dc0d 8abc
00000160: 984b 8a3d db35 2dbd dbf7 4fbe eacd 77be
00000170: 56b0 8a3e 274a 9c3e ffca cc3e 1a73 a63e
00000180: 22ef 923e 0adc 683d ec8c b8bd 0822 48be
00000190: dde1 dfbc 3511 9ebe 0800 a33e cb2b 743e
000001a0: 6f74 5dbe b140 45be 0caa a8be cdf4 54be
000001b0: c0bd c6bc f665 5b3b 09c8 b53e c4da 3f3e
000001c0: 7529 9a3e 7a87 ba3e 5d06 0cbe c2ba 803d
000001d0: 1a13 883e a5a7 1fbe 6ffd 75be 3eaf 3fbe
000001e0: fdb9 54bd e27a 8dbd 7ff7 c63d a49a 9f3d
000001f0: 6101 4e3e e0a2 403e 150f 453e 65f5 623d
00000200: ed68 32be e430 5c3d 4583 f93d 7c0b 47be
00000210: fdb6 153e c579 3f3c 0e5e 28bd 9c4f 283c
00000220: 1063 27be a2ac b9bd ddd6 d2bc d9fc 4d3d
00000230: 1f24 813e 8398 803d 6d97 183e 6491 b73d
00000240: 0274 9dbb cb76 293e 3434 aa3d 9272 ac3d
00000250: f891 08bd fb8a fabc 41ea 82bd fd38 8abd
00000260: 20f4 9b3d afca eb3d af1a 353e d445 993d
00000270: bcb1 c33c 9db7 21bd 5769 383c 3fe5 6f3b
00000280: 1d2b eebc 0122 81bd 2e64 803d 70ba e93d
00000290: 0caf 93bb 2940 1ebd 8be9 b6bd e1fd d4bc
000002a0: a008 2f3a 1d55 9c3b 085a 643d ecf0 1a3d
000002b0: a94d 9b3d 22c8 393d 5c2c 20bd ba08 16bc
000002c0: 91c6 853d 362c a5bc 0400 72bd 4cce 9bbc
000002d0: a09b 5fbc 6331 f8bc dd5f 333d 381a 763d
000002e0: a738 dc3d 6cda 083d d9d8 233d 805c bf3b
000002f0: 4410 28bd 0aac 86bc 8fa3 ce39 64d0 32bd
00000300: 71d8 293d e3bb 7f3d e0c1 aebc d13e 59bc
00000310: e41b 95bd 743c 6dbc 60eb afbb c555 cabc
00000320: 92a9 fe3c 5ee6 603d c62a 3b3d 19a1 0f3d
00000330: 847a babc 01c5 c6bb 25d8 e43c 4a47 1bbc
00000340: 697b e9bc 8b93 6bbd c9ee 99bc b53f 64bd
00000350: 716a 5e3d f490 8b3d 5d1a a03d f030 4e3d
00000360: d784 033d 381d 92bb e658 5cbc 2717 bbbc
00000370: 4fd6 5dbb a5a7 f1bc 1ff0 033d 5001 913d
00000380: b052 dabc 32c7 39bd aca9 61bd 3f43 02bd
00000390: 4a75 3abc df10 4dbc d4a5 a23c c351 1a3c
000003a0: 12a8 6d3d 8dc9 033d 7071 80bb 1f71 bfbb
000003b0: d698 433d 2fd5 dcbc 3f92 e4bc adc1 9fbc
000003c0: 58b5 61bd a604 58bd f2d9 eb3b 2158 8f3d
000003d0: 130d 8d3d 707f e3bb c5fc 503d 5320 3abd
000003e0: 0de4 f3bd ce1c e2bd d071 bfbd c22f 17bd
000003f0: 127d d33c 20f0 e33d 7cb4 94bc 5dec 1fbe
0.055879887 0.07275556 0.039353114 -0.015253289 0.012031959 0.040899463 0.101466075 0.09232171
0.0896459 -0.008545714 0.062905736 -0.19640988 0.13400455 -0.12143292 -0.07333492 0.15683445
-0.045777828 0.026599204 -0.06294449 0.06620866 0.01910178 -0.010136486 0.077183105 -0.037931368
-0.08801817 0.1431133 -0.043689042 -0.026741674 -0.12932362 -0.06420457 -0.005777409 0.007286425
-0.038584974 0.049332365 0.045270927 -0.046225693 0.020030878 -0.078512475 -0.13941681 -0.08682175
-0.049505062 0.018686092 -0.016395876 0.059376284 0.047636263 -0.1220008 -0.10224539 -0.039716
-0.028609363 -0.12674539 0.006216035 0.050517984 -0.06689018 0.015757691 0.095464 -0.13849257
0.016740952 0.018321708 0.024294952 -0.10672584 -0.026519846 -0.09466061 0.10948569 0.10597832
0.191738 0.045628525 0.1692968 0.25160617 -0.17226918 -0.14175795 0.05680186 -0.05365469
0.03783906 0.02211186 -0.29598904 0.04827564 -0.08006513 -0.08112157 -0.100480236 0.20323934
0.3140582 0.030973878 0.27772596 0.38401014 0.027225424 0.2659224 0.045150455 -0.016852312
0.067526996 -0.04228769 -0.20309393 -0.24199644 0.2708766 0.30525324 0.39998624 0.3250969
0.2869807 0.05685047 -0.09011254 -0.19544232 -0.02732938 -0.30872503 0.3183596 0.2384483
-0.21626447 -0.19262959 -0.32942235 -0.20796509 -0.024260402 0.0033477522 0.35504177 0.18735796
0.30109754 0.36431485 -0.13674302 0.06285621 0.26577073 -0.15591295 -0.24022458 -0.18719193
-0.051935185 -0.06908204 0.09715175 0.07793167 0.20117714 0.18812132 0.19244035 0.055409808
-0.17422839 0.053757563 0.12183241 -0.19437975 0.14620586 0.011686747 -0.041105323 0.010272887
-0.16346383 -0.0906613 -0.02573722 0.050289962 0.2522287 0.06279089 0.14901514 0.08963278
-0.004805089 0.16549222 0.08310738 0.0842029 -0.03334233 -0.03058385 -0.06392337 -0.06749151
0.076149225 0.11513268 0.1768596 0.07484022 0.023888461 -0.039481748 0.011255584 0.0036605147
-0.029073292 -0.06305314 0.06269108 0.11412513 -0.004506951 -0.038635407 -0.089312635 -0.025999965
0.00066770054 0.0047708885 0.055749923 0.037827417 0.07583172 0.045356877 -0.039104804 -0.009157354
0.06532014 -0.020162683 -0.059082046 -0.019019268 -0.013647944 -0.030296987 0.043792594 0.060083598
0.10752993 0.03341143 0.040001724 0.0058398843 -0.041031137 -0.016439456 0.00039413242 -0.043655768
0.04146618 0.062435042 -0.021332681 -0.0132596055 -0.0728071 -0.014479745 -0.005368635 -0.024699101
0.031086717 0.054907195 0.04569509 0.035065744 -0.022763498 -0.006065965 0.027935097 -0.009477446
-0.02850123 -0.057513755 -0.01879062 -0.05572482 0.05430073 0.06814757 0.078175284 0.05033964
0.032109108 -0.0044590496 -0.013448929 -0.022838188 -0.0033849662 -0.029498884 0.03221142 0.070803285
-0.026650757 -0.045355983 -0.055093452 -0.031802412 -0.011380503 -0.012516229 0.019854464 0.009418908
0.058021612 0.032174636 -0.003919773 -0.0058423425 0.047753178 -0.026957123 -0.027901767 -0.019501531
-0.055104584 -0.052738808 0.007197612 0.06999231 0.06887259 -0.006942682 0.05102231 -0.045440983
-0.119087316 -0.1104065 -0.0934788 -0.03691078 0.025816474 0.111297846 -0.018152468 -0.15617509

conv1.lin_l.bias f4 [32]
00000000: b027 4fbd b851 12bd 9322 48be 6e26 45bc
00000010: 0729 80bc 3017 2f3d 8253 3bbb 94a3 debb
00000020: c6a8 73bd fcfc 033e 93c8 90bc 0bf5 ac3d
00000030: ceed b8bc 728a 4ebd 5bcb 15bc 1ddd cfbd
00000040: 4cbf 033e cb2c 8abc 545e 57bd 070d c13d
00000050: 35f6 1abb 8573 083c c82a ac3a 87af 3dbd
00000060: 7a2f 4dbd dddb 0e3d 85dc 7ebd 0a30 db3b
00000070: 7ce1 a63d b728 88bc a984 a8bc 99f1 803d
-0.05057496 -0.035722464 -0.19544439 -0.012033088 -0.015644563 0.042746723 -0.002858371 -0.0067944024
-0.059487127 0.12889475 -0.017673766 0.08445176 -0.022574332 -0.050425 -0.009142722 -0.10149596
0.12865943 -0.016867062 -0.052580193 0.09426313 -0.0023645286 0.008328323 0.0013135308 -0.046309974
-0.050094105 0.034877647 -0.062222023 0.0066890763 0.081484765 -0.016620977 -0.02057107 0.06296081

conv1.lin_r.weight f4 [32, 30]
00000000: c595 093d 50fe a33d 133f e43d 14b0 ec3d
00000010: 2364 973d af11 b43d 8a82 ef3d 6b94 a83d
00000020: 9e84 573d a11a 51bd 1b6e 633c caca 1bbe
00000030: 3b47 e93d fbdb 0a3c ee71 f1bd 0893 d83d
00000040: 57ae debd 1952 51bc d24b a8bd f95c d1bc
00000050: 9e95 c03c ee75 273d 1601 e33d 4ada 723d
00000060: 9e5b 53bd 301e 683d e498 523c f9d0 a1bd
00000070: c9ab 1abe 9538 02be 5c90 ff3d cf87 183e
00000080: 750b 5dbe 1336 42be 84d4 a7be 07ab 74be
00000090: e97c cfbd bcec a9bd 2f80 31be 49f7 a93b
000000a0: cace 19be d585 3e3e 5bff 67be b929 8fbd
000000b0: 8c64 433e c466 0cbd b377 c23d d168 a43d
000000c0: 90cb d6bd a30b 9abd a4bc 24be e045 143d
000000d0: d4ae aabe 5783 d6bd fde0 8c3e 1c04 03be
000000e0: 7f59 48be 6608 283e e070 4b3e 425c 013d
000000f0: 2a10 9cbe b04f 87bd 6966 14be 0c4f 52bd
00000100: 6fcd b2bc d3c8 1abc b62f 75bd 1aed d93c
00000110: 99f0 6ebe c0a3 4bbe 055d 4b3d 60e7 0fbd
00000120: 710a 5cbe 75ac 7cbe b886 b2be f3c9 e5bd
00000130: 3677 123e 0957 94be 2d3a 793e 15ce 923e
00000140: 6fcf bc3e 316f 9ebe f054 b63e 5d5a b0bd
00000150: eeed 8b3d a94e 2f3e dc8b bf3d f71d 34be
00000160: 9629 ad3e 8186 48bc f725 aebb 208f 683b
00000170: 487a c13c db32 9b3b 2773 083c e61e 553c
00000180: a584 a63d 47b9 473d b9f1 c73d 1c61 67bc
00000190: a095 603e 8b34 ff3d 9826 553d d658 b4bd
000001a0: ff88 04be 5e36 563c 07d1 9a3c 38a7 2fbd
000001b0: 46b7 803e 11d2 26be 6c7d 99bc dc51 593c
000001c0: a79b 193d dc25 9839 b6af 42be 74cb 65bd
000001d0: af74 b93d 9e7f 35be 9387 53bd 940e 54bd
000001e0: a4fb cebc 6eb6 a6bc d83c e23d 4c3a 0c3d
000001f0: 396a 963b 421b 463e c727 3e3e 9b25 ea3d
00000200: 62e3 b93d 6201 013e 59ae e03e 87ea c0bc
00000210: 99f6 b43d 2cec 8ebd f9f4 953c d2ae 9c3c
00000220: 1917 e8bc bab3 dfbd 2690 e73e 054a 33be
00000230: 97e0 eb3d 7fc6 04be a40a 113e 1af7 85bd
00000240: a2c1 83be cafc 393e 437a 423e 8e4c a83d
00000250: 6fd5 bcbc 6080 d53d 643e a6bc 5b53 abbc
00000260: fc75 de3c a56b 8d3d 7811 943d cddf 4e3d
00000270: 1d02 22bd a30a 023b ae37 9a3b 2500 7f3d
00000280: 3722 e0bc 50bd 833d 2272 07bd 91cc 503d
00000290: c23d 213d c3cd 1abb 932e bd3b b1a7 963c
000002a0: ac66 d13c 7101 2f3d 58c7 233b ac3c 843d
000002b0: 6a50 913c c256 263d b0d9 fd3a 443b 753c
000002c0: a814 fd3c 7577 2a3d 3e82 893c 2fbf 7f3d
000002d0: 33f2 0bbc 1c09 c13b 2b91 24bc e40d bf3a
000002e0: c70a 00bc 5a21 f9ba 81a6 94ba 9854 8dbb
000002f0: e369 3cbc e638 36bc 963a 30ba 386c 033c
00000300: c5ce 35bc b569 1f3c f26c 1d3b 8028 f7bc
00000310: 0373 463b fd2c 26bc 6107 993c a124 ccbb
00000320: 78de ad3b 21ad d23a 043a 91bb 045a 36bb
00000330: 0118 7a3b cb03 0bbb 8999 f5ba b357 71bb
00000340: 03f9 4b3c 4012 6cbb 6875 cebb af47 fcbb
00000350: c50d c3bb 5c91 2cbb 2037 33bc f098 bdbb
00000360: 4b82 b7bb 6e36 18bc d9c3 35bc eb41 f3bb
00000370: b568 6abb 7dd6 8b3c cbfb 69bc 0df0 f33b
00000380: 0591 3d3b 002b 8ebc 5fe9 7b3a 5195 17bc
00000390: 7e1e bb3b 4c4f a8bc 0361 d9ba 308b 24bc
000003a0: 5b64 e2bb d055 acbb 477a 2e3c f124 81bc
000003b0: 6a13 0a3c 9101 a2bb 61ef 743c 6665 03bb
000003c0: a832 c63c 250e 583d 9016 fbbd 52e7 b9bd
000003d0: 015c 27be 234b 1fbe 3aa1 6abd 3114 ebbd
000003e0: 3043 edbd 9495 aabd 1d64 04be cfca 043e
000003f0: 61a9 e6bd e803 97bb 33ff 873d 72a9 dfbd
0.033590097 0.08007491 0.11144843 0.11557022 0.073921464 0.087924354 0.1169482 0.082314335
0.052616708 -0.051050786 0.013881232 -0.15214077 0.11390539 0.008475299 -0.117893085 0.10574919
-0.108730964 -0.012775921 -0.082175866 -0.025557028 0.023508843 0.04088395 0.110841915 0.059290208
-0.051601045 0.056669414 0.012853835 -0.079011865 -0.15104593 -0.12716897 0.12478706 0.14895557
-0.21586402 -0.1896594 -0.32779324 -0.23893367 -0.101312466 -0.082971066 -0.17334054 0.0051869494
-0.1502029 0.1860574 -0.22656004 -0.0699038 0.19081324 -0.034277692 0.09495487 0.08027805
-0.10488045 -0.07521751 -0.16087586 0.03619945 -0.33336508 -0.1047427 0.27515402 -0.12794536
-0.1956539 0.16409454 0.19867277 0.031582125 -0.30481082 -0.06606996 -0.14492191 -0.051344916
-0.021826474 -0.009447294 -0.059859954 0.026602317 -0.23333968 -0.19886684 0.049649257 -0.035132766
-0.21488358 -0.24675162 -0.34868407 -0.112201594 0.14303288 -0.28972653 0.24338599 0.28672853
0.3687701 -0.30944207 0.35611677 -0.086109854 0.06832491 0.1711985 0.09352848 -0.17589556
0.3382079 -0.0122390995 -0.0053145844 0.00354857 0.023617879 0.004736287 0.008328236 0.013007855
0.08130769 0.04876068 0.09762902 -0.014122274 0.21932077 0.12461194 0.05203876 -0.088060066
-0.12942885 0.013074486 0.0188985 -0.04288408 0.25139827 -0.16291071 -0.018736564 0.013264146
0.037501957 0.00029019907 -0.19012341 -0.05610223 0.09055459 -0.17724463 -0.051642966 -0.051771715
-0.025266476 -0.020350661 0.11046761 0.034235284 0.0045902994 0.19346336 0.18569861 0.11432954
0.09076573 0.12598184 0.43883017 -0.023549331 0.08836097 -0.0697864 0.018305289 0.01912633
-0.028331326 -0.10922952 0.45227164 -0.17508705 0.115174465 -0.12966345 0.14164215 -0.065412715
-0.25733668 0.18162838 0.18991952 0.08217727 -0.023050992 0.10424876 -0.020293422 -0.02091377
0.027155869 0.06905297 0.072298944 0.0505064 -0.039552797 0.0019842766 0.0047063446 0.062255997
-0.027360065 0.06432593 -0.03306783 0.05097634 0.039365537 -0.0023621179 0.0057733743 0.018390508
0.025561653 0.042725984 0.0024990644 0.06456885 0.01773854 0.040610082 0.0019367244 0.014967743
0.030893639 0.04161783 0.016785737 0.062438186 -0.0085416315 0.0058909785 -0.010044376 0.0014576283
-0.0078150695 -0.0019007132 -0.0011341126 -0.004313063 -0.011499855 -0.011121964 -0.0006722597 0.008021407
-0.011096661 0.009729792 0.0024021235 -0.03017068 0.0030280955 -0.010142562 0.018680276 -0.0062299524
0.0053060614 0.0016073325 -0.004431965 -0.002782465 0.003816128 -0.0021211978 -0.0018737774 -0.0036825954
0.012449506 -0.003602162 -0.006300617 -0.007698975 -0.005952569 -0.0026331758 -0.010938436 -0.005786054
-0.005600249 -0.009290321 -0.011094057 -0.0074236295 -0.0035767977 0.01707005 -0.0142812235 0.007444388
0.002892555 -0.017354488 0.0009609665 -0.009251908 0.005710422 -0.020545624 -0.0016584698 -0.0100429505
-0.006908936 -0.005259253 0.01064927 -0.015764685 0.00842748 -0.0049440344 0.0149496505 -0.0020049452
0.024194077 0.052747864 -0.12260163 -0.09077324 -0.1634369 -0.15556006 -0.057282664 -0.114784606
-0.115850806 -0.08329311 -0.12928815 0.1296799 -0.11262775 -0.00460862 0.06640472 -0.10920991

conv2.lin_l.weight f4 [11, 32]
00000000: 128f 42bc e2dd edbc 2bfa dc3e 1e65 42bc
00000010: ac03 7f3d c830 ceb9 5a24 afbb 54e0 dbbb
00000020: 25f0 94bd 7e7b 31bd a64b 42bc cab1 48bd
00000030: 79c3 1cbd 553c 25bd a473 2cbd 6ddd 3dbd
00000040: 2342 023d 045a a9bd 2d17 783d 9073 3f3c
00000050: 9b15 493d a2fb 01bc 29c4 9fbd 2272 e4bc
00000060: 3abe 6ebd 331a eb3c b286 02bc 9440 173d
00000070: e512 7c3c 8037 7fbd ceb6 98bd 6ee1 babd
00000080: e3a5 38bc 2e12 833b 9860 ad3d b1ac 01bd
00000090: b029 c53a 1ce3 55ba 3b45 bdb9 b3f5 39bb
000000a0: aa70 16bc ed33 8cbd 4959 81bb 293c e03b
000000b0: 6df2 673b 8aee 9bbc bfc1 37bd 4460 9c3c
000000c0: 4a62 72bc 72cd cdbb b97e afbb ae58 92bc
000000d0: 03e8 83bc a763 ebba af03 b8bc 2e8c 96b9
000000e0: a682 ccbc 6e0a 49bd 0c1f 1ebc f64f 9f3b
000000f0: 0f4c 0abd fd04 7ebb 514d b63c e66b 4dbd
00000100: fa28 74bb f94a febc ba24 f3bc bd14 1fbd
00000110: 1396 19bd 3b3d f7b9 f99a aeb9 605b af3b
00000120: 8c49 233d 672b 5abd 36aa d3b9 7be6 0a3c
00000130: b7ea 8fbd b96a 00bd 3f09 bd3a 5417 0abd
00000140: d768 b9bd 5acf 41bd 6af7 29bd b3da 95bd
00000150: a32b d5bc a534 21bb e3d1 72bd 9b3e 73bb
00000160: e314 b7bc e1f7 e83c 3797 073c 52fb 98bc
00000170: 7944 ddbb 6905 61bb 560b edbc 8344 9fbc
00000180: f928 52bd a850 22bc 3d6f 4dbc 484c 133c
00000190: b599 143d 814d 9e3a 2c52 9d3a 0ff1 1cbc
000001a0: 9e75 93bd 521a 2d3d 7e15 e83c d433 86bc
000001b0: 705b 8cbb eb68 92bd dfc3 3e3d 1f6b 2dbd
000001c0: b0eb 80bd 4093 15bd e66b 33bd 4b64 8e3d
000001d0: d9d0 01bc b49e 72bb 4b6e 8abc 05b5 7cbb
000001e0: fb7f 9cbd c0f7 b83a 4943 cebc 0cd8 c63c
000001f0: 8ef1 483c 7ad9 4ebb a7fd 023c c57d a6bc
00000200: 9525 5cbd 9630 e7bd f3e1 37be e20e d9bd
00000210: 7f72 94bd bc03 81b9 6095 41bc ca1d a2bc
00000220: ed78 b8bd eaea 3e3e 5d54 45bd 1e5f 153d
00000230: 2519 96bd 74b0 84bd 4bd8 6bbc 8f40 32bd
00000240: 02f7 d23e 18b2 35bd ceed 7dbd 014f 623e
00000250: 9967 60bd 4704 363b 99c1 87bc 6994 433d
00000260: 24a5 ce3d 4d28 08bc d11e 1ebd e587 1abd
00000270: e7a8 ec3b a7ff f2b9 aedd 98bd 9d8f 3a3e
00000280: 06f7 38bd c2fd fc3e c743 f9bd d095 33bd
00000290: a822 40bd 1fce 9c3c 7186 c23c 1d31 a53c
000002a0: 40e3 c23e fa67 08be f994 e13c 9803 133d
000002b0: 3852 d03e 97c5 c4bb 7702 633c 3c36 643c
000002c0: 8137 a4bd d2ed 033d 2a03 f1bc 6993 18bd
000002d0: 7217 a53e 51c9 c33c e587 b93e aea6 83bd
000002e0: 7f41 943e 10aa bebd 6882 e6bc 59c1 a43d
000002f0: 8099 e5bc 5024 593d 1601 b2bc 17ed 0dbe
00000300: 5978 b6bc bc88 5ebd aacb 033d 1cb4 15bd
00000310: 3d91 3dbd 2d4b 15ba 578b 8c39 842b b73b
00000320: 91c1 763c 5f80 96bc 7321 04ba d2d1 863c
00000330: 2822 9ebd 62f8 1dbd bc98 42b8 17ff 23bd
00000340: bed4 bfbd 953f 41bd 5a75 62bd 2951 babd
00000350: 1912 10bc 4b08 95bb ba73 80bd d363 9cbc
00000360: b634 1cbd e533 193d 8ed2 14bb f21e 4b3b
00000370: a78e fc3a ead2 cb39 b629 0dbd e7a4 89bc
00000380: d346 94bb 3d06 10bd 8815 e1bc 2f93 25bd
00000390: 7ee0 12bd 53df ebb9 7f4a 5039 d92d cf3b
000003a0: 72cd 423d 0082 5abd 07c7 f9b9 d422 ddba
000003b0: 3a21 86bd 2e6a e8bc 4779 d03a 44ff f2bc
000003c0: 18e6 a1bd 8413 30bd b664 25bd a069 81bd
000003d0: 978b 06bd 18c1 6dbb f0fe 6ebd f653 f6bb
000003e0: c5bb 71bc dfe3 f13c 9137 0d3c 35d0 8bbc
000003f0: 1a7d a5bb 3e38 5ebb 2895 edbc 4c1c 4dbc
-0.011874931 -0.029036466 0.43159613 -0.0118649285 0.06225936 -0.00039327727 -0.0053449096 -0.0067100916
-0.072723664 -0.043330662 -0.011858856 -0.048997678 -0.038272355 -0.04034074 -0.04210247 -0.046353746
0.031801354 -0.08269122 0.060568977 0.011685267 0.04909287 -0.007933529 -0.078010865 -0.027886454
-0.058286883 0.028699016 -0.007966684 0.03692682 0.015385364 -0.06230879 -0.07456742 -0.091250286
-0.011270019 0.00399997 0.084656894 -0.031658832 0.0015042331 -0.0008159147 -0.0003610047 -0.0028375208
-0.009182135 -0.068458416 -0.003947411 0.006843109 0.00353923 -0.019034643 -0.044862505 0.019088872
-0.014793942 -0.0062805945 -0.0053556827 -0.017864551 -0.016101843 -0.0017958776 -0.022462694 -0.00028714671
-0.024964642 -0.049082212 -0.009650957 0.004861827 -0.03376394 -0.0038760297 0.022253664 -0.050151728
-0.003725587 -0.03104161 -0.029680599 -0.038838137 -0.037496638 -0.00047157131 -0.0003330333 0.005351469
0.03986506 -0.053264048 -0.00040371873 0.008477802 -0.0702719 -0.03135178 0.0014422311 -0.033713654
-0.090532 -0.047316886 -0.041495718 -0.07317104 -0.026021784 -0.002459803 -0.059282195 -0.0037116173
-0.022348827 0.02843851 0.0082757985 -0.018674526 -0.0067525473 -0.00343355 -0.02893607 -0.019441849
-0.051308606 -0.009906925 -0.012538728 0.008990355 0.0362794 0.0012077541 0.0012002639 -0.009578957
-0.07200168 0.04226143 0.02833056 -0.016382135 -0.004283361 -0.07148918 0.046573516 -0.042338487
-0.06294954 -0.03651738 -0.04380407 0.06952723 -0.007923328 -0.0037020864 -0.016898295 -0.0038560044
-0.07641598 0.0014111921 -0.025178568 0.024272941 0.012264622 -0.0031562732 0.007995046 -0.020323643
-0.05374678 -0.11288564 -0.17957287 -0.10598542 -0.07248401 -0.0002460758 -0.011815399 -0.019789595
-0.0900744 0.186443 -0.04817616 0.036467664 -0.07329015 -0.06478968 -0.01439483 -0.0435186
0.41204077 -0.044359297 -0.061994366 0.2210045 -0.0547863 0.0027773546 -0.016571807 0.047748957
0.10090092 -0.00831039 -0.038603608 -0.037727255 0.007222283 -0.00046348313 -0.07464157 0.18218847
-0.045157455 0.49412352 -0.121711306 -0.043844044 -0.04690805 0.019141255 0.023745747 0.02016502
0.38064003 -0.13320914 0.027536856 0.0358921 0.40687728 -0.006005 0.013855568 0.013928946
-0.08018399 0.032209225 -0.029420454 -0.037249956 0.3224445 0.023899706 0.36236492 -0.06428276
0.2895622 -0.093097806 -0.028138354 0.08044691 -0.028027296 0.053013146 -0.021729033 -0.13859974
-0.022274183 -0.05432962 0.03217665 -0.03654872 -0.04628109 -0.0005695101 0.00026806697 0.0055899043
0.015060798 -0.018371759 -0.0005040385 0.016457472 -0.077213585 -0.038566954 -4.639545e-05 -0.040038195
-0.09366749 -0.047179777 -0.055287696 -0.09097511 -0.008793377 -0.0045481077 -0.06272073 -0.019090569
-0.038136207 0.037403006 -0.0022708508 0.0030993787 0.0019268588 0.0003887632 -0.034463607 -0.016802264
-0.0045250445 -0.0351622 -0.027476087 -0.04042357 -0.035858624 -0.00044989082 0.00019864178 0.006322604
0.04755921 -0.053346634 -0.00047641268 -0.0016871342 -0.06549306 -0.028370943 0.0015905284 -0.029662736
-0.07905215 -0.04298736 -0.04037925 -0.063189745 -0.032847967 -0.0036278423 -0.058348596 -0.007517333
-0.01475424 0.029527603 0.008619205 -0.017067054 -0.0050503137 -0.0033908035 -0.029001787 -0.0125189535

conv2.lin_l.bias f4 [11]
00000000: 67d5 8a3c 24b2 bbba bb9d 33bd 7c84 64bc
00000010: 0de6 2e3d 6fef 243d 5d1d 31bd 1539 32bd
00000020: 1a01 603c 4bef 2dbd 98eb 1ebd
0.016947461 -0.0014320058 -0.043851595 -0.013947602 0.042699862 0.040267404 -0.043240894 -0.04351147
0.013672138 -0.042464536 -0.0387989

conv2.lin_r.weight f4 [11, 32]
00000000: ac6b 91bd 5df5 b8bd 9807 123e 7a14 a43d
00000010: af43 a1bb 1e09 1abc c378 0a3b 6aa7 643c
00000020: 46ba 40bd a22d 4dbd 68b3 51bb 5dc2 dbbc
00000030: f14e 88bd ac38 a3bd 7a84 223b 4cc8 a9bd
00000040: d06e 42bd 8a22 a4bd 5c87 373d db26 5ebd
00000050: 0a1c ba3d f9da b33b 0e61 053b c12c 21be
00000060: 46bd 1cbd 7028 96bd cff2 9bbd 66eb d2bc
00000070: 1c4e 143d a295 fabc e431 89bd 6ffc 923c
00000080: 601f a6bc 0390 02bd 46da e03e 60fe fc3c
00000090: 37c1 c5bb ff06 bcbc 2e70 b23b bffc a1ba
000000a0: ab10 94bd 2c12 b0bd 1c19 66bc 1530 88bd
000000b0: dcd5 50bd b480 4f3b d3b0 0fba 2009 41bc
000000c0: f7bb e0bd 496d 98bc d897 5e3c 9a0b 99bd
000000d0: 44d3 8bbd 3b9d 033a dd78 82bc a410 eebc
000000e0: 6b46 15bd cdce 96bc f4d5 51bd b67f d8bc
000000f0: df29 13bd 74d7 c3bd d0c1 773b 3918 8e3c
00000100: 4317 32bd 6b80 603b 81cb f0bb e9c1 34bd
00000110: 1857 9bbc 1c2e acbd 4cf6 e839 7cd1 93b9
00000120: 76ad 003c 3c4d c6bd d10c 9bbb 7389 70bb
00000130: c3f8 d23b f837 3fbd 2d45 12ba d57c 09bd
00000140: ba95 efbd 745f 7abd c3e9 6bbc 6357 c0bd
00000150: c703 f13c 3124 54ba 747e 563c 1c3f 8ebc
00000160: e2ca 853c 7c5d 563b 8891 5bbd c610 20bc
00000170: f491 cebd 3995 f73b 24bf 09bd d5e8 e5bd
00000180: 83c3 58bd 8c9f e8bd 3a11 24bd 52d5 ae3a
00000190: 646f 3abd 96bb 723d d84e f7bb 97e0 d0bb
000001a0: bb09 efbd 7b4e 33bd 2a7d cb3d ee8a 04bd
000001b0: 90d0 b6bd 4f4e 2ebd d2c1 c83a 8ec6 41bd
000001c0: f800 3cbd 3754 6fbd d8ee 3bbd 890b e1bc
000001d0: 1e3b 9cbd 3367 02ba a280 80bd 90f9 ecbb
000001e0: 4798 19bd ecbb 37bd 02c8 72bd 4bed 0abd
000001f0: cd90 0e3d 98cf c1bc 793a 543d 284a 053d
00000200: d126 65bd 523f d7bd db72 46bc 03ac 20be
00000210: e0e1 01be 4bf1 983e 95c8 483c 6249 1ebd
00000220: be65 8dbd 0bd1 123f 07f1 d33c e601 e7bd
00000230: 43d1 49bd caba 5fbd 7448 13bc f9f1 88bd
00000240: 8a10 1a3f 20e9 17bd a93d 19be c132 123f
00000250: 46bb c3bd d279 1ab9 0ddb 95bd 4f6e b2bd
00000260: a27e debd a09a 6abd 7082 8cbd 33b4 373c
00000270: 5dbc bf3e f8fc 053e e0d3 9ebb 0424 193e
00000280: f748 8a39 344c 063f 812b 64be d015 bdbd
00000290: d4ba 88bd 5a9d 84bd 04c3 f03b 1022 43bb
000002a0: 6ed1 f03e d372 fcbd f7d5 8abc a68d 56bd
000002b0: 0643 f63e d8cd 553c aa58 1f3d d52c f23c
000002c0: e19a 13be f48e 1e3d d578 99bd 6cae f4bd
000002d0: 52e7 f13d f5fc f139 7958 213e ef98 d83e
000002e0: adac 623e 84f1 96bd 7ce0 d7bc d613 ec3d
000002f0: 837e f8bd 1dd4 66bd 9dab 103e 3102 cdbd
00000300: 7b76 40bd 35fc 98bb be09 d23c 0136 84bd
00000310: eff7 3cbd 1f72 abbd 3b59 2e3a c2b3 81bb
00000320: 164a 133d de43 72bd 061f 09ba 53f7 d5bc
00000330: e466 ecbb 97ac 57bd 00e6 8bb9 81d6 34bd
00000340: 5a9e bcbd 08ca 8bbd 81db 49bd a26f c8bd
00000350: fbff 303d bf0c 45ba b5f4 de3a 6254 d03a
00000360: 864a b33b 6148 5bbc cc1c 7fbd d4f2 1dbc
00000370: 030d dbbd d490 0b3c 2794 50bd 9ae5 c7bd
00000380: c8d6 2cbd f227 ef3b b895 a8bb 135b 4abd
00000390: 6d59 9fbc a160 a3bd 4976 9f3a 7890 d339
000003a0: 348f 793c b0cc cabd 8982 8fbb b5ef 9abb
000003b0: 1e94 423c 65c9 33bd 55e7 b5b9 2632 fbbc
000003c0: b875 f0bd 84e4 76bd c6ba 7fbc b384 c7bd
000003d0: a277 103d 2aac 5aba 3a56 aa3c ea98 85bc
000003e0: 9cdc 993c b57a a53b 886a 4fbd 79f6 efbb
000003f0: 7a34 d8bd 4891 c23b 34e0 06bd 6d66 e6bd
-0.07100615 -0.09031174 0.1426071 0.08011718 -0.0049213986 -0.009401588 0.0021129108 0.01395593
-0.047052644 -0.050092347 -0.0031997804 -0.026826078 -0.06655682 -0.07969794 0.00247982 -0.08290157
-0.04746896 -0.080144 0.044806823 -0.054236274 0.09087379 0.00548875 0.0020352039 -0.15739729
-0.038266443 -0.073319316 -0.076146714 -0.025747012 0.036207303 -0.030588929 -0.06698969 0.017942635
-0.020278633 -0.03187562 0.4391653 0.030883014 -0.006034996 -0.022952555 0.0054455018 -0.0012358649
-0.07229742 -0.08597216 -0.0140440725 -0.06649796 -0.050985202 0.0031662406 -0.0005481366 -0.011781961
-0.109733514 -0.018606799 0.013586007 -0.07472916 -0.06827405 0.00050206826 -0.015926773 -0.02906067
-0.03644411 -0.018409157 -0.051229432 -0.026428085 -0.035928603 -0.09562579 0.003780473 0.017345535
-0.043479215 0.003425623 -0.0073484783 -0.04413024 -0.018962428 -0.08407232 0.00044433994 -0.00028194103
0.007853856 -0.096827 -0.0047317524 -0.003670302 0.006438346 -0.046684235 -0.0005579766 -0.033566315
-0.1169848 -0.061126187 -0.014398995 -0.09391668 0.029420746 -0.0008092551 0.013091672 -0.017364077
0.016332094 0.003270953 -0.053605586 -0.009769624 -0.10086432 0.0075556305 -0.03362955 -0.1122605
-0.05292083 -0.11358556 -0.04005549 0.0013338721 -0.045516387 0.059260927 -0.0075472407 -0.0063744294
-0.11671778 -0.043776017 0.099359825 -0.032359056 -0.08926499 -0.04255515 0.0015316552 -0.047308497
-0.04589936 -0.058429923 -0.045882076 -0.02747132 -0.07628463 -0.00049744843 -0.06274535 -0.0072318986
-0.03749874 -0.04485695 -0.059272774 -0.033917706 0.03480606 -0.023658559 0.051813576 0.032541424
-0.05594522 -0.10510124 -0.012112345 -0.15690617 -0.1268382 0.29871592 0.012254854 -0.038644202
-0.069041714 0.57350224 0.025871767 -0.11279659 -0.049271833 -0.054621495 -0.008989442 -0.066867776
0.60181487 -0.03708756 -0.14964928 0.57108694 -0.09557204 -0.00014731966 -0.07317171 -0.08712446
-0.10863997 -0.05727637 -0.068608165 0.011212396 0.37448397 0.13084781 -0.004847035 0.14955145
0.00026375774 0.52460027 -0.2228222 -0.09232676 -0.0667626 -0.06475325 0.0073474664 -0.0029774942
0.47034782 -0.123265885 -0.01694773 -0.05238118 0.4809801 0.013049565 0.038902916 0.029562393
-0.1441455 0.03871055 -0.0749375 -0.11947331 0.11811699 0.0004615557 0.15756406 0.4230418
0.22136183 -0.07370284 -0.02635216 0.11527221 -0.12133505 -0.05635463 0.14127965 -0.100101836
-0.04698799 -0.0046687373 0.025639411 -0.06455613 -0.046134885 -0.08371376 0.00066508696 -0.0039581964
0.035959326 -0.059146754 -0.0005230758 -0.02611891 -0.007214414 -0.05265483 -0.0002668351 -0.04414988
-0.09209891 -0.06825644 -0.0492816 -0.09786917 0.043212872 -0.0007516853 0.0017010184 0.0015894289
0.0054715304 -0.013383956 -0.062283322 -0.009640414 -0.10695841 0.008518416 -0.05092254 -0.0976059
-0.04219702 0.007298463 -0.005144801 -0.04940326 -0.019451821 -0.07977415 0.0012165989 0.00040352694
0.015231896 -0.09902322 -0.0043795747 -0.0047282823 0.011876134 -0.043893237 -0.00034695366 -0.030663561
-0.11741203 -0.060276523 -0.015608495 -0.09742107 0.03527034 -0.00083416945 0.02079307 -0.016308267
0.018781953 0.005050028 -0.050638705 -0.007323083 -0.10556884 0.005937729 -0.03292866 -0.11250005
