trained_weights/trace/lword2vec_gnn_trace1_E3.pth (torch, 12759 bytes, 6 tensors)

conv1.lin_l.weight f4 [32, 30]
0	0x3c666733	0.014062691
1	0x3cd8aa54	0.026448406
2	0x3daf19d1	0.08549846
3	0xbb0e2aa5	-0.0021692899
4	0x3c78c33b	0.015183265
5	0x3d94ba6f	0.07262122
6	0x3d78d9cb	0.06075458
7	0x3de7134c	0.112829775
8	0x3e393ed2	0.1809037
9	0x3c4ea17b	0.012611742
10	0x3d5f05b4	0.0544488
11	0xbdbf949c	-0.09354517
12	0x3deb73b7	0.1149668
13	0xbda7e97e	-0.08198832
14	0xbe0639e1	-0.13108017
15	0x3e059316	0.1304439
16	0xbb85d0e2	-0.0040837387
17	0x3d5afab7	0.053461757
18	0x3c0b2dd9	0.008494818
19	0x3d8d53b2	0.06900729
20	0x3d1326db	0.035925727
21	0xbb4d51c1	-0.0031329247
22	0x3e05087c	0.12991518
23	0x3d0f62fb	0.035006505
24	0xbe366c6f	-0.17814802
25	0x3de5fc8c	0.1122981
26	0xbc37a889	-0.0112096155
27	0xbdb7b559	-0.08970136
28	0xbe1b5fe6	-0.15173301
29	0x3b8abad4	0.0042336974
30	0x3dafbfa8	0.085814774
31	0x3dd06c83	0.10176947
32	0xbdf8ab85	-0.1214209
33	0xbd3d7075	-0.046249826
34	0xbd51035b	-0.05102859
35	0xbdef3cc4	-0.11681512
36	0xbcc287eb	-0.023746451
37	0xbcdf6bb1	-0.027273031
38	0xbe06abde	-0.131515
39	0xbb8b34a2	-0.0042482177
40	0x3cc6a470	0.024248332
41	0x3ddffc29	0.109367676
42	0xbdc8e899	-0.098099895
43	0xbd6e7f31	-0.058226768
44	0x3db43346	0.08798842
45	0xbb923fc0	-0.004463166
46	0xbce25039	-0.027626144
47	0x3d140e82	0.03614665
48	0x3d205fea	0.03915397
49	0xbd9557c7	-0.07292133
50	0xbdc61e46	-0.09673743
51	0x3a927fc4	0.0011176993
52	0xbe0684a6	-0.13136539
53	0xbdd7a5c4	-0.10529664
54	0x3e379602	0.17928317
55	0xbdbdd527	-0.09269171
56	0xbd7e9f26	-0.062163495
57	0x3dd4f924	0.10399082
58	0x3dcc68ca	0.099809244
59	0xbd307654	-0.043081596
60	0x3cff106c	0.03113576
61	0x3d33b234	0.04387112
62	0xbd952715	-0.07282845
63	0x3d99e812	0.07514967
64	0x3e1557a6	0.14584216
65	0xbd18540e	-0.037189536
66	0x3e04248e	0.1290457
67	0x3bc2ecce	0.0059486395
68	0xbe6212f5	-0.22077544
69	0xbde9b55c	-0.11411545
70	0x3dd333d0	0.10312617
71	0xbd56448c	-0.052311465
72	0x3dee1fd7	0.11627167
73	0xbd6a7a52	-0.05724556
74	0xbd81f1e1	-0.06344963
75	0x3d1db233	0.038500022
76	0xbd3e41a9	-0.046449337
77	0xbd7293d3	-0.059223007
78	0xbd404449	-0.04694012
79	0x3d1a00b7	0.037598338
80	0x3d97ed66	0.07418327
81	0x3ddc290e	0.10750018
82	0x3d1bdac5	0.03805043
83	0x3e1b4b34	0.15165406
84	0x3de65595	0.11246792
85	0x3d0b5b1e	0.034022443
86	0x3d5b4cbe	0.053539984
87	0x3cbeeb8b	0.023305675
88	0xbd0b4cc3	-0.034008753
89	0xbd353c32	-0.04424686
90	0xbc9e289f	-0.019306479
91	0xbc9529aa	-0.018208344
92	0x3dbd38fe	0.09239386
93	0x3d0ef79e	0.034904115
94	0x3d723523	0.059132706
95	0x3dcea8a0	0.100907564
96	0x3d689fee	0.056793146
97	0x3db1677a	0.08662315
98	0x3dc01707	0.09379392
99	0x3b0585ba	0.0020373897
100	0x3d71eef0	0.05906576
101	0xbd7b5d6f	-0.061368402
102	0x3d7469fc	0.059671387
103	0x3bad3d65	0.00528686
104	0xbde000ac	-0.10937628
105	0x3d2ba1dc	0.041902408
106	0xbd324512	-0.0435229
107	0xbc94b35b	-0.01815193
108	0x3d12bfae	0.03582733
109	0x3bb3b066	0.005483675
110	0x3d82760b	0.06370171
111	0xbcf773a3	-0.030206507
112	0x3deaf82d	0.11473117
113	0x3be07842	0.0068502733
114	0xbde10c9b	-0.109887324
115	0x3d747d04	0.059689537
116	0x3d26f1a2	0.040757783
117	0xbd9accf3	-0.07558622
118	0xbdad9bdb	-0.08476993
119	0xbc7e0666	-0.015504455
120	0x3d167ad0	0.036738217
121	0x3c1632ff	0.009167432
122	0x3de67168	0.11252099
123	0x3d1779e7	0.03698149
124	0x3da3c5f1	0.07996739
125	0x3d82fb03	0.06395533
126	0x3e219ee5	0.1578327
127	0x3dfe55cc	0.12418708
128	0x3c9f2a66	0.019429397
129	0xbd773015	-0.06034859
130	0x3dc036e4	0.093854696
131	0xbe0cc90b	-0.13748567
132	0x3e07eab0	0.1327312
133	0xbd4854fc	-0.048909172
134	0xbe2b7b0d	-0.16746159
135	0x3dae45d5	0.08509413
136	0xbda3a8d1	-0.079911835
137	0xbcdab31a	-0.02669673
138	0xbc8b9458	-0.01703851
139	0x3c4bb08a	0.012432227
140	0x3d832273	0.06403055
141	0x3d4791d3	0.048723053
142	0x3e167f4e	0.14697
143	0x3d829fbd	0.06378124
144	0xbe0581c6	-0.13037786
145	0x3d86d7b2	0.06584109
146	0x3ca2237d	0.019792313
147	0xbe116a24	-0.14200646
148	0xbe183e89	-0.14867605
149	0xbdb1eb18	-0.08687419
150	0xbd0d77e4	-0.034538165
151	0xbdfb1dc3	-0.12261536
152	0x3e081d37	0.13292395
153	0x3e263ced	0.16234179
154	0x3e63380f	0.22189353
155	0x3e0b0a95	0.13578255
156	0x3e22a47d	0.1588306
157	0x3c9c9347	0.019113196
158	0x3b56360c	0.0032686023
159	0xbde5da7f	-0.112233154
160	0x3d82117f	0.06350993
161	0xbe01e64c	-0.12685508
162	0x3e241720	0.16024446
163	0x3e1ba572	0.15199831
164	0xbe01579d	-0.12631078
165	0xbd9bc644	-0.076061755
166	0xbe120daf	-0.14263032
167	0xbdbe29d7	-0.09285324
168	0x3c5c967f	0.013463615
169	0xbd9d541c	-0.07682058
170	0x3d9ee673	0.077587985
171	0x3d8b0cfb	0.06789585
172	0x3e17e304	0.14832693
173	0x3e0ce23b	0.13758175
174	0xbe09129e	-0.13386008
175	0xbce5fd99	-0.028075026
176	0x3e078f3f	0.13238238
177	0xbdee3302	-0.11630823
178	0xbe2c751a	-0.16841546
179	0xbe196b94	-0.14982444
180	0x3cb58ef2	0.022162888
181	0x3d931585	0.07181839
182	0xbd929f13	-0.07159247
183	0xbd8d17bf	-0.06889295
184	0xbd92f2fd	-0.071752526
185	0xbda002f2	-0.07813062
186	0xbd5dbc67	-0.054134753
187	0xbc85dc7a	-0.016340483
188	0x3c641c56	0.013922771
189	0x3d57cfb2	0.052688308
190	0xbc8b89ce	-0.017033484
191	0x3db58304	0.0886288
192	0xbd8172e2	-0.0632074
193	0xbd2f98fa	-0.0428705
194	0x3dc5e6bd	0.096631505
195	0x3d3abc60	0.045589805
196	0x3d2972fd	0.041369427
197	0x3d85557d	0.06510446
198	0x3d263686	0.04057934
199	0xbbe01ab8	-0.0068391226
200	0xbcaea1ae	-0.02131733
201	0x3b880022	0.0041504065
202	0xbdabd8dc	-0.08390972
203	0xbcd6344b	-0.026147982
204	0x3daf54f6	0.08561127
205	0x3c264cec	0.010150176
206	0xbd66fc42	-0.056392916
207	0x3da48e59	0.08034963
208	0x3d6673ad	0.05626266
209	0x3d1192ef	0.035540517
210	0xbb23323d	-0.002490177
211	0x3aaac32d	0.0013028138
212	0x3b3f56b0	0.0029195957
213	0x3c3ad99b	0.01140442
214	0xbaf57bd7	-0.0018728924
215	0xbb395551	-0.0028279612
216	0x3c06a804	0.008218769
217	0xb9bef85f	-0.00036424675
218	0xb92c6966	-0.00016442462
219	0xbb2a3500	-0.0025971532
220	0xbb2c1639	-0.0026258363
221	0xbbe55b65	-0.0069994205
222	0x3b902c8d	0.004399842
223	0x3cec5d47	0.028853072
224	0xbc016efd	-0.007899997
225	0xbc43a5ff	-0.011941432
226	0xbc8f890d	-0.017521406
227	0xba8743bf	-0.0010319873
228	0x3ade9b68	0.001698357
229	0xbcd0c0eb	-0.025482615
230	0x3b03a9b0	0.0020090155
231	0x3b8df345	0.0043319785
232	0x3b954d7f	0.0045563574
233	0x3be06bbe	0.0068487814
234	0x3b37602f	0.0027980914
235	0x3c09c0a7	0.008407748
236	0xbb89bdde	-0.004203542
237	0x39b37bfc	0.00034233916
238	0xbb555568	-0.0032552127
239	0xbd0b9dd7	-0.034086075
240	0x3d862d03	0.06551554
241	0x3d851027	0.064972214
242	0xbdb3b15e	-0.087740645
243	0xbd4478aa	-0.047966637
244	0xbd27105a	-0.04078708
245	0xbdbdbae2	-0.09264161
246	0xbcd9c346	-0.026582371
247	0xbd3692d7	-0.04457363
248	0xbd47723d	-0.04869293
249	0xbb8ab084	-0.004232468
250	0xbc91e2b3	-0.017808294
251	0x3d8eda2b	0.06975206
252	0xbdad4a38	-0.08461422
253	0xbc739358	-0.014866672
254	0x3d5cf7dd	0.05394732
255	0xbc24b708	-0.010053404

conv1.lin_l.bias f4 [32]
0	0x3cf8dc79	0.030378567
1	0xbd160b8f	-0.036632117
2	0xbe16daef	-0.14731954
3	0xbc04b443	-0.008099618
4	0xbd3cb713	-0.04607303
5	0xbd9abec3	-0.07555916
6	0x3d4b49e6	0.049631022
7	0xbbe1793f	-0.0068809087
8	0xbbd12321	-0.0063823615
9	0x3e06c5e5	0.13161428
10	0xbdf50d3c	-0.11965415
11	0x3abf5d72	0.0014599992
12	0xbc9f7531	-0.01946506
13	0xbcf28b36	-0.029607397
14	0xb99cbd59	-0.00029895714
15	0xbd30b133	-0.04313774
16	0x3e04b4cf	0.12959598
17	0xbd131ae6	-0.035914324
18	0xbd40fb9c	-0.047114953
19	0x3dba3381	0.09091855
20	0x3bfa944b	0.0076470724
21	0x3c29d74f	0.010366275
22	0xbda5d838	-0.08097881
23	0xbd2e6a58	-0.042581886
24	0x3c9c558d	0.019083763
25	0xbb7f6875	-0.0038972173
26	0xbbf046dd	-0.0073326663
27	0x3c1da616	0.0096221175
28	0x3db62436	0.088936254
29	0x3b3b2a61	0.0028559195
30	0xbcd3b6df	-0.025844036
31	0x3cd3367f	0.025782822

conv1.lin_r.weight f4 [32, 30]
0	0x3dacdd44	0.084406406
1	0x3e0760c9	0.13220514
2	0x3e084af7	0.13309847
3	0x3d8363d6	0.064155266
4	0x3d3bf30d	0.04588609
5	0x3da654bd	0.08121631
6	0x3dec6256	0.115421936
7	0x3e38ed41	0.18059255
8	0x3e8a9868	0.27069402
9	0x3cb8455e	0.022494014
10	0x3e26ee21	0.16301776
11	0xbd3435c9	-0.043996606
12	0x3e32091e	0.1738629
13	0x3c534f14	0.012897272
14	0xbe24656d	-0.16054316
15	0x3e4c5979	0.19956006
16	0xbcc7ac48	-0.024374142
17	0x3d919e66	0.0711029
18	0x3db55d52	0.0885569
19	0xbd79fb3c	-0.06103061
20	0xbd46cacb	-0.048533242
21	0x3de497e7	0.111617856
22	0x3e08cc63	0.13359217
23	0x3d80efe1	0.06295753
24	0xbe8470cc	-0.25867307
25	0x3d4d7b88	0.050166637
26	0x3b198c64	0.0023429627
27	0xbdd0d66f	-0.1019715
28	0xbe944846	-0.2896139
29	0xbdcd26a9	-0.100171395
30	0x3e0f5904	0.139988
31	0x3e165086	0.14679155
32	0xbe55164d	-0.20809288
33	0xbe45312f	-0.19257043
34	0xbea82c7d	-0.32846442
35	0xbe6efc30	-0.2333839
36	0xbdba84e2	-0.09107377
37	0xbd912593	-0.07087245
38	0xbe6535ab	-0.22383754
39	0x3cba111d	0.022713238
40	0xbdf02cdd	-0.11727307
41	0x3dfdfc77	0.124016695
42	0xbe7bdd4b	-0.24596135
43	0xbd9dc2f5	-0.07703201
44	0x3e24f153	0.16107683
45	0x3c943a15	0.018094102
46	0x3dc61e1a	0.0967371
47	0x3d8b8daf	0.068141334
48	0xbe048b26	-0.12943706
49	0xbd82547b	-0.063637696
50	0xbe16a6ec	-0.14712113
51	0xbdc6058c	-0.09669027
52	0xbe966b79	-0.2937887
53	0xbe6ffcc4	-0.23436266
54	0x3e9d4351	0.3071542
55	0xbd9147ea	-0.07093795
56	0xbe429a85	-0.19004257
57	0x3e1b630b	0.151745
58	0x3e73f108	0.23822415
59	0x3d0636b3	0.03276701
60	0xbe464f99	-0.19366302
61	0x39d1f6dd	0.00040047514
62	0xbe3bce89	-0.18340506
63	0xbd51bc6d	-0.051205087
64	0xbce996d7	-0.028514309
65	0x3cbebebd	0.02328431
66	0xbd5fe416	-0.05466088
67	0x3dce7b83	0.10082152
68	0xbeac230f	-0.33620498
69	0xbdd5ba03	-0.104358695
70	0xbafae6d8	-0.0019142283
71	0xbb8d1fb2	-0.004306757
72	0xbdf50e28	-0.11965591
73	0xbe175a68	-0.14780581
74	0xbe48e380	-0.19618034
75	0xbdab4853	-0.08363404
76	0x3df806f1	0.12110699
77	0xbe153a91	-0.14573123
78	0x3cbc93f5	0.02301977
79	0x3e92f33b	0.28701195
80	0x3ea46a75	0.3211247
81	0xbe296ad7	-0.16544662
82	0x3e3bcf25	0.18340738
83	0x3bcf521b	0.0063269264
84	0x3e117633	0.14205246
85	0x3e1a6cf2	0.15080622
86	0x3da5d63c	0.080975026
87	0xbd0cf704	-0.03441526
88	0x3e8ba4ae	0.27274078
89	0x3c95936e	0.018258777
90	0x3da93ff8	0.08264154
91	0x3df27a70	0.11839759
92	0x3d2f1b5e	0.04275071
93	0xbd04fa17	-0.032465067
94	0xbd882e50	-0.066494584
95	0x3cde9273	0.027169442
96	0x3dcfcbfd	0.101463296
97	0x3db948c5	0.09047083
98	0x3e10e323	0.14149146
99	0x3ce899f3	0.028393721
100	0x3e234675	0.15944846
101	0xbd354b27	-0.044261124
102	0x3d9d30bb	0.0767531
103	0xbd8a3118	-0.06747645
104	0xbd2f95ff	-0.042867657
105	0x3db1e715	0.086866535
106	0xbbb16c9d	-0.005414559
107	0x3cf082ff	0.029359339
108	0x3deacb30	0.11464536
109	0xbdfe2c55	-0.124107994
110	0xbd612ffe	-0.05497741
111	0x3b9da8bd	0.004811375
112	0x3cc04095	0.023468295
113	0xbd3ad99f	-0.045617696
114	0xbe06bf5d	-0.13158937
115	0x3b62346a	0.0034516104
116	0x3c2539af	0.010084554
117	0xbcd05a36	-0.02543364
118	0xbdfa0bb1	-0.12209261
119	0xbd8906d6	-0.06690757
120	0x3d44b0d1	0.048020188
121	0x3dfab9de	0.122424826
122	0x3e04f20c	0.12982959
123	0x3d68c8cc	0.05683212
124	0xbc4927c0	-0.012277544
125	0x3d9510c2	0.07278587
126	0x3e557f9c	0.2084946
127	0x3e2ac8f1	0.16678216
128	0x3e63c836	0.22244343
129	0xbd2fc56e	-0.042912893
130	0x3e7ee0f3	0.24890499
131	0xbde463f3	-0.11151876
132	0x3e58472e	0.21120903
133	0xbd188063	-0.037231814
134	0xbe67ba84	-0.22629744
135	0x3e1ce639	0.15322198
136	0xbd3d2849	-0.046180997
137	0xbbf0c56e	-0.007347754
138	0x3e237066	0.15960845
139	0xbe1e45b6	-0.1545628
140	0x3c0c93f9	0.008580201
141	0x3c684fb4	0.014179159
142	0x3e5c7140	0.21527576
143	0x3c5958e4	0.013265822
144	0xbe86631c	-0.2624749
145	0x3cfdcbf3	0.03098104
146	0x3d94869a	0.07252236
147	0xbe1e324e	-0.15448877
148	0xbe948696	-0.2900893
149	0xbe2b93b0	-0.16755557
150	0xbdf91859	-0.12162847
151	0xbdef11bd	-0.11673305
152	0x3dbd1421	0.09232355
153	0x3e373bc1	0.17893888
154	0x3e2292e1	0.15876342
155	0x3e1ee018	0.15515172
156	0x3d1cf1de	0.0383166
157	0x3c845608	0.016154304
158	0x3d691c2b	0.05691163
159	0xbdb11dea	-0.08648284
160	0x3dbccdf8	0.09218973
161	0xbc9eee80	-0.019400835
162	0x3d565a18	0.052332014
163	0x3df0e591	0.11762536
164	0xbe1ca07d	-0.15295596
165	0xbdc75bbd	-0.097342946
166	0xbda2d32a	-0.079504326
167	0xbde3b27a	-0.11118026
168	0x3de112c4	0.109899074
169	0xbc4e999f	-0.012609868
170	0x3d806caf	0.0627073
171	0xbc08be2b	-0.008346121
172	0x3e21f292	0.1581519
173	0x3d181b2a	0.03713528
174	0xbdd4d4e1	-0.10392166
175	0xbd3a75ab	-0.045522373
176	0x3e179774	0.14803869
177	0xbdd9ff1e	-0.10644363
178	0xbd8ea203	-0.06964495
179	0xbd9aa1f8	-0.07550424
180	0x3d91fc97	0.07128256
181	0x3dc58e3e	0.09646271
182	0xbdbe59e3	-0.09294488
183	0xbe00fb17	-0.12595783
184	0xbe10d8a4	-0.14145142
185	0xbe086a56	-0.13321814
186	0xbd83423f	-0.0640912
187	0xba7f4efc	-0.00097392476
188	0xbca7d61f	-0.020487843
189	0x3d55cdcd	0.05219822
190	0xbd45eae2	-0.048319705
191	0x3d915366	0.07095985
192	0xbdeb2bba	-0.114829496
193	0xbd55d5df	-0.052205916
194	0x3e0f324a	0.13984028
195	0x3cf83759	0.03029983
196	0x3d49ad26	0.049237393
197	0x3d94a89a	0.07258721
198	0xbd8c1b7b	-0.06841179
199	0xbd2afb52	-0.041743584
200	0xbd727b22	-0.05919946
201	0x39c64363	0.0003781571
202	0xbe25196f	-0.16122983
203	0xbdb6d84b	-0.08927973
204	0x3dd88c22	0.10573603
205	0xbb9e9687	-0.0048397216
206	0xbe013385	-0.1261731
207	0x3db2fc5f	0.08739542
208	0x3da0f3e2	0.07859017
209	0x3d12fb98	0.03588447
210	0x3bc4ca41	0.006005556
211	0x3c5c4a9f	0.013445525
212	0x3c6d9fae	0.014503403
213	0xbcb8c6c2	-0.022555713
214	0xbd388e58	-0.045057625
215	0xbcff4282	-0.031159643
216	0x3ca67453	0.02031914
217	0xbcbcc953	-0.023045218
218	0x3cfa9799	0.030589866
219	0xbcd0e97c	-0.025501959
220	0x3b4cf78c	0.003127548
221	0xbc2d0f70	-0.010562763
222	0xbb862070	-0.0040932223
223	0x3d0bf235	0.034166533
224	0x3bd14b69	0.0063871634
225	0xbd2a8725	-0.04163279
226	0xbcfb91e5	-0.030709216
227	0xbbf124c1	-0.0073591177
228	0xbaa99e22	-0.0012940804
229	0xbdd00153	-0.101565026
230	0xbd16d063	-0.036819827
231	0x3a6dbdc8	0.0009069112
232	0xbd1de1df	-0.038545486
233	0xbbcda475	-0.0062757083
234	0x3aecaddc	0.0018057185
235	0xbd8b372d	-0.06797633
236	0xbc6bb39f	-0.014386087
237	0xbb9daa73	-0.004811579
238	0xbccb2380	-0.024797201
239	0xbd504184	-0.05084373
240	0x3dd861c5	0.10565523
241	0x3df221ee	0.11822878
242	0xbdf9cabb	-0.12196871
243	0xbe098181	-0.13428308
244	0xbe61768e	-0.22017881
245	0xbdfaca39	-0.12245602
246	0xbd571434	-0.0525095
247	0x3cfa7487	0.030573143
248	0xbd79f9df	-0.06102931
249	0x3d30720d	0.043077517
250	0xbda93031	-0.08261145
251	0x3e0eefb4	0.13958627
252	0xbe03d75f	-0.12875126
253	0xbd2a607d	-0.041595925
254	0x3dbe6f7d	0.092986085
255	0xbbd6879a	-0.0065469267

conv2.lin_l.weight f4 [11, 32]
0	0xbd358108	-0.044312507
1	0xbd942d19	-0.07235164
2	0x3e1537e3	0.145721
3	0xbdc5b938	-0.09654468
4	0xbda00d4a	-0.07815035
5	0xbbbbd692	-0.005732366
6	0x3c4b8dca	0.012423942
7	0x3bdd4f05	0.0067538046
8	0xbd2e8348	-0.04260567
9	0x3db4128b	0.08792599
10	0xbd43120c	-0.047624633
11	0xbd2b825a	-0.04187236
12	0xbca7da9a	-0.02048998
13	0xbd93c788	-0.07215792
14	0xbc175c07	-0.00923825
15	0x3c55b032	0.0130424965
16	0x3e1da6fc	0.1539573
17	0x3b4518bb	0.0030074555
18	0xbd4faf47	-0.050704267
19	0x3dc577d0	0.09641993
20	0x3bf329f6	0.0074207736
21	0xbb2cebfd	-0.0026385777
22	0xbe2dfe72	-0.16991594
23	0x3d995255	0.07486407
24	0xbc98b7ab	-0.018642267
25	0xbcfda0e3	-0.030960506
26	0xbda28755	-0.07935969
27	0xbcd0bfd0	-0.025482088
28	0x3d04eec9	0.032454286
29	0xbe29681f	-0.16543625
30	0xbd69fc21	-0.057125214
31	0x3c1b6570	0.009484634
32	0xbd0abee1	-0.033873443
33	0xbd90cf95	-0.07070843
34	0x3ea7793f	0.3270969
35	0xbc92f4aa	-0.01793893
36	0xbd2e696b	-0.042581003
37	0xbd160fb7	-0.03663608
38	0xbcd24c0c	-0.025671028
39	0xbcc39b80	-0.02387786
40	0xbca4631c	-0.02006679
41	0x3dd4b05c	0.103852004
42	0xbd8fb177	-0.070162706
43	0xbd838f4c	-0.06423816
44	0xbcb00eec	-0.02149149
45	0xbd270298	-0.040773958
46	0xbd073b7f	-0.033015724
47	0xbcbd37da	-0.023097921
48	0x3d521067	0.051285174
49	0x3c0fe638	0.008782916
50	0xbd0d7d00	-0.034543037
51	0x3da57882	0.08079626
52	0xbd42b2ad	-0.04753368
53	0xbd1c7207	-0.038194682
54	0xbcb5714e	-0.022148754
55	0xbcd8d363	-0.026467985
56	0xbd239075	-0.039932687
57	0x3c83d76a	0.016093928
58	0xbd783a00	-0.060602188
59	0xbd458482	-0.048222072
60	0xbd7fa7f9	-0.06241605
61	0xbda2284e	-0.07917844
62	0xbc0c7667	-0.008573151
63	0xbc2c41b8	-0.010513715
64	0xbcc3b7a6	-0.023891281
65	0xbaefe3a5	-0.0018302096
66	0xbd810d74	-0.06301394
67	0xbcf47e46	-0.029845368
68	0xbd0c4555	-0.034245808
69	0x3c8a1552	0.01685587
70	0x3c485b6a	0.012228826
71	0xbbb289c0	-0.00544855
72	0xbc316597	-0.010827444
73	0xbcdb783c	-0.02679073
74	0xbd203761	-0.039115313
75	0xbd04d1e1	-0.03242672
76	0xbd1d831e	-0.03845512
77	0xbd9e0806	-0.07716374
78	0xbc8ef14c	-0.017449044
79	0xbc6f2430	-0.01459603
80	0xbc211ed8	-0.009834014
81	0x3af184f8	0.0018426469
82	0xbd7b777e	-0.061393254
83	0xbdfe8681	-0.12427998
84	0xbcb0c56a	-0.02157851
85	0x3c2a2dde	0.010386912
86	0x3c8f90e8	0.017525151
87	0xbcff561a	-0.031168986
88	0xbd46f904	-0.048577324
89	0xbc411706	-0.011785274
90	0xbb82897d	-0.003983675
91	0xbc5ac7a6	-0.013353264
92	0xbd27a0b9	-0.04092476
93	0x3c116c80	0.008875966
94	0xbd71e252	-0.059053726
95	0xbcf4ff02	-0.029906753
96	0x3d3611df	0.044450637
97	0x3cc7c329	0.024385052
98	0x3d29103a	0.04127524
99	0x3c224eb7	0.009906462
100	0xbba56f95	-0.005048702
101	0x3c23f74d	0.010007692
102	0x3dd0da6c	0.10197911
103	0xbb80ca4f	-0.003930367
104	0x3c6de744	0.01452047
105	0xbe26e7e0	-0.16299391
106	0x3dbd11b3	0.092318915
107	0xbbdfd580	-0.006830871
108	0x3d2c842f	0.042118248
109	0xbca3fd5d	-0.020018274
110	0x3de72052	0.112854615
111	0xbc09f933	-0.00842123
112	0xbdcedcbf	-0.10100698
113	0xbe057793	-0.13033895
114	0xbd9cc9d8	-0.07655686
115	0x3c91b693	0.017787253
116	0xbb2ea810	-0.0026650466
117	0x3d999b93	0.075003766
118	0xbda9e6e5	-0.08295993
119	0xbd20a63e	-0.03922104
120	0xbe6536fc	-0.22384256
121	0x3d097919	0.033562753
122	0xbcac6f40	-0.021049142
123	0xbc9db687	-0.019252075
124	0xbc02eb90	-0.007990733
125	0x3c8fd69b	0.017558387
126	0xbd27d0e8	-0.040970713
127	0x3d8e9b39	0.069632
128	0xbd9e5293	-0.077305935
129	0xbd793ec1	-0.060850862
130	0xbe338869	-0.17532505
131	0xbe5bd562	-0.21468118
132	0xbde82cf6	-0.113367006
133	0x3cc87401	0.024469377
134	0xbd9b0c2b	-0.0757068
135	0x38a86229	8.029148e-05
136	0xbddbb3d1	-0.10727657
137	0x3e840cbf	0.25790974
138	0xbe61e5bb	-0.22060291
139	0x3b186d17	0.0023258382
140	0xbd0facca	-0.035076894
141	0xbe051cbb	-0.12999241
142	0xbe48dbcf	-0.196151
143	0xbe249568	-0.16072619
144	0x3eddff0a	0.43358642
145	0x3e0d9685	0.1382695
146	0x3c45899c	0.012056734
147	0x3e6b0d9b	0.22954409
148	0xbcdf1967	-0.027233792
149	0xbd640289	-0.05566648
150	0xbd6ea647	-0.058264043
151	0x3e34cb0a	0.17655578
152	0x3e827eac	0.25487268
153	0x3d6b67fd	0.057472218
154	0xbdfd3da4	-0.12365273
155	0xbcb66c18	-0.02226834
156	0xbd1be064	-0.038055792
157	0x3cd2ad69	0.025717454
158	0x3cdb9652	0.026805077
159	0x3e2ca668	0.16860354
160	0xbd06fa9f	-0.032953855
161	0x3edad0e8	0.42737508
162	0xbd442c6e	-0.047893934
163	0x3db3717d	0.087618805
164	0x3ced32d5	0.028954903
165	0x3dc06b61	0.09395481
166	0x3e247597	0.16060482
167	0x3d9e5d3d	0.077326275
168	0x3e450578	0.19240367
169	0x3d6a378c	0.05718188
170	0x3dc28228	0.094974816
171	0xbd3c89f4	-0.04603
172	0x3eacd574	0.33756602
173	0xba82f3a9	-0.0009990829
174	0x3de48588	0.111582816
175	0x3d87232f	0.065985076
176	0xbcbc5df1	-0.022994014
177	0xbd088a9e	-0.03333532
178	0x3c721fd5	0.014778097
179	0x3db36042	0.08758594
180	0x3e742aca	0.23844448
181	0x3e097b8d	0.13426037
182	0x3e60fe88	0.21972096
183	0xbd2f85e8	-0.042852312
184	0x3e6291e2	0.22125962
185	0xbc3c6ed2	-0.011501031
186	0xbcd4fac3	-0.025998479
187	0x3e267dd7	0.16258942
188	0xbd4d30c2	-0.050095327
189	0x3e098beb	0.1343228
190	0x3cd78ba5	0.026311705
191	0x3d6027f3	0.0547256
192	0xbcde7220	-0.027154028
193	0xbcee2e05	-0.029074678
194	0xbcda4332	-0.02664337
195	0xbd008c69	-0.031383906
196	0xbd474cc4	-0.048657194
197	0x3b80b4a9	0.0039277864
198	0x3bb672c6	0.0055678813
199	0xbaec9ab1	-0.0018051473
200	0xb9a62465	-0.00031689103
201	0x3da94fd0	0.08267176
202	0xbd2e2a3e	-0.042520754
203	0xbd682008	-0.056671172
204	0xbd0b4232	-0.033998676
205	0xbd935667	-0.07194214
206	0xbcdac7f9	-0.026706683
207	0xbca729cf	-0.020405678
208	0x3dad47bb	0.08460947
209	0xbb913cb3	-0.0044322847
210	0xbd33e52c	-0.043919727
211	0xbc7aaf8d	-0.015300644
212	0xbc9baf22	-0.019004408
213	0x38dc45b6	0.00010503402
214	0x3acd05f0	0.0015642028
215	0xbcf60c05	-0.030035028
216	0xbd145183	-0.036210548
217	0xbc04fecf	-0.008117392
218	0xbc94158a	-0.018076677
219	0xbc5db33a	-0.0135315005
220	0x3c64e65f	0.01397094
221	0xbd6c784a	-0.057731904
222	0xbb67d8cf	-0.003537703
223	0xb884dbb9	-6.335177e-05
224	0xbcb5b9f3	-0.022183394
225	0xbb20709f	-0.002448119
226	0xbd8e9e17	-0.06963747
227	0xbc8a2315	-0.016862432
228	0xbcc7483d	-0.024326438
229	0x3cceeb97	0.025258822
230	0x3c12f8c3	0.008970442
231	0xbb95525e	-0.004556938
232	0xbc5dfac5	-0.013548558
233	0x3ca826f3	0.020526385
234	0xbcb256aa	-0.02176984
235	0xbcedd48d	-0.029032016
236	0xbd3d8d50	-0.046277344
237	0xbd8fbcf7	-0.07018464
238	0xbca14883	-0.019687897
239	0xbc64ea7f	-0.013971924
240	0x3ce2edff	0.027701376
241	0xbbb9c61f	-0.00566937
242	0xbd4af063	-0.049545657
243	0xbdec25b4	-0.11530629
244	0xbcb4e7e0	-0.022083223
245	0x3c27bb91	0.01023759
246	0x3cdf3440	0.027246594
247	0xbd105a99	-0.03524265
248	0xbd9297fc	-0.07157895
249	0xbc86592f	-0.016399948
250	0xbc45c844	-0.012071673
251	0xbc53a65a	-0.012918079
252	0xbd0c9e25	-0.034330506
253	0x3cbf33b0	0.023340076
254	0xbd5baef9	-0.053633664
255	0xbc9eca0b	-0.019383451

conv2.lin_l.bias f4 [11]
0	0xbcc40886	-0.023929846
1	0x3d1730c3	0.036911737
2	0xbd3a0a54	-0.045420006
3	0xbe3bee99	-0.18352737
4	0x3e3b9404	0.18318182
5	0x3daffe13	0.08593383
6	0xbd49f31d	-0.049304117
7	0xbd33a034	-0.043853953
8	0x3d43410a	0.047669448
9	0xbd481ce3	-0.048855674
10	0xbd4673ad	-0.04845016

conv2.lin_r.weight f4 [11, 32]
0	0xbd71d8c3	-0.05904461
1	0xbd72d78a	-0.059287585
2	0x3db5684c	0.08857784
3	0xbd71e018	-0.059051603
4	0xbd8223dc	-0.06354496
5	0xbc6612ad	-0.014042539
6	0x3c9d7c7a	0.019224394
7	0xbc008862	-0.007845016
8	0xbdcf13ff	-0.10111236
9	0x3d25bdb4	0.040464118
10	0xbd680604	-0.056646362
11	0xbd9b9060	-0.07595897
12	0xbc78b82e	-0.015180631
13	0xbd62e24a	-0.055391587
14	0x3b74f2fd	0.0037376278
15	0x3c7b8bdb	0.015353168
16	0x3dc4b31a	0.096044734
17	0xbd033f44	-0.032042757
18	0xbdebccb3	-0.11513653
19	0x3e0ffa04	0.14060217
20	0x3c2ea294	0.010658879
21	0x3c880916	0.016605895
22	0xbda270e7	-0.07931691
23	0xbd298260	-0.0413841
24	0x3d2122b0	0.03933972
25	0xba4ecfcc	-0.00078892405
26	0xbd5a943a	-0.053364016
27	0x3ce01ea7	0.027358366
28	0x3e2d831c	0.16944546
29	0xbd20106f	-0.039078172
30	0xbd132a0f	-0.035928782
31	0x3e1f14e4	0.15535313
32	0xbd7edb8b	-0.06222109
33	0xbd5b3ff8	-0.053527802
34	0x3ef8e0db	0.4860905
35	0xbd8aab12	-0.0677091
36	0xbd6bfa88	-0.057611972
37	0x3cd219ad	0.025647009
38	0xbcdc4f26	-0.02689321
39	0xbceb2639	-0.02870475
40	0xbd8473ad	-0.06467376
41	0x3da13d23	0.07872989
42	0xbdbd94f6	-0.09256928
43	0xbd7b9c06	-0.061428092
44	0x3d2969d6	0.0413607
45	0xbcf7ea91	-0.030263217
46	0xbd965964	-0.07341269
47	0xbcc90ac1	-0.02454126
48	0x3d563ce8	0.05230418
49	0xbd9ac856	-0.07557742
50	0xbd809a0e	-0.062793836
51	0x3c55bfb0	0.01304619
52	0xbd741d21	-0.059598092
53	0xbce3da20	-0.027813971
54	0xbc8bd7bc	-0.017070644
55	0xbdc0a148	-0.09405762
56	0xbcccb920	-0.024990618
57	0xbd150e33	-0.036390495
58	0xbd8b5214	-0.068027645
59	0xbc00001d	-0.007812527
60	0x3d66bb24	0.056330815
61	0xbced5725	-0.028972218
62	0x3e53b709	0.20675291
63	0xbdd61294	-0.10452762
64	0xbce9e0e9	-0.028549628
65	0xbd574c77	-0.052563157
66	0xbd9bce86	-0.076077506
67	0xbcdcca17	-0.026951833
68	0xbd2da3de	-0.042392604
69	0x3ce51e57	0.027968569
70	0x3c3032c5	0.010754292
71	0xbb654be5	-0.0034987864
72	0x3c19b9aa	0.009382645
73	0xbd9cac6d	-0.07650075
74	0xbd596b22	-0.053080685
75	0xbd55a5ed	-0.052160192
76	0xbd17ac05	-0.037029285
77	0xbda946d4	-0.082654625
78	0xbca284a1	-0.019838633
79	0xbcb81980	-0.022473097
80	0xbd872d93	-0.066004895
81	0xbcfa6db6	-0.030569892
82	0xbdd1ee0e	-0.102504835
83	0xbd644af2	-0.055735536
84	0xbbae18a5	-0.0053129965
85	0xba2d09c7	-0.0006600883
86	0xbcbdf146	-0.023186337
87	0xbdd738d3	-0.10508885
88	0xbd555437	-0.052082267
89	0xbc82b890	-0.015957147
90	0xbd29c15c	-0.041444167
91	0xbba7f620	-0.005125776
92	0xbd44e3cd	-0.04806881
93	0x3c031e9c	0.008002903
94	0xbcf4a970	-0.02986595
95	0xbd9b6e68	-0.07589418
96	0x3c8eeb50	0.01744619
97	0xbd21bca8	-0.039486557
98	0xbe648318	-0.22315633
99	0x3c57faa5	0.013182317
100	0xbc32c1d7	-0.010910473
101	0x3d00e777	0.031470742
102	0x3daffcca	0.085931376
103	0xbbc14e3d	-0.0058992193
104	0xbbafcde7	-0.0053651216
105	0xbdad272b	-0.08454736
106	0x3e30029a	0.17188492
107	0xbbf46989	-0.00745887
108	0x3c81955a	0.015818287
109	0x39bd3184	0.0003608578
110	0x3d924d0d	0.071436025
111	0xbce7aa94	-0.02827958
112	0xbcb2b47f	-0.021814583
113	0x3d19828a	0.037478007
114	0xbd4dec9e	-0.050274484
115	0xbcbbe269	-0.02293511
116	0x3bd4fbba	0.0064997347
117	0x3c4e91e3	0.012608024
118	0xbdaade43	-0.08343174
119	0xbe3a9a51	-0.1822293
120	0x3b20d19d	0.0024539002
121	0x3d6f492e	0.0584194
122	0x3bdc6428	0.0067258067
123	0xbb876e71	-0.0041330387
124	0x3a15659b	0.00056990393
125	0x3cebbc4f	0.028776316
126	0x3ca9ee27	0.020743443
127	0xbdaa8c33	-0.08327522
128	0xbdf0cd4b	-0.117579065
129	0xbd9d8d3e	-0.076929554
130	0x3d85885d	0.0652015
131	0xbe21f8ab	-0.15817516
132	0xbe08f8d2	-0.13376167
133	0x3c0a459a	0.008439446
134	0xbd5a3c29	-0.05328003
135	0x3b9a6548	0.0047117807
136	0xbdca46da	-0.09876795
137	0x3f02c487	0.51081127
138	0x3db1c134	0.08679429
139	0xbe0db4e5	-0.13838537
140	0xbe052637	-0.13002859
141	0xbe271b3b	-0.16318981
142	0xbd53a617	-0.051672067
143	0x3ce55471	0.027994366
144	0x3f0fbd47	0.5614819
145	0xbe42ef92	-0.19036701
146	0xbe1be3b8	-0.15223587
147	0x3efa2e52	0.48863465
148	0xbc8726e0	-0.01649803
149	0xbbd42fbf	-0.0064754183
150	0xbd5425db	-0.051793914
151	0x3dcd2228	0.100162804
152	0xbe22f5f5	-0.15914138
153	0xbccad77f	-0.02476096
154	0xbe2be663	-0.16787104
155	0x3b413ad8	0.0029484536
156	0x3e75f2a1	0.24018337
157	0x3cd4dcf6	0.025984269
158	0xbe19d290	-0.1502173
159	0x3e0be370	0.1366098
160	0xbd06cf86	-0.032912754
161	0x3ef50ebd	0.47862807
162	0xbdc670d1	-0.09689487
163	0x3ccd17d3	0.025035774
164	0xbc2b17ed	-0.010442716
165	0x3d45f79c	0.04833184
166	0x3e1a2198	0.15051877
167	0x3d72e2f5	0.059298474
168	0x3ec38d03	0.3819352
169	0xbcda170a	-0.026622314
170	0x3d675687	0.056479003
171	0xbd23c908	-0.03998664
172	0x3eb40232	0.35157925
173	0x3e157d45	0.14598568
174	0x3e51757a	0.2045497
175	0x3c957044	0.018242009
176	0xbd4de2c2	-0.05026508
177	0xbcb467cb	-0.022022149
178	0x3d875cb7	0.06609481
179	0xbd09796c	-0.033563063
180	0x3e13e634	0.14443284
181	0x3be7a861	0.007069633
182	0x3e573956	0.21017966
183	0x3ec7db54	0.39034522
184	0x3e126828	0.14297545
185	0x3d32e4f3	0.043675374
186	0xbd83a145	-0.06427244
187	0x396047f4	0.0002138911
188	0x3a08769f	0.0005205664
189	0x3dc067af	0.09394776
190	0x3d0dc921	0.03461564
191	0xbdb858d1	-0.090013154
192	0xbd11b1e8	-0.035570055
193	0xbd4f9c8f	-0.050686415
194	0xbda79d1c	-0.08184263
195	0xbd27af11	-0.04093844
196	0xbd4e50f1	-0.05037016
197	0xbc696106	-0.014244324
198	0x3b30e5cf	0.0026992445
199	0xb9354da4	-0.00017290429
200	0xb9dd9889	-0.00042266052
201	0xbd900ed9	-0.07034082
202	0xbd871c76	-0.06597225
203	0xbd660042	-0.05615259
204	0xbcf893df	-0.030343948
205	0xbda092c4	-0.07840493
206	0xbcc6e1fb	-0.024277678
207	0xbc91747c	-0.01775574
208	0xbd6ffbd1	-0.05858976
209	0xbd202443	-0.039097082
210	0xbde24f3d	-0.1105027
211	0xbce1186c	-0.027477466
212	0xbb8008c7	-0.0039072963
213	0xba7a116e	-0.00095393404
214	0xbc389ac3	-0.011267367
215	0xbd6addab	-0.057340305
216	0xbcc0b156	-0.02352206
217	0xbc832e29	-0.016013222
218	0xbd3e8753	-0.046515774
219	0xbbbd34a5	-0.005774098
220	0xbc36677c	-0.011133071
221	0xb9a0f038	-0.00030696555
222	0xbcc0f2c3	-0.023553258
223	0xbce231d6	-0.027611654
224	0xbcef5be9	-0.02921863
225	0xbd408367	-0.047000315
226	0xbdb23308	-0.0870114
227	0xbccfea51	-0.025380285
228	0xbd273578	-0.040822476
229	0x3d1a5de3	0.037687194
230	0x3be8686e	0.007092527
231	0xbb5b280c	-0.0033440618
232	0x3c29a4b2	0.010354208
233	0xbdb0aecb	-0.08627089
234	0xbd549ba4	-0.051906243
235	0xbd486f80	-0.04893446
236	0xbd10e479	-0.03537414
237	0xbda10bd8	-0.07863587
238	0xbca9108d	-0.020637775
239	0xbcce5250	-0.025185734
240	0xbd99e447	-0.075142436
241	0xbd055117	-0.032548036
242	0xbdccd1db	-0.10000964
243	0xbd8f800d	-0.070068456
244	0xbbe99593	-0.0071284263
245	0xba60fde9	-0.00085827574
246	0xbcd1590d	-0.025555158
247	0xbdd41bbe	-0.10356854
248	0xbd514732	-0.051093288
249	0xbc7553b9	-0.014973574
250	0xbd2ab661	-0.041677836
251	0xbb2f5864	-0.0026755566
252	0xbd831466	-0.06400375
253	0x3c244fe4	0.010028813
254	0xbcd95890	-0.026531488
255	0xbda3a7b5	-0.07990972
