trained_weights/trace/lword2vec_gnn_trace13_E3.pth (torch, 12759 bytes, 6 tensors)

conv1.lin_l.weight f4 [32, 30]
0.017765785 -0.016814794 -0.0020065473 -0.013520761 0.027998539 0.037501406 0.07314051 0.09242952
0.029546116 -0.012157495 0.00040170288 -0.19333188 -0.036306445 -0.09758544 -0.08381465 0.009813983
-0.090839386 -0.14561805 0.025199404 -0.041940283 -0.03209663 -0.201788 0.07957818 -0.19849743
-0.015748657 0.015892776 0.06325963 -0.09089567 0.008879117 -0.04915539 0.054128233 0.05268814
-0.103532076 0.026322568 0.022368584 -0.06274138 0.02889716 -0.11932258 -0.099478334 -0.098514594
0.038860638 0.0077569755 0.016875874 0.0548698 0.035190225 -0.09873789 -0.086820066 0.0140324505
-0.041288722 -0.17330584 -0.09379012 -0.023449207 -0.06787929 -0.13383488 0.06718249 -0.12848544
-0.013076885 0.002096806 -0.04219246 -0.12140957 -0.08285446 0.02661416 -0.018762507 0.08368982
0.18579276 -0.041837618 0.11511647 -0.06713736 -0.15534048 -0.1552834 0.04032059 -0.048895042
0.011195509 0.021771807 -0.05118561 0.052488323 -0.038405184 -0.008534357 -0.029631793 0.11451428
-0.1550969 0.18755366 0.03413112 0.038517088 -0.011510389 0.00094237656 -0.022276115 0.008649854
-0.043771215 -0.13280797 0.0050158803 -0.034883883 0.0403921 0.11297445 0.2158204 0.06169239
0.010335044 0.0060632112 -0.0055707144 0.029681506 0.007726996 -0.021054817 0.017715858 0.089237966
0.0056976574 0.007970209 -0.093617946 0.022729954 0.0033053008 0.0572191 0.0065486846 0.014333149
0.08131549 0.011094208 0.0056726118 0.03545035 0.027444983 0.027865523 -0.00058038003 0.023203418
0.052278385 0.16789103 -0.06415762 -0.06415403 0.15261455 0.085792474 0.18295799 0.02723025
-0.29849622 0.03658026 0.24965577 -0.19698298 0.2010326 -0.21660775 0.14766255 0.24094106
-0.055384427 0.07901272 0.06540109 0.12726417 0.07568664 0.30869767 0.11363897 0.19396688
-0.12765786 0.14154038 0.08282784 0.17137045 -0.14968403 -0.03823136 -0.04445593 -0.029725285
-0.010222607 0.05252157 0.09064036 -0.004116511 -0.04714299 -0.08047156 -0.050927054 -0.011870084
-0.045758247 0.03293374 0.017407615 0.08676407 0.017881181 -0.032124396 -0.010203517 0.03504252
-0.03618486 0.024781289 -0.011821606 0.04022098 0.001703988 0.0053559057 0.08816753 -0.004980444
-0.0026372985 0.040061787 0.02074246 0.027694462 -0.0016223957 -0.009181132 -0.01025837 0.07675204
0.103937134 -0.026165538 0.040830974 -0.07024052 -0.1047136 -0.07211636 -0.017027883 -0.011044535
0.0069032907 0.08472765 0.007686156 -0.043893274 -0.04909897 -0.024097465 -0.04633997 -0.029221369
-0.067483775 0.088746555 0.003315909 0.033729527 0.07896922 -0.06291826 0.012651807 -0.008621349
-0.026778454 -0.07032806 -0.06251962 0.0010721086 -0.0005708862 0.007479937 0.026024409 -0.015343996
-0.0044584214 -0.03352161 -0.016781561 -0.016773093 -0.07326928 -0.032032765 0.010327688 0.016954385
-0.02509519 -0.01642928 0.008588729 -0.023937048 -0.03044955 -0.02858431 -0.026613155 -0.05405899
0.03884563 0.035657853 0.05942207 -0.012776551 0.010544159 0.0013848655 0.011062275 -0.011901461
0.020535309 0.06660387 -0.12087038 -0.013220369 -0.024739424 -0.08549382 -0.036557324 -0.11719964
-0.096916184 -0.08417486 -0.033358604 0.0677943 -0.028030643 0.025534328 0.045144234 -0.069384255
00000000: 8d89 913c 2ebf 89bc 4780 03bb 2f86 5dbc
00000010: 315d e53c 139b 193d b1ca 953d b04b bd3d
00000020: b20a f23c 3b30 47bc a69b d239 cbf8 45be
00000030: 11b6 14bd e0da c7bd 04a7 abbd d4ca 203c
00000040: 000a babd e61c 15be fb6e ce3c 93c9 2bbd
00000050: c277 03bd 83a1 4ebe e3f9 a23d e942 4bbe
00000060: 5403 81bc 9131 823c 448e 813d 8227 babd
00000070: b779 113c 2a57 49bd 91b5 5d3d 85cf 573d
00000080: a008 d4bd 6da2 d73c 523e b73c 8d7e 80bd
00000090: bdb9 ec3c 665f f4bd 4cbb cbbd 05c2 c9bd
000000a0: 552c 1f3d 3a2e fe3b 463f 8a3c 28bf 603d
000000b0: a023 103d 1737 cabd b8ce b1bd 5de8 653c
000000c0: 5d1e 29bd 1677 31be 0915 c0bd 8d18 c0bc
000000d0: 4c04 8bbd 030c 09be f996 893d b091 03be
000000e0: 6e40 56bc 916a 093b 00d2 2cbd 95a5 f8bd
000000f0: 99af a9bd f005 da3c d4b3 99bc 9165 ab3d
00000100: 7540 3e3e ec5d 2bbd 2fc2 eb3d 507f 89bd
00000110: 9311 1fbe 9d02 1fbe 3427 253d 2b46 48bd
00000120: 5e6d 373c ca5a b23c 01a8 51bd fffd 563d
00000130: c14e 1dbd b0d3 0bbc 60be f2bc 7686 ea3d
00000140: b9d1 1ebe 110e 403e 13cd 0b3d 18c4 1d3d
00000150: 1296 3cbc d209 773a 667c b6bc 1eb8 0d3c
00000160: 7249 33bd d0fe 07be 415c a43b 67e2 0ebd
00000170: 3072 253d 265f e73d 0600 5d3e 29b1 7c3d
00000180: 5154 293c e7ad c63b 8a8a b6bb a126 f33c
00000190: be32 fd3b 277b acbc d920 913c 65c2 b63d
000001a0: 6ab3 ba3b 7b95 023c c4ba bfbd 2b34 ba3c
000001b0: bf9d 583b 935e 6a3d 5996 d63b 96d5 6a3c
000001c0: bc88 a63d 7bc4 353c 51e1 b93b 6334 113d
000001d0: 4dd4 e03c 3d46 e43c a524 18ba 1815 be3c
000001e0: dc21 563d a0eb 2b3e 1265 83bd 3063 83bd
000001f0: fd46 1c3e f7b3 af3d 5759 3b3e f911 df3c
00000200: 7fd4 98be 2fd5 153d c3a5 7f3e e8b5 49be
00000210: 7ddb 4d3e 6cce 5dbe da34 173e 41b9 763e
00000220: c8da 62bd 6cd1 a13d 02f1 853d 8a51 023e
00000230: 9901 9b3d 9f0d 9e3e 8cbb e83d 419f 463e
00000240: beb8 02be f6ef 103e a4a1 a93d bc7b 2f3e
00000250: c546 19be 7d98 1cbd 6c17 36bd 7182 f3bc
00000260: b97c 27bc dc20 573d a7a1 b93d cce3 86bb
00000270: 0219 41bd 46ce a4bd e398 50bd be7a 42bc
00000280: 006d 3bbd 88e5 063d 6a9a 8e3c 5cb1 b13d
00000290: 8e7b 923c df94 03bd a72c 27bc bf88 0f3d
000002a0: 9336 14bd 2102 cb3c 69af 41bc c1be 243d
000002b0: 5958 df3a 9880 af3b 2e91 b43d fe32 a3bb
000002c0: 87d6 2cbb d417 243d 17ec a93c 7fdf e23c
000002d0: 91a6 d4ba 756c 16bc b912 28bc 2c30 9d3d
000002e0: fedc d43d 1c59 d6bc 613e 273d 43da 8fbd
000002f0: 1574 d6bd beb1 93bd 0f7e 8bbc 23f4 34bc
00000300: 0035 e23b b185 ad3d 26dc fb3b 6fc9 33bd
00000310: 001c 49bd 0c68 c5bc fbce 3dbd a761 efbc
00000320: ef34 8abd c1c0 b53d b94f 593b f927 0a3d
00000330: 9dba a13d 4adb 80bd 8649 4f3c 8f40 0dbc
00000340: 7d5e dbbc 2808 90bd 490a 80bd ff85 8c3a
00000350: 86a7 15ba 421a f53b 2431 d53c 6265 7bbc
00000360: f317 92bb f54d 09bd 7c79 89bc ba67 89bc
00000370: 340e 96bd ca34 03bd 7735 293c ece3 8a3c
00000380: 6e94 cdbc b396 86bc beb7 0c3c a117 c4bc
00000390: 5671 f9bc a529 eabc d503 dabc f66c 5dbd
000003a0: 981c 1f3d f80d 123d 8e64 733d bd54 51bc
000003b0: 69c1 2c3c 6084 b53a 8b3e 353c 58fe 42bc
000003c0: aa39 a83c 9c67 883d e48a f7bd 3f9a 58bc
000003d0: 55aa cabc 6217 afbd 22bd 15bd 5d06 f0bd
000003e0: fe7b c6bd de63 acbd 08a3 08bd bdd7 8a3d
000003f0: 85a0 e5bc 5e2d d13c 29e9 383d 5519 8ebd

conv1.lin_l.bias f4 [32]
-0.07798488 -0.09958421 -0.07612516 -0.010415876 -0.02187809 0.011812175 -0.03930236 -0.0072227693
-0.07384319 0.019180225 0.14632209 -0.039289083 -0.084459886 -0.0994907 0.002734012 -0.036376234
0.05322281 -0.05177103 -0.04504786 0.07299557 -0.037254907 0.07910795 -0.014926637 -0.077137634
-0.022237593 -0.06269028 -0.025518108 -0.025477896 0.043181583 -0.0072320867 -0.03961473 0.08093117
00000000: 89b6 9fbd cef2 cbbd 82e7 9bbd 5aa7 2abc
00000010: ae39 b3bc da87 413c 83fb 20bd fbac ecbb
00000020: 193b 97bd d91f 9d3c 75d5 153e 97ed 20bd
00000030: 4ef9 acbd c8c1 cbbd 1c2d 333b 3fff 14bd
00000040: 2900 5a3d dc0d 54bd 1b84 38bd b47e 953d
00000050: 9a98 18bd 5903 a23d da8e 74bc 56fa 9dbd
00000060: 9d2b b6bc c363 80bd 5a0b d1bc 05b7 d0bc
00000070: 2cdf 303d 24fb ecbb 0e43 22bd 3ebf a53d

conv1.lin_r.weight f4 [32, 30]
0.12649278 0.12160444 0.008283235 0.048833422 0.099691086 0.019573089 0.21306255 0.2653887
-0.03643649 -0.028245794 -0.08847633 -0.34750775 -0.035060033 -0.04222786 -0.16659683 0.11077822
-0.14909057 -0.046727654 -0.04894016 -0.015061417 -0.10437167 -0.0427267 0.06257291 -0.11693791
-0.121645436 -0.045642916 0.022588683 -0.16334684 -0.13293172 -0.09039876 0.06818185 0.14478227
-0.22885445 -0.13316153 -0.26096836 -0.113043256 0.03855471 -0.21312267 -0.1499001 -0.11817087
-0.01795292 0.0028124356 0.08701537 -0.051744338 0.10596651 -0.07156183 -0.007323469 0.09201443
-0.1095765 -0.16385834 -0.08525654 -0.02950669 -0.2298224 -0.07805139 0.10756039 -0.14090537
-0.13706928 0.051070295 -0.049551155 -0.1159814 -0.20920636 -0.0011319165 0.0061618555 0.1633885
0.09273909 0.19766289 -0.12892695 0.2836414 -0.29771572 -0.02336861 -0.113866046 0.2675321
-0.3201053 -0.06462586 -0.14018936 -0.0065357266 0.1565886 -0.18686563 0.20433378 0.3904931
0.23013301 0.10704814 0.12893245 0.08109996 -0.012751998 -0.0014133021 0.22452554 -0.026025135
0.20677929 0.0799862 -0.028785838 -0.01666777 0.029290106 0.03138042 0.028093213 0.048128847
-0.020405825 -0.021599615 0.0024711075 -0.010113311 0.037915237 -0.0070223897 0.04301381 -0.0246918
-0.0054887757 -0.004166025 -0.04009118 0.016459549 -0.014817891 0.04411897 0.073166676 0.033425752
0.010409965 0.05730915 -0.05755743 -0.019588502 -0.00013339719 -0.026378397 -0.0072158193 -0.032407004
0.11542965 -0.057558715 0.15256806 0.06995699 0.057487186 0.15886378 0.22449715 0.07969162
0.03456678 0.023697399 0.29803067 -0.18293914 0.22832939 -0.07832575 -0.030904759 -0.16343562
-0.1989253 -0.049031153 0.17253456 -0.22357492 0.15435529 -0.09080707 -0.06634896 -0.011975467
-0.23642774 -0.0075996234 0.059541736 -0.16358016 -0.16596003 -0.062250134 -0.085307315 -0.07659556
0.02596961 0.04654583 0.07432814 -0.0039429083 -0.02329878 -0.12057407 -0.045179687 0.0013116209
-0.06139784 0.033827573 0.054814775 0.10420453 0.016882384 -0.05964123 -0.011692776 0.0351275
-0.08860227 0.020546429 0.05423009 0.04408422 -0.014955212 0.06918756 0.07349072 -0.0017359904
-0.015079078 0.026023682 0.0069474517 0.026281646 -0.042397443 -0.13002817 0.11922263 0.10227488
0.07214247 0.007853509 -0.018315451 -0.043069173 0.0011986803 -0.044860132 -0.084964566 0.023571584
-0.03749042 0.14139473 -0.025694137 -0.14802442 -0.06208872 -0.06980984 -0.090138905 -0.0496252
0.037044045 -0.015280308 -0.0033438592 0.06459633 0.041291665 -0.06642528 0.021629713 -0.08404864
0.035452016 -0.013761494 0.028813427 -0.0020308355 0.031540062 0.05864325 0.040692225 -0.044412345
0.028392654 -0.08205775 -0.059506975 -0.009537303 -0.11366042 -0.12152613 0.12827303 0.08210288
0.033955023 -0.023673046 -0.047624003 0.027781455 -0.2143537 -0.03918527 -0.017342178 0.03322171
-0.05712833 0.101038516 0.101286046 0.01166943 -0.1144593 0.029994415 -0.06125969 -0.08281119
0.050862104 0.07379588 -0.15168585 -0.083195195 -0.14313617 -0.12714028 0.02825522 -0.20615833
-0.069476515 -0.12949847 -0.07128148 -0.026083328 0.09334435 -0.01506628 0.054896288 -0.08811432
00000000: 5387 013e c00b f93d 68b6 073c 8e05 483d
00000010: d72a cc3d be57 a03c 122d 5a3e 07e1 873e
00000020: 6e3e 15bd b963 e7bc 1433 b5bd 89ec b1be
00000030: 1c9b 0fbd 1ff7 2cbd 5c98 2abe b1df e23d
00000040: 33ab 18be 7f65 3fbd 7a75 48bd 29c4 76bc
00000050: d0c0 d5bd 3102 2fbd 3a26 803d 257d efbd
00000060: 3e21 f9bd 11f4 3abd e70b b93c 6544 27be
00000070: 411f 08be fc22 b9bd eda2 8b3d ce41 143e
00000080: d258 6abe 7f5b 08be a59d 85be 3983 e7bd
00000090: 8beb 1d3d d43c 5abe 697f 19be 9203 f2bd
000000a0: 0112 93bc d750 383b 1d35 b23d dff1 53bd
000000b0: f804 d93d 028f 92bd b6f9 efbb 1072 bc3d
000000c0: a569 e0bd 7bca 27be fb9a aebd 04b8 f1bc
000000d0: 9056 6bbe 68d9 9fbd 9f48 dc3d 7f49 10be
000000e0: e45b 0cbe 162f 513d 27f6 4abd a887 edbd
000000f0: 313a 56be d15c 94ba 64e9 c93b 514f 273e
00000100: feed bd3d 2468 4a3e 6d05 04be 7239 913e
00000110: 326e 98be 876f bfbc 9a32 e9bd f8f9 883e
00000120: d8e4 a3be 905a 84bd cd8d 0fbe a629 d6bb
00000130: c358 203e b459 3fbe e03c 513e b6ee c73e
00000140: fda7 6b3e 0e3c db3d de06 043e bc17 a63d
00000150: c2ed 50bc 8d3e b9ba 06ea 653e aa32 d5bc
00000160: f3bd 533e cecf a33d 47d0 ebbc d98a 88bc
00000170: cef1 ef3c c188 003d bd23 e63c c122 453d
00000180: 1e2a a7bc adf1 b0bc 4ef2 213b 4db2 25bc
00000190: 024d 1b3d 131c e6bb 402f 303d 7546 cabc
000001a0: 30db b3bb 2783 88bb a636 24bd 2dd6 863c
000001b0: bdc6 72bc 18b6 343d 69d8 953d 71e9 083d
000001c0: 8f8e 2a3c 00bd 6a3d 57c1 6bbd 1178 a0bc
000001d0: 89e0 0bb9 8217 d8bc ae72 ecbb 35bd 04bd
000001e0: 6166 ec3d b0c2 6bbd cd3a 1c3e 9c45 8f3d
000001f0: af77 6b3d 30ad 223e 95e2 653e 5c35 a33d
00000200: e595 0d3d 0c21 c23c 7a97 983e 6654 3bbe
00000210: 2ecf 693e 4069 a0bd fa2b fdbc ab5b 27be
00000220: 13b3 4bbe e4d4 48bd e6ac 303e d3f0 64be
00000230: 500f 1e3e 0ff9 b9bd f7e1 87bd c034 44bc
00000240: 1d1a 72be 4306 f9bb 09e2 733d 8f81 27be
00000250: 6df1 29be fff9 7ebd 9ab5 aebd 22de 9cbd
00000260: 38be d43c d7a6 3e3d 5a39 983d 8333 81bb
00000270: 15dd bebc 8aef f6bd 560e 39bd b2ea ab3a
00000280: 4d7c 7bbd c88e 0a3d 7585 603d 2f69 d53d
00000290: ed4c 8a3c 5d4a 74bd 0f93 3fbc dae1 0f3d
000002a0: 1b75 b5bd fc50 a83c 5f20 5e3d a891 343d
000002b0: b506 75bc 35b2 8d3d 4d82 963d 2c8a e3ba
000002c0: 3d0e 77bc 9e2f d53c 73a7 e33b 9b4c d73c
000002d0: f1a8 2dbd 1b26 05be ff2a f43d 7e75 d13d
000002e0: 6ebf 933d 01ac 003c 490a 96bc 4d69 30bd
000002f0: 091d 9d3a 42bf 37bd e701 aebd 3219 c13c
00000300: 8e8f 19bd c8c9 103e 837c d2bc b793 17be
00000310: be50 7ebd 76f8 8ebd bf9a b8bd cb43 4bbd
00000320: 7fbb 173d 425a 7abc a624 5bbb 154b 843d
00000330: 7321 293d fa09 88bd cc30 b13c b221 acbd
00000340: 2236 113d e477 61bc 230a ec3c c417 05bb
00000350: 2730 013d e833 703d e4ac 263d b8e9 35bd
00000360: b697 e83c e50d a8bd 96bd 73bd 5942 1cbc
00000370: cbc6 e8bd b1e2 f8bd 015a 033e 8e25 a83d
00000380: 6c14 0b3d faed c1bc 6311 43bd ef95 e33c
00000390: 897f 5bbe bc80 20bd 2f11 8ebc 7d13 083d
000003a0: 65ff 69bd 48ed ce3d 0f6f cf3d 2331 3f3c
000003b0: a369 eabd d9b6 f53c 71eb 7abd ea98 a9bd
000003c0: c854 503d 4b22 973d 8953 1bbe 3e62 aabd
000003d0: 4a92 12be 1031 02be 7e77 e73c 2b1b 53be
000003e0: b449 8ebd 3f9b 04be 06fc 91bd b4ac d5bc
000003f0: 532b bf3d 8fd8 76bc eeda 603d 4875 b4bd

conv2.lin_l.weight f4 [11, 32]
-0.09231879 -0.100878544 0.6031621 -0.016646301 -0.06784053 0.04699652 0.035879873 -0.0031756775
-0.13582005 -0.019267164 -0.07430512 -0.008632298 -0.12475166 -0.02128352 -0.016384304 -0.07517486
-0.04941625 -0.094203286 -0.13768634 -0.0033872498 -0.083445236 -0.050351445 -0.098425485 -0.24416988
-0.15650475 -0.0044745887 -0.041514114 0.07026307 0.001958466 0.011872464 -0.041144986 0.019715464
0.0036293573 -0.0051390487 -0.22185701 -0.0037401102 0.10771393 -0.016485121 -0.064322025 0.017569752
0.063390814 -0.009782173 0.015930925 0.08281532 0.0019045683 -0.01958899 -0.004099414 0.092908315
-0.016945733 -0.012517233 0.22879928 -0.033120956 -0.03904369 0.07370973 0.01978431 0.40736905
0.03211941 -0.05317726 0.015307095 0.030617071 -0.009845421 -0.0796296 0.047284853 0.002585692
-0.00045769892 -0.05996952 -0.07510706 -0.024530334 -0.027189352 -0.001415235 -0.01629434 -0.023699215
-0.05013166 -0.005675443 -0.018182121 -0.061380796 -0.0104772495 -0.12618813 0.0027368863 -0.052483078
0.007708458 -0.035900228 -0.042027373 -0.032139797 -0.009421373 -0.035229277 -0.055468164 -0.010869542
-0.014620294 0.0010845528 -0.032963235 -0.003816562 -0.007876232 -0.00082361564 -0.0099818185 -0.028335579
-0.033813234 -0.0816195 -0.038450964 0.00023278786 -0.037357282 -0.004690571 -0.10511615 0.0337482
-0.05354518 0.005585237 0.4758008 -0.01855298 -0.037440095 -0.081804864 0.0018137309 0.11251862
-0.005168182 -0.003563674 0.031162469 0.3252016 -0.0406739 -0.019000113 -0.051693674 0.033879377
-0.044976268 0.0145207895 0.11181391 0.03705362 0.097871065 -0.12774692 0.01845157 -0.018997686
-0.007377821 -0.05997977 -0.045647368 -0.017247515 -0.040635686 0.002118291 0.07045665 -0.06373235
-0.03625303 0.19936615 -0.14074795 -0.01686542 -0.039180987 -0.07733868 -0.0044288933 -0.030798161
0.38024983 -0.040789906 -0.0491049 0.031327557 -0.02910739 -0.09736878 -0.033443596 -0.001633307
0.007845848 -0.036180317 -0.014875108 -0.024016256 0.0040612146 0.076188594 -0.048564073 0.13258845
-0.00800371 0.63990736 -0.0830067 -0.023882288 -0.021886474 -0.01551683 0.015334156 -0.044010494
0.39172006 0.009859572 -0.0025482022 -0.06365796 0.42037898 -0.03228028 0.01195577 -0.005681923
-0.0715855 -0.0546157 -0.060417913 -0.0063592163 0.40985832 -0.053400256 0.4042202 -0.12067275
0.33482575 -0.04879183 0.009453162 0.015509311 -0.012615025 0.08749143 -0.025696294 -0.08711227
-0.015581141 -0.07261213 0.08478351 -0.014238495 -0.01815736 0.0022587446 0.0330015 0.0025332465
-0.03520982 -0.021596242 -0.025747068 -0.032019492 -0.035865087 -0.06650729 -0.0047350405 -0.001001777
0.007698783 -0.040086802 -0.05582105 -0.019442149 -0.026819788 -0.07392274 -0.03628735 -0.031992793
-0.042187776 -0.03334886 0.012226355 0.026899042 -0.00786103 0.02896475 -0.020909041 -0.07218106
-0.0064304094 -0.058732077 -0.079435475 -0.02313849 -0.027254034 -0.00048492037 -0.02161571 -0.02858623
-0.049768604 -0.005947058 -0.014461917 -0.05602646 -0.008871855 -0.12303444 0.0052865464 -0.05079381
0.0029636843 -0.035785586 -0.036071397 -0.026218485 -0.012068239 -0.035559118 -0.05450747 -0.009082725
-0.015841305 0.0016510374 -0.032524988 -0.006031618 -0.0061569302 0.0038794642 -0.010251283 -0.028362771
00000000: a211 bdbd 6999 cebd d568 1a3f d35d 88bc
00000010: faef 8abd 6c7f 403d c6f6 123d 071f 50bb
00000020: 6914 0bbe 2cd6 9dbc 482d 98bd 7b6e 0dbc
00000030: cc7d ffbd c75a aebc 6038 86bc 47f5 99bd
00000040: b268 4abd a7ed c0bd a6fd 0cbe 9ffc 5dbb
00000050: 56e5 aabd 513d 4ebd 4d93 c9bd ab07 7abe
00000060: c842 20be 929f 92bb b40a 2abd 16e6 8f3d
00000070: 9b59 003b b984 423c a587 28bd 5382 a13c
00000080: 83da 6d3b 7765 a8bb 7c2e 63be a31c 75bb
00000090: 1f99 dc3d ce0b 87bc 44bb 83bd 71ee 8f3c
000000a0: 0bd3 813d 6845 20bc 9281 823c 149b a93d
000000b0: b5a2 f93a 1779 a0bc 6154 86bb b746 be3d
000000c0: c7d1 8abc 1515 4dbc 5c4a 6a3e d7a9 07bd
000000d0: 47ec 1fbd 20f5 963d b512 a23c ad92 d03e
000000e0: a48f 033d 66d0 59bd 9cca 7a3c a7d0 fa3c
000000f0: b04e 21bc d814 a3bd c3ad 413d b774 293b
00000100: 4ff7 efb9 99a2 75bd bbd1 99bd d7f3 c8bc
00000110: 34bc debc 687f b9ba b57b 85bc db24 c2bc
00000120: db56 4dbd 11f9 b9bb acf2 94bc 6e6a 7bbd
00000130: c5a8 2bbc 7637 01be 555d 333b 7ff8 56bd
00000140: 3c97 fc3b 1e0c 13bd e524 2cbd 05a5 03bd
00000150: 1a5c 1abc 934c 10bd 9632 63bd 2a16 32bc
00000160: f589 6fbc 8e27 8e3a 7504 07bd 491f 7abb
00000170: 500b 01bc e9e7 57ba c88a 23bc 0420 e8bc
00000180: bf7f 0abd 2028 a7bd c27e 1dbd 8418 7439
00000190: f303 19bd 5db3 99bb 2347 d7bd 8d3b 0a3d
000001a0: 3152 5bbd 5d04 b73b 2a9c f33e 6bfc 97bc
000001b0: c95a 19bd 4f89 a7bd b6ba ed3a 2a70 e63d
000001c0: da59 a9bb 878c 69bb 6f48 ff3c d380 a63e
000001d0: ad99 26bd 20a6 9bbc bfbc 53bd 1ac5 0a3d
000001e0: 0939 38bd 9be8 6d3c b1fe e43d 89c5 173d
000001f0: a070 c83d 17d0 02be bf27 973c 09a1 9bbc
00000200: a6c1 f1bb 59ad 75bd bcf8 3abd a94a 8dbc
00000210: 9b71 26bd 07d3 0a3b 934b 903d 1b86 82bd
00000220: 0f7e 14bd a426 4c3e 3b20 10be 5929 8abc
00000230: 3e7c 20bd be63 9ebd 4020 91bb 6d4c fcbc
00000240: 1bb0 c23e 5113 27bd 3822 49bd 5351 003d
00000250: 9f72 eebc 4869 c7bd 27fc 08bd b014 d6ba
00000260: df8b 003c d031 14bd bab6 73bc bdbd c4bc
00000270: f013 853b c408 9c3d 1feb 46bd 44c5 073e
00000280: fe21 03bc f8d0 233f 6bff a9bd caa4 c3bc
00000290: 434b b3bc 4d3a 7ebc 1d3c 7b3c 5944 34bd
000002a0: 888f c83e 0b8a 213c bdff 26bb 1b5f 82bd
000002b0: ea3b d73e 5438 04bd 22e2 433c 6d2f babb
000002c0: 6b9b 92bd b6b4 5fbd c678 77bd f960 d0bb
000002d0: f3d8 d13e 3aba 5abd f3f5 ce3e 4623 f7bd
000002e0: 486e ab3e f1d9 47bd 6fe1 1a3c c41a 7e3c
000002f0: 40af 4ebc b52e b33d 0981 d2bc eb67 b2bd
00000300: 0b48 7fbc abb5 94bd faa2 ad3d 9448 69bc
00000310: bebe 94bc 7207 143b 952c 073d d304 263b
00000320: 2c38 10bd 9aea b0bc 84eb d2bc df26 03bd
00000330: 45e7 12bd f934 88bd 6628 9bbb 0f4e 83ba
00000340: 1346 fc3b 0f32 24bd 9da4 64bd 2445 9fbc
00000350: 2cb5 dbbc ce64 97bd 0ba2 14bd e00a 03bd
00000360: 17cd 2cbd d098 08bd 0d51 483c 615b dc3c
00000370: 8dcb 00bc 7c47 ed3c 7049 abbc aad3 93bd
00000380: 2fb6 d2bb 0c91 70bd 11af a2bd ee8c bdbc
00000390: da43 dfbc e93c feb9 6e13 b1bc ab2d eabc
000003a0: 2ada 4bbd 8adf c2bb adf1 6cbc 007c 65bd
000003b0: 425b 11bc 7bf9 fbbd c43a ad3b 2c0d 50bd
000003c0: 5f3a 423b e893 12bd 9abf 13bd 26c8 d6bc
000003d0: ddb9 45bc 70a6 11bd 3a43 5fbd b6cf 14bc
000003e0: a0c5 81bc 9f67 d83a ec38 05bd e1a4 c5bb
000003f0: 13c0 c9bb 9c3e 7e3b fff4 27bc 0b59 e8bc

conv2.lin_l.bias f4 [11]
0.09843595 0.017529434 -0.018496588 -0.0142054325 -0.014962417 -0.015926085 0.018654644 -0.02035577
-0.0235376 -0.012062865 -0.0020695468
00000000: ca98 c93d e399 8f3c 2886 97bc e7bd 68bc
00000010: ed24 75bc 6c77 82bc a0d1 983c 25c1 a6bc
00000020: edd1 c0bc 53a3 45bc 3ca1 07bb

conv2.lin_r.weight f4 [11, 32]
-0.11782766 -0.11831335 0.19757238 0.09367138 -0.10492645 0.031144647 0.28433317 -0.106604666
-0.109252214 -0.04688188 -0.08407311 -0.23989193 -0.11871366 -0.08167449 0.0017888963 -0.08175578
-0.048406728 -0.11398084 -0.19563575 -0.051498804 0.0023751194 -0.08923966 0.05146365 -0.088752456
-0.023457095 -0.12706706 -0.07847066 -0.033318132 -0.076228775 0.06628734 -0.03054444 -0.07188763
-0.12764287 -0.14655891 0.46242192 -0.010064143 -0.02716802 -0.09502763 -0.050768055 -0.11766144
-0.11164181 -0.034927044 -0.16118093 0.1290776 -0.12785849 -0.04409878 -0.017484097 0.09545993
-0.035710715 -0.12866248 0.06377512 -0.079236045 -0.10973417 -0.12854755 -0.13224164 -0.006264402
-0.11197787 0.019190518 0.031828824 0.013666101 -0.050623275 -0.058703475 -0.015081066 -0.17765066
-0.012986532 -0.020983038 -0.05396844 -0.011572018 -0.03488015 0.02757596 -0.02614351 -0.008314441
-0.03290432 -0.01651864 -0.0712399 -0.06662404 -0.02017133 -0.057402603 0.0020445923 -0.085500754
-0.017623685 -0.02119401 -0.044124443 -0.031406343 -0.09119021 -0.03463765 -0.017278913 -0.049148723
0.009436682 -0.10909013 -0.06363309 0.06925965 -0.02196243 -0.0054198615 0.01629729 -0.033935186
-0.07911742 -0.040393375 -0.06454877 -0.0103336945 0.025532113 0.04484014 -0.076440625 0.18268703
-0.01998921 0.0063425223 0.82180655 -0.14170602 -0.043371208 -0.04589854 0.0060797646 0.1046185
0.0006820604 -0.08115098 -0.04457208 0.22161981 -0.09081524 0.23309143 -0.011276277 -0.041215524
0.004979529 -0.053068545 0.049649216 0.07473701 0.18015395 -0.047708172 0.004064456 0.42942628
-0.02522371 -0.04026686 -0.046689924 -0.06567413 -0.047650903 0.086780585 0.023014013 -0.07713794
-0.031085385 0.49773216 -0.08104317 -0.044220056 -0.042452984 -0.035679743 -0.0020071052 -0.0218729
0.52082664 -0.026975466 -0.06744534 0.38667697 0.0022926417 -0.058626927 -0.004455581 -0.059587054
-0.0077210534 -0.0586558 -0.022594027 -0.021231556 0.27467266 0.056322273 -0.0077940417 0.053132053
-0.036116123 0.56929594 -0.11503668 -0.04095251 -0.058152273 -0.091596246 -0.06639617 0.012083127
0.5102623 -0.103654884 -0.082704686 -0.0837635 0.5800678 -0.0541978 0.005187201 0.02787892
-0.121908836 -0.03371041 -0.08829949 -0.098762184 -0.026072003 -0.010676389 0.18006122 0.5523741
0.20583257 -0.09723577 0.005216331 0.029800177 -0.08231854 0.03524857 0.07834647 -0.090359166
-0.018717572 -0.0543484 -0.033634495 -0.01709708 -0.057268817 -0.032885596 -0.029286098 0.17613935
-0.056914777 -0.015257661 0.038970165 -0.047782395 -0.053659074 -0.027563721 -0.0062646638 -0.002712273
-0.021108024 -0.028938882 -0.038729183 -0.0458845 -0.033774037 -0.07158631 -0.0415394 -0.07196813
-0.02198816 -0.08469928 -0.021690445 0.033497646 -0.03850939 0.003137752 0.011202727 0.06499931
-0.015303261 -0.019674873 -0.056921024 -0.014204574 -0.038928725 0.027054457 -0.021941457 -0.013653873
-0.031445015 -0.019636298 -0.073470786 -0.0676921 -0.018812954 -0.05481265 0.002756615 -0.08673919
-0.021114403 -0.023481855 -0.046181362 -0.029705122 -0.094111726 -0.036774077 -0.013836191 -0.0448586
0.0101307295 -0.11314132 -0.063728504 0.0708673 -0.021352895 -0.004961617 0.012607147 -0.042072218
00000000: a14f f1bd 454e f2bd 6a50 4a3e c8d6 bf3d
00000010: aee3 d6bd 0f23 ff3c 1e94 913e 8c53 dabd
00000020: a0bf dfbd 3707 40bd 862e acbd 3ba6 75be
00000030: 2620 f3bd f444 a7bd 6679 ea3a 936f a7bd
00000040: 2246 46bd c96e e9bd bd54 48be 69f0 52bd
00000050: e4a7 1b3b 48c3 b6bd 8ccb 523d d9c3 b5bd
00000060: 1829 c0bc de1d 02be 3ab5 a0bd 9878 08bd
00000070: d51d 9cbd a8c1 873d 5538 fabc d239 93bd
00000080: d0b4 02be 8a13 16be 91c2 ec3e 13e4 24bc
00000090: 788f debc d99d c2bd 2af2 4fbd 7bf8 f0bd
000000a0: 76a4 e4bd a90f 0fbd 9d0c 25be eb2c 043e
000000b0: 56ed 02be eca0 34bd cf3a 8fbc 7f80 c33d
000000c0: 6645 12bd 19c0 03be 889c 823d 8246 a2bd
000000d0: 4fbc e0bd f8a1 03be 5a6a 07be 9d45 cdbb
000000e0: a754 e5bd 6f35 9d3c f15e 023d c8e7 5f3c
000000f0: 5a5a 4fbd 0e73 70bd 9316 77bc 0eea 35be
00000100: 77c5 54bc 9fe4 abbc 030e 5dbd 9098 3dbc
00000110: 7dde 0ebd fbe6 e13c ea2a d6bc 4b39 08bc
00000120: aec6 06bd 1952 87bc 3ae6 91bd 2f72 88bd
00000130: 583e a5bc fe1e 6bbd 91fe 053b 051b afbd
00000140: 8c5f 90bc 0f9f adbc d5bb 34bd f0a3 00bd
00000150: efc1 babd 35e0 0dbd 828c 8dbc 2c50 49bd
00000160: 509c 1a3c a56a dfbd 1152 82bd 01d8 8d3d
00000170: 8eea b3bc 1899 b1bb e581 853c 9fff 0abd
00000180: 5008 a2bd 8673 25bd 2532 84bd a84e 29bc
00000190: b928 d13c 4baa 373d e78c 9cbd 4f12 3b3e
000001a0: 69c0 a3bc efd4 cf3b ea61 523f 621b 11be
000001b0: 02a6 31bd 1c00 3cbd c338 c73b 3942 d63d
000001c0: 4ccc 323a 7c32 a6bd 3791 36bd 4ef0 623e
000001d0: 57fd b9bd 85af 6e3e 22c0 38bc 9cd1 28bd
000001e0: 512b a33b 675e 59bd fa5c 4b3d b80f 993d
000001f0: 477a 383e a569 43bd 212f 853b c3dd db3e
00000200: f4a1 cebc ddee 24bd ef3d 3fbd 2980 86bd
00000210: 982d 43bd 05ba b13d e287 bc3c 7ffa 9dbd
00000220: c7a6 febc c0d6 fe3e f6f9 a5bd 1720 35bd
00000230: 2ee3 2dbd ec24 12bd a389 03bb cc2e b3bc
00000240: e554 053f a7fb dcbc c820 8abd 86fa c53e
00000250: 2540 163b ca22 70bd 1f00 92bb 8e11 74bd
00000260: e400 fdbb 1041 70bd 1c17 b9bc cded adbc
00000270: e5a1 8c3e 2fb2 663d 2965 ffbb ffa0 593d
00000280: 80ee 13bd 61bd 113f 5a98 ebbd d2bd 27bd
00000290: 1431 6ebd d096 bbbd b7fa 87bd 4ff8 453c
000002a0: 8da0 023f 0349 d4bd 1361 a9bd 338c abbd
000002b0: 537f 143f 83fe 5dbd 65f9 a93b 5562 e43c
000002c0: 57ab f9bd ed13 0abd 5dd6 b4bd d443 cabd
000002d0: f494 d5bc 05ec 2ebc f861 383e 6468 0d3f
000002e0: c6c5 523e 8c23 c7bd c2ed aa3b 801f f43c
000002f0: 9f96 a8bd ce60 103d 1d74 a03d 3a0e b9bd
00000300: 9855 99bc 6e9c 5ebd 53c4 09bd 2d0f 8cbc
00000310: b592 6abd 0cb3 06bd 66e9 efbc e05d 343e
00000320: 781f 69bd 45fb 79bc 2e9f 1f3d 79b7 43bd
00000330: 9ec9 5bbd 50cd e1bc cf47 cdbb 64c0 31bb
00000340: bcea acbc 3c11 edbc 7ea2 1ebd 63f1 3bbd
00000350: a556 0abd d89b 92bd 3825 2abd 0764 93bd
00000360: 8420 b4bc d176 adbd 29b0 b1bc d434 093d
00000370: 06bc 1dbd bea2 4d3b a58b 373c 5c1e 853d
00000380: 87ba 7abc 332d a1bc 0526 69bd 4dba 68bc
00000390: ba73 1fbd 4fa1 dd3c 92be b3bc 7eb4 5fbc
000003a0: 7dcc 00bd 4ddc a0bc da77 96bd 28a2 8abd
000003b0: a01d 9abc 3b83 60bd 53a8 343b 51a4 b1bd
000003c0: 1df8 acbc 055d c0bc ab28 3dbd 2858 f3bc
000003d0: a6bd c0bd 6aa0 16bd 31b1 62bc a7bd 37bd
000003e0: 5cfb 253c a3b6 e7bd 1784 82bd e022 913d
000003f0: 44ec aebc 0f95 a2bb 358e 4e3c eb53 2cbd
