trained_weights/trace/lword2vec_gnn_trace8_E3.pth (torch, 12759 bytes, 6 tensors)

conv1.lin_l.weight f4 [32, 30]
0.05008177 0.04391729 0.066727385 0.0009350245 0.05120866 0.07150943 0.1196521 0.18754356
0.09613969 0.006717544 0.10298384 -0.22490136 0.07117904 -0.10443575 -0.06855161 0.12551552
-0.08805476 -0.07975201 0.17260651 0.0035984924 0.03424962 -0.054857314 0.11258172 -0.06593192
-0.20344402 0.06745402 0.07209898 -0.06677143 -0.13362037 -0.08030963 0.05740312 0.040417347
-0.08858804 0.022348039 0.018526055 -0.069532976 0.005205122 -0.09417913 -0.11868797 -0.066396
0.0071727335 0.03247764 -0.025951058 0.051165305 0.07482779 -0.107675724 -0.07853584 0.0031370327
0.00056758174 -0.15260863 -0.10083053 -0.0041530416 -0.09416876 -0.127206 0.11146978 -0.14527407
-0.010367579 0.039151944 0.014142521 -0.09439067 -0.05602894 -0.012712454 -0.010749937 0.016825967
0.12810852 -0.043469205 0.083976515 0.071963795 -0.12329308 -0.06317 -0.033154782 -0.04412468
-0.05470394 -0.023312712 -0.07963544 0.085102655 -0.013894075 -0.027455183 -0.054953564 0.16327417
-0.07988497 0.0702301 0.023112405 0.028610956 0.037412964 0.09965343 -0.0451033 0.033797394
0.06580648 -0.04552564 -0.015840296 -0.09386082 0.092135526 0.1753111 0.2798695 0.118271634
0.05711979 0.0075685577 -0.03863767 0.0015779776 -0.013876386 -0.07674761 0.06414708 0.14733589
-0.03400987 -0.050342977 -0.1680775 -0.01464642 -0.041078277 0.045025516 0.031768963 0.01952764
0.13600592 0.043087598 0.011516079 0.03321811 0.073338985 -0.0032097707 -0.03141518 -0.023308506
-0.029513182 0.04776507 0.008013184 -0.010883595 0.13224007 0.1484229 0.12124787 0.083578445
-0.21105267 0.08424324 0.14435685 -0.09415001 0.1018064 -0.09406846 0.047497656 0.10996852
-0.06508257 0.057710025 0.044105906 0.13715759 0.16916627 0.15627807 0.13483144 0.082686976
-0.0747731 0.18476085 0.08027317 0.17916816 -0.04597655 0.04400139 -0.042296983 -0.019621234
0.016260687 0.042396817 0.086310714 0.021017436 -0.0133397775 -0.1082111 0.033135444 0.049856964
0.07821526 -0.028894385 0.06823784 0.058125023 0.03469722 0.023677116 -0.018531708 0.052867856
-0.1153189 0.013169649 -0.03158354 0.024123553 0.023949321 -0.050369423 0.04023878 0.08359554
-0.012227478 0.055245094 -0.016256863 0.03598565 -0.01110116 -0.01622488 0.015910985 0.017124986
0.038833644 0.010495282 -0.00061975233 0.008361029 -0.0063026096 0.0015097308 -0.021436643 0.0077121877
-0.009564384 0.020140203 -0.0077668787 -0.0045109806 -0.011820459 -0.007462457 0.0056062713 0.008565789
0.017634576 0.005721806 0.015092123 0.022128675 0.0016743925 0.008970377 0.0041297413 -0.0020773674
0.008517039 -0.0022296056 0.00028937886 -0.02830084 -0.03034511 0.06560909 0.08572042 0.010303716
0.00864343 -0.105748944 -0.056613065 -0.06982983 -0.07302847 -0.040554874 0.10254128 0.07973271
-0.0017720883 -0.08587534 -0.07131431 -0.043815773 -0.11949829 -0.085459866 -0.0024635335 0.071878426
-0.02631932 -0.01880327 0.08624775 -0.0984157 0.0629059 -0.027858978 -0.0726784 -0.06880826
0.09294318 0.07568919 -0.10688633 -0.022137461 -0.025331853 -0.09141169 -0.009165035 -0.09493089
-0.084649324 -0.04931334 0.035869446 0.019515222 -0.013369874 0.011614431 0.068148546 -0.04404769
00000000: 8b22 4d3d 9ee2 333d 5ea8 883d 6f1c 753a
00000010: 2cc0 513d 8973 923d 290c f53d 6b0b 403e
00000020: e3e4 c43d d81e dc3b 31e9 d23d 8b4c 66be
00000030: 51c6 913d 69e2 d5bd c964 8cbd 2487 003e
00000040: 0e56 b4bd 0655 a3bd c3bf 303e afd4 6b3b
00000050: 5449 0c3d 10b2 60bd 3f91 e63d 5107 87bd
00000060: a153 50be 5525 8a3d a1a8 933d 76bf 88bd
00000070: c7d3 08be 6079 a4bd 891f 6b3d a98c 253d
00000080: a56d b5bd 3c13 b73c f4c3 973c 4e67 8ebd
00000090: ba8f aa3b fde0 c0bd ae12 f3bd a0fa 87bd
000000a0: 4009 eb3b 4607 053d 5097 d4bc b692 513d
000000b0: 503f 993d 1785 dcbd 66d7 a0bd ad96 4d3b
000000c0: c4c9 143a 7045 1cbe 3d80 cebd 3d16 88bb
000000d0: 8ddb c0bd 4a42 02be 454a e43d bac2 14be
000000e0: c7dc 29bc ca5d 203d 08b6 673c e54f c1bd
000000f0: 9a7e 65bd e647 50bc 8120 30bc 9cd6 893c
00000100: e12e 033e c40c 32bd e1fb ab3d c161 933d
00000110: 1581 fcbd 465f 81bd 4fcd 07bd 15bc 34bd
00000120: 3d11 60bd 4dfa bebc e817 a3bd 4d4a ae3d
00000130: f9a3 63bc b1e9 e0bc fd16 61bd 5831 273e
00000140: bb9a a3bd ccd4 8f3d 3a56 bd3c 8661 ea3c
00000150: 563e 193d 1917 cc3d 3dbe 38bd 236f 0a3d
00000160: 8cc5 863d 1879 3abd 82c3 81bc 1a3a c0bd
00000170: 8db1 bc3d c184 333e 0e4b 8f3e 6638 f23d
00000180: 71f6 693d aa01 f83b 8942 1ebd 24d4 ce3a
00000190: c859 63bc da2d 9dbd 8b5f 833d 38df 163e
000001a0: ef4d 0bbd 7034 4ebd 821c 2cbe 8af7 6fbc
000001b0: b241 28bd ad6c 383d 2c20 023d 6ef8 9f3c
000001c0: 2345 0b3e 9f7c 303d f0ad 3c3c b70f 083d
000001d0: c032 963d 045b 52bb 34ad 00bd 7bf1 bebc
000001e0: a1c5 f1bc 4ea5 433d bb49 033c 1b51 32bc
000001f0: f169 073e 2cfc 173e ce50 f83d 2d2b ab3d
00000200: 311e 58be b887 ac3d 48d2 133e b8d1 c0bd
00000210: e07f d03d f7a6 c0bd e78c 423d 2d37 e13d
00000220: 034a 85bd 5961 6c3d 65a8 343d 0a73 0c3e
00000230: ec39 2d3e 5c07 203e 4111 0a3e ca57 a93d
00000240: a422 99bd f331 3d3e 4266 a43d dc77 373e
00000250: e851 3cbd cd3a 343d 9a3f 2dbd b6bc a0bc
00000260: 2235 853c 49a8 2d3d acc3 b03d c22c ac3c
00000270: 158f 5abc c89d ddbd 08b9 073d d136 4c3d
00000280: 522f a03d ebb3 ecbc 48c0 8b3d 8114 6e3d
00000290: ac1e 0e3d 83f6 c13c cfcf 97bc f78b 583d
000002a0: 512c ecbd 83c5 573c be5d 01bd c29e c53c
000002b0: 5e31 c43c 2b50 4ebd 6bd1 243d 2334 ab3d
000002c0: c355 48bc ae48 623d 1d2d 85bc b065 133d
000002d0: a4e1 35bc 0aea 84bc c157 823c b349 8c3c
000002e0: 0710 1f3d 67f4 2b3c e076 22ba b3fc 083c
000002f0: 1f86 cebb 29e2 c53a e69b afbc 85b6 fc3b
00000300: efb3 1cbc 11fd a43c 4d81 febb d9d0 93bb
00000310: 99aa 41bc a087 f4bb d0b4 b73b 8657 0c3c
00000320: 6376 903c fd7d bb3b f444 773c 3247 b53c
00000330: 4a77 db3a 7df8 123c c852 873b 7124 08bb
00000340: 0d8b 0b3c 931e 12bb c6b7 9739 2ad7 e7bc
00000350: 4f96 f8bc 0f5e 863d 308e af3d ebd0 283c
00000360: 2c9d 0d3c e792 d8bd 1ae3 67bd f102 8fbd
00000370: f38f 95bd de1c 26bd 2a01 d23d e74a a33d
00000380: 6b45 e8ba 69df afbd 3d0d 92bd 2b78 33bd
00000390: 85bb f4bd 9505 afbd 3c73 21bb ff34 933d
000003a0: 9d9b d7bc 5109 9abc a9a2 b03d 2c8e c9bd
000003b0: cfd4 803d 8338 e4bc 6ad8 94bd 58eb 8cbd
000003c0: fe58 be3d ef02 9b3d 38e7 dabd 9f59 b5bc
000003d0: bf84 cfbc 0d36 bbbd f128 16bc 206b c2bd
000003e0: a05c adbd c9fc 49bd d7eb 123d 63de 9f3c
000003f0: 510d 5bbc 744a 3e3c 7791 8b3d 5a6b 34bd

conv1.lin_l.bias f4 [32]
-0.0471556 -0.07117047 -0.055257365 0.008927316 -0.023082979 0.07723293 0.0062222173 -0.05887968
-0.04672259 0.031635974 0.1739722 -0.00822995 -0.06315157 -0.068545006 0.0012703902 -0.08434614
0.067886494 -0.038030595 0.0075902767 0.045878597 0.03198356 -0.020291569 0.012316533 -0.0602328
-0.020379892 0.015414782 -0.064428546 0.0011594725 0.060900226 -0.053438462 0.0050894767 0.07921269
00000000: 3b26 41bd d3c1 91bd 8c55 62bd e143 123c
00000010: 8418 bdbc 4c2c 9e3d bee3 cb3b d22b 71bd
00000020: 3060 3fbd b994 013d c525 323e ead6 06bc
00000030: 9c55 81bd 5361 8cbd 3983 a63a abbd acbd
00000040: 1308 8b3d f8c5 1bbd dbb7 f83b 32eb 3b3d
00000050: 3201 033d 813a a6bc 49cb 493c abb6 76bd
00000060: bbf3 a6bc 488e 7c3c 1df3 83bd 71f9 973a
00000070: 8472 793d 4ae2 5abd a0c5 a63b 433a a23d

conv1.lin_r.weight f4 [32, 30]
0.09314042 0.09569775 0.09693326 0.113952905 0.13057144 0.13075747 0.15913308 0.23434417
0.041829925 -0.009392951 -0.0013168122 -0.21506454 -0.037592653 0.00944351 -0.09540632 0.092924744
-0.1328053 -0.054569304 0.0870361 0.012840674 0.030992396 0.018401032 0.07881222 0.005103693
-0.18136267 -0.016512932 0.09433207 -0.10471081 -0.16560547 -0.089444354 0.08952404 0.17111899
-0.2480113 -0.1836624 -0.31204286 -0.18929471 -0.020079674 -0.2114093 -0.21314822 -0.07068499
-0.020762922 0.06120992 -0.032812458 -0.09450418 0.18542977 -0.056106105 0.05366191 0.07134979
-0.10462609 -0.15296075 -0.15459004 0.026838006 -0.3057373 -0.1526346 0.20689641 -0.17807713
-0.1575378 0.12293579 0.06834506 -0.06743952 -0.173462 -0.05013877 0.035277948 0.04742712
0.025865937 0.12291918 -0.1281282 0.22201239 -0.107185945 -0.029056894 -0.09770587 0.13411315
-0.31089798 -0.13040794 -0.16259366 0.0031845625 0.1630836 -0.17698525 0.116835766 0.36774343
0.198765 -0.047728717 0.20366666 0.07424457 -0.020894594 0.1395076 0.15427114 -0.01551096
0.24867977 0.112350546 -0.011772182 0.005908158 0.0048333276 -0.0076390062 -0.0016106394 0.012303191
0.00967254 0.0013097115 0.044218212 0.0098252585 0.11743763 -0.02102591 0.06279014 -0.073212884
0.010334714 0.031011032 -0.0009616235 0.012306671 0.068471834 0.012893829 0.05876467 0.014478914
-0.0042313905 0.0047584064 -0.11395633 -0.0034680474 0.0029522553 -0.014955399 -0.023865025 -0.0132961795
0.014472594 -0.001977056 0.021066384 -0.015307206 -0.016073063 0.0774654 0.1788495 0.021965206
-0.013284923 0.019349251 0.31367847 -0.09000147 0.1307189 -0.14966238 0.03654392 -0.10441277
-0.0364053 -0.075482704 0.28685397 -0.16986443 0.16705218 -0.065115035 -0.07920691 -0.027189268
-0.20106676 -0.0008344387 0.06790894 -0.059647914 -0.08118343 0.030908613 -0.040943444 -0.017363898
0.025526257 0.007042851 0.025330087 0.036706552 0.0233003 -0.05056604 0.07999196 0.10603443
0.08919882 0.035758283 0.099361196 0.037438102 0.044539336 0.043187313 0.027901927 0.07546412
-0.056308724 0.062163766 -0.024416862 0.06411919 -0.003785534 0.016327038 -0.0058328058 0.10923726
-0.016686603 0.092735715 -0.012613356 0.10255971 -0.01603883 -0.011595887 0.01612978 -0.00195832
-0.010365245 -0.00082140474 -0.018597145 0.004443478 0.026653748 0.0048424676 -0.010816513 0.00793465
-0.037600722 0.0012949295 -0.0032752552 -0.010297605 0.009408816 -0.013284997 0.024008267 0.008083856
0.012144512 -0.050072826 0.014048342 0.008901623 -0.0046506952 0.0102535775 0.0068058386 -0.0037128981
0.026918096 0.022589589 0.044684254 -0.022542426 -0.0055458844 0.08992677 0.096184015 -0.039377596
0.055045683 -0.10116473 -0.09085735 -0.074701905 -0.06227822 -0.07564592 0.19781451 0.099491134
0.028662197 -0.06786064 -0.08969849 -0.010739582 -0.21326238 -0.094948985 -0.010250532 0.15178204
-0.08980031 0.016778672 0.091356434 -0.0859206 -0.020027585 -0.037742093 -0.13618968 -0.13041876
0.08870283 0.109294504 -0.12944888 -0.10484016 -0.17596927 -0.11738935 0.028276797 -0.11658415
-0.08328649 -0.060904376 -0.02418805 -0.014872175 0.024234317 -0.046393685 0.0991939 -0.051653657
00000000: 68c0 be3d 2ffd c33d f284 c63d 2460 e93d
00000010: 85b4 053e 49e5 053e c8f3 223e ebf7 6f3e
00000020: db55 2b3d e4e4 19bc e398 acba e139 5cbe
00000030: c1fa 19bd f4b8 1a3c 6464 c3bd 544f be3d
00000040: 1dfe 07be 1084 5fbd fc3f b23d b161 523c
00000050: c4e3 fd3c c3bd 963c 4d68 a13d e13c a73b
00000060: 23b7 39be 2146 87bc 2c31 c13d 9f72 d6bd
00000070: 7b94 29be 9a2e b7bd 6158 b73d d139 2f3e
00000080: adf6 7dbe ff11 3cbe 15c4 9fbe 79d6 41be
00000090: 217e a4bc ae7b 58be 8743 5abe 4bc3 90bd
000000a0: 0117 aabc 41b7 7a3d 5b66 06bd 688b c1bd
000000b0: 4de1 3d3e 84cf 65bd 97cc 5b3d d71f 923d
000000c0: 3446 d6bd bea1 1cbe da4c 1ebe 61db db3c
000000d0: 9989 9cbe 3f4c 1cbe a7dc 533e da59 36be
000000e0: 9751 21be c2c5 fb3d 7ff8 8b3d bb1d 8abd
000000f0: 06a0 31be 505e 4dbd 9c7f 103d f142 423d
00000100: cde4 d33c 0dbd fb3d 0a34 03be 3757 633e
00000110: 4e84 dbbd b908 eebc 041a c8bd f554 093e
00000120: 052e 9fbe a989 05be f47e 26be 18b4 503b
00000130: 63ff 263e 9f3b 35be 9747 ef3d de48 bc3e
00000140: 0d89 4b3e 307f 43bd fe8d 503e 8a0d 983d
00000150: 242b abbc 15db 0e3e 41f9 1d3e ae21 7ebc
00000160: e9a5 7e3e 0b18 e63d 1ce0 40bc 3999 c13b
00000170: e460 9e3b a150 fabb 171c d3ba 5393 493c
00000180: 9379 1e3c a0aa ab3a 281e 353d 1ffa 203c
00000190: 2483 f03d 873e acbc 1e98 803d a3f0 95bd
000001a0: ef52 293c d90a fe3c 7615 7cba eba1 493c
000001b0: f63a 8c3d a340 533c 39b3 703d f838 6d3c
000001c0: 7aa7 8abb 68ec 9b3b f061 e9bd 2e48 63bb
000001d0: a07a 413b 7d07 75bc 9680 c3bc 38d8 59bc
000001e0: 751e 6d3c 7f91 01bb 6993 ac3c 13cb 7abc
000001f0: a8ab 83bc 2ea6 9e3d 5324 373e 60f0 b33c
00000200: 01a9 59bc 5282 9e3c 779a a03e b152 b8bd
00000210: 2ddb 053e 1841 19be 14af 153d 5dd6 d5bd
00000220: b91d 15bd ad96 9abd 86de 923e f1f0 2dbe
00000230: ba0f 2b3e 085b 85bd 3c37 a2bd 07bc debc
00000240: 72e4 4dbe 3cbe 5aba d813 8b3d 5f51 74bd
00000250: 8043 a6bd 0f34 fd3c 50b4 27bd bc3e 8ebc
00000260: 711c d13c b7c7 e63b 0b81 cf3c 9c59 163d
00000270: 45e0 be3c 561e 4fbd d3d2 a33d 9428 d93d
00000280: dfad b63d 4777 123d e27d cb3d b258 193d
00000290: e16e 363d 2ee5 303d 9592 e43c ef8c 9a3d
000002a0: faa3 66bd 6f9f 7e3d df05 c8bc ec50 833d
000002b0: b916 78bb 48c0 853c 1f21 bfbb c9b7 df3d
000002c0: 58b2 88bc 39ec bd3d 40a8 4ebc d30a d23d
000002d0: dd63 83bc adfc 3dbc 9a22 843c 2857 00bb
000002e0: fdd2 29bc 8a53 57ba 0a59 98bc 989a 913b
000002f0: f658 da3c 90ad 9e3b be37 31bc 5600 023c
00000300: 3703 1abd a0ba a93a aaa5 56bb 49b7 28bc
00000310: 6f27 1a3c 51a9 59bc fcac c43c 2672 043c
00000320: c6f9 463c 2a19 4dbd 042b 663c 1dd8 113c
00000330: dc64 98bb 9ffe 273c 8303 df3b 1854 73bb
00000340: 5783 dc3c cd0d b93c d606 373d e5aa b8bc
00000350: 40ba b5bb 872b b83d 20fc c43d 674a 21bd
00000360: 9577 613d 742f cfbd 6b13 babd 50fd 98bd
00000370: 7217 7fbd 40ec 9abd e38f 4a3e 02c2 cb3d
00000380: fccc ea3c 85fa 8abd d8b3 b7bd 12f5 2fbc
00000390: 7461 5abe 9d74 c2bd d9f1 27bc c06c 1b3e
000003a0: 3ae9 b7bd 6d73 893c 1519 bb3d 24f7 afbd
000003b0: e410 a4bc 7497 1abd 4f75 0bbe 7f8c 05be
000003c0: d4a9 b53d ccd5 df3d 3f8e 04be 70b6 d6bd
000003d0: 4a31 34be d469 f0bd bea4 e73c acc3 eebd
000003e0: 1b92 aabd de76 79bd 0426 c6bc 6caa 73bc
000003f0: 0c87 c63c 4e07 3ebd 2c26 cb3d c992 53bd

conv2.lin_l.weight f4 [11, 32]
-0.07437243 -0.13040869 0.5653266 -0.009339333 -0.1394642 0.024333728 0.015342097 0.08292536
-0.08535248 -0.035279892 -0.099124126 -0.0154834865 -0.10709503 -0.112046696 -0.012574344 -0.085534394
-0.06667443 -0.13811493 -0.057125784 0.02501352 -0.13307908 -0.021782855 -0.09121746 -0.16042675
-0.06472857 -0.016066711 -0.05000457 0.0063720574 0.018655153 0.009293618 -0.037953597 -0.019807646
0.017412145 0.00014235076 -0.14861502 -0.03241542 0.084672704 -0.012244292 -0.0029692603 -0.027238443
0.032971147 -0.016170327 0.04220364 -0.004793551 0.010977349 0.03266136 -0.010895146 0.101428136
-0.028957129 0.06392631 -0.019211197 -0.09799792 -0.0018696133 0.060761802 0.023997517 0.17192434
-0.038584903 -0.03706274 0.007061128 -0.0198532 -0.018262248 -0.11105809 0.022485502 0.011683586
-0.021827957 -0.10218993 -0.054582078 -0.03398803 -0.09325282 -0.011006308 -0.019778086 0.0046471884
0.029976021 -0.0015550397 -0.022043863 -0.018523116 -0.03762098 -0.042451996 -4.4972097e-05 -0.06770891
0.021406049 -0.056448612 -0.013605682 -0.01207066 -0.02601122 -0.016265435 -0.00233659 0.02500347
0.01286328 -0.004342255 -0.05718952 -0.017190646 -0.014408574 0.011834425 -0.018837057 -0.06732517
0.020754997 -0.017620813 -0.02153087 -0.027818605 0.05286028 0.032342926 0.026142696 -0.10184681
-0.057320755 0.003354305 0.37388256 -0.009066774 -0.0600105 0.021946957 0.008407806 0.10346383
-0.018165128 0.06483243 -0.027865333 0.30979636 -0.0104035605 -0.002980963 0.0073448545 -0.021296874
-0.061519276 0.0045832847 0.15532151 -0.014629544 0.06488013 -0.2444719 0.009286081 -0.017161807
-0.012830818 -0.04271895 -0.05908166 -0.036714148 -0.024048071 -0.00062212226 0.0022314324 0.0033690594
-0.029986776 0.22628959 -0.11007542 0.00024333049 -0.068641365 0.010327932 -0.0070009567 -0.038111966
0.40609834 -0.016330754 -0.036671482 0.04821286 -0.042516094 0.03661181 -0.017515577 0.013953878
0.048432678 -0.03520085 -0.023167256 -0.012464144 -0.00084978243 0.14662516 -0.05377479 0.15612006
-0.01834108 0.6475008 -0.10102256 -0.04336248 -0.053838447 -0.0032901645 0.013694639 -0.005171449
0.41483337 0.009137689 -0.043206137 -0.022188457 0.43449745 -0.031696856 0.0041796383 -0.0026740395
-0.09147169 -0.038370725 -0.040187933 -0.04020142 0.44686702 0.0053467765 0.3945909 -0.04533982
0.2940024 -0.023056349 -0.0067017097 0.03760637 -0.02255725 0.11436707 -0.020904617 -0.09436851
-0.01550601 -0.006731324 0.05713355 -0.02524374 0.028060712 -0.010731106 0.011950461 -0.030593636
-0.06496945 -0.04126514 -0.09762204 -0.010914109 -0.06521665 -0.020072283 -0.00032874217 -0.0116725685
0.017120814 -0.10132087 -0.02485033 0.017173668 0.0152198365 0.0013493571 -0.046518728 -0.04499441
-0.06649453 -0.031639583 0.0069487146 0.005287375 -0.0065305107 0.04652531 -0.023044242 -0.09960071
-0.019644905 -0.10382627 -0.06615609 -0.026464643 -0.08318809 -0.009497019 -0.017592546 0.014063779
0.018821605 -0.0029746792 -0.024291107 -0.018874262 -0.040203013 -0.040624086 -0.00014572954 -0.066767275
0.014173683 -0.06161699 -0.016422795 -0.0028060945 -0.021556254 -0.014471456 -0.0037757356 0.018692922
0.005508796 -0.0033313103 -0.053878233 -0.013449372 -0.014233159 0.029038081 -0.018707328 -0.060581077
00000000: 9350 98bd db89 05be 3eb9 103f 0004 19bc
00000010: b4cf 0ebe 8757 c73c 6b5d 7b3c c5d4 a93d
00000020: 48cd aebd a681 10bd 9701 cbbd 73ae 7dbc
00000030: a454 dbbd bd78 e5bd 9f04 4ebc a82c afbd
00000040: 9b8c 88bd 006e 0dbe bafc 69bd 27e9 cc3c
00000050: e245 08be f571 b2bc 38d0 babd e946 24be
00000060: 6a90 84bd 569e 83bc 98d1 4cbd b1cc d03b
00000070: b1d2 983c 4244 183c 3b75 1bbd a543 a2bc
00000080: eaa3 8e3c fe43 1539 892e 18be 08c6 04bd
00000090: e268 ad3d 489c 48bc ec97 42bb 2823 dfbc
000000a0: c10c 073d a277 84bc b9dd 2c3d 3813 9dbb
000000b0: 57da 333c ebc7 053d 8e81 32bc 8eb9 cf3d
000000c0: 8037 edbc cceb 823d cd60 9dbc 22b3 c8bd
000000d0: d00d f5ba 5ee1 783d 7196 c43c ef0c 303e
000000e0: 340b 1ebd 1acf 17bd 0961 e73b 2ea3 a2bc
000000f0: b69a 95bc 6d72 e3bd 8433 b83c 836c 3f3c
00000100: 8bd0 b2bc f448 d1bd 7591 5fbd 0837 0bbd
00000110: 56fb bebd cd53 34bc a705 a2bc 7147 983b
00000120: 4690 f53c 79d2 cbba 5595 b4bc cabd 97bc
00000130: 7518 1abd 25e2 2dbd 6ca0 3cb8 f8aa 8abd
00000140: bd5b af3c a936 67bd 5eea 5ebc 04c4 45bc
00000150: 7b15 d5bc 173f 85bc 7a21 19bb 14d4 cc3c
00000160: 82c0 523c 7a49 8ebb 8f3f 6abd 66d3 8cbc
00000170: f111 6cbc 2de5 413c 2c50 9abc c7e1 89bd
00000180: 6206 aa3c 8659 90bc 8261 b0bc d8e3 e3bc
00000190: 0584 583d 047a 043d 3529 d63c 0f95 d0bd
000001a0: 2bc9 6abd e6d3 5b3b 896d bf3e ce8c 14bc
000001b0: 92cd 75bd 1bca b33c e5c0 093c d8e4 d33d
000001c0: 09cf 94bc ddc6 843d d745 e4bc a19d 9e3e
000001d0: b273 2abc 435c 43bb 1bad f03b c876 aebc
000001e0: a3fb 7bbd 612f 963b 9a0c 1f3e c1b0 6fbc
000001f0: e0df 843d d756 7abe a624 183c eb96 8cbc
00000200: 5a38 52bc 11fa 2ebd 9cff 71bd 9361 16bd
00000210: 7600 c5bc eb15 23ba 393d 123b 70cb 5c3b
00000220: d4a6 f5bc 75b8 673e 396f e1bd 8826 7f39
00000230: d893 8cbd 7d36 293c 4868 e5bb 4b1b 1cbd
00000240: 1fec cf3e 13c8 85bc d634 16bd d97a 453d
00000250: 5b25 2ebd 44f6 153d d47c 8fbc ce9e 643c
00000260: 5861 463d c42e 10bd 42c9 bdbc 6936 4cbc
00000270: efc3 5eba e824 163e f442 5cbd f0dd 1f3e
00000280: 0840 96bc 9dc2 253f eae4 cebd db9c 31bd
00000290: b485 5cbd cd9f 57bb 7b5f 603c 4275 a9bb
000002a0: 0a65 d43e 3fb6 153c ebf8 30bd 91c4 b5bc
000002b0: 7376 de3e 90d4 01bd 59f5 883b f03e 2fbb
000002c0: 8255 bbbd 9f2a 1dbd 1a9c 24bd 3faa 24bd
000002d0: c1cb e43e 0334 af3b d207 ca3e 3fb6 39bd
000002e0: 7c87 963e abe0 bcbc 049a dbbb 2309 1a3d
000002f0: fbc9 b8bc 4839 ea3d 2940 abbc 4744 c1bd
00000300: eb0c 7ebc 7092 dcbb df04 6a3d f6cb cebc
00000310: 94df e53c 85d1 2fbc decb 433c 819f fabc
00000320: b40e 85bd a305 29bd 10ee c7bd 17d1 32bc
00000330: 4f90 85bd a16e a4bc 075b acb9 4d3e 3fbc
00000340: f340 8c3c 5181 cfbd eb92 cbbc cbaf 8c3c
00000350: 9f5c 793c e9dc b03a 6c8a 3ebd 0f4c 38bd
00000360: 492e 88bd 8298 01bd 0bb2 e33b b741 ad3b
00000370: e5fd d5bb 5391 3e3d 47c7 bcbc 75fb cbbd
00000380: 5aee a0bc dea2 d4bd d87c 87bd 61cc d8bc
00000390: 845e aabd 6399 1bbc 3e1e 90bc c46b 663c
000003a0: c42f 9a3c d6f2 42bb 25fe c6bc 329e 9abc
000003b0: eaab 24bd 7165 26bd face 18b9 48bd 88bd
000003c0: bc38 683c 1962 7cbd 1989 86bc 74e6 37bb
000003d0: be96 b0bc b019 6dbc 5572 77bb e621 993c
000003e0: 2183 b43b 1d52 5abb 6caf 5cbd c15a 5cbc
000003f0: 3232 69bc 45e1 ed3c 1c40 99bc dd23 78bd

conv2.lin_l.bias f4 [11]
0.08363259 0.027249737 -0.05663763 0.0553663 -0.020061353 0.023899738 0.0068398183 -0.055438075
-0.026849072 -0.06006499 -0.0044386643
00000000: 9047 ab3d d73a df3c dcfc 67bd c6c7 623d
00000010: b557 a4bc 62c9 c33c 8e20 e03b 0913 63bd
00000020: 96f2 dbbc b506 76bd 3772 91bb

conv2.lin_r.weight f4 [11, 32]
-0.1110213 -0.09922071 0.27933308 0.09880077 -0.0484597 -0.01723935 0.049315624 0.004016254
-0.06941955 -0.062089354 -0.17328459 -0.11639397 -0.110466376 -0.13667205 0.0035516934 -0.08183201
-0.06635706 -0.11460938 -0.054258924 -0.04635888 -0.025032528 0.084193 0.06624454 -0.16829278
0.06733923 -0.12698397 -0.088732265 0.0017717492 -0.07521685 0.10612508 -0.021671562 -0.02649638
0.040136896 -0.08618167 0.3556157 -0.005783749 0.07654843 -0.026935479 0.0023474088 -0.07334145
-0.13589233 -0.044148542 -0.11250168 0.03970946 -0.076357156 -0.0073292535 -0.0016385271 0.06648018
-0.044544794 0.0010488488 -0.019816466 -0.08248392 -0.010543495 -0.105418175 -0.023071768 -0.017570548
-0.032217585 -0.010467824 0.007016245 -0.0027625351 -0.04231549 -0.14332153 0.004742451 -0.022302613
-0.0632892 -0.0358869 -0.057854403 -0.021252733 -0.08652938 -0.031869933 -0.033182353 0.060055155
-0.05722261 -0.014842518 -0.08427351 -0.059907626 -0.00094388827 -0.072712064 -0.0019598105 -0.09286605
-0.017529294 -0.0707476 -0.06420068 -0.03474804 -0.0030334692 -0.08663253 0.0520348 -0.013295179
-0.006948997 -0.041359946 -0.0820821 -0.0008650169 -0.052940678 0.0004667915 -0.003289363 -0.07107715
0.07830623 -0.038311422 -0.07653666 -0.011515865 0.052478086 0.16837038 0.05686686 0.04731808
-0.1349967 -0.0127805695 0.6370809 0.093454644 -0.04012536 0.09956179 0.0063773906 0.062402617
-0.014127262 0.088450015 -0.06989561 0.11660414 -0.0528705 0.053978138 -0.0004741675 -0.017492931
0.008670141 -0.055066243 0.026306085 -0.0014719864 0.16739738 -0.21829636 0.01896501 0.17109606
-0.042412892 -0.026043804 -0.049963966 -0.08809168 -0.03391124 0.24090761 0.0028570038 -0.10549478
-0.06670308 0.53932565 -0.08867955 -0.036356494 -0.022135755 -0.036060937 -0.0002715711 -0.020893663
0.5608896 -0.03614917 -0.0059126904 0.4853502 -0.022514328 0.05161909 -0.012673657 -0.044524502
-0.00666722 -0.019349718 -0.027219016 -0.0024732754 0.36385205 0.113130644 -0.012997402 0.17088951
-0.02269549 0.5042306 -0.14011022 -0.055757478 -0.042668696 -0.08954468 -0.016770888 -0.037422452
0.39132467 -0.13424182 -0.075481065 -0.051976345 0.51990324 -0.049413513 0.0059917048 0.014027818
-0.15976743 -0.03984676 -0.03983422 -0.15739012 0.17519698 -0.09000404 0.09547785 0.5485224
0.14224306 -0.039744046 -0.010626374 0.033300094 -0.10425991 0.050225712 0.07677437 -0.092569135
-0.046937585 -0.03274272 -0.03578121 -0.02776366 -0.05959886 -0.051247157 -0.022612035 0.037154682
-0.04209253 -0.014461212 -0.0143850725 -0.0750503 -0.051586904 -0.011566804 -0.0012257252 -0.021040028
-0.026328303 -0.020788614 -0.005449732 -0.02403603 0.00039938893 0.03824495 -0.038783886 -0.06504621
-0.006816793 -0.033354465 -0.036308814 -0.0011822848 -0.05759015 0.013469135 -8.1795035e-05 -0.062161878
-0.0660952 -0.031760823 -0.06474445 -0.02406926 -0.08757976 -0.032704026 -0.026296327 0.07301961
-0.042749893 -0.020468084 -0.08594804 -0.06132201 -0.002858373 -0.07346856 -0.0021192536 -0.0944029
-0.023692524 -0.069790125 -0.05501225 -0.03737492 -0.0006245845 -0.07214379 0.042609774 -0.017158603
-0.005595053 -0.036742542 -0.082453996 -0.000760514 -0.054479945 -0.0012783156 -0.003526986 -0.069936514
00000000: 235f e3bd 3a34 cbbd bf04 8f3e 0f58 ca3d
00000010: ae7d 46bd 8a39 8dbc 2eff 493d c89a 833b
00000020: d62b 8ebd 6851 7ebd 8471 31be f65f eebd
00000030: 323c e2bd c2f3 0bbe 87c3 683b 8a97 a7bd
00000040: 36e6 87bd 53b8 eabd 9b3e 5ebd cfe2 3dbd
00000050: 0411 cdbc 616d ac3d 38ab 873d f154 2cbe
00000060: 26e9 893d 1608 02be 43b9 b5bd 0a3a e83a
00000070: 4b0b 9abd 1b58 d93d 8f88 b1bc f00e d9bc
00000080: 9666 243d 0480 b0bd 4313 b63e 9a85 bdbb
00000090: 6cc5 9c3d cba7 dcbc fcd6 193b 0b34 96bd
000000a0: 5c27 0bbe 1ad5 34bd 4867 e6bd 63a6 223d
000000b0: 2461 9cbd 3c2a f0bb d9c3 d6ba c326 883d
000000c0: 9a74 36bd 8779 893a 2456 a2bc 54ed a8bd
000000d0: a0be 2cbc 7ce5 d7bd 0101 bdbc 1cf0 8fbc
000000e0: 96f6 03bd 3c81 2bbc 87e8 e53b a60b 35bb
000000f0: 0253 2dbd e1c2 12be 9066 9b3b f8b3 b6bc
00000100: c59d 81bd 24fe 12bd bdf8 6cbd 361a aebc
00000110: 5136 b1bd 0c8a 02bd 38ea 07bd 65fc 753d
00000120: 4162 6abd 082e 73bc 9797 acbd b361 75bd
00000130: 456f 77ba 10ea 94bd 2a70 00bb 8e30 bebd
00000140: 9899 8fbc 1ee4 90bd a57b 83bd f653 0ebd
00000150: 2bcd 46bb 656c b1bd 7122 553d 06d4 59bc
00000160: 69b4 e3bb 0c69 29bd a91a a8bd 4dc2 62ba
00000170: 53d8 58bd b2bb f439 5b92 57bb e690 91bd
00000180: 045f a03d 70ec 1cbd 41bf 9cbd 0aad 3cbc
00000190: 43f3 563d 4969 2c3e 39ed 683d 9ad0 413d
000001a0: 933c 0abe 9865 51bc bc17 233f 2665 bf3d
000001b0: 7d5a 24bd 0de7 cb3d 6ef9 d03b e399 7f3d
000001c0: 0876 67bc 4825 b53d 6e25 8fbd 27ce ee3d
000001d0: bd8e 58bd 2e18 5d3d af99 f8b9 564d 8fbc
000001e0: 350d 0e3c 248d 61bd dc7f d73c abef c0ba
000001f0: 386a 2b3e 1589 5fbe 825c 9b3c ce33 2f3e
00000200: 24b9 2dbd d159 d5bc 04a7 4cbd 6969 b4bd
00000210: 83e6 0abd 7cb0 763e 923c 3b3b a60d d8bd
00000220: a09b 88bd 3f11 0a3f a09d b5bd 8cea 14bd
00000230: 0b56 b5bc a2b4 13bd a861 8eb9 3029 abbc
00000240: 7696 0f3f 2711 14bd 3ebf c1bb d27f f83e
00000250: f86f b8bc 8a6e 533d 2ca5 4fbc 535f 36bd
00000260: b278 dabb 4d83 9ebc 6afa debc ad16 22bb
00000270: d14a ba3e 0ab1 e73d 0ef3 54bc a9fd 2e3e
00000280: e4eb b9bc 4215 013f 0e79 0fbe f461 64bd
00000290: 5fc5 2ebd 3463 b7bd 1a63 89bc 4948 19bd
000002a0: b55b c83e b076 09be d195 9abd 26e5 54bd
000002b0: 6118 053f d365 4abd 1056 c43b efd4 653c
000002c0: 139a 23be 5b36 23bd 3529 23bd e02a 21be
000002d0: d666 333e 0a54 b8bd e489 c33d f76b 0c3f
000002e0: 2aa8 113e a7ca 22bd 3e1a 2ebc ae65 083d
000002f0: 3886 d5bd 7ab9 4d3d e23b 9d3d e394 bdbd
00000300: a041 40bd 3b1d 06bd 518f 12bd 9d70 e3bc
00000310: ef1d 74bd 8ae8 51bd e03c b9bc 822f 183d
00000320: 3769 2cbd b8ee 6cbc 5eaf 6bbc f9b3 99bd
00000330: ca4c 53bd b182 3dbc 83a8 a0ba 235c acbc
00000340: 74ae d7bc e24c aabc aa93 b2bb 35e7 c4bc
00000350: 1365 d139 bda6 1c3d dadb 1ebd f336 85bd
00000360: 675f dfbb b19e 08bd 8db8 14bd e5f6 9aba
00000370: a6e3 6bbd a6ad 5c3c 6089 abb8 749d 7ebd
00000380: ec5c 87bd a317 02bd bd98 84bd e62c c5bc
00000390: 045d b3bd a8f4 05bd 656b d7bc 4e8b 953d
000003a0: 831a 2fbd afac a7bc 8705 b0bd ca2c 7bbd
000003b0: 8b53 3bbb af76 96bd 2de3 0abb 4f56 c1bd
000003c0: d316 c2bc 20ee 8ebd 8654 61bd 7216 19bd
000003d0: 28bb 23ba 20c0 93bd 9687 2e3d 3390 8cbc
000003e0: b556 b7bb 597f 16bd a4dd a8bd 3b5d 47ba
000003f0: 5d26 5fbd 278d a7ba 0225 67bb e03a 8fbd
