trained_weights/trace/lword2vec_gnn_trace18_E3.pth (torch, 12759 bytes, 6 tensors)

conv1.lin_l.weight f4 [32, 30]
0	0xbcd83622	-0.026393
1	0xbd4ec721	-0.050482873
2	0x3ca13afd	0.019681448
3	0x3beda1d5	0.007251958
4	0x3d5cae91	0.053877417
5	0x3daa8fee	0.08328234
6	0x3da78e13	0.081813954
7	0x3d7245e0	0.05914867
8	0xbcbd2190	-0.023087293
9	0x3c414836	0.011797002
10	0xbca622f1	-0.020280333
11	0xbe480261	-0.19532157
12	0x3c6802e4	0.014160845
13	0xbd9764fa	-0.073923066
14	0xbda1b7fb	-0.078964196
15	0x3ba42308	0.005009059
16	0xbdcbc614	-0.0994989
17	0xbdf89ecc	-0.12139663
18	0xbd029fa8	-0.03189054
19	0xbb939693	-0.004504034
20	0x3defbe38	0.11706203
21	0xbe0935df	-0.13399456
22	0x3df272c9	0.118383
23	0xbd55d7c5	-0.052207727
24	0xbc8ae77f	-0.016956089
25	0x3d3a8a9d	0.04554235
26	0x3db965f0	0.09052646
27	0xbd560865	-0.0522541
28	0x3c640cff	0.013919114
29	0xbc901d9a	-0.01759224
30	0x3d7589ea	0.05994598
31	0x3d8c4477	0.06848996
32	0xbde1c74e	-0.110243425
33	0x3c7ebcce	0.015547944
34	0x3c3646fa	0.011125321
35	0xbd8a1549	-0.06742341
36	0x3c9e8638	0.01935111
37	0xbd9b5194	-0.07583919
38	0xbda6dc03	-0.08147433
39	0xbdb91e26	-0.090389535
40	0x3d1438f4	0.036187127
41	0x3c564868	0.013078786
42	0x3bbaa2da	0.005695683
43	0x3d0ec122	0.034852155
44	0x3ccf09df	0.025273262
45	0xbda1315b	-0.07870742
46	0xbd89bfc4	-0.067260295
47	0x3c5348ff	0.012895822
48	0xbc68b838	-0.014204077
49	0xbe19d8a2	-0.15024045
50	0xbdc431ec	-0.09579834
51	0xbc69e8bc	-0.01427668
52	0xbd8a2fc4	-0.06747392
53	0xbde55cc1	-0.11199332
54	0x3d8676e6	0.06565647
55	0xbdc346c6	-0.09534983
56	0xbca527f5	-0.020160655
57	0x3bf3a5f5	0.007435555
58	0xbcf5bb4e	-0.02999654
59	0xbddf4d4a	-0.109034136
60	0xbd85249d	-0.06501124
61	0x3e189025	0.14898737
62	0xbe306e9a	-0.17229691
63	0x3d1de9cd	0.038553048
64	0x3e141d1a	0.14464226
65	0xbdaa426a	-0.08313449
66	0x3dcdd323	0.10050037
67	0xbe0e7765	-0.13912733
68	0xbe2430d7	-0.16034256
69	0xbe418f5f	-0.18902348
70	0x3ddfc280	0.1092577
71	0xbc11c3ce	-0.008896781
72	0x3d491376	0.049090825
73	0xbd15c0eb	-0.036560934
74	0xbbde7ba2	-0.0067896405
75	0x3d99bcf0	0.0750674
76	0xbc8dff16	-0.017333549
77	0x3d1291ec	0.035783693
78	0xbb100b9a	-0.0021979571
79	0x3daae9b0	0.083453536
80	0xbe442248	-0.19153702
81	0x3e24ccbd	0.16093726
82	0xbc0d492f	-0.008623405
83	0xbdce3fb6	-0.10070746
84	0xbcd25308	-0.025674358
85	0xbd07adff	-0.03312492
86	0xbd25e162	-0.040498145
87	0x3d09d7e6	0.033653162
88	0xbd810b50	-0.06300986
89	0xbe1dd157	-0.15411888
90	0x3c0bde89	0.008536943
91	0xbbf5b1b7	-0.007497992
92	0x3c66fab2	0.014097856
93	0x3da9bcd4	0.08287969
94	0x3e3abd4d	0.18236275
95	0x3d1967ec	0.037452623
96	0xbc22bf74	-0.009933341
97	0x3c2a2b53	0.010386306
98	0xbb955c83	-0.0045581474
99	0x3cfe0d1c	0.03101211
100	0x3b86d55f	0.0041147913
101	0x3bf3ed3b	0.0074440516
102	0xbae86fad	-0.0017733477
103	0x3d71a16e	0.058991842
104	0x3c8cc98e	0.017185953
105	0x3cedb3c5	0.029016385
106	0xbd65b8f1	-0.056084577
107	0x3d0f6d44	0.035016313
108	0x3c0d3a4b	0.008619855
109	0x3d74d41f	0.059772607
110	0xbbac6a4f	-0.0052616964
111	0x3c35e803	0.011102679
112	0x3d647396	0.055774294
113	0x3ba3ad50	0.0049950257
114	0x3bfaaa9c	0.0076497328
115	0x3ce3ab44	0.027791627
116	0x3bf3b6ee	0.0074375784
117	0x3d0fc768	0.035102278
118	0x3c760428	0.015015639
119	0x3d10f3dc	0.035388812
120	0x3cead4df	0.028665958
121	0x3e1cc451	0.15309264
122	0xbd900e21	-0.07033945
123	0xbd6352f3	-0.05549903
124	0x3e0e256f	0.13881467
125	0x3dc14d67	0.094385915
126	0x3df1742d	0.11789737
127	0x3d0ec9a7	0.03486028
128	0xbe86b4f6	-0.26309937
129	0x3d5ea520	0.054356694
130	0x3e1f786f	0.15573286
131	0xbd5a8cde	-0.053356998
132	0x3df57934	0.11986008
133	0xbe577b8e	-0.21043226
134	0x3df26d6b	0.11837276
135	0x3e50c2f5	0.2038687
136	0xbcef7ff0	-0.02923581
137	0x3dce3c71	0.10070122
138	0x3da2c5bd	0.07947872
139	0x3e13e603	0.14443211
140	0x3da8632a	0.08222039
141	0x3e8ef65d	0.27922335
142	0x3da6be89	0.081418104
143	0x3e4df924	0.20114571
144	0xbd3b7d1b	-0.045773607
145	0x3e10e70a	0.14150634
146	0x3d3229ce	0.0434969
147	0x3e2097fc	0.15682977
148	0xbdb93d50	-0.090448976
149	0xbbd77fc1	-0.0065765087
150	0xbbd5b148	-0.0065213777
151	0x3b4baf41	0.0031079801
152	0xbce7687a	-0.02824806
153	0x3cd761a6	0.02629168
154	0x3d7dbd1a	0.06194792
155	0xbc480bad	-0.012209815
156	0xbd0720e5	-0.032990355
157	0xbd1be17d	-0.03805684
158	0xbca20cb9	-0.019781457
159	0x3bb497ba	0.0055112513
160	0x3c0bef14	0.008540887
161	0x3cef3ed6	0.029204767
162	0x3ca1b2e9	0.019738631
163	0x3d580336	0.052737437
164	0x3cb424df	0.021990238
165	0x3b7b61ee	0.0038357931
166	0x3c53529c	0.012898114
167	0x3d3843ae	0.04498642
168	0xbc5cc9c3	-0.013475838
169	0x3cce4411	0.025178941
170	0xbcea9ba0	-0.02863866
171	0x3ceadc3f	0.028669475
172	0xbb8ce6e2	-0.0042999843
173	0xbc29b086	-0.010357028
174	0x3d36fe19	0.04467592
175	0x3c7ce052	0.0154343415
176	0xbc8eb6ff	-0.017421244
177	0x3d36822d	0.04455774
178	0x3c6669aa	0.014063278
179	0x3cde9446	0.027170312
180	0xbae3b0c4	-0.0017371406
181	0x3d728712	0.059210844
182	0xbd706ffd	-0.05870055
183	0x3b9fb088	0.004873339
184	0x3d20cbc1	0.039256815
185	0xbce5fc7c	-0.028074495
186	0xbb6768cb	-0.0035310264
187	0xbc4c8302	-0.012482407
188	0xbd69d532	-0.057088085
189	0xbc69bd5d	-0.014266339
190	0x3c5674d6	0.013089379
191	0x3cc6cc2d	0.02426728
192	0xbc41dc65	-0.011832331
193	0x397b4c40	0.0002396563
194	0x3ca5e503	0.020250803
195	0x3d1a4083	0.03765918
196	0x3ca36788	0.019946828
197	0x3d1c913c	0.038224444
198	0x3be0770a	0.006850128
199	0x3c6ae47c	0.0143367015
200	0xbcb1401a	-0.021637011
201	0x3d78ddc3	0.060758363
202	0xbbbb44cf	-0.0057149897
203	0x3a61003a	0.00085831026
204	0x3c16489e	0.009172587
205	0xbc689d7b	-0.0141977025
206	0xbcb77e37	-0.022399051
207	0x3d1edc31	0.03878421
208	0x3c0b00f7	0.008484117
209	0xbcb54d1b	-0.022131493
210	0xbd8e37e9	-0.06944258
211	0x3c45700a	0.012050638
212	0xbc2cfb4d	-0.010557962
213	0xbc2064a5	-0.0097896205
214	0x3c3c0148	0.011474915
215	0x3c0870b6	0.008327654
216	0xbd44e834	-0.04807301
217	0x3d0357d2	0.032066174
218	0x3c17964c	0.009252142
219	0x3c991f9e	0.018691834
220	0xbd4ab06d	-0.04948466
221	0x3d3ea411	0.046543185
222	0xbd565b76	-0.052333318
223	0xbc0e51cd	-0.008686495
224	0xbb9d7610	-0.004805334
225	0x3c939930	0.018017381
226	0x3d63da41	0.055628065
227	0x3c1808b7	0.0092794215
228	0x3d21b555	0.039479572
229	0x3d3d88d9	0.046273086
230	0x3daccd37	0.08437579
231	0x3cf46b47	0.02983631
232	0x3d4988c5	0.0492027
233	0x3de847b5	0.11341802
234	0xbcfb7511	-0.03069547
235	0x3d1588ae	0.0365073
236	0x3bc77503	0.006086947
237	0x3d0ab27f	0.033861633
238	0x3d5b4ac2	0.05353809
239	0x3d50baca	0.050959386
240	0x3c4a217f	0.012337088
241	0x3d7664fd	0.060154904
242	0xbdaa9e58	-0.08330983
243	0xbb8065e2	-0.0039183954
244	0xbc8f5e02	-0.017500881
245	0xbd81673b	-0.06318518
246	0xbcb5097d	-0.02209925
247	0xbd075610	-0.03304106
248	0xbd1d5b37	-0.038417067
249	0xbd888763	-0.06666448
250	0xb9dfdf80	-0.00042700395
251	0x3d9ae143	0.075624965
252	0xbd115484	-0.03548099
253	0x3cf1b5e0	0.02950567
254	0x3caca1e0	0.021073282
255	0xbd6ecce2	-0.05830086

conv1.lin_l.bias f4 [32]
0	0xbd194a4d	-0.037424374
1	0xbdaed37d	-0.08536432
2	0xbdf33e50	-0.118771195
3	0xbb5d7098	-0.0033789035
4	0xbd2dddc1	-0.04244781
5	0x3c7c9859	0.015417182
6	0xb88e0a79	-6.773038e-05
7	0x3c8f76f6	0.01751278
8	0xbd863a68	-0.06554109
9	0x3c74fe2e	0.014953179
10	0x3dda0267	0.106449895
11	0xbdc0e71b	-0.0941908
12	0xbd97c0af	-0.07409798
13	0xbd7aa433	-0.06119175
14	0x3c85df56	0.016341846
15	0xbc409b30	-0.01175575
16	0x3d2a0eff	0.041518208
17	0xbd0b2cfb	-0.033978444
18	0xbe48a694	-0.19594795
19	0x3d9c1066	0.07620315
20	0xbc80a20c	-0.01570227
21	0x3c877e2f	0.016539661
22	0xbccf26b4	-0.02528701
23	0xbd99e813	-0.07514968
24	0xbd0d4695	-0.03449114
25	0xbd9dd5d4	-0.077068
26	0x3b4cb8b9	0.0031238033
27	0xbb866ac9	-0.0041020853
28	0x3c48c32d	0.012253565
29	0xbad63595	-0.0016342873
30	0xbb9100de	-0.004425152
31	0x3d5d7170	0.05406326

conv1.lin_r.weight f4 [32, 30]
0	0x3da4ce26	0.08047132
1	0x3df3516e	0.11880766
2	0x3d2f1e82	0.042753704
3	0x3d64e9a5	0.055886883
4	0x3de6a3ce	0.11261712
5	0x3dc86559	0.097849555
6	0x3e61f35c	0.2206549
7	0x3e8a6d7e	0.2703666
8	0x3c6939aa	0.01423494
9	0xbb857c1a	-0.004073632
10	0xbd32ecbd	-0.043682802
11	0xbe9a3fbe	-0.30126756
12	0x3d520c05	0.051280994
13	0xbd2da9a2	-0.042398103
14	0xbe30ebfa	-0.17277518
15	0x3e06ad03	0.13151936
16	0xbe0858ea	-0.13315168
17	0xbc9eb19d	-0.019371802
18	0xbc235eb9	-0.009971314
19	0x3c77f370	0.015133724
20	0xbca854f1	-0.020548316
21	0x3c21defb	0.009879823
22	0x3e0a6ddc	0.1351847
23	0xbc995ef0	-0.018722028
24	0xbe3a72e7	-0.18207894
25	0x37d113e1	2.4923998e-05
26	0x3d17d25d	0.037065852
27	0xbe152cd0	-0.14567876
28	0xbe1eb88d	-0.15500088
29	0xbd2435bf	-0.04009032
30	0x3d1cb235	0.03825589
31	0x3df128c4	0.117753536
32	0xbe3be9af	-0.18350862
33	0xbdc92745	-0.09821943
34	0xbe63aa73	-0.2223299
35	0xbd3854c3	-0.04500271
36	0x3d8447f9	0.0645904
37	0xbdeb38de	-0.11485456
38	0xbe08c3a1	-0.13355877
39	0xbdc6a94d	-0.0970026
40	0xbb9ad721	-0.0047253524
41	0xbcf95ebb	-0.030440679
42	0x3de994c8	0.11405331
43	0xbd00eff0	-0.031478822
44	0x3d7f6d74	0.062360242
45	0xbd89b61e	-0.06724189
46	0xbcf58bde	-0.02997392
47	0x3da57446	0.08078818
48	0xbd8980cc	-0.06714019
49	0xbdf34d05	-0.11879925
50	0xbc70b6d5	-0.014692028
51	0x3cd30d22	0.025763098
52	0xbe31c626	-0.17360744
53	0xbc8b2f30	-0.016990274
54	0x3d8183ee	0.06323992
55	0xbd90d8a1	-0.07072569
56	0xbdd4dd86	-0.10393815
57	0x3d2001fa	0.039064385
58	0xbd99403e	-0.07482956
59	0xbdd09917	-0.101854496
60	0xbe0f0289	-0.13965811
61	0x3e46416c	0.19360894
62	0xbe38ca0b	-0.18045823
63	0x3e62ff97	0.22167812
64	0x3dff2a6d	0.12459264
65	0x3e93bb3f	0.28853795
66	0xbd24a1ad	-0.04019325
67	0x3e6f1f90	0.23351884
68	0xbf1d0e70	-0.61350155
69	0xbd69c8db	-0.057076316
70	0x3ddbcd3a	0.10732503
71	0x3e57b828	0.21066344
72	0x3cb69a24	0.022290297
73	0xbe0b46ad	-0.1360118
74	0xbe31fae9	-0.17380871
75	0x3d57ceb8	0.052687377
76	0x3e0c28b2	0.13687399
77	0xbe3ac472	-0.18239
78	0x3e2920c2	0.16516402
79	0x3ebff935	0.37494817
80	0x3e8c5920	0.27411747
81	0x3e8a6c16	0.27035588
82	0x3e032701	0.12807848
83	0x3cd3327b	0.025780907
84	0x3c56a281	0.013100267
85	0xbcee69aa	-0.029103119
86	0x3e8db317	0.27675697
87	0xbd392c2a	-0.045208134
88	0x3d428392	0.047488756
89	0xbd24bd74	-0.04021974
90	0xbcae6323	-0.021287506
91	0x3aea781c	0.0017888579
92	0xbb17ded9	-0.00231736
93	0x3d1172d9	0.035509918
94	0x3ccde937	0.02513562
95	0x3d4eaa72	0.050455518
96	0xbcfdcb50	-0.030980736
97	0xbc48b5c2	-0.012250366
98	0xbb85f246	-0.004087719
99	0xbb408b53	-0.0029379919
100	0x3cdc85ce	0.026919272
101	0x3c63f9f4	0.013914574
102	0x3d28d65d	0.041220058
103	0xbcc34e24	-0.023840971
104	0xbb5d3992	-0.0033756238
105	0x3ab27d2f	0.001361763
106	0xbcc35669	-0.023844915
107	0x3d0a8079	0.033813927
108	0xbca2f264	-0.019890971
109	0x3d86ed45	0.06588224
110	0x3d75f048	0.060043603
111	0x3d54c7ab	0.05194823
112	0x3c6ecb79	0.014574879
113	0x3d681eb9	0.056669924
114	0xbd3ddecb	-0.04635505
115	0xbb9a4c2c	-0.0047087874
116	0xbbe4d003	-0.0069828047
117	0x3988989b	0.0002605364
118	0xbc6abfd8	-0.014327966
119	0xbcb3efb5	-0.021964887
120	0x3db280d0	0.08715975
121	0xbd9c1033	-0.07620277
122	0x3dcd95c1	0.10038329
123	0x3dcd08e3	0.10011461
124	0x3d97ecfa	0.074182466
125	0x3e21f296	0.15815195
126	0x3d9f354c	0.077738374
127	0x3dadfabe	0.08495091
128	0x3c6bb833	0.014387178
129	0x3be3df20	0.006954089
130	0x3e706ba3	0.2347856
131	0xbca31438	-0.019907102
132	0x3e29c056	0.16577277
133	0xbd170311	-0.03686816
134	0xbd08b2fd	-0.03337382
135	0xbe4a63fd	-0.19764705
136	0xbe4f9100	-0.20270157
137	0x3c8c1cc0	0.017103553
138	0x3e0837a1	0.1330247
139	0xbe3d0a08	-0.18460858
140	0x3dd7a04a	0.105286196
141	0xbd5a031a	-0.053225614
142	0xbdb2364c	-0.087017626
143	0x3d0d9b2b	0.034571808
144	0xbe201475	-0.15632804
145	0xbd1ea5cc	-0.038732335
146	0x3badf9f0	0.005309336
147	0xbe0bdd28	-0.13658583
148	0xbdca2d55	-0.09871928
149	0xbdadba65	-0.084828176
150	0xbd6d77c8	-0.05797556
151	0xbd50c25f	-0.050966617
152	0x3c825f7b	0.01591467
153	0x3d15af63	0.036544215
154	0x3d79a9cf	0.060952958
155	0x3c467be9	0.012114503
156	0xbc68aa0c	-0.014200699
157	0xbd7fae89	-0.06242231
158	0xbcd86413	-0.026414907
159	0x3c645fea	0.013938883
160	0x3c11500e	0.008869184
161	0x3ce994ec	0.028513394
162	0x3d676248	0.056490213
163	0x3daab8be	0.08336018
164	0x3cac24d5	0.021013657
165	0xbd2bdc4e	-0.041958146
166	0x3a1fa267	0.00060895685
167	0x3d10bef2	0.03533835
168	0xbcee6b77	-0.029103978
169	0x3d031a2a	0.032007374
170	0x3cf90d42	0.03040183
171	0x3cfadb08	0.03062202
172	0xbbd79dd6	-0.006580095
173	0x3d2357c7	0.039878633
174	0x3cc5fd8a	0.024168748
175	0x3ca9a729	0.020709591
176	0xbc4722db	-0.012154306
177	0x3d0dc3e8	0.03461066
178	0x3b1d86e3	0.0024036698
179	0x3cc45d1c	0.02397018
180	0xbcb400aa	-0.021972973
181	0xbd4ee00a	-0.05050663
182	0x3d26d1fc	0.0407276
183	0x3d95bf62	0.07311894
184	0x3d39f1c7	0.045396592
185	0x3d44c957	0.048043575
186	0xbc860fc4	-0.01636494
187	0xbbb4dca0	-0.0055194646
188	0xbd44ca6a	-0.0480446
189	0x3bb00e92	0.0053728307
190	0x3c32cf7d	0.010913727
191	0x3bbaf43d	0.005705385
192	0x3d19019e	0.037355058
193	0x3daacfda	0.08340426
194	0xbab0a8dc	-0.0013478058
195	0xbdaf11e6	-0.08548336
196	0xbcc52879	-0.02406715
197	0xbbd11ea7	-0.006381828
198	0x3bc6e6a1	0.0060699736
199	0x3c17aa82	0.009256961
200	0x3d907d00	0.07055092
201	0x3cbabe08	0.022795692
202	0x3ba24630	0.0049522147
203	0x3c854f86	0.016273271
204	0x3c70c6d8	0.014695846
205	0x3c56ce18	0.01311066
206	0x3b1980aa	0.0023422637
207	0xbb8f957a	-0.0043818327
208	0x3c706682	0.014672877
209	0x397e66de	0.00024261649
210	0x3c3cfa0e	0.011534227
211	0xbd01cc0e	-0.031688742
212	0x3d306167	0.04306164
213	0x3db337f4	0.087509066
214	0x3d8d49c0	0.06898832
215	0x3dca2d0e	0.09871875
216	0x3c764839	0.015031868
217	0xbd1dd9f9	-0.038537953
218	0xbd810191	-0.06299127
219	0x3c0d6469	0.008629897
220	0xbda0a871	-0.07844628
221	0xbda3203d	-0.07965133
222	0x3db3fb8e	0.087882146
223	0x3dae1c37	0.08501475
224	0x3c2b453b	0.010453518
225	0xbc7b08c9	-0.015321919
226	0xbd50d76c	-0.050986692
227	0x3d273fff	0.040832516
228	0xbd6b4039	-0.057434294
229	0x3c531c42	0.012885155
230	0x3da7f152	0.08200325
231	0x3dad4d67	0.08462029
232	0xbad42943	-0.0016186613
233	0x3decca03	0.11561968
234	0x3be2dd0c	0.0069233235
235	0x3d39793e	0.04528164
236	0xbd476f49	-0.048690114
237	0x3cd9753a	0.026545156
238	0xbd3dd787	-0.04634812
239	0xbd1bb2da	-0.038012363
240	0x3d0c61dd	0.034273017
241	0x3d832d24	0.06405094
242	0xbe03abee	-0.12858555
243	0xbd932038	-0.071838796
244	0xbdfce492	-0.12348284
245	0xbe0aa923	-0.13541083
246	0x3c8fe11d	0.017563397
247	0xbe269afe	-0.16270062
248	0xbd33712b	-0.043809097
249	0xbdfcc8b2	-0.12342967
250	0xbd8b7194	-0.06808773
251	0xba778b7a	-0.0009443086
252	0x3d0ddd26	0.03463473
253	0xbb8816e3	-0.004153119
254	0x3d776caf	0.060406383
255	0xbda867ae	-0.082229

conv2.lin_l.weight f4 [11, 32]
0	0xbdb1863f	-0.086681835
1	0xbe13e2a8	-0.14441931
2	0x3f0e2a5d	0.5553339
3	0xbc14364a	-0.009046147
4	0xbdadd8d6	-0.08488624
5	0x3d02af85	0.03190567
6	0x3cdf42c1	0.02725351
7	0xbcdfcedf	-0.027320324
8	0xbe184c58	-0.14872873
9	0xbc5fe819	-0.013666176
10	0xbd42be80	-0.047544956
11	0xbd41cf6b	-0.04731695
12	0xbe26d68d	-0.16292782
13	0xbc9b6ffe	-0.0189743
14	0xbd88830a	-0.06665619
15	0xbd784700	-0.060614586
16	0xbd2da920	-0.04239762
17	0xbdc744c0	-0.0972991
18	0xbdbceffb	-0.0922546
19	0xbbe4cf5c	-0.006982727
20	0xbe30bf4b	-0.17260472
21	0xbe25f3c7	-0.16206275
22	0xbe1b7b2f	-0.1518371
23	0xbe5a3556	-0.21309409
24	0xbe36a1d0	-0.17835164
25	0xbb5c9aee	-0.0033661681
26	0xbcfef64a	-0.0311233
27	0x3d0282d4	0.03186305
28	0xbb88a34c	-0.004169857
29	0x3c20d10c	0.009815466
30	0xbd1006e9	-0.03516284
31	0x3c308447	0.010773725
32	0x3d57493a	0.05256007
33	0x3ae23719	0.0017258852
34	0xbe444102	-0.19165424
35	0xbb452425	-0.0030081358
36	0xbd459374	-0.048236325
37	0x3b2136b4	0.0024599256
38	0xbd3f95ce	-0.046773724
39	0x3d1ee43e	0.038791887
40	0x3d40cb51	0.047068898
41	0xbc0245a6	-0.007951176
42	0x3d661b23	0.056178223
43	0x3da5b6dd	0.08091519
44	0x3d7adbcf	0.061244782
45	0xbbcaee18	-0.006192934
46	0x3d50b80c	0.05095677
47	0x3d89eeea	0.06735022
48	0xbc236a0c	-0.009974014
49	0x3d022240	0.031770945
50	0x3e1f5de2	0.15563157
51	0xbb8b1745	-0.0042447173
52	0x3d38c307	0.045107868
53	0xbcfefed3	-0.031127369
54	0x3ccb59d1	0.024823101
55	0x3f069cac	0.5258281
56	0x3d50e5be	0.05100035
57	0xbd333691	-0.04375321
58	0x3c3e53f0	0.011616692
59	0x3d7d19f2	0.06179232
60	0xbc684f24	-0.014179025
61	0xbd6ed83e	-0.058311693
62	0x3d2ae727	0.04172435
63	0xbbb70abc	-0.0055859964
64	0xbbf79586	-0.0075556664
65	0xbd6c10ff	-0.057633396
66	0xbd66be7b	-0.056334
67	0xbc24c365	-0.010056351
68	0xbc0737fb	-0.008253093
69	0xbbb2aaba	-0.005452481
70	0xbc10ab2b	-0.008829872
71	0xbca35fd2	-0.019943152
72	0xbc2e5df6	-0.010642519
73	0xbbc23f1b	-0.005927933
74	0xbced57db	-0.028972557
75	0xbd5600b6	-0.05224677
76	0xbd30c42b	-0.04315583
77	0xbddcaf1e	-0.107755885
78	0x3c12a8ba	0.00895136
79	0xbd05d1bd	-0.032670725
80	0x3b5100f9	0.003189145
81	0xbd073306	-0.033007644
82	0xbca01650	-0.01954189
83	0xbcb28fdb	-0.021797111
84	0xbc186bf0	-0.009303078
85	0x3cc1109d	0.023567492
86	0xbc9b1052	-0.01892868
87	0xbcd455e2	-0.025919858
88	0xbd042b12	-0.032267638
89	0xbb86d0fe	-0.0041142693
90	0xbc947171	-0.0181205
91	0xbbbe9203	-0.005815746
92	0xbbdc7c43	-0.0067286803
93	0xb9e82624	-0.00044278905
94	0xbc06c76a	-0.008226255
95	0xbcbc2822	-0.022968356
96	0xbbe3f277	-0.0069563943
97	0xbd9228dc	-0.071366996
98	0xbd0e8dae	-0.034803085
99	0xbac4b30e	-0.0015006976
100	0xbd206460	-0.039158225
101	0x3adc77b0	0.0016820338
102	0xbd713420	-0.0588876
103	0x3c8f9258	0.017525837
104	0xbd2fd2bc	-0.04292558
105	0x3b7d3cc3	0.0038640953
106	0x3eda577d	0.42644873
107	0x3db6ff09	0.08935363
108	0xbd4a723d	-0.049425352
109	0xbd8f3683	-0.06992819
110	0x3bf47817	0.007460605
111	0x3dc0ff24	0.09423664
112	0xbb64f759	-0.003493747
113	0x3c09be10	0.008407131
114	0x3b62056c	0.0034488095
115	0x3e96c876	0.29449815
116	0xbc89e80d	-0.016834283
117	0x3ce7b154	0.028282799
118	0xbcaa9aa5	-0.020825693
119	0x3c9ff67d	0.019526714
120	0xbcb918c5	-0.022594819
121	0x3ccb9297	0.024850173
122	0x3da34e75	0.07973949
123	0x3c274777	0.01020991
124	0x3dbff4fa	0.093728974
125	0xbd9cdbbc	-0.076590985
126	0x3c80f3ad	0.015741194
127	0xbd1b901f	-0.03797924
128	0xbc44ef4a	-0.012019942
129	0xbd644200	-0.055727005
130	0xbd3a8757	-0.045539226
131	0xbc384cb6	-0.011248758
132	0xbd036aa8	-0.032084137
133	0x3d172cbc	0.036907896
134	0x3d0f52a0	0.034990907
135	0xbd0af726	-0.033927105
136	0xbcd61b09	-0.026135938
137	0x3e3f5f1e	0.18688628
138	0xbd64519a	-0.055741884
139	0xbd83abe9	-0.06429274
140	0xbce928ea	-0.028461892
141	0xbd8da47e	-0.0691614
142	0x361e94b0	2.3630382e-06
143	0xbcc663f7	-0.024217589
144	0x3ebbd707	0.3668749
145	0xbd1ee8ee	-0.038796358
146	0xbca44d6f	-0.020056454
147	0x3d274593	0.040837836
148	0xbc87f65f	-0.016596971
149	0x3dcb1d0e	0.09917651
150	0xbca7bf6a	-0.020477016
151	0xbc2084a4	-0.009797249
152	0xbc20be3d	-0.009810981
153	0xbc4891dd	-0.012241808
154	0xbc5146ac	-0.012773197
155	0xbc75a893	-0.0149938045
156	0x3bafb357	0.005361955
157	0x3d3330be	0.043747656
158	0xbd32373f	-0.043509718
159	0x3e0a7322	0.13520482
160	0xbcadbb21	-0.021207394
161	0x3f1415ff	0.57846063
162	0xbd8c484b	-0.06849726
163	0xbcae5b3b	-0.021283736
164	0x3cc86b04	0.024465092
165	0xbc1df071	-0.009639845
166	0x3c2f5a56	0.01070269
167	0xbd64a1a7	-0.055818226
168	0x3ea4e578	0.3220632
169	0x3c173453	0.009228784
170	0xbce541dc	-0.027985506
171	0xbced2a2f	-0.028950779
172	0x3eb52e28	0.35386777
173	0xbceed345	-0.029153476
174	0xbc29ad47	-0.010356254
175	0xbb9c1b75	-0.0047640153
176	0xbd831993	-0.06401362
177	0xbd6a7858	-0.057243675
178	0xbd29d77f	-0.04146528
179	0xbc5591a2	-0.01303521
180	0x3eb71940	0.35761452
181	0xbd881d9f	-0.06646275
182	0x3eb0fec7	0.3456938
183	0xbe299a30	-0.16562724
184	0x3e919003	0.28430185
185	0xbd22da29	-0.039758835
186	0x3c01494e	0.007891012
187	0xbc3d6492	-0.011559622
188	0xb92b5bad	-0.00016341983
189	0x3d8ff2f0	0.070287585
190	0xbcc86d66	-0.024466228
191	0xbd8cd31c	-0.068762034
192	0xbcaf390a	-0.021389503
193	0xbd5b4562	-0.053532965
194	0x3d2a8108	0.04162696
195	0xbbde8e87	-0.006791893
196	0xbd0c1b59	-0.03420577
197	0xbbe445c7	-0.006966326
198	0x3bee4834	0.007271791
199	0xbc684421	-0.014176399
200	0xbd87012b	-0.0659202
201	0xbc88d2ea	-0.016702134
202	0xbd655049	-0.05598477
203	0xbdd3a412	-0.10334028
204	0xbd4332e9	-0.047655974
205	0xbd66afa1	-0.056319837
206	0xbc18b29c	-0.009319928
207	0xbb9078c2	-0.0044089267
208	0x3b48a21f	0.003061421
209	0xbd313c46	-0.04327037
210	0xbd822bc5	-0.063560046
211	0xbcd402fd	-0.025880331
212	0xbd25bee3	-0.040465247
213	0xbe008d5a	-0.12553921
214	0xbd3131d9	-0.04326043
215	0xbda38e58	-0.07986134
216	0xbd48a05b	-0.048981052
217	0xbc6ccfb8	-0.014453821
218	0x3bb849e8	0.0056240447
219	0xbdd67fc5	-0.10473589
220	0xbbd6109a	-0.006532741
221	0x3c86a080	0.016433954
222	0xbc94b81a	-0.018154193
223	0xbd4d8d53	-0.050183605
224	0xbc29eea4	-0.010371838
225	0xbd713a23	-0.058893334
226	0xbd68fd4a	-0.05688218
227	0xbc6c866b	-0.014436345
228	0xbbc0d169	-0.0058843386
229	0xbba20ec3	-0.0049456074
230	0xbc363d2d	-0.011122984
231	0xbca39a5a	-0.019971061
232	0xbc2905db	-0.010316337
233	0xbbbff746	-0.0058583347
234	0xbcdbdcf5	-0.026838759
235	0xbd3b7563	-0.045766246
236	0xbd3c8acf	-0.046030816
237	0xbdd5a775	-0.104323305
238	0x3cb5fef1	0.022216292
239	0xbcff8c96	-0.031194966
240	0xb9e59885	-0.0004379192
241	0xbd053c53	-0.032528233
242	0xbca4fb9e	-0.020139512
243	0xbc99dec2	-0.018782977
244	0xbb77fb85	-0.0037839126
245	0x3c614681	0.01374972
246	0xbc9417a7	-0.018077685
247	0xbcbf2547	-0.023333205
248	0xbcf8677a	-0.030322779
249	0xbb7d9fd6	-0.0038700006
250	0xbc97586e	-0.018474784
251	0x37700610	1.4306526e-05
252	0xbbc7b32b	-0.0060943565
253	0x3ab2a05b	0.0013628112
254	0xbc0bdf67	-0.00853715
255	0xbcc0c80b	-0.023532888

conv2.lin_l.bias f4 [11]
0	0x3da95878	0.08268827
1	0xbbe8274a	-0.0070847617
2	0xbc02a86c	-0.007974725
3	0xbc29eaa7	-0.010370887
4	0xbc600e4b	-0.013675283
5	0x3b82db9b	0.003993464
6	0x3c727e44	0.014800612
7	0xbbc5e2e1	-0.006039009
8	0x3aa998d6	0.0012939225
9	0xbc3201b1	-0.010864661
10	0xbcbf464f	-0.023348955

conv2.lin_r.weight f4 [11, 32]
0	0xbdc32c31	-0.09529913
1	0xbdc8ddb2	-0.0980791
2	0xbd0dcddb	-0.034620147
3	0x3da03446	0.0782247
4	0xbd974ee8	-0.07388097
5	0x3c9eafab	0.019370874
6	0x3e46be30	0.19408488
7	0xbdb6aa4b	-0.089191996
8	0xbdcda901	-0.100420006
9	0xbd2ed94f	-0.04268771
10	0xbd8186d1	-0.06324542
11	0xbe93cc72	-0.28866917
12	0xbdc60304	-0.09668544
13	0xbd80cb0d	-0.06288729
14	0x3d158f79	0.03651378
15	0xbd8fcfe9	-0.070220776
16	0xbd3f2005	-0.046661396
17	0xbdc31dca	-0.09527166
18	0xbe53c123	-0.20679145
19	0xbd45a1d8	-0.04825005
20	0x3caefc72	0.02136061
21	0xbd1a8a24	-0.037729397
22	0xbbebf72c	-0.007201096
23	0xbdcd1134	-0.10013047
24	0xbdb9bb18	-0.090688884
25	0xbe267f6b	-0.16259544
26	0xbd87416e	-0.066042766
27	0xbdf61c1f	-0.120170824
28	0xbda00e8f	-0.07815277
29	0x3d3db9e8	0.046319872
30	0xbcd1a7ff	-0.025592802
31	0xbde7c509	-0.11316878
32	0xbde2d462	-0.11075665
33	0xbdce8033	-0.10083046
34	0x3f1d232b	0.6138179
35	0xbc09c5f0	-0.008409008
36	0xbdc53954	-0.09630075
37	0xbd70ff9a	-0.05883751
38	0xbd1b4b9f	-0.037913915
39	0xbd87aa4b	-0.06624278
40	0xbdc71d07	-0.097223334
41	0xbd0304b2	-0.0319869
42	0xbdb65bc3	-0.08904221
43	0x3ed00e14	0.4063574
44	0xbdd86c6c	-0.10567555
45	0xbd2e1526	-0.042500637
46	0xbe6fc0ca	-0.23413387
47	0x3d763ead	0.060118366
48	0xbd0ef1c4	-0.034898534
49	0xbe1b2056	-0.15149054
50	0x3e7c6a1c	0.24649853
51	0xbd90f59d	-0.07078097
52	0xbdb04ea4	-0.086087495
53	0xbdbcd2fb	-0.09219929
54	0xbe03e7d6	-0.12881407
55	0xb7bc0a62	-2.2416181e-05
56	0xbdb5d14a	-0.08877809
57	0x3dd28545	0.102793254
58	0x3cdd94af	0.027048437
59	0x3c59c31d	0.013291148
60	0xbda7759d	-0.0817673
61	0xbcf961cd	-0.030442143
62	0xbc672182	-0.01410711
63	0xbe111d58	-0.1417135
64	0xbcafe793	-0.021472728
65	0xbd32f4ab	-0.043690365
66	0xbd2c38d8	-0.042046398
67	0xbc012534	-0.007882405
68	0xbd0c7aaf	-0.034296688
69	0x3c04329a	0.008068705
70	0xbc650c00	-0.013979912
71	0xbbe263a3	-0.0069088503
72	0xbd418581	-0.04724646
73	0xbc8c1708	-0.017100826
74	0xbd510f93	-0.051040243
75	0xbd4ea203	-0.050447475
76	0xbd6120bf	-0.05496287
77	0xbd2d8243	-0.042360555
78	0xbc42295b	-0.01185068
79	0xbd760344	-0.060061708
80	0xbc97b03f	-0.018516658
81	0xbceed8ea	-0.029156167
82	0xbd1cc09d	-0.038269628
83	0xbd14b0b2	-0.036301322
84	0xbd51bf40	-0.05120778
85	0xbcad380f	-0.021144895
86	0x3bb34713	0.005471119
87	0xbd38b991	-0.045098845
88	0xbc31aeb9	-0.01084488
89	0xbd9fddc1	-0.07805968
90	0xbd380a5f	-0.044931766
91	0xbda0443a	-0.07825513
92	0xbd1176b5	-0.0355136
93	0xbae0dbc1	-0.0017155336
94	0x3c584789	0.013200649
95	0xbd81c87a	-0.06337066
96	0xbd9ca943	-0.076494716
97	0xbd37e883	-0.044899475
98	0xbd49021f	-0.04907429
99	0xbbee276a	-0.007267882
100	0x3de4bcd7	0.11168831
101	0x3d1b46ca	0.037909307
102	0xbca33ea2	-0.019927327
103	0x3df79d6c	0.12090573
104	0xbd678dff	-0.056531902
105	0x3c064b6a	0.008196691
106	0x3f4606ce	0.77354133
107	0xbde6cf6b	-0.112700306
108	0xbd6399e7	-0.055566695
109	0xbd0fd0aa	-0.035111107
110	0xbd1c132a	-0.038104214
111	0x3dfec7ef	0.12440478
112	0x3b558b88	0.0032584388
113	0xbd880cd7	-0.06643074
114	0xbd82e24b	-0.06390818
115	0x3e9c5ea0	0.30540943
116	0xbd76c023	-0.06024183
117	0x3e081681	0.13289835
118	0xba7e3f2b	-0.0009698744
119	0xbd4154f6	-0.047200166
120	0xbb57139c	-0.0032818085
121	0xbd6f24d1	-0.05838472
122	0x3d47f2ea	0.048815645
123	0xbccf9488	-0.02533938
124	0x3e3b9fd8	0.18322694
125	0xbc9621b2	-0.018326614
126	0x3b63594d	0.0034690679
127	0x3edfd799	0.43719175
128	0xbc9223af	-0.01783928
129	0xbd24afe4	-0.040206805
130	0xbd239053	-0.03993256
131	0xbd5ab783	-0.053397667
132	0xbd81918b	-0.06326588
133	0x3da6ad9b	0.08138581
134	0x3ca2d59c	0.019877248
135	0xbd3893d6	-0.045062862
136	0xbd2434a9	-0.040089283
137	0x3ef53d03	0.4789811
138	0xbd42da57	-0.047571506
139	0xbd5fbcfd	-0.054623593
140	0xbd375d25	-0.044766564
141	0xbcf498f7	-0.029858096
142	0xba5f1a6e	-0.0008510713
143	0xbcbaadee	-0.022788014
144	0x3f00ba56	0.50284326
145	0xbca1857e	-0.019716974
146	0xbd5db29d	-0.054125417
147	0x3ea4587e	0.32098764
148	0xbb091b35	-0.0020920758
149	0xbcbffb07	-0.023435129
150	0xbbb30a2e	-0.00546386
151	0xbd1a35f2	-0.037649103
152	0xb9a75cca	-0.00031921855
153	0xbd55804e	-0.052124314
154	0xbcad0123	-0.021118706
155	0xbcb1b797	-0.021693988
156	0x3e69e355	0.22840627
157	0x3d0d69dd	0.034524787
158	0xbbbb54f6	-0.0057169152
159	0xbc141cd9	-0.009040081
160	0xbd251997	-0.040307608
161	0x3f0d4452	0.55182374
162	0xbe31a9c7	-0.17349921
163	0xbd0caf7a	-0.034347035
164	0xbd889c05	-0.06670383
165	0xbd9d4721	-0.076795824
166	0xbd33d8b9	-0.043907855
167	0xbc419120	-0.011814386
168	0x3f035b6e	0.51311386
169	0xbdb9a4ef	-0.09064662
170	0xbd87ac24	-0.0662463
171	0xbdd8f1b2	-0.10592975
172	0x3f10ef40	0.56615067
173	0xbd4c5869	-0.049889002
174	0x3d1c95f5	0.038228948
175	0x3c9f686c	0.019458972
176	0xbdd88d97	-0.10573881
177	0xbd69ef54	-0.057113007
178	0xbde1fac2	-0.110341564
179	0xbda4405a	-0.080200866
180	0xbcd4792f	-0.025936691
181	0xbe00adc5	-0.12566288
182	0x3e321f75	0.17394812
183	0x3eded1db	0.43519482
184	0x3e70e7f5	0.23525985
185	0xbdaaaa25	-0.08333234
186	0x3b5f490e	0.0034070644
187	0xb8e9bf2f	-0.000111459165
188	0xbd8afe8f	-0.067868344
189	0x3cb7d8f7	0.022442324
190	0x3d92bb40	0.07164621
191	0xbd67cc2e	-0.056591205
192	0xbc85eef3	-0.016349291
193	0xbd552aee	-0.052042894
194	0xbd79e69e	-0.06101095
195	0xbc4c87f8	-0.012483589
196	0xbd8aad55	-0.06771342
197	0xbc00e559	-0.007867181
198	0xbbde6534	-0.0067869667
199	0x3e2452b3	0.16047172
200	0xbd30eac6	-0.043192647
201	0xbc9de2c4	-0.01927317
202	0x3c81ed70	0.01586029
203	0x3dc1541a	0.09439869
204	0xbd51748a	-0.05113653
205	0xbcc14032	-0.023590181
206	0xbd0d2592	-0.034459658
207	0xbc80e7dc	-0.01573556
208	0xbca9d227	-0.020730091
209	0xbcb49ec6	-0.022048365
210	0xbc2b379b	-0.010450269
211	0xbd912763	-0.070875905
212	0xbc8d5dbe	-0.017256614
213	0x3b275bdd	0.0025536933
214	0xbc9f4175	-0.019440392
215	0xbd50f96e	-0.051019125
216	0xbc9a469b	-0.018832495
217	0xbd6a2e81	-0.057173256
218	0xbca8f81f	-0.020626126
219	0x3dc9068e	0.09815703
220	0x3ddb3384	0.10703185
221	0x39f6c90c	0.00047070568
222	0x3bbd622e	0.005779526
223	0x3e88b717	0.26702186
224	0xbca9d7b3	-0.020732736
225	0xbd369835	-0.04457875
226	0xbd29d638	-0.04146406
227	0xbc24049f	-0.010010867
228	0xbd1bfd6d	-0.038083483
229	0x3bf9365e	0.007605358
230	0xbc4ecb1f	-0.01262167
231	0xbc01e97c	-0.007929202
232	0xbd50a92f	-0.050942596
233	0xbc9d362e	-0.019190874
234	0xbd4a6d32	-0.049420543
235	0xbd4d9a20	-0.050195813
236	0xbd6bdef1	-0.05758566
237	0xbd21e2db	-0.039522987
238	0xbc846a8c	-0.016164087
239	0xbd769c49	-0.06020764
240	0xbca99623	-0.020701474
241	0xbcececcb	-0.028921505
242	0xbd0b5bd4	-0.03402312
243	0xbd07fcc3	-0.033200037
244	0xbd53d86e	-0.051720075
245	0xbcc914c8	-0.024546042
246	0x3a80e521	0.0009833911
247	0xbd428897	-0.047493543
248	0xbc2e6069	-0.010643103
249	0xbda3339b	-0.07968827
250	0xbd378a16	-0.044809423
251	0xbda5572a	-0.08073266
252	0xbd150127	-0.036378052
253	0xbaa899fc	-0.0012863274
254	0x3c3037a0	0.0107554495
255	0xbd82a0bc	-0.06378314
