trained_weights/unicorn/unicorn18.pth (torch, 16655 bytes, 8 tensors)

conv1.lin_l.weight f4 [32, 30]
000000 e9 98 0a 3d df 6c 47 3d 2d 4f 22 3d 74 45 68 bc
       0.033837233 0.048687812 0.03962629 -0.014176715
000010 06 86 2f bd 02 6a 96 3c 5b eb 1c 3c 32 e4 77 ba
       -0.042852424 0.018361095 0.0095775975 -0.0009456306
000020 9e 76 f2 3c 06 2d 7c 3c 34 43 b8 3c 7b 3c e6 3a
       0.029597577 0.015391594 0.022492982 0.0017565632
000030 28 ce 44 3b ac 9d 36 3d 28 b0 f9 3b a1 57 01 3d
       0.0030030105 0.04458396 0.0076198764 0.03157771
000040 c0 85 e5 bc 7c 45 c5 bc 93 71 f9 ba e1 66 4b bc
       -0.028017879 -0.024080984 -0.001903104 -0.012414665
000050 70 ef 05 bd e2 76 b0 3b 7c 36 7a 3b cb f1 23 3d
       -0.03269905 0.0053852657 0.0038179448 0.040025514
000060 b4 d4 03 3c f0 73 09 3d 1e a8 b5 3c 3f 4e 04 3d
       0.008046318 0.033557832 0.022174891 0.032301184
000070 f8 94 b0 3c 7c 30 b1 3c 13 0e b4 3c a9 fa 5b 3d
       0.021555409 0.021629564 0.021979367 0.053705845
000080 f5 c4 dc bd fc a9 b7 3c 1f a9 7e 3d c5 b2 10 bd
       -0.10779754 0.022419922 0.062173005 -0.035326738
000090 67 b6 e9 bc b2 95 fd bc 62 5d b2 bd b6 d6 e8 3c
       -0.028529359 -0.03095517 -0.087092176 0.028422695
0000a0 5a 41 36 3d 8a 4f da bc d2 be 49 3d a5 fb 36 be
       0.044495918 -0.026649255 0.049254246 -0.17869432
0000b0 1f ac c0 3c a6 95 d8 bd 96 d3 ae bd 67 d4 59 3d
       0.023519574 -0.10575418 -0.085364506 0.05318108
0000c0 59 24 61 bc 26 19 eb bd d7 2d 1c 3e 4c a4 e2 3b
       -0.013741576 -0.11479406 0.15251862 0.0069165584
0000d0 ff b8 6f bc ff d3 0c be 6d 76 88 3d 25 4b e2 3d
       -0.014631509 -0.13752745 0.06663213 0.11049489
0000e0 79 04 14 bd cc ee 9e 3d 9f 1e d4 bd 53 a7 4a bd
       -0.036137078 0.07760391 -0.10357403 -0.04947598
0000f0 d6 e4 14 be 1c ee 78 bd 26 e8 17 bd 65 bb ca bd
       -0.14540419 -0.060773954 -0.03708663 -0.09899024
000100 b1 e1 61 3d db f1 b3 bc 41 fc 43 bd de 5d 1e be
       0.055146877 -0.021965912 -0.04784799 -0.15465495
000110 58 71 b5 3d ac 7a 24 3e 8c 90 1b bc 30 58 bf 3d
       0.08859509 0.1606242 -0.009494912 0.09342992
000120 8b 28 e5 3d f5 94 7b bc 56 18 2f 3b 46 e6 8d bc
       0.111893736 -0.015355338 0.0026717386 -0.017321717
000130 e7 7b d7 3d 18 0e 94 bd 67 63 c4 bd ef 0a 13 bd
       0.10521679 -0.07229251 -0.09589272 -0.0358991
000140 28 42 be bd 7a 74 cf bd e1 23 7e bd a9 bd ea bd
       -0.09289962 -0.10129638 -0.062045936 -0.11461956
000150 9a 94 ba 3a d6 b7 5e bc 1b 27 74 3e 5a 4e 42 be
       0.001423496 -0.013593635 0.23843043 -0.18975201
000160 f7 a6 2a 3e 1c b9 a6 bc d4 da 78 bd d3 0a 15 be
       0.16665255 -0.020351939 -0.060755566 -0.1455491
000170 82 02 e6 3c 70 73 14 3c 84 7b 0e 3e e7 3c a4 bd
       0.028077368 0.009060726 0.13914305 -0.08019429
000180 01 20 c1 bd d0 19 6a bc f5 ec 81 3e 18 86 95 3d
       -0.094299324 -0.014288381 0.25376096 0.07300967
000190 f1 bc ae bc c9 74 85 3e bb b5 3b 3e 76 86 07 3e
       -0.021330329 0.26065663 0.18331043 0.13234887
0001a0 a4 7c 30 bd 92 46 6d bc 9b 72 20 3e ed a0 ad 3b
       -0.043087617 -0.014482157 0.15668719 0.005298725
0001b0 4d 3d 47 be 9b 78 b4 3d e4 1f 64 bd 7d 24 2b be
       -0.19456978 0.08812066 -0.055694476 -0.16713138
0001c0 8e b8 0e 3d aa 05 3f be 8e e7 d2 bc db 5e 1e bd
       0.034843974 -0.18654504 -0.02574518 -0.03866468
0001d0 42 3c ac 3e 2c 7f 38 be ed b0 90 3c 0b 82 11 3e
       0.33639723 -0.18017262 0.01766249 0.14209764
0001e0 c0 04 61 3c 8a 73 44 3d 68 60 18 be ce dc 15 bc
       0.013734043 0.04796175 -0.14880526 -0.009146882
0001f0 ae 84 6c 3c 78 c4 22 bd e8 31 24 bd ce 4e e4 bb
       0.01443593 -0.03973815 -0.040086657 -0.006967402
000200 1d df f1 bd cb a5 8d 3d 94 6d 16 3d 8c ec 73 bd
       -0.118101336 0.06916388 0.036725596 -0.05955176
000210 f6 4b 5b 3d 7a 61 3d be bc e9 27 3d 42 24 d1 bd
       0.05353924 -0.18494216 0.04099439 -0.10211994
000220 40 98 ba bd 7d 13 01 3d a7 b5 aa 3c fc 62 2b be
       -0.09111071 0.031512726 0.020838572 -0.16736978
000230 55 79 42 3e e7 19 90 3c af 65 a5 bc 52 62 0c be
       0.18991597 0.017590476 -0.020190088 -0.13709381
000240 65 9d c2 3d 12 c1 ac 3d b7 24 33 bd 6f df 82 3d
       0.09502677 0.08435263 -0.043736186 0.06390273
000250 57 3c e4 bd df 43 6d bd bc 09 7a bc 07 64 6b 3d
       -0.111443214 -0.057926055 -0.01526111 0.05746844
000260 74 73 d1 bd b0 44 97 3b 3f 9b 48 3c 02 2a b5 3b
       -0.10227099 0.0046163425 0.012244045 0.0055286894
000270 1b 80 77 bd 30 73 2d bd 25 e2 0b be ae 7c 6b 3d
       -0.060424905 -0.04234618 -0.13660486 0.05749195
000280 f1 52 82 3d 95 f4 bb bc 4f e6 43 3d f3 1b 15 be
       0.06363476 -0.022943774 0.04782706 -0.14561443
000290 2c 44 d1 3c cc 43 f2 bd ec ec bd bd b5 fc f6 3c
       0.025545202 -0.118293375 -0.09273705 0.030149797
0002a0 47 58 50 3c c6 62 0f be 79 a3 18 3e 9d 22 03 3d
       0.012716359 -0.14002523 0.1490611 0.03201543
0002b0 2d 48 f2 bc 1f 95 f8 bd 99 9f e4 3d 47 78 c5 3d
       -0.029575432 -0.121378176 0.11163253 0.09642082
0002c0 a3 8a 89 bc 7c fe 9d 3d d3 f6 75 bd cc 69 b8 bd
       -0.01678974 0.07714555 -0.060049843 -0.09004554
0002d0 b1 7f 12 bd 6a 79 58 bd 07 8f 9d bd cf c0 21 3d
       -0.035766307 -0.052850164 -0.07693296 0.039490517
0002e0 a7 c2 04 3e 3a 34 52 bd 87 c6 bb bc e6 79 da bc
       0.12964879 -0.05131934 -0.022921814 -0.026669454
0002f0 84 d6 0d 3e 7c 03 98 3c 14 9e c9 bc e0 7d 51 3e
       0.13851362 0.018556349 -0.02461151 0.20458174
000300 91 ac c4 3d 30 91 46 bd 8b a2 cb bd c3 83 91 bd
       0.09603227 -0.048478305 -0.09943112 -0.0710521
000310 bb 68 44 3e af 53 f8 3d f2 bb 40 be 3d f4 6d 3d
       0.19180577 0.121253364 -0.18821695 0.058094252
000320 e6 b1 30 bd 31 84 d3 bd 6d ca c3 bb 26 f0 1c be
       -0.043138407 -0.10327948 -0.005975059 -0.15325984
000330 8c d0 00 be 29 95 51 3d e0 44 d6 3d d7 82 32 be
       -0.12579554 0.05116764 0.104623556 -0.17432724
000340 24 67 56 3d ab c3 9f 3d 48 5c a8 3c d8 44 ff bd
       0.052344456 0.078009926 0.020551816 -0.12464303
000350 ca a9 83 3c be e4 f6 bc 5a 5a 6b 3d 44 67 16 be
       0.016072173 -0.03013837 0.057459213 -0.1468783
000360 9f 26 1c be e4 a3 80 3d a3 e9 59 3e 75 6f 87 3e
       -0.15249108 0.0628126 0.21280532 0.26452222
000370 7e 41 53 bd c5 76 91 3e 8f e3 14 3e a8 5c 08 3e
       -0.05157613 0.28410926 0.14539932 0.13316596
000380 5c 2d 72 3d f4 c1 6e 3d 88 d8 61 3e 55 c6 bd bd
       0.05912529 0.058290437 0.22055256 -0.092663445
000390 3e 79 0a bd bf f4 d8 3d fd 2b 8b bd 8e c9 1b be
       -0.03380703 0.105935566 -0.067954995 -0.15213606
0003a0 78 ee e5 bc 76 f1 72 bd 69 82 43 bd 80 45 36 be
       -0.028067812 -0.059312306 -0.04773179 -0.1779995
0003b0 27 7f 66 3e 33 5c 27 be 10 fb d7 bd 89 10 09 3e
       0.22509442 -0.16343765 -0.10545933 0.13385214
0003c0 e4 7d da bc 64 c6 23 3d c2 a6 f4 bd e6 24 30 3c
       -0.026671357 0.039984122 -0.11945869 0.010750985
0003d0 e0 bd b5 3c b0 51 99 3d 04 06 52 3c 12 60 10 bd
       0.022185266 0.07486284 0.012818817 -0.03524787
0003e0 4c 1d d1 bd 67 82 fb 3c ee e7 57 3d ea 5e 64 bc
       -0.10210666 0.03070183 0.05271142 -0.013938645
0003f0 3e 0b 56 bb 56 28 2a be 48 9b 79 3d e6 c0 eb bd
       -0.003266051 -0.1661695 0.060939103 -0.11511402

conv1.lin_l.bias f4 [32]
000000 3d 55 14 bd b1 bc c0 bd 94 83 e3 bd e5 a8 22 be
       -0.036214102 -0.0941099 -0.11109081 -0.1588474
000010 97 cc 04 be a8 46 be bd 44 ed 2d be 50 f8 24 be
       -0.1296867 -0.0929082 -0.16985041 -0.16110349
000020 43 71 a4 bd 44 33 34 be e5 e0 65 bc e0 db dc 3c
       -0.080294155 -0.17597681 -0.01403067 0.026960313
000030 a9 d4 1e be 5a b9 9f bb 9c 02 1e be 8c da 8d bd
       -0.15510811 -0.0048743905 -0.15430683 -0.0692645
000040 78 d8 04 3d d6 97 57 bd ba 93 1a 3d 77 fa 07 be
       0.032433003 -0.052635036 0.03773854 -0.13279139
000050 49 54 bd bd 96 72 2d be 76 21 42 bd af ff 48 bd
       -0.09244592 -0.16938242 -0.047395192 -0.049071964
000060 de a3 e3 bc ab 98 47 3d 3e 12 c3 3c 56 18 35 3d
       -0.027788099 0.04872958 0.02381241 0.04421266
000070 52 e6 c6 bb 70 b9 91 bd 88 1b 1b be eb a8 b7 bd
       -0.006069937 -0.071154475 -0.15147221 -0.089677654

conv1.lin_r.weight f4 [32, 30]
000000 c4 92 11 be 01 85 9f 3d c6 13 3c be d8 fe 16 be
       -0.14216143 0.0778904 -0.18366918 -0.14745653
000010 33 ee 04 be e4 f3 f0 bd 4e 2e 08 bd 89 6e 06 be
       -0.12981491 -0.117652684 -0.033247285 -0.13128103
000020 58 50 eb bd a9 b2 90 3d c6 af 20 3c bd 9f 06 be
       -0.11489934 0.07065327 0.009807533 -0.13146873
000030 75 a8 eb 3c 77 30 d7 bd 37 42 c1 3d 65 2b 06 3e
       0.02876685 -0.10507291 0.094364576 0.13102491
000040 51 31 af bd 50 e7 cc bd cc 20 6b 3d 7c 13 08 be
       -0.08554328 -0.10005057 0.057404324 -0.13288683
000050 b0 3f 8b bd 22 f7 a5 bb 7d 20 db bd f3 69 23 3d
       -0.06799257 -0.005064861 -0.10699556 0.039895963
000060 5a be 49 3d bc 27 cb bd 9e b0 98 3d 0c c9 20 be
       0.0492538 -0.09919688 0.07455562 -0.15701693
000070 d5 25 d0 3c 72 eb 22 bd 58 dd 47 3e 0f 06 90 bd
       0.025408665 -0.03977532 0.1951803 -0.070324056
000080 86 78 4d be 4b 57 46 be e5 4a 63 3c d6 99 1c 3c
       -0.20065507 -0.19369237 0.013872837 0.009558162
000090 0c 0f a2 3e 9d 93 60 be 32 d9 ec 3d 78 7b d6 bd
       0.31652105 -0.2193131 0.11564864 -0.104727685
0000a0 3a 1a ca 3e 6e b4 15 3e 0f 65 c5 bb 4c 40 77 3e
       0.39473134 0.1461961 -0.00602401 0.24145621
0000b0 e2 6a 6a be 73 83 83 3c 5c d8 b7 3c 82 e9 f0 bd
       -0.22892335 0.01605389 0.022442035 -0.11763288
0000c0 8f 6e a5 bc 2f 47 22 3d 27 f1 57 bd 7c 8c cd be
       -0.02019432 0.039618667 -0.052720215 -0.40146244
0000d0 67 6d 66 3e 2b 02 bd 3d 43 60 da be b8 6f d6 bd
       0.22502671 0.09228929 -0.42651567 -0.104705274
0000e0 b9 21 68 3e c9 2f 2e be 05 53 b6 3c 86 1c 1d bd
       0.22669114 -0.17010416 0.022256384 -0.03835728
0000f0 f5 0f c2 3b 69 66 d7 bd fc 42 e6 bc ff 84 30 bc
       0.0059223124 -0.1051758 -0.028108113 -0.010773896
000100 7c 59 da 3d f3 79 fe bd e2 81 05 be 6f 72 60 3e
       0.10661599 -0.12425604 -0.13037828 0.21918653
000110 6f 87 02 3d 5b b8 99 3e 1f 3e 9e be 71 d5 36 3c
       0.03186744 0.30023465 -0.3090677 0.011159287
000120 77 74 02 3e ed 09 4f be 74 7e 94 bc d5 86 10 be
       0.1273974 -0.2021863 -0.018126704 -0.14113934
000130 51 df 86 3d 41 1b ab bd 84 22 41 bd 5b f5 55 3d
       0.06585563 -0.08354808 -0.047152057 0.052235942
000140 bc bf 98 3e 26 6c 0a 3e f9 9b 23 be 0e a7 6d be
       0.29833782 0.13517818 -0.15977468 -0.23208258
000150 19 b1 85 bd 55 8b b6 bd fe 37 93 bd 10 95 b3 be
       -0.06527919 -0.08913294 -0.07188414 -0.35074663
000160 94 d0 f3 be 2d 9d 5f 3e ba b9 a0 3b 77 9d 47 be
       -0.4762007 0.21837302 0.004904953 -0.19493662
000170 ba a7 46 be 88 42 00 3c dc 34 d3 3c c2 57 5d be
       -0.1939992 0.007828362 0.025782041 -0.21615508
000180 dd 0d 6a be 37 5a 8e 3e 15 c8 d7 3d 2c 75 8b 3e
       -0.22856851 0.27803203 0.105362095 0.27237833
000190 76 b0 ba be 9b 85 c4 bb fd b8 23 3e 48 75 67 be
       -0.36462754 -0.0059973723 0.15988536 -0.22603333
0001a0 1a 4b c7 3d 66 bf 05 be 37 79 2a 3e ea 2e b2 bd
       0.09731121 -0.13061294 0.16647802 -0.087003544
0001b0 6d aa 1b bd 93 e1 ce 3c 54 ad 7e 3e de 37 28 3e
       -0.038004328 0.025254047 0.24870807 0.16427562
0001c0 32 52 3b be d6 a8 b1 be bc fa 86 bd 1b 3e 26 be
       -0.18293074 -0.34699124 -0.065907925 -0.16234629
0001d0 ee 2a 64 3d 63 85 ff be c9 30 ce be 47 c5 27 3e
       0.055705003 -0.49906453 -0.40271595 0.16383849
0001e0 4e ce 1c 3e de 39 b9 bd 32 7f 74 be b8 4a 38 be
       0.15313074 -0.090442404 -0.23876646 -0.17997253
0001f0 12 dd 84 bb 94 dc 8f 3b d5 f7 8f 3e f7 31 6f be
       -0.004054674 0.0043903086 0.28118768 -0.23358904
000200 13 ea 7f 3d 69 d4 e5 bd 89 90 ca 3e bd b5 fb 3d
       0.06247909 -0.11222155 0.39563397 0.12290523
000210 da a0 f1 bb 9b 27 5c 3e f5 ed 6d be 7e e1 1d 3c
       -0.0073739113 0.21499483 -0.23235305 0.009636281
000220 eb 2e e1 3c eb 75 f4 bd 15 6a c4 3b e7 a2 e0 3c
       0.027488193 -0.119365536 0.0059940913 0.027421428
000230 28 f6 e1 bc 19 a4 be be cd 26 74 3e 3d 67 b2 3d
       -0.027583197 -0.37234572 0.23842926 0.087110974
000240 86 0b cd be 9f 7f 1b be 88 64 8c 3e ea 5a 4b be
       -0.40047854 -0.15185402 0.2742045 -0.198589
000250 4e 2f f7 3c 48 ae 85 bd e3 e2 27 3e 0c 2e 5d bd
       0.030173924 -0.06527382 0.16395144 -0.05399899
000260 69 90 2b be c7 01 24 be 16 89 bf 3c aa 7e 03 3d
       -0.16754307 -0.16016303 0.023380797 0.03210322
000270 86 82 89 3e dc c8 80 be b4 a8 dc 3d 3d 69 c9 bd
       0.26857394 -0.25153244 0.10774365 -0.09834526
000280 e7 c5 bb 3e ac 3c 18 3e 8a c0 85 bc fb 00 7c 3e
       0.36674425 0.14866894 -0.016327161 0.24609749
000290 a3 38 68 be 99 03 20 bc 12 c2 f2 3c ca 55 e7 bd
       -0.22677855 -0.009766483 0.029633556 -0.1129566
0002a0 a5 ed 8e bc 3a 15 a3 3b e5 dd ad bd 70 ae c4 be
       -0.017447302 0.0049768956 -0.08489589 -0.38414335
0002b0 6c 1a 5f 3e 16 9d 33 3d 2b 93 c8 be cb 0c ae bd
       0.21787423 0.04385098 -0.3917478 -0.08498534
0002c0 91 25 98 3e 38 2a 22 be 31 de 82 3d c1 f9 32 bd
       0.2971616 -0.15836418 0.06390036 -0.043695215
0002d0 4e 46 00 bc 14 3a 74 3c 49 f2 4f be 39 52 2d be
       -0.007829262 0.014906425 -0.20307268 -0.16925897
0002e0 65 b1 54 be 3a 82 40 be e2 52 85 be 47 49 11 3e
       -0.20770796 -0.18799677 -0.26039797 0.1418811
0002f0 2c e7 8b bc e4 36 da 3e f9 46 b0 be 95 02 6c be
       -0.017078005 0.42620003 -0.34429148 -0.2304786
000300 e1 2e f8 3c 44 e8 57 be 3e 81 8e 3e 44 0e 8a 3c
       0.030295791 -0.21084696 0.2783298 0.016852506
000310 f2 7c 13 be fd fa 8e be 0a 35 47 3e 93 b1 3f be
       -0.14403132 -0.27925864 0.19453827 -0.18720083
000320 09 c0 c7 3d 7a ea ad 3d bb ca 45 be ae 73 00 be
       0.09753425 0.084919885 -0.19315617 -0.12544128
000330 30 ea cd bc 9c 06 8a be 2b cd 4b 3e 35 93 c2 be
       -0.025136083 -0.26958168 0.19902484 -0.38002935
000340 84 11 8f be 90 45 10 3d 2b e4 59 bd f9 ad 6c be
       -0.2794305 0.03522259 -0.053196114 -0.2311324
000350 3d 8b 37 be ff 80 a4 3d b0 f1 62 3d 7d 7c 23 be
       -0.17924209 0.080324166 0.055406272 -0.15965457
000360 ec 53 7e be b6 ce 8a 3e af 9c b7 3d d0 21 95 3e
       -0.24836701 0.27110833 0.08965432 0.2912736
000370 04 69 c9 be 98 fd 4c 3d a2 18 0f 3e 7e 85 86 be
       -0.39337933 0.050046533 0.1397424 -0.2627372
000380 71 89 10 3e 66 62 5f be 92 38 27 3e 6e 5f 50 bd
       0.1411493 -0.2181488 0.16330174 -0.05087226
000390 a5 63 36 bd b3 05 28 3d 63 e8 a2 3e 77 e8 ff 3d
       -0.044528622 0.04102106 0.31817922 0.12495511
0003a0 ed c1 1b be 84 e2 b1 be 7a db 7d bd 24 85 5b be
       -0.15210696 -0.3474313 -0.061976887 -0.21437508
0003b0 77 eb 3a bd c7 aa fd be 72 d2 e6 be 70 72 6a 3e
       -0.045634713 -0.49544355 -0.45082432 0.22895217
0003c0 0b d5 19 3e 6f fc 9e bd 97 c8 1d be 3c 33 03 be
       0.15022676 -0.07762992 -0.1540855 -0.12812513
0003d0 26 cb 7b 3b 84 58 5f ba 95 a3 70 3e 9b ba 94 be
       0.0038420646 -0.0008519965 0.23499902 -0.2904862
0003e0 b8 4d e5 3d 0a d5 b9 bd 3e ab ba 3e e0 3e 35 3e
       0.11196464 -0.09073837 0.36458772 0.17699766
0003f0 db e8 1b 3c b3 87 65 3e e2 c3 2e be db d3 2d 3c
       0.009515966 0.22415046 -0.17066911 0.010609592

conv2.lin_l.weight f4 [20, 32]
000000 97 45 2f 3e 7e e8 16 3c 5f 48 14 be 33 cc 44 bd
       0.1711639 0.009210704 -0.14480732 -0.048046302
000010 61 e3 97 bb 98 65 27 ba 27 7c f5 bc fc 4a 81 bc
       -0.00463526 -0.0006385683 -0.029966427 -0.015782826
000020 ce 45 56 bb 1f ea 05 be b8 81 bd bc 5d 63 10 be
       -0.0032695415 -0.13077591 -0.023133144 -0.14100404
000030 c0 5a f5 bb 94 a7 e4 be 11 53 ca bd 44 bb 0b bf
       -0.007487625 -0.44659102 -0.09879125 -0.5458262
000040 23 24 d4 bd 8c 28 a0 bd 64 07 b9 bd 53 23 19 bc
       -0.10358455 -0.07820234 -0.09034613 -0.009346801
000050 84 7e e3 39 ae 52 f2 bd d0 90 a9 bd 60 73 83 bd
       0.00043391075 -0.11832176 -0.08279574 -0.064184904
000060 9b a6 8e bd 0d d3 3e bd 42 89 d7 bd 82 6d 06 be
       -0.06965371 -0.046587992 -0.10524227 -0.13127711
000070 00 69 26 38 16 ee ad 3e 01 72 8c 3c 1f 5a 7a bc
       3.9675273e-05 0.33970708 0.017144205 -0.015280276
000080 56 f5 b4 3d 80 1a 7c 3c 7f e3 5c 3c f4 bf 23 bc
       0.088358566 0.0153871775 0.013481974 -0.009994496
000090 7a d1 ce 3c 07 1d cb 3c 97 fe ed bc de 6a 7f 3c
       0.02524637 0.024794115 -0.029052062 0.015589444
0000a0 74 25 0a 3d ac 6a 4a bd b8 6f 8d 3c 70 1d 57 bd
       0.033727124 -0.049418136 0.017265186 -0.05251831
0000b0 79 50 2a bd 92 bf 82 be a3 7b a8 3c e2 9d aa be
       -0.04158065 -0.25536782 0.020566767 -0.3332358
0000c0 c9 b6 f0 bc e0 43 79 3d f5 ba 0d 3c 58 28 40 3d
       -0.029384034 0.060855746 0.008650531 0.046913475
0000d0 28 04 92 3d 2b 2c 08 be 2b b0 65 3d 8d 8b b3 3d
       0.07129699 -0.13298099 0.05607621 0.087668516
0000e0 ea 2b aa 3d 10 83 2e 3d 73 bd 9d bc 19 be 1c bc
       0.08309157 0.04260546 -0.019255375 -0.009566807
0000f0 32 64 88 3d 23 61 5e 3e cb bd ce bb fd 31 41 3d
       0.06659736 0.21716742 -0.006309246 0.047166813
000100 d1 25 61 bd 4f 04 17 3d af 86 06 3d 16 af 0a bd
       -0.054967705 0.036869343 0.032843288 -0.03385838
000110 4a 0f 07 3d b8 9f 01 3d 92 9f da bd 36 89 8e 3c
       0.032973565 0.03164646 -0.10674967 0.017399412
000120 bf 88 bc 3d d4 3d ce bc 15 02 61 3c 70 66 01 be
       0.0920577 -0.025175966 0.013733407 -0.12636733
000130 7a 95 41 bc ae a4 40 be 51 94 67 bd c0 d0 68 be
       -0.011815423 -0.1881282 -0.05653793 -0.22735882
000140 94 ce bc bd b5 aa 68 3d 86 43 12 bd 13 8b 22 3d
       -0.09219089 0.056803424 -0.035708927 0.039683413
000150 e5 9c 49 3d fd f2 01 be 7a 76 60 3d d7 e0 75 3d
       0.049221892 -0.12690349 0.054800488 0.060028877
000160 fc 11 88 3d ee ee ea ba 44 40 fd bd 26 39 b1 bd
       0.06644055 -0.001792399 -0.12365773 -0.08653478
000170 91 d9 cf bb 7a 66 48 3a 94 5c fa bc 24 65 29 3d
       -0.0063430746 0.0007644665 -0.030561723 0.04135622
000180 30 fd ac bd 58 a1 c4 3c 02 f1 d4 3d 41 51 82 3c
       -0.08446729 0.024002716 0.10397531 0.015907886
000190 59 4d a9 3c 9f 21 17 3d 6b e3 72 bc 16 31 25 3d
       0.020666765 0.036897298 -0.0148247285 0.040330015
0001a0 ba c2 a3 3d b8 91 c8 3d b7 d1 79 3c 3b de 8f bd
       0.079961255 0.09793419 0.015247754 -0.07024809
0001b0 f3 14 85 3d a0 05 b4 3d 71 50 af bc db c9 b5 3d
       0.06498136 0.087901354 -0.021400662 0.088763915
0001c0 53 ca 83 bd 58 7b 84 3c 32 1e 18 bc 22 99 bf 3c
       -0.06435075 0.016172096 -0.009284543 0.02338845
0001d0 7a f9 de 3b 98 57 26 bd fd 71 a7 3c 50 83 57 3a
       0.0068046423 -0.04061088 0.020440096 0.0008221166
0001e0 f5 87 b1 3b 5a 4c 83 3c 37 d7 97 bd 4f c1 57 bd
       0.0054178187 0.016027618 -0.07414096 -0.052674588
0001f0 67 e6 9a bc 5d c5 51 be 09 82 0a 3d 4f ec 0f 3d
       -0.018908693 -0.20485444 0.033815417 0.03513747
000200 5f ab 90 bd 2a 72 ac bc c2 a6 9b bc e0 c9 96 ba
       -0.070639364 -0.021050531 -0.019000415 -0.0011504255
000210 cc 38 aa bb 62 d0 e4 bc d7 de 36 3d 19 1c 44 bd
       -0.005194759 -0.027931396 0.04464611 -0.04787836
000220 e0 10 89 bc 2a bd 97 bd c8 aa b5 bc 1c 2b d8 bd
       -0.01673168 -0.07409127 -0.022176161 -0.105550975
000230 4e dc 88 bd 3c df 21 be 7f a6 03 3d 16 c1 4b be
       -0.06682645 -0.15807813 0.032141205 -0.19897875
000240 45 ec e1 bd 75 5e d2 3c fa 1b aa bd 39 3a e8 bb
       -0.11031393 0.025679806 -0.08306117 -0.007087019
000250 0f 03 cb 3c 4a 5e a5 bd 6c dd 7d 3c 98 08 21 3c
       0.024781732 -0.08074625 0.015494686 0.009828709
000260 cb 6c 8d 3c fd 9e 85 bd af 67 a3 bd 50 1e d9 bd
       0.01726379 -0.06524465 -0.079787605 -0.10601485
000270 4d a3 db bc 3b 73 6f 3b 4e 11 52 bd 74 c8 5d 3c
       -0.026811266 0.0036537189 -0.051286034 0.013536561
000280 a8 38 e0 3c e6 c7 db 3c 20 b4 27 3e cd 5d e3 3c
       0.027370766 0.026828717 0.16377306 0.027754689
000290 ff 59 15 3d 17 9e 29 3d c3 19 6f bd c9 33 93 3d
       0.03646278 0.04141053 -0.058374178 0.071876116
0002a0 ee 2f ae 3d e3 da b6 3d ee 94 33 3d 6a 91 80 bc
       0.085052356 0.08928468 0.043843202 -0.015694339
0002b0 54 ab 41 3d 5e 72 a5 3d f2 42 bc 3c 24 99 96 3d
       0.04728253 0.080784544 0.02298114 0.07353428
0002c0 22 7a 07 3c f5 c2 d4 3d 4b 40 23 3d 46 5c a0 3d
       0.008268865 0.103887476 0.039856236 0.078301
0002d0 eb 58 75 3d d2 26 76 bc da ff d5 3d b2 cb dd 3d
       0.059899252 -0.015023904 0.104491904 0.108298674
0002e0 9c 4d f2 3d 91 62 75 3d 64 a8 b7 ba ad 7f 14 3d
       0.11831209 0.059908453 -0.0014011976 0.036254574
0002f0 49 25 b8 3c 04 37 94 bd 08 0d 4b 3d a6 b4 4c 3d
       0.022478716 -0.07237056 0.049572974 0.049976967
000300 79 66 6b bd 2c 2e 46 bd d6 0a 48 bc e7 27 b6 3c
       -0.057470772 -0.048383877 -0.012209615 0.022235824
000310 55 a1 24 bd 27 c2 40 bd a7 a1 d4 3d 04 e5 20 bd
       -0.04019292 -0.047060158 0.10382395 -0.039280906
000320 ec cd 6d bd e4 c9 50 3c 9c 77 a9 ba 33 24 e4 bc
       -0.05805771 0.012743447 -0.0012929323 -0.027849292
000330 ed 65 10 3b c7 9a 06 3e 70 95 38 3c c4 5d 2b 3e
       0.0022033409 0.1314498 0.011266097 0.16734987
000340 9f 0f 23 bd c4 d0 9d bd fb de 72 bc e2 58 53 bd
       -0.03980982 -0.077058345 -0.0148236705 -0.051598437
000350 f9 a1 87 bd a7 4e 2a 3d 04 28 8f bd b7 94 ab bd
       -0.06622691 0.041578915 -0.06990054 -0.083779745
000360 cc f2 af bd e5 69 96 bc 6e 4f ad bc fd 61 35 bd
       -0.08591232 -0.018361041 -0.02115604 -0.044282902
000370 40 7a bd bb 5d fa 4e be 41 46 81 3b 81 c1 16 bd
       -0.0057823956 -0.20212694 0.0039451425 -0.036805633
000380 d7 5d 4e bd ec 49 3b bc 54 2c 8f 3b b1 23 8d 3c
       -0.05038246 -0.011431199 0.004369298 0.017228933
000390 e7 2d 94 bc a2 e2 8b bc 27 5f 08 3d 74 84 04 ba
       -0.018088294 -0.01707584 0.03329387 -0.00050551374
0003a0 ad ed aa bc 12 f6 5f 3d 0b 8a 38 bc 0d cc 25 3d
       -0.020865286 0.05467803 -0.011263381 0.0404778
0003b0 e1 0d 58 3d ba c4 67 3e fc a7 5e bc a5 43 94 3e
       0.05274761 0.22633639 -0.013589855 0.2895786
0003c0 52 b2 b6 3c 6b 76 4a bd a4 cc e9 bb d7 0b fe bc
       0.022301827 -0.04942934 -0.0071349908 -0.031011505
0003d0 a7 80 67 bd 81 b1 f3 3d 2a 77 3a bd 8e ba 8e bd
       -0.056519177 0.118990906 -0.0455238 -0.06969176
0003e0 5e af 91 bd 27 d1 1d bd 4f 8e 91 3c fa 68 20 3c
       -0.07113527 -0.03852954 0.017768053 0.009790653
0003f0 b4 62 81 bd 86 7a 29 be 63 09 b3 3c 51 f8 19 bd
       -0.06317654 -0.16550645 0.021855062 -0.03759033

conv2.lin_l.bias f4 [20]
000000 8a 3b a0 3a 9d 01 81 bb b3 7b 4e 3d f7 91 95 3c
       0.0012224775 -0.00393696 0.050410938 0.018258078
000010 eb 54 4b 3d 75 dc 4a bd 60 0d bc 3b 8d 8b 3c bc
       0.04964153 -0.04952665 0.005738899 -0.011507881
000020 06 b2 e0 b9 5a d0 c1 3c e5 aa fa 3c fe 1e 09 3d
       -0.00042857247 0.02365892 0.030599067 0.033476822
000030 3b 0b 5f bd 8e 77 d8 bc 5e de a2 bb 39 a3 f3 bc
       -0.05445407 -0.026424196 -0.004970356 -0.029740917
000040 92 ba 14 3c 29 94 19 bc 69 c6 7d bc 81 16 2e bc
       0.009077685 -0.009373703 -0.015489199 -0.010625483

conv2.lin_r.weight f4 [20, 32]
000000 28 2d 9e bb c6 49 27 3e 52 65 06 3e 7c 59 01 3e
       -0.0048271604 0.16336736 0.13124588 0.12631792
000010 07 da 55 3e c9 15 0c 3e a7 4c 87 3d 9b 32 4f 3e
       0.20883952 0.13680185 0.06606417 0.20234148
000020 c4 63 0b 3e 32 62 10 3e 29 49 f7 be d5 0d 45 be
       0.13612276 0.14099959 -0.48298004 -0.19243558
000030 53 40 11 3e b4 54 f6 be fc 4a d2 3d a6 6e 26 bf
       0.14184694 -0.48111498 0.102682084 -0.65012586
000040 7f 91 4c be 29 89 02 bd 81 4f 22 be e1 c2 4e 3e
       -0.19977377 -0.031869087 -0.15850641 0.20191528
000050 cd b4 16 3e 27 df 4a 3f 99 f8 17 bd aa 4f 04 bd
       0.14717408 0.79246753 -0.037102316 -0.032302536
000060 a2 c0 94 bd 48 29 39 be e5 ad 49 be a5 e1 52 be
       -0.07263304 -0.18082154 -0.19695242 -0.20593889
000070 82 65 00 be ef b1 8c bc 7e c8 3c 3e 3c ef e8 3d
       -0.12538722 -0.01717469 0.18435857 0.11373755
000080 75 22 05 bd e7 60 92 bd 2d d7 95 3d 02 25 d0 3d
       -0.032503564 -0.07147389 0.07316432 0.10163309
000090 c8 0d 77 bd 90 06 c6 bd 1c d6 19 3d 8c a2 dc 3d
       -0.060315877 -0.096692204 0.037557706 0.10773191
0000a0 97 a3 50 bd 67 76 eb 3d 1a 58 0e bb b3 53 69 3e
       -0.05093726 0.11497193 -0.0021719993 0.22785835
0000b0 73 12 ac 3d 8c 39 ba be 20 c7 fe 3d ad 7b eb be
       0.084019564 -0.3637203 0.12440324 -0.45992795
0000c0 41 0b 5e 3e 11 7a e0 3d bf 5a 64 3e 31 09 0a 3e
       0.2168398 0.10960782 0.22300242 0.13480069
0000d0 dd 7e d4 bd 0f da 8f 3d b2 53 b4 3d bf 72 d5 3d
       -0.1037576 0.07024013 0.08805026 0.10422277
0000e0 59 78 bb 3d 27 37 64 3e 86 2c 75 3e 4f 7f 72 3e
       0.09153814 0.22286664 0.23942766 0.23681377
0000f0 26 49 6f 3e d3 fb ce bd b9 35 f9 3d bf ac ac bd
       0.23367748 -0.101066254 0.1216845 -0.08431386
000100 0a c0 c0 3d 4a 8c 81 3d 2f 9d 19 bd ee ae 37 bc
       0.094116285 0.06325586 -0.037503418 -0.01121114
000110 30 64 d3 3d 00 26 83 3d 78 82 a8 bc 18 04 60 bd
       0.103218436 0.06403732 -0.020570025 -0.054691404
000120 e6 e6 50 3d 70 4d 76 bb 4e 00 64 bb 03 2c 11 3e
       0.051001452 -0.0037582777 -0.003479022 0.14176945
000130 42 5e 47 bd b9 61 7b be c7 1a 76 3d b5 3e 9f be
       -0.048673876 -0.24548997 0.06008413 -0.3110253
000140 eb c1 04 3e 08 ac 83 be 13 b9 10 3e f5 b8 9d bd
       0.12964599 -0.25717187 0.141331 -0.077012934
000150 43 32 8d 3d 40 ed 24 bf 69 03 89 be 2c 3f 89 be
       0.06894352 -0.64424515 -0.26760414 -0.2680601
000160 03 c6 8c be d7 2d bd 3d 26 e7 1c 3e 58 1e 1f 3e
       -0.2749482 0.09237259 0.15322551 0.15538919
000170 57 06 01 3e c9 34 ff 3c d3 fd 6d bd a7 f6 88 3d
       0.12600075 0.0311531 -0.058103394 0.0668767
000180 83 8c fa 3c 2f 9e 40 3e c5 f2 e1 bd 81 c8 0b be
       0.03058458 0.18810342 -0.11032633 -0.13650705
000190 3d 08 4f 3e 4a a6 52 3e 24 63 d4 bd f7 0b 15 be
       0.20217986 0.20571247 -0.10370472 -0.14555345
0001a0 f7 70 31 3e db 10 1e be 50 7b 8d bc b4 ec 4f 3d
       0.17328249 -0.15436117 -0.017270714 0.050762847
0001b0 87 3a 45 be 08 c4 25 3a 0e b9 84 bd 88 41 10 3d
       -0.19260608 0.00063234614 -0.06480609 0.035218745
0001c0 4d 6f 5f 3d a9 59 2f bd 0d 43 56 3d 5e 75 59 be
       0.054549504 -0.042810116 0.05231004 -0.21236178
0001d0 e9 e3 63 3e a0 70 0e 3a 80 02 29 bd bf 01 32 bd
       0.2225491 0.00054336525 -0.04126215 -0.043458696
0001e0 21 57 33 bd 16 d3 79 3c df 5e 39 3d 38 37 87 3d
       -0.043784264 0.015248081 0.04525649 0.06602329
0001f0 e7 28 1b 3b a4 a1 a1 3d 9e f7 4b be e9 a8 56 3e
       0.0023675503 0.07892159 -0.19918677 0.20962872
000200 75 5c fd 3d 62 0c 92 be 08 9c 08 bd e7 23 13 3d
       0.123711504 -0.28525072 -0.033351928 0.03592291
000210 b0 5a 86 be 6b d9 98 be bb c1 10 3d b3 f9 45 bd
       -0.26241064 -0.29853377 0.035341006 -0.048333835
000220 5e 9c 86 be 41 06 2e 3d 49 87 df bd e0 44 be 3d
       -0.26291174 0.042486433 -0.109144755 0.092904806
000230 ea 2b f9 3c e8 d8 68 be 34 40 ff 3c a7 5d 97 be
       0.030416448 -0.22738993 0.031158544 -0.2956364
000240 ef 6c 90 3d 80 6f 13 3e 8d 45 49 3d d3 22 44 bb
       0.070520274 0.14398003 0.049138594 -0.0029927983
000250 1a 75 9c be ad d4 53 bf d8 26 06 3e 3c 87 12 3e
       -0.3055809 -0.8274639 0.13100755 0.143094
000260 cd 6b d4 3d 63 fa 9d 3d 64 69 b9 3d 26 3c cc 3d
       0.10372124 0.07713773 0.09053305 0.0997241
000270 52 80 aa 3d e6 65 90 3d c6 57 05 3b f0 1a 91 be
       0.083252564 0.070506856 0.0020346506 -0.28340864
000280 39 f1 18 bd d0 9d 87 39 00 2a f0 bc 9d e6 78 bd
       -0.037339423 0.00025866786 -0.029316902 -0.060766805
000290 be 9b 93 bc b2 a1 9d 3b 81 67 8f bd 4a 76 23 bd
       -0.0180186 0.0048105353 -0.07002164 -0.03990773
0002a0 62 03 4b 3c cd 5d bc bd 2a eb a6 3e 83 f3 9e 3e
       0.012390943 -0.091975786 0.3260129 0.3104516
0002b0 46 0c e0 bd 94 a7 a4 3c 2d 47 85 bc 27 5d cc 3d
       -0.10939841 0.020099439 -0.01626929 0.09978705
0002c0 91 72 9b 3e 17 6b ad bd 07 05 9e 3e 52 51 58 bd
       0.30360845 -0.084676914 0.3086321 -0.052811928
0002d0 2b 97 96 3c c9 4e 33 3f d4 9f bd bd 27 7b bd bd
       0.01838263 0.7004209 -0.092590004 -0.09252005
0002e0 8a 51 95 bd 9e ed 8d 3e 0e 3c 9e 3e ab 97 a7 3e
       -0.07290943 0.2772035 0.30905193 0.327329
0002f0 f9 49 80 3e b2 90 b6 bc 9b c6 a8 bd 36 73 11 3d
       0.25056437 -0.022285793 -0.08241006 0.035510264
000300 60 72 a5 3c 3e aa 03 be 88 04 82 bd 45 0e 95 bd
       0.02019614 -0.12857911 -0.063485205 -0.07278112
000310 92 53 cf bd f0 8a e0 bd 66 7d d8 bc a5 c6 8f bd
       -0.10123362 -0.10964 -0.026426982 -0.0702031
000320 23 49 e3 bd 0f f9 96 bd 0b 08 53 3e d7 2f 1c be
       -0.11097934 -0.07371723 0.20608537 -0.15252624
000330 9f 4d 82 bd c2 ab f8 3d 01 1f f3 bd f6 53 3e 3e
       -0.06362461 0.12142135 -0.11871148 0.18586716
000340 c4 de 18 be d9 89 42 3e a9 6f 30 be eb 5c bc bd
       -0.14928728 0.18997897 -0.17230095 -0.0919741
000350 bf b0 e2 bd e2 f2 b6 3d c5 1b 48 3e 8a de 4d 3e
       -0.11068868 0.08933045 0.19541843 0.20104423
000360 bf 3f 4f 3e 4d 47 11 be 30 1d 38 be 56 b1 23 be
       0.20239161 -0.14187355 -0.17979884 -0.15985617
000370 5b d2 24 be 24 52 d6 3d b9 72 c1 bd 38 c8 d5 bd
       -0.16095869 0.10464886 -0.0944571 -0.10438579
000380 3e cc 18 bb 58 b0 ab 3d 7f 43 5c bd 0b 95 b4 bd
       -0.0023315097 0.08383244 -0.053775307 -0.0881749
000390 a9 56 94 3d 21 60 da 3d d0 ee 10 bd a1 f7 99 bd
       0.072430916 0.106628664 -0.035384 -0.075179346
0003a0 da 7a 84 3d c9 7f d7 bd f4 16 df bd ca 39 34 be
       0.064687446 -0.1052242 -0.1089305 -0.1760017
0003b0 29 74 9f bd 6b b9 9f 3e c6 15 e1 bd 5c 05 cb 3e
       -0.07785828 0.3119615 -0.10990481 0.39652526
0003c0 b4 f0 25 be e8 49 75 bd 97 d5 2a be e3 9c d6 bd
       -0.16205102 -0.059884936 -0.1668304 -0.104791425
0003d0 28 f5 e2 3d 40 9c 43 3e 34 43 2d bd 51 b1 65 bd
       0.11081916 0.19102573 -0.042300418 -0.056077305
0003e0 9c e8 42 bd ee a6 2f be 68 f6 3f be 0c c6 39 be
       -0.047585115 -0.17153522 -0.1874634 -0.18141955
0003f0 fd 63 3b be 07 ec 98 3d 83 7f ce bd 7a 17 c6 3d
       -0.18299861 0.07466894 -0.10082915 0.096724465

linear.weight f4 [14, 20]
000000 af 82 51 3f c7 2b 30 bf fb b6 3a 3f af 31 bd 3f
       0.8184003 -0.688168 0.72935456 1.4780787
000010 c7 91 e2 bf b4 4e 02 be 0c 8b 4e bf f2 90 33 3f
       -1.7700738 -0.12725335 -0.8068092 0.70143044
000020 99 16 98 bf 8c 6b 5b bd 22 57 95 3f 75 56 ca bf
       -1.1881896 -0.05356936 1.1667216 -1.5807635
000030 b4 5e ac bf c1 f3 a6 bf 68 c4 72 3f b4 bf ba bf
       -1.3466401 -1.3043138 0.9483094 -1.4589753
000040 e1 d1 b8 3d 99 33 d5 3f bb 19 64 3f d8 62 5c 3f
       0.09024406 1.6656371 0.8910176 0.86088324
000050 22 43 bb bf 11 c2 a2 3f 0f e0 75 3f f4 6f da 3e
       -1.4629862 1.2715474 0.9604501 0.42663538
000060 fb 10 2a 3f 9c af db 3f a3 d7 80 bf ed 75 7d bf
       0.6643216 1.7162967 -1.0065807 -0.99008065
000070 49 2c ae bf 91 66 17 3f 9d 57 97 3f a2 64 ab 3f
       -1.3607265 0.5914088 1.1823612 1.3390086
000080 65 79 06 40 47 74 42 be d4 88 d2 bf 0c 61 b1 bf
       2.1011593 -0.18989669 -1.6448007 -1.3857741
000090 bf ef 88 3f c3 1d 8b bf 0c 44 83 bf d3 9f 89 3f
       1.0698165 -1.0868458 -1.0255141 1.07519
0000a0 6d 3e db bf 00 57 a2 bf d3 8e 7b bf e8 a4 06 bf
       -1.7128426 -1.26828 -0.9826481 -0.52595377
0000b0 42 49 59 bf d6 2e 7f 3d c4 6e de 3d 74 81 84 3f
       -0.8487741 0.062300526 0.108609706 1.0352006
0000c0 8e 42 66 3f 46 bc 43 bf d9 9c 83 bf 1c b5 9e bf
       0.89945304 -0.7645916 -1.0282241 -1.239902
0000d0 97 8f c2 3f bf fb 90 3f 62 7a e1 bd 0a 19 8d 3f
       1.520007 1.1326827 -0.11009671 1.1023266
0000e0 f8 68 bb 3e 9d 0d 99 be 7e 98 83 3f e9 ff b0 3e
       0.36603522 -0.298932 1.0280912 0.34570244
0000f0 ca 45 69 3d 90 24 10 3d fe 69 24 bc 97 2c ad bc
       0.05695132 0.03519112 -0.010035036 -0.021139426
000100 b4 34 55 3b 08 d6 0d 3d 5b e3 9c bb 80 90 c7 bc
       0.0032532634 0.034627944 -0.004787845 -0.024360895
000110 d3 56 ca 3c f0 44 71 bc 96 5f 12 bd 35 b2 2b 3d
       0.024699604 -0.014725909 -0.03573569 0.041918
000120 00 d7 99 38 86 65 5c 3c 2e e0 5f bc ba 45 5b 3c
       7.3356554e-05 0.013451939 -0.013664288 0.013383323
000130 9d e4 93 bc 0b 85 5d bc 68 e2 36 bc 7c 28 46 bc
       -0.018053347 -0.013520489 -0.011162378 -0.012094613
000140 99 e1 31 3f 9f 50 95 bf 28 f4 8c 3f c3 ab 38 3f
       0.6948486 -1.1665229 1.101201 0.7213709
000150 9c 3a b3 3f ef ab 9e bf 04 45 8d 3f b5 57 49 3f
       1.4002261 -1.239622 1.1036687 0.78649455
000160 1e 94 3d 3f 47 4e 2e bf 35 13 27 3f 36 00 b0 3f
       0.74054134 -0.6808819 0.6526368 1.3750064
000170 a2 89 a8 bf f1 7c 36 3f 86 5c c4 bf 13 db 14 bf
       -1.3167002 0.71284395 -1.5340736 -0.5814678
000180 d6 b5 34 bf 29 ff 83 bf 80 41 6e 3f be 14 90 bf
       -0.7058996 -1.0312244 0.93068695 -1.125633
000190 76 d7 cf 3f 68 1c 7b 3f 03 45 ff 3d b3 54 be bf
       1.6237628 0.9809022 0.12464335 -1.4869598
0001a0 68 e8 2b 3f 65 8b 9b bf d5 23 64 bf e5 2d 6e bf
       0.671515 -1.2151915 -0.89117175 -0.9303878
0001b0 00 b4 a5 3f 0e 2d 6f 3f 01 f0 cb bf b8 3a 79 3f
       1.2945557 0.93428123 -1.5932618 0.9735522
0001c0 b9 6d b0 bf 1a 7f 93 bf 12 44 a1 3f 64 d1 cc 3f
       -1.3783485 -1.1523163 1.2598898 1.6001401
0001d0 2c ec ae 3f 5f eb a1 be 57 1b 6e be 9b 5e a5 3f
       1.3665824 -0.31624886 -0.23252617 1.2919496
0001e0 02 42 b9 3f 1b 09 e7 3e 92 8a 59 bf 16 28 19 bf
       1.4473269 0.45124134 -0.84977067 -0.5982679
0001f0 b4 5d 6d bf e8 e3 30 3f 0a fb ab be 42 4f 20 bd
       -0.92721105 0.6909776 -0.33589965 -0.039138086
000200 03 96 60 3f 1b ec 46 bf c3 39 6e bf 62 1d e3 be
       0.877289 -0.7770402 -0.9305689 -0.44358355
000210 6c 96 9f 3f ba d6 41 3f 83 0d 2b bd ec 03 7f 3f
       1.246778 0.7571827 -0.041760933 0.9961536
000220 37 38 74 bf 71 66 15 be 3a 2a b4 3e 4b 47 7a 3e
       -0.9539828 -0.1458986 0.35188466 0.24441259
000230 89 03 53 bf a0 20 33 bd e0 73 36 3e c9 cd 41 3d
       -0.8242727 -0.043732285 0.1781764 0.047315393
000240 fd 88 3a be 61 20 18 3f 88 8d c7 3e 26 f2 1d be
       -0.1821632 0.59424406 0.38975167 -0.15424404
000250 50 1e 1e bd e2 d1 f7 be 88 ff 14 bf 73 b5 04 3f
       -0.038603127 -0.48402315 -0.5820241 0.5183937
000260 34 d0 35 bf c2 3e 60 be c7 89 e9 3e d5 c2 d4 be
       -0.7102082 -0.2189894 0.45612928 -0.41554895
000270 dc 98 b1 be 91 eb a4 3e 36 53 a5 be 8a 8d 1f bf
       -0.34686935 0.32210973 -0.32290047 -0.62325346
000280 c3 76 34 be dc 09 ec 3e 15 43 a6 bf c3 17 5b be
       -0.17623429 0.46101272 -1.2989222 -0.21395783
000290 d9 34 86 3f 85 20 36 bf 83 dd 8d 3f b1 7e 7a be
       1.0484878 -0.7114337 1.1083225 -0.24462391
0002a0 7d c0 8b bf 6c 0c af 3f 0a c7 95 3f f4 d2 8c bf
       -1.0918118 1.3675666 1.1701367 -1.1001878
0002b0 76 83 82 3d 6a 40 9f 3e 2f 5f 07 3f 58 46 e3 3e
       0.063727304 0.31103832 0.52879614 0.44389606
0002c0 df 53 31 bf 6f 76 34 3f d2 dd a5 bf 47 6d cb bf
       -0.692686 0.70493215 -1.2958319 -1.5892724
0002d0 28 ab 57 be 05 66 5f be 08 a5 8e 3e 98 91 2e 3e
       -0.21061385 -0.21816261 0.27860284 0.17047727
0002e0 19 7a 9c 3e 36 e9 95 be c3 13 cb 3d a4 c3 c9 3d
       0.30561903 -0.29279488 0.099158786 0.098517686
0002f0 11 2f 13 3c 0c 83 7d bc 0c 33 7b 3e 2e da 0b 3e
       0.0089833895 -0.015473139 0.24531192 0.13657448
000300 31 13 4b be 45 b0 65 3d a4 88 8f be f4 02 80 be
       -0.1983154 0.056076307 -0.28033936 -0.25002253
000310 bc 31 b2 3d 86 f1 43 be 06 2b 9b 3d c8 58 9c bd
       0.08700892 -0.19135103 0.075765654 -0.07634121
000320 d2 0f 33 bf cc 99 31 3d 8f 75 ac bd 15 35 cf bd
       -0.69946015 0.043359563 -0.0842086 -0.101175465
000330 db 6a 99 be 53 e3 cc 3e 29 03 7d 3e 9d c2 44 be
       -0.29964337 0.40017185 0.24708237 -0.19214864
000340 0b 6b 8f bd f7 d4 27 be 8f ff 02 bf 77 ec d3 3d
       -0.07002839 -0.16389833 -0.511712 0.103478365
000350 94 c8 ce be 60 e6 98 be c2 c2 0a 3f c0 25 c7 bd
       -0.40387404 -0.29863262 0.54203427 -0.09723997
000360 b0 5c c0 bd 31 bb ba 3e 03 bb a9 be 4a a1 c9 be
       -0.09392679 0.3647094 -0.3315049 -0.39380866
000370 be 6f 8e 3b 3e 16 f7 3a 0c 2d 51 3d c9 57 02 3d
       0.004346817 0.0018851233 0.05106835 0.031822
000380 8d 9c 72 3d 56 bc 23 bc 74 c9 a1 3c 7d 95 29 bc
       0.05923133 -0.009993633 0.01974938 -0.010350582
000390 4d 9c 0f bd 58 9c b0 3c af 9b 39 3d ea 15 7c 3d
       -0.03506117 0.021558926 0.045314487 0.061544336
0003a0 11 72 a2 bd 2e 96 ba bc d2 43 c8 bc b7 e3 8a bd
       -0.07931913 -0.02277669 -0.024446402 -0.067817144
0003b0 d2 83 58 3b 1c b6 07 bb 84 a0 de bc 37 9a 18 bd
       0.0033037555 -0.002070791 -0.02717615 -0.037256446
0003c0 32 a8 00 3b 65 dc b1 bb 54 5a 42 3d 70 0f 25 3d
       0.0019631502 -0.0054278844 0.047449425 0.040297925
0003d0 1c 55 39 3d 7c 1c 9a bb 00 d0 9f 3c 2d 38 7e bb
       0.045247182 -0.0047031026 0.019508362 -0.0038790808
0003e0 c0 37 23 bd 5a 1c 87 3c 83 a1 47 3d fa 43 48 3d
       -0.03984809 0.016493011 0.048738014 0.048892953
0003f0 4f c8 9c bd fb b8 a8 bc 23 ff ac bc 84 54 93 bd
       -0.07655393 -0.020596018 -0.021117752 -0.071938545

linear.bias f4 [14]
000000 87 b9 63 3f 19 c1 95 3f 56 e2 35 3f ec da 83 bf
       0.8895497 1.1699554 0.71048486 -1.0301185
000010 01 6e 47 3f 14 db 9d 3f 20 c5 65 3e 24 c5 ad be
       0.7790223 1.2332482 0.22438478 -0.3393947
000020 ce db df 3e f1 22 69 bf 7d d3 0b bf bb cb 95 bf
       0.43722385 -0.9106894 -0.5461958 -1.1702799
000030 67 95 93 bf f4 c5 95 bf
       -1.1529969 -1.1701035
