trained_weights/unicorn/unicorn12.pth (torch, 16655 bytes, 8 tensors)

conv1.lin_l.weight f4 [32, 30]
0	0x3cf1af8d	0.029502654
1	0x3d26e76d	0.04074805
2	0x3d0e2abe	0.03470873
3	0xbc7b0926	-0.015322005
4	0xbd3439e1	-0.04400051
5	0x3c9e8952	0.019352589
6	0x3bf24148	0.007393036
7	0x3af41038	0.0018620556
8	0x3d03387e	0.032036297
9	0x3c81b22d	0.015832031
10	0x3c07523e	0.008259354
11	0xbbe376a5	-0.0069416338
12	0xbbb43771	-0.005499773
13	0x3d0cabbf	0.034343477
14	0x3c6d3b96	0.014479538
15	0x3cc75915	0.02433447
16	0xbcd00aab	-0.025395712
17	0xbcc8b38d	-0.024499679
18	0x3b88eec1	0.0041788523
19	0xbce00056	-0.02734391
20	0xbd05bba9	-0.03264967
21	0xbb181a46	-0.002320902
22	0x3b3729ba	0.0027948455
23	0x3d018094	0.031616762
24	0x3bc34c97	0.005960058
25	0x3cd041fe	0.025422093
26	0x3c9fb982	0.019497637
27	0x3cbadae2	0.02280945
28	0x3ca3ce8e	0.019995954
29	0x3c850459	0.016237425
30	0x3ce653b0	0.028116077
31	0x3d7dbf56	0.06195005
32	0xbdd123f8	-0.102119386
33	0x3c92e56f	0.017931668
34	0x3d5b7246	0.053575777
35	0xbd2a4b7e	-0.0415759
36	0xbd10fe5a	-0.03539882
37	0xbcd7d6f2	-0.026347611
38	0xbdb844de	-0.089975104
39	0x3d0f49a0	0.034982324
40	0x3d3fee65	0.04685821
41	0xbd020b19	-0.031748865
42	0x3d558ac3	0.052134287
43	0xbe3264e5	-0.174213
44	0x3c998abf	0.018742917
45	0xbdca1968	-0.09868127
46	0xbdbeb2ed	-0.09311471
47	0x3d408a14	0.04700668
48	0xbc32e32c	-0.01091842
49	0xbde0ad1c	-0.10970518
50	0x3e13ed7a	0.14446059
51	0x3c8e0600	0.017336845
52	0xbcc039b0	-0.023465008
53	0xbe04ee63	-0.12981562
54	0x3d6755f2	0.05647845
55	0x3ddfc17b	0.10925575
56	0xbd586a0a	-0.0528355
57	0x3da9a169	0.0828274
58	0xbde194ee	-0.11014734
59	0xbd2f7bf0	-0.042842805
60	0xbe1c7586	-0.15279207
61	0xbd90636d	-0.07050214
62	0xbc50e6e2	-0.012750359
63	0xbd98e500	-0.07465553
64	0x3d6e70dc	0.0582131
65	0xbc31c062	-0.01084909
66	0xbd70dea6	-0.058806084
67	0xbe1d494c	-0.15359992
68	0x3dc80456	0.09766452
69	0x3e14cb35	0.14530642
70	0xbd0a1032	-0.03370685
71	0x3d97da50	0.07414687
72	0x3daa654d	0.08320103
73	0xbc8fa059	-0.017532514
74	0x3c2e9c8e	0.010657443
75	0xbc436820	-0.011926681
76	0x3de49e31	0.11162985
77	0xbd513cf5	-0.051083524
78	0xbdc8ecef	-0.098108165
79	0xbcd5a439	-0.026079284
80	0xbe066080	-0.1312275
81	0xbdab0055	-0.08349673
82	0xbd9da574	-0.07697573
83	0xbdc9e8a9	-0.098588295
84	0xbc239539	-0.009984308
85	0x3bdeb529	0.0067964983
86	0x3e59f15e	0.2128348
87	0xbe4cf4ce	-0.2001526
88	0x3e3694c4	0.17830187
89	0xbcac1fea	-0.021011312
90	0xbdb83c5b	-0.08995887
91	0xbe280d6c	-0.1641137
92	0x3d25cb0b	0.04047684
93	0x3d260260	0.04052961
94	0x3e222d19	0.15837516
95	0xbd87dd6b	-0.06634029
96	0xbdd12484	-0.10212043
97	0xbce8b798	-0.028407857
98	0x3e82468d	0.2544445
99	0x3d742e72	0.059614606
100	0xbd3d9e1b	-0.04629336
101	0x3e8579af	0.260694
102	0x3e1424ee	0.14467213
103	0x3def3494	0.1167995
104	0xbd4bb92d	-0.049737144
105	0xbc971cf4	-0.018446423
106	0x3e4e2c1b	0.20134012
107	0x3d0107ae	0.031501465
108	0xbe4dbcac	-0.20091504
109	0x3dec20cb	0.11529692
110	0xbdcfe538	-0.10151142
111	0xbe1d2fe7	-0.15350305
112	0x3c9bbd97	0.019011302
113	0xbe346c05	-0.17619331
114	0xbd86177f	-0.0654745
115	0xbcc41a51	-0.02393833
116	0x3e94a5d1	0.29032758
117	0xbe5daa9b	-0.21647112
118	0x3d0bfc59	0.034176204
119	0x3e0b616c	0.13611382
120	0x3c81c32d	0.015840137
121	0x3d49caa6	0.049265526
122	0xbe17101e	-0.14752242
123	0xbc1dc0a6	-0.0096284505
124	0x3c768128	0.015045442
125	0xbd32ed7c	-0.043683514
126	0xbd3d1eb4	-0.04617186
127	0xbb30dff8	-0.0026988965
128	0xbdf4e11d	-0.119569995
129	0x3d955682	0.07291891
130	0x3d0af447	0.033924367
131	0xbd89dd56	-0.067316696
132	0x3d586919	0.052834604
133	0xbe3e276d	-0.18569727
134	0x3d1de067	0.038544085
135	0xbdcb89b9	-0.09938378
136	0xbdc07475	-0.093972124
137	0x3cecfa61	0.028927984
138	0x3ccf52bc	0.025308006
139	0xbe28483c	-0.16433805
140	0x3e486bfd	0.19572444
141	0x3cc44422	0.02395827
142	0xbcde0cc7	-0.027105702
143	0xbe097737	-0.13424383
144	0x3db2083c	0.08692977
145	0x3da4608b	0.080262266
146	0xbd8b2728	-0.06794578
147	0x3d7e1b54	0.06203778
148	0xbdf38427	-0.118904404
149	0xbd5ee184	-0.054414287
150	0xbc5f6c1a	-0.013636613
151	0x3d6feb1d	0.05857383
152	0xbdc383ec	-0.095466465
153	0x3c06c93c	0.008226689
154	0x3c6667c2	0.014062824
155	0x3b71c1dc	0.003688923
156	0xbd815a75	-0.063160814
157	0xbd244815	-0.040107805
158	0xbe0bfda6	-0.13670978
159	0x3d6bb328	0.057543904
160	0x3d7adabc	0.061243758
161	0xbce39ab1	-0.027783724
162	0x3d377184	0.04478599
163	0xbe1363ba	-0.14393511
164	0x3caf12c0	0.021371245
165	0xbdee3dad	-0.116328575
166	0xbdc74bbc	-0.09731242
167	0x3ce75183	0.02823711
168	0x3c816578	0.015795454
169	0xbe0b7217	-0.1361774
170	0x3e198d9b	0.14995424
171	0x3d1a04ae	0.03760212
172	0xbd0ad7cf	-0.033897217
173	0xbdf039df	-0.11729788
174	0x3dd4afdb	0.10385104
175	0x3dcb6878	0.09932035
176	0xbcf2818b	-0.029602787
177	0x3d9c3a17	0.07628267
178	0xbd89f558	-0.06736249
179	0xbdb29d96	-0.087214634
180	0xbd20339d	-0.039111722
181	0xbd8debd0	-0.06929743
182	0xbd7107c5	-0.0588453
183	0x3d7fe538	0.06247446
184	0x3e12591e	0.14291808
185	0xbd232f57	-0.03984007
186	0xbd088ef3	-0.033339452
187	0xbc91f77e	-0.017818209
188	0x3e17a00a	0.14807144
189	0x3bb3501c	0.0054721963
190	0xbd4a70cf	-0.04942399
191	0x3e4aeb40	0.19816303
192	0x3d890626	0.06690626
193	0xbd666059	-0.056244228
194	0xbdc0e1b7	-0.09418052
195	0xbd8ef787	-0.06980806
196	0x3e4e6b29	0.20158066
197	0x3e0ef4e8	0.13960612
198	0xbe46eb64	-0.19425732
199	0x3d94a53e	0.0725808
200	0xbd68ea58	-0.056864113
201	0xbdaaaa87	-0.08333307
202	0xbc50c854	-0.012743074
203	0xbe12c2d7	-0.14332138
204	0xbe07c4be	-0.13258645
205	0x3d81d5db	0.06339618
206	0x3d948db7	0.072535925
207	0xbe3eea26	-0.18644008
208	0x3d56f6f0	0.05248159
209	0x3da09f79	0.07842917
210	0x3bbfb165	0.0058500045
211	0xbe0b13af	-0.13581727
212	0x3cffac83	0.03121019
213	0xbbc44bff	-0.0059905048
214	0x3d7c2bdd	0.06156527
215	0xbe0f6f82	-0.1400738
216	0xbe2fedfe	-0.1718063
217	0x3d6b07ab	0.05738036
218	0x3e59781a	0.21237221
219	0x3e8391ad	0.2569708
220	0xbd918346	-0.071051165
221	0x3e8a889b	0.27057347
222	0x3dee541b	0.116371356
223	0x3dfdcdf5	0.12392799
224	0x3d8488a4	0.06471375
225	0x3d8106f0	0.06300151
226	0x3e7c5763	0.2464271
227	0xbd94808d	-0.072510816
228	0xbcec3fb7	-0.028838975
229	0x3e094b48	0.13407624
230	0xbdd868e6	-0.10566883
231	0xbe09b44a	-0.13447681
232	0xbd47bfca	-0.04876689
233	0xbd270e94	-0.040785387
234	0xbd85b870	-0.06529319
235	0xbe322b3c	-0.17399305
236	0x3e3ea1ba	0.18616381
237	0xbe3c6294	-0.1839698
238	0xbdc620db	-0.096742354
239	0x3e065246	0.13117322
240	0xbd0feabb	-0.035135966
241	0x3d0a34c8	0.033741742
242	0xbdfbeff1	-0.123016246
243	0x3ca4dd61	0.020125093
244	0x3ca80761	0.020511331
245	0x3dab48d6	0.08363502
246	0x3c809638	0.01569663
247	0xbd10fa17	-0.035394754
248	0xbdd8b17e	-0.10580729
249	0x3cfed672	0.031108115
250	0x3d2a4d57	0.041577663
251	0xbcd26fbe	-0.025688048
252	0xbc922540	-0.017840028
253	0xbe349950	-0.17636609
254	0x3d98c2d8	0.074590385
255	0xbdf98a1e	-0.12184547

conv1.lin_l.bias f4 [32]
0	0xbd4879d7	-0.04894432
1	0xbdd7bb91	-0.10533822
2	0xbdf6d6b1	-0.12052668
3	0xbe0625c3	-0.13100342
4	0xbe00462b	-0.12526767
5	0xbdc3a44a	-0.0955282
6	0xbe2c95b7	-0.16853987
7	0xbe22685b	-0.15860121
8	0xbdbcfdb6	-0.09228079
9	0xbe1c32c5	-0.15253742
10	0xbcecb548	-0.028895035
11	0x3cb7d270	0.022439212
12	0xbe19a2ae	-0.15003464
13	0x3b486510	0.0030577816
14	0xbe2089f0	-0.15677619
15	0xbd660bcf	-0.056163605
16	0x3d25b132	0.04045219
17	0xbd93bd61	-0.072138555
18	0x3ca632d7	0.020287914
19	0xbe062198	-0.13098752
20	0xbddc6c51	-0.10762847
21	0xbe1a891f	-0.1509137
22	0xbd73532a	-0.059405483
23	0xbd83e2c3	-0.06439736
24	0xbd31f61f	-0.04344761
25	0x3d22d5aa	0.039754547
26	0x3cfa9d73	0.030592656
27	0x3d11027c	0.03540276
28	0xbb16a265	-0.0022984978
29	0xbd9a1e60	-0.07525325
30	0xbe0bc719	-0.13650168
31	0xbdc94254	-0.09827104

conv1.lin_r.weight f4 [32, 30]
0	0xbe22237a	-0.15833846
1	0x3da8a40b	0.08234414
2	0xbe497dbf	-0.19676875
3	0xbe1e0f56	-0.15435538
4	0xbe07d8f0	-0.13266349
5	0xbdfe2128	-0.12408668
6	0xbd0a2d8c	-0.033734843
7	0xbe104020	-0.14086962
8	0xbdf9cad6	-0.12196891
9	0x3d984207	0.07434469
10	0x3c611c96	0.013739726
11	0xbe0b05f2	-0.13576487
12	0x3d017697	0.031607237
13	0xbdf5c656	-0.1200072
14	0x3dbd4be8	0.092429936
15	0x3e0793aa	0.13239923
16	0xbd9ef694	-0.07761875
17	0xbdd5b1a6	-0.104342744
18	0x3d77e2d5	0.06051906
19	0xbe0d6fd9	-0.13812198
20	0xbd9e69ad	-0.07735
21	0xbc2b5148	-0.010456391
22	0xbdefe008	-0.117126524
23	0x3d184fcb	0.03718547
24	0x3d27d6a1	0.04097617
25	0xbde0be51	-0.109738
26	0x3dadf173	0.084933184
27	0xbe34d674	-0.17659932
28	0x3d2ee49b	0.042698484
29	0xbd4051fc	-0.046953186
30	0x3e3808f7	0.1797217
31	0xbdb19333	-0.08670654
32	0xbe5c83f9	-0.21534719
33	0xbe40f88d	-0.18844815
34	0x3c37f3b5	0.011227538
35	0x3cb335e6	0.021876287
36	0x3ea5be3d	0.32371703
37	0xbe68469d	-0.22683187
38	0x3de94b41	0.11391307
39	0xbdd8c872	-0.10585107
40	0x3ec334e4	0.3812629
41	0x3e0cd3f8	0.13752735
42	0xbca92b04	-0.020650394
43	0x3e6a2039	0.22863854
44	0xbe5a4df3	-0.21318798
45	0x3b6d73b8	0.0036232304
46	0x3d294539	0.04132578
47	0xbded1eef	-0.11578166
48	0xbc675e98	-0.014121674
49	0x3d1ec5bb	0.03876279
50	0xbd60c478	-0.054874867
51	0xbed58df9	-0.4170988
52	0x3e69d60f	0.22835563
53	0x3da33a08	0.07970053
54	0xbed9fc4f	-0.4257531
55	0xbddf008b	-0.108887754
56	0x3e6e51ae	0.23273346
57	0xbe432b38	-0.19059455
58	0x3d156e81	0.036482338
59	0xbd55292d	-0.05204122
60	0xbcec476c	-0.02884265
61	0xbdcdaeb1	-0.10043085
62	0xbcf27788	-0.029598013
63	0xbc08a2be	-0.008339582
64	0x3dd8fda0	0.1059525
65	0xbdf3ee29	-0.1191066
66	0xbe10d44c	-0.14143485
67	0x3e41b451	0.18916442
68	0x3c872dd0	0.016501337
69	0x3e9fcf33	0.31212768
70	0xbe9fb3dc	-0.3119191
71	0xbb9c81e6	-0.0047762273
72	0x3de5c8aa	0.11219914
73	0xbe62fa0e	-0.22165701
74	0xbccb29d1	-0.024800213
75	0xbe0b178a	-0.13583198
76	0x3d9cfebb	0.076657735
77	0xbdb324be	-0.087472424
78	0xbd0d60d9	-0.03451619
79	0x3d3cc9cb	0.046090882
80	0x3e88ea20	0.26741123
81	0x3e16042e	0.14650032
82	0xbe41a5a8	-0.18910849
83	0xbe696b57	-0.22794853
84	0xbdb13e0e	-0.08654414
85	0xbdb30b29	-0.08742363
86	0xbd9ea098	-0.077454746
87	0xbec35e1e	-0.38157743
88	0xbee9756c	-0.45597398
89	0x3e590870	0.21194625
90	0x3c8e624e	0.01738086
91	0xbe3b3928	-0.18283522
92	0xbe24270b	-0.16030519
93	0x3c83c940	0.016087174
94	0x3cd99f8f	0.026565341
95	0xbe6ca230	-0.23108745
96	0xbe890d54	-0.2676798
97	0x3e953b83	0.29146966
98	0x3ddf797c	0.10911843
99	0x3e8953fe	0.26821893
100	0xbebf10eb	-0.37317595
101	0xbc5df89e	-0.0135480445
102	0x3e1c58a8	0.15268195
103	0xbe52aa34	-0.2057274
104	0x3dbd3301	0.09238244
105	0xbdcefea9	-0.10107166
106	0x3e0b2a45	0.13590343
107	0xbdacb137	-0.084322385
108	0xbd2019d0	-0.039087117
109	0x3d021ee9	0.03176776
110	0x3e702b31	0.23453976
111	0x3e4c74b4	0.19966394
112	0xbe4d220b	-0.20032518
113	0xbe9f5182	-0.31116873
114	0xbd7becf5	-0.061505277
115	0xbe21c75e	-0.15798709
116	0x3d19d1c2	0.037553556
117	0xbef73f6f	-0.48290583
118	0xbedb3e51	-0.4282098
119	0x3e3bfa23	0.18357138
120	0x3e1e9e48	0.15490067
121	0xbdd5eaac	-0.10445151
122	0xbe759adb	-0.23984854
123	0xbe1c7979	-0.15280713
124	0x3c952da1	0.018210234
125	0x3c505a91	0.012716905
126	0x3e978061	0.29590133
127	0xbe558e65	-0.208551
128	0x3da80751	0.082045205
129	0xbe153ebb	-0.14574711
130	0x3ec5f6e8	0.38664937
131	0x3e0b770a	0.13619629
132	0xbc350036	-0.011047414
133	0x3e5e9895	0.21737893
134	0xbe6e8278	-0.23291957
135	0x39c1589a	0.00036877842
136	0x3d0f80c8	0.035034925
137	0xbdb9f7ed	-0.09080491
138	0xbc900c24	-0.017583914
139	0x3d46167b	0.048361283
140	0xbc689a6e	-0.014196975
141	0xbec067e2	-0.37579256
142	0x3e834ca0	0.25644398
143	0x3d9f7fce	0.07788049
144	0xbeccde1e	-0.40013212
145	0xbe0b4b6c	-0.1360299
146	0x3e8dca3b	0.27693352
147	0xbe50c7b4	-0.2038868
148	0x3d024cf7	0.03181168
149	0xbd897d86	-0.06713395
150	0x3e22cc2a	0.15898195
151	0xbd70ffe1	-0.058837775
152	0xbe330e8d	-0.1748602
153	0xbe19b70c	-0.15011233
154	0x3ccd8036	0.02508555
155	0x3d1c0d2d	0.038098503
156	0x3e8e076b	0.27740034
157	0xbe80292c	-0.25031412
158	0x3de28dc1	0.11062194
159	0xbddd3786	-0.10801606
160	0x3eba6883	0.3640786
161	0x3e181e98	0.1485542
162	0xbcad5a32	-0.021161173
163	0x3e7bb851	0.2458203
164	0xbe651007	-0.22369395
165	0xbc6b932f	-0.014378353
166	0x3d0b7395	0.034045774
167	0xbdd48e1b	-0.10378667
168	0xbca82a38	-0.020527944
169	0x3b386fcf	0.0028142815
170	0xbdb09a89	-0.08623225
171	0xbec68c52	-0.3877893
172	0x3e62dfb0	0.22155643
173	0x3d26a784	0.0406871
174	0xbec8d18d	-0.39222375
175	0xbd9fdd08	-0.0780583
176	0x3e9e4bc3	0.30917177
177	0xbe2aae62	-0.16668084
178	0x3d8dd1b3	0.069247626
179	0xbd455b75	-0.048182923
180	0xbc3edfa9	-0.011650004
181	0x3cdf86dd	0.027285988
182	0xbe462a38	-0.19352043
183	0xbe2d98d2	-0.16952828
184	0xbe55ac9c	-0.20866627
185	0xbe4799d4	-0.19492275
186	0xbe8899c6	-0.2667982
187	0x3e0cb676	0.13741478
188	0xbc6eae05	-0.014567857
189	0x3edacdac	0.4273504
190	0xbeb3ba90	-0.35103273
191	0xbe71d07f	-0.23614691
192	0x3ca0ac1a	0.019613314
193	0xbe563421	-0.20918323
194	0x3e8ad483	0.2711526
195	0x3d136533	0.035985183
196	0xbe1d0486	-0.15333757
197	0xbe8f4a9b	-0.27986607
198	0x3e464726	0.19363078
199	0xbe425967	-0.18979417
200	0x3da0035f	0.07813143
201	0x3dce39ad	0.100695945
202	0xbe5485b7	-0.20754133
203	0xbdd9e968	-0.10640222
204	0xbd4886be	-0.048956625
205	0xbe875c2b	-0.26437506
206	0x3e469359	0.19392146
207	0xbec7b1bf	-0.39002797
208	0xbe8fcb5e	-0.28084844
209	0x3d4b72e1	0.049670104
210	0xbdbc32d8	-0.09189385
211	0xbe7de01f	-0.24792527
212	0xbe2d8285	-0.1694432
213	0x3de385b9	0.1110949
214	0x3d933b3a	0.07189031
215	0xbe12bf81	-0.14330865
216	0xbe87fce9	-0.26560143
217	0x3e8173e9	0.25283745
218	0x3dae2a18	0.085041225
219	0x3e8efe2f	0.27928302
220	0xbed19514	-0.4093405
221	0x3d1ba1df	0.03799617
222	0x3de3b58d	0.111186124
223	0xbe92a1d7	-0.286391
224	0x3e10ebb3	0.14152412
225	0xbe61d703	-0.22054677
226	0x3e3cd540	0.18440723
227	0xbcf75525	-0.030191967
228	0xbd3b8b49	-0.04578713
229	0x3d63d043	0.055618536
230	0x3e93476c	0.28765428
231	0x3e0dd41b	0.13850443
232	0xbe2e67a9	-0.1703173
233	0xbeb1c356	-0.34719342
234	0xbda42405	-0.08014683
235	0xbe4fd099	-0.20294417
236	0xbd83f51c	-0.06443235
237	0xbf08874e	-0.5333146
238	0xbedb34df	-0.42813775
239	0x3e600ca8	0.21879828
240	0x3e0e1858	0.13876474
241	0xbd9e4e83	-0.07729819
242	0xbe2d3c31	-0.16917492
243	0xbe0790d0	-0.13238835
244	0xbbdf4543	-0.0068136766
245	0xbb13adf1	-0.0022534097
246	0x3e6eb9e5	0.233131
247	0xbe9c74b8	-0.305578
248	0x3dd0aef6	0.10189621
249	0xbda5b27a	-0.08090682
250	0x3ebd82b2	0.37013775
251	0x3e2dfc61	0.16990806
252	0x3c26825d	0.010162917
253	0x3e624016	0.2209476
254	0xbe2bdcf7	-0.1678351
255	0x3c4d0e29	0.012515583

conv2.lin_l.weight f4 [20, 32]
0	0x3e39caa4	0.18143708
1	0x3c995c50	0.018720776
2	0xbe0108c2	-0.12600997
3	0xbd0772a9	-0.033068333
4	0xba825fed	-0.0009946801
5	0x3bc01901	0.0058623557
6	0xbcbc2133	-0.02296505
7	0x3c3bc015	0.01145937
8	0x3b572d7d	0.003283351
9	0xbde7d598	-0.11320037
10	0xbca95aa9	-0.020673113
11	0xbe09b927	-0.13449536
12	0x3c2cfdea	0.010558585
13	0xbed5b48d	-0.41739312
14	0xbdb54be1	-0.088523634
15	0xbf03eb75	-0.51531154
16	0xbde47406	-0.11154942
17	0xbdb58d14	-0.08864799
18	0xbdb3a774	-0.087721735
19	0x3c3ed46c	0.011647325
20	0x3bb96eaa	0.005658944
21	0xbdbfa86c	-0.09358296
22	0xbdb77340	-0.08957529
23	0xbda6c43d	-0.08142898
24	0xbdc1883c	-0.09449813
25	0xbd03ee90	-0.032209933
26	0xbdccf0cb	-0.10006865
27	0xbe06e5e6	-0.13173637
28	0x3c53731d	0.012905863
29	0x3eb49809	0.35272244
30	0x3cf15ed9	0.029464172
31	0xbbd02d03	-0.006353022
32	0x3db5e655	0.08881823
33	0xbc117206	-0.008877283
34	0x3c8dc939	0.017307865
35	0xbcae866e	-0.021304335
36	0x3c3ba452	0.011452751
37	0x3c46da01	0.012136937
38	0xbcba3e7c	-0.022734873
39	0x3c910b36	0.017705541
40	0x3c8edd84	0.017439611
41	0xbd4f448b	-0.050602477
42	0x3c7a265f	0.015267937
43	0xbd838aa9	-0.06422932
44	0xbd11366d	-0.035452295
45	0xbe6bbb9d	-0.23020788
46	0xbb2afae8	-0.0026089493
47	0xbe9b9cd5	-0.3039309
48	0xbd38f533	-0.045155715
49	0x3d7f376b	0.06230871
50	0xbc2875b0	-0.010281965
51	0x3d609578	0.054830045
52	0x3d6f24c3	0.058384668
53	0xbdd4d20b	-0.10391625
54	0x3d6f787a	0.058464505
55	0x3dbbaffe	0.09164427
56	0x3da2c3e7	0.07947522
57	0x3cc9af36	0.02461968
58	0xbd0b8968	-0.034066588
59	0xbcef4bbd	-0.02921092
60	0x3d3e4bf0	0.04645914
61	0x3e664a18	0.22489202
62	0xbc03e87a	-0.008051032
63	0x3ce56dd7	0.028006477
64	0xbd71a2d5	-0.05899318
65	0x3d05f188	0.032701045
66	0x3cdf51b0	0.027260631
67	0xbd326a62	-0.043558486
68	0x3cf9e90b	0.030506631
69	0x3cf05aca	0.029340167
70	0xbde6b266	-0.112644956
71	0x3c9e7ed1	0.01934758
72	0x3db5d39b	0.08878251
73	0xbd0894be	-0.033344977
74	0x3c9910f3	0.01868484
75	0xbdfc161e	-0.12308906
76	0xbc85538c	-0.01627519
77	0xbe3304ba	-0.17482272
78	0xbd96c27a	-0.07361312
79	0xbe5732af	-0.21015428
80	0xbda82e46	-0.08211951
81	0x3d7cbc87	0.06170323
82	0xbd12345e	-0.035694472
83	0x3d2f31ca	0.042772092
84	0x3d37b73f	0.04485249
85	0xbdba52ce	-0.09097825
86	0x3d68b3d3	0.05681212
87	0x3d81fb12	0.06346716
88	0x3d931779	0.071822114
89	0x3b057a22	0.0020366986
90	0xbdf27831	-0.11839331
91	0xbdaf6159	-0.085634895
92	0xbb8fd96a	-0.0043899314
93	0x3a30ec06	0.00067490374
94	0xbd282c11	-0.04105765
95	0x3d14ffbe	0.036376707
96	0xbdb51a1a	-0.08842869
97	0x3cffeb7f	0.031240223
98	0x3dbeb93d	0.09312675
99	0x3c83210a	0.016006965
100	0x3cbe9320	0.023263514
101	0x3d22c870	0.039741933
102	0xbccbf0b8	-0.024895057
103	0x3d0e18a5	0.03469147
104	0x3dabd03f	0.08389329
105	0x3dbd146b	0.0923241
106	0x3cc29686	0.023753416
107	0xbd8c2d37	-0.068445615
108	0x3d5ee2d2	0.05441553
109	0x3d3cb911	0.04607493
110	0xbca484fe	-0.020082947
111	0x3d51f9ba	0.05126355
112	0xbd3ad27e	-0.045610897
113	0x3ca0d834	0.019634344
114	0xbb617d52	-0.0034406972
115	0x3c8b71a0	0.017021954
116	0x3c05ad99	0.008159065
117	0xbdaf4441	-0.0855794
118	0x3cbeb708	0.023280635
119	0xba5ae209	-0.0008349722
120	0x3bcb920e	0.0062124794
121	0x3c9bd46d	0.019022191
122	0xbd878321	-0.06616808
123	0xbd38034a	-0.04492501
124	0xbc6accf7	-0.014331094
125	0xbe58ea6e	-0.21183178
126	0x3ceb4925	0.028721401
127	0x3d23e482	0.040012844
128	0xbd97d6d6	-0.074140236
129	0xbd3501de	-0.044191234
130	0xbc49abb6	-0.0123090055
131	0xbb197d28	-0.0023420546
132	0xbc90bd35	-0.017668346
133	0xbd2f7a22	-0.042841084
134	0x3d7c1e3e	0.06155228
135	0xbd44ff95	-0.048095305
136	0xbd088c52	-0.033336945
137	0xbd96baaa	-0.07359822
138	0xbcf15927	-0.029461456
139	0xbdd8d51b	-0.10587522
140	0xbd65b451	-0.056080166
141	0xbe0a135c	-0.13483948
142	0x3d0c0447	0.034183767
143	0xbe32766e	-0.1742799
144	0xbdf3b6a2	-0.11900069
145	0x3cda68d8	0.026661322
146	0xbdc66541	-0.096872814
147	0xbb7a594a	-0.0038200193
148	0x3c4e2f51	0.012584523
149	0xbd2f69b0	-0.0428254
150	0x3c8dd330	0.017312616
151	0x3c0b845f	0.008515446
152	0x3bb5cd97	0.00554819
153	0xbd94c1ab	-0.07263502
154	0xbdb1ba0c	-0.08678064
155	0xbdf060a0	-0.1173718
156	0xbd245732	-0.04012222
157	0x3b7d022d	0.0038606033
158	0xbd57fc92	-0.052731104
159	0xbba72780	-0.0051011443
160	0x3cdb5f85	0.026778946
161	0x3bfab33b	0.0076507605
162	0x3e0f5097	0.13995586
163	0x3a06e738	0.00051461486
164	0x3ccc9a2c	0.024975859
165	0x3cfb0bff	0.030645369
166	0xbd8ec3c7	-0.06970935
167	0x3d2fc8e9	0.042916212
168	0x3d93656a	0.071970776
169	0x3d897832	0.067123786
170	0x3d340c78	0.043957204
171	0xbcc2d945	-0.023785243
172	0x3cc407b3	0.023929453
173	0x3d71d0e4	0.059037104
174	0xbc08decc	-0.0083539
175	0x3d661c1e	0.05617916
176	0x3c672849	0.014108726
177	0x3de2ea50	0.11079848
178	0x3d0408a6	0.03223481
179	0x3d6acb9d	0.057323087
180	0x3d421371	0.047381822
181	0xbd32cbe8	-0.04365149
182	0x3ddf6375	0.10907642
183	0x3debfd45	0.11522917
184	0x3e024988	0.12723362
185	0x3d398a4a	0.0452979
186	0xbc4421f7	-0.0119709885
187	0x3cf02e3a	0.029318918
188	0x3b94ce60	0.0045412034
189	0xbd983deb	-0.07433685
190	0x3d0034d1	0.03130037
191	0x3d05fd87	0.032712486
192	0xbd8537b8	-0.06504768
193	0xbd422d2a	-0.047406353
194	0xbc4aa41d	-0.012368229
195	0x3d01354e	0.031544976
196	0xbd28eebe	-0.041243307
197	0xbd5371c6	-0.051622175
198	0x3de2b8c6	0.11070399
199	0xbd38efd7	-0.045150604
200	0xbd7ef625	-0.06224646
201	0x3c807c53	0.015684282
202	0xbbacea94	-0.0052769873
203	0xbcc4faae	-0.024045315
204	0x3bac824e	0.005264557
205	0x3dd584e3	0.10425737
206	0x3d0a34b9	0.033741686
207	0x3e0bf9bc	0.13669485
208	0xbd11768b	-0.035513442
209	0xbdb2b0d8	-0.087251365
210	0xbc93fbc1	-0.018064382
211	0xbd781edf	-0.060576316
212	0xbd8cf11d	-0.06881926
213	0x3ba345e4	0.004982697
214	0xbd98f965	-0.07469443
215	0xbdb70590	-0.08936608
216	0xbdc424dd	-0.095773436
217	0xbcffc01b	-0.031219533
218	0xbc9a7edc	-0.01885932
219	0xbd319586	-0.043355487
220	0xbc75ca00	-0.015001774
221	0xbe5a83f1	-0.21339394
222	0x3be18993	0.006882855
223	0xbd1ae0c5	-0.037812013
224	0xbd4866ee	-0.048926286
225	0x3c298e89	0.010348924
226	0xb9e80f40	-0.0004426185
227	0x3cd99bc1	0.026563527
228	0xbbc9dad4	-0.0061601195
229	0xbbbcb327	-0.0057586613
230	0x3cdadfe3	0.026718086
231	0xbb78328d	-0.0037871927
232	0xbbcc472c	-0.0062340703
233	0x3d62982e	0.05532091
234	0xbc0ad051	-0.008472518
235	0x3d58bbfd	0.052913655
236	0x3d3c9d22	0.04604829
237	0x3e4c34b9	0.19941987
238	0x3bbda00b	0.005786901
239	0x3e84b197	0.2591674
240	0x3d1d3475	0.038380105
241	0xbd506bf3	-0.0508842
242	0x3c405e6e	0.011741264
243	0xbd1fb97a	-0.038995244
244	0xbd39b7f4	-0.045341447
245	0x3dab87fe	0.08375548
246	0xbd4350eb	-0.04768459
247	0xbd9a3f0c	-0.075315565
248	0xbd917c71	-0.071038134
249	0xbca34988	-0.019932523
250	0x3d05a844	0.032631174
251	0x3cf2b3f0	0.029626817
252	0xbd327cf8	-0.04357621
253	0xbe2eb862	-0.17062524
254	0x3cc14f7d	0.023597473
255	0xbca81f65	-0.020522783

conv2.lin_l.bias f4 [20]
0	0xbcf96d7e	-0.030447718
1	0xbcc372c0	-0.023858428
2	0x3cf83a95	0.030301372
3	0x3ca900e8	0.020630315
4	0x3d04cc83	0.0324216
5	0xbd15cf95	-0.03657492
6	0x3c079538	0.008275323
7	0x3c15f614	0.009152908
8	0xbb1be088	-0.0023784954
9	0x3ba8d166	0.0051519154
10	0x3cf9bc82	0.030485395
11	0x3c0db2fb	0.008648629
12	0xbc9890eb	-0.01862379
13	0x37da7c00	2.6045367e-05
14	0xbca84a10	-0.020543128
15	0xbcbdd488	-0.023172632
16	0x3c9e00d6	0.019287508
17	0xbc7f6cc4	-0.015589897
18	0x3b90d35a	0.0044197263
19	0xbb551916	-0.0032516173

conv2.lin_r.weight f4 [20, 32]
0	0xbb20e572	-0.0024550823
1	0x3e1d90bd	0.15387245
2	0x3df570e0	0.1198442
3	0x3e07ea5d	0.13272996
4	0x3e40bbd0	0.18821645
5	0x3e026ed9	0.12737598
6	0x3d9fa790	0.07795632
7	0x3e769efa	0.24084082
8	0x3e02ef58	0.12786615
9	0x3e0dfe65	0.13866575
10	0xbeed67e2	-0.4636832
11	0xbe6814a4	-0.22664124
12	0x3e224760	0.1584754
13	0xbee38b96	-0.44442433
14	0x3cb2fe53	0.021849787
15	0xbf1e7f7a	-0.61913264
16	0xbe7804c9	-0.24220575
17	0xbd1a68c3	-0.037697565
18	0xbe41f962	-0.18942788
19	0x3e63b114	0.22235519
20	0x3e0da4af	0.13832353
21	0x3f571b25	0.84025794
22	0xbd19da55	-0.037561733
23	0xbd0fcc40	-0.035106897
24	0xbd8105cc	-0.06299934
25	0xbe3895fe	-0.18025967
26	0xbe637e94	-0.22216254
27	0xbe67c348	-0.22633088
28	0xbe39ddd4	-0.18151027
29	0xbc8368f6	-0.01604126
30	0x3e504a25	0.20340784
31	0x3dc49ece	0.09600602
32	0xbd3581c1	-0.044313196
33	0xbda7c178	-0.08191198
34	0x3d38ea52	0.04514534
35	0x3db789f0	0.08961856
36	0xbd8c1c11	-0.06841291
37	0xbdde8ce8	-0.108667195
38	0x3d313644	0.043264642
39	0x3e018c58	0.12651193
40	0xbd7a56e9	-0.06111804
41	0x3de7120e	0.112827405
42	0x3c5c03f4	0.013428677
43	0x3e584c40	0.21122837
44	0x3dc648a5	0.096818246
45	0xbea87637	-0.3290269
46	0x3d35fd84	0.044431224
47	0xbedc13e4	-0.42983925
48	0x3e4feaea	0.20304456
49	0x3ddeabf4	0.10872641
50	0x3e4c4b36	0.19950566
51	0x3e1eb3e2	0.15498307
52	0xbdef3e7c	-0.1168184
53	0x3df24d50	0.118311524
54	0x3db882ff	0.090093605
55	0x3dd067ce	0.10176049
56	0x3dc0fe58	0.09423512
57	0x3e526a60	0.20548391
58	0x3e65197f	0.22373007
59	0x3e5e0cf2	0.21684626
60	0x3e6f14e9	0.2334782
61	0xbdde263f	-0.108471386
62	0x3e0e8a18	0.13919866
63	0xbdbb4306	-0.09143643
64	0x3dc0d978	0.09416479
65	0x3d84bbaa	0.064811066
66	0xbda86ef2	-0.08224286
67	0xbd76fa32	-0.0602972
68	0x3dc57110	0.096407056
69	0x3d80e91d	0.06294463
70	0xbc7ea1a7	-0.015541471
71	0xbd994208	-0.074832976
72	0x3d57efa6	0.05271878
73	0xbd3a9cb5	-0.045559604
74	0xbba41545	-0.0050074183
75	0x3e163984	0.14670378
76	0xbd6c0307	-0.057620075
77	0xbe80ec44	-0.25180256
78	0xbbc4b466	-0.0060029505
79	0xbea14112	-0.31494957
80	0x3e0e3bd6	0.13890013
81	0xbe8a44ba	-0.2700556
82	0x3e0fd9be	0.14047906
83	0xbdc0fdd3	-0.09423413
84	0x3d88aa97	0.066731624
85	0xbf1d2ec1	-0.61399466
86	0xbe8f3367	-0.27968904
87	0xbe8f4901	-0.27985385
88	0xbe91e806	-0.28497332
89	0x3db00e9a	0.08596535
90	0x3e18420c	0.14868945
91	0x3e25fb9c	0.16209263
92	0x3e0fa3c5	0.14027317
93	0x3d0417e7	0.032249358
94	0xbd93f312	-0.07224096
95	0x3d931338	0.071814
96	0x3d0db5ea	0.034597315
97	0x3e3e5c5b	0.18589918
98	0xbde2411a	-0.110475734
99	0xbe477b1a	-0.19480553
100	0x3e4ba200	0.19886017
101	0x3e516ddb	0.20452063
102	0xbde7039f	-0.112799875
103	0xbe2ca426	-0.16859493
104	0x3e33cca6	0.17558536
105	0xbe3fe67d	-0.18740268
106	0xbd1ac6d4	-0.037787274
107	0x3d9665f8	0.07343668
108	0xbe60676b	-0.21914451
109	0xbd18b899	-0.03728542
110	0xbd5e6cc0	-0.05430293
111	0x3b072d28	0.002062628
112	0x3db15cdd	0.086602904
113	0xbd3c84ab	-0.04602496
114	0x3da82d44	0.08211759
115	0xbe75db90	-0.24009538
116	0x3e642f4d	0.22283669
117	0xbcf8d5dd	-0.030375415
118	0xbd41264a	-0.047155656
119	0xbd47ea34	-0.048807338
120	0xbd5e2974	-0.05423875
121	0x3c96e752	0.018420849
122	0x3d36c391	0.0446201
123	0x3db371d5	0.08761946
124	0x3cf42dae	0.029806938
125	0x3dac1d4b	0.08404025
126	0xbe6c8785	-0.23098572
127	0x3e55bb8a	0.20872322
128	0x3df7142f	0.120643966
129	0xbe8dbf3a	-0.27684957
130	0xbd803047	-0.06259208
131	0x3d159a79	0.03652427
132	0xbe877e32	-0.26463467
133	0xbe96f535	-0.29483953
134	0x3d4525ed	0.048131872
135	0xbd7edc8a	-0.06222204
136	0xbe85210e	-0.2600178
137	0x3d2938be	0.04131388
138	0xbdd834ca	-0.10556944
139	0x3d971d51	0.073786385
140	0x3d2027dc	0.039100513
141	0xbe6610ee	-0.22467396
142	0xbc71b64a	-0.014752934
143	0xbe93d1b1	-0.2887092
144	0x3d663505	0.056202907
145	0x3e1f2a37	0.15543447
146	0x3cd6b05d	0.026207143
147	0xbb28b7a9	-0.0025744236
148	0xbe9a4669	-0.30131844
149	0xbf4d3739	-0.8016239
150	0x3e10bdd0	0.14134908
151	0x3e1c48c9	0.1526214
152	0x3defbf2e	0.117063865
153	0x3d72c317	0.059268083
154	0x3da04d4b	0.078272425
155	0x3d989cd1	0.07451785
156	0x3da03b4c	0.0782381
157	0x3d9607af	0.07325684
158	0x3bce910e	0.006303913
159	0xbe8c031c	-0.27346122
160	0xbd4bc2d4	-0.04974635
161	0xbd0f84f1	-0.035038892
162	0xbc908e06	-0.017645847
163	0xbdbd86f8	-0.09254259
164	0xbd171589	-0.036885772
165	0xbcb18af2	-0.0216727
166	0xbda649e6	-0.08119564
167	0xbd528d9e	-0.051404588
168	0xbc1bbb72	-0.00950514
169	0xbdcc6ab2	-0.09981288
170	0x3ea3465e	0.31889623
171	0x3ea61465	0.32437435
172	0xbdfe5ea6	-0.124203965
173	0x3cba889a	0.022770215
174	0xbc05384c	-0.008131098
175	0x3dca9993	0.09892573
176	0x3ea68d46	0.32529658
177	0xbdca6462	-0.09882428
178	0x3ea25e5c	0.31712615
179	0xbd620893	-0.05518396
180	0xbb2b143f	-0.0026104597
181	0x3f3127e4	0.69201493
182	0xbddd96e6	-0.10819797
183	0xbdde605d	-0.108582236
184	0xbdbf845f	-0.0935142
185	0x3e85e2aa	0.26149493
186	0x3e9cd41f	0.30630586
187	0x3ea786a0	0.32719898
188	0x3e926771	0.28594545
189	0xbcda510e	-0.026649978
190	0xbdb8e6c7	-0.09028392
191	0x3c5ad3b6	0.01335614
192	0x3cdd152d	0.026987636
193	0xbdf61d93	-0.120173596
194	0xbc09664f	-0.008386209
195	0xbd189aff	-0.03725719
196	0xbde4760b	-0.111553274
197	0xbdd05d08	-0.10173994
198	0xbcafd716	-0.021464866
199	0xbdb4ca30	-0.08827627
200	0xbde3cbb1	-0.111228354
201	0xbd3e962c	-0.046529934
202	0x3e3fa1a7	0.18714009
203	0xbe237241	-0.15961553
204	0xbd855583	-0.06510451
205	0x3dc62c6b	0.09676441
206	0xbd6bdf13	-0.057585787
207	0x3e280b0c	0.16410464
208	0xbe1da998	-0.15396726
209	0x3e4c8cbc	0.19975561
210	0xbe2f53ec	-0.17121857
211	0xbdd48d0d	-0.10378466
212	0xbdc52657	-0.09626453
213	0x3d2f44f5	0.042790372
214	0x3e4fc86d	0.202913
215	0x3e564038	0.20922935
216	0x3e5397a7	0.2066332
217	0xbe140d16	-0.14458117
218	0xbe40c937	-0.18826757
219	0xbe2e91ad	-0.17047758
220	0xbe366e9f	-0.17815636
221	0x3de53f3d	0.11193702
222	0xbdd69ef3	-0.10479536
223	0xbdc87713	-0.097883366
224	0x3bf20716	0.0073860986
225	0x3db27a4b	0.08714732
226	0xbcad0256	-0.021119278
227	0xbda09aa4	-0.07841995
228	0x3d9b462f	0.07581746
229	0x3de7f933	0.11326828
230	0xbd29cfd4	-0.041457966
231	0xbdae66e0	-0.085157156
232	0x3d8f51c4	0.069980174
233	0xbdcebb6d	-0.100943424
234	0xbdfd4bcb	-0.12367972
235	0xbe25dcdc	-0.16197532
236	0xbdb70d68	-0.08938104
237	0x3e901c4a	0.28146583
238	0xbd1a2a84	-0.037638202
239	0x3ebd4cf2	0.36972767
240	0xbe189214	-0.14899474
241	0xbd79907d	-0.06092881
242	0xbe145aab	-0.14487712
243	0xbdf5ecee	-0.120080814
244	0x3df2f09e	0.118623
245	0x3e120f1b	0.14263575
246	0xbd3b346c	-0.04570429
247	0xbd66381f	-0.056205865
248	0xbd509378	-0.050921887
249	0xbe215098	-0.157534
250	0xbe346f9f	-0.17620705
251	0xbe28621f	-0.1644368
252	0xbe3be8e8	-0.18350565
253	0x3da5c994	0.080950886
254	0xbdeb3c71	-0.11486138
255	0x3dc8aa08	0.09798056

linear.weight f4 [14, 20]
0	0x3f51d1d0	0.81960773
1	0xbf2a7549	-0.6658521
2	0x3f3b1cc1	0.7309075
3	0x3fbcad7c	1.4740443
4	0xbfe27588	-1.7692118
5	0xbde6a932	-0.1126274
6	0xbf511b14	-0.8168194
7	0x3f2eeb71	0.68328005
8	0xbf992621	-1.1964761
9	0xbd24da8b	-0.04024748
10	0x3f952549	1.1652004
11	0xbfc97daf	-1.574148
12	0xbfac03ab	-1.3438619
13	0xbfa7e81e	-1.3117712
14	0x3f73d7e7	0.95251316
15	0xbfbac863	-1.4592403
16	0x3dbeb07a	0.09311004
17	0x3fd5611e	1.6670263
18	0x3f60986e	0.8773259
19	0x3f5dca4b	0.866368
20	0xbfbb5a69	-1.4636966
21	0x3fa32405	1.2745367
22	0x3f7862ef	0.9702596
23	0x3ed978c1	0.4247494
24	0x3f2d954e	0.67805946
25	0x3fdae99d	1.7102543
26	0xbf80fbff	-1.0076903
27	0xbf7e5ef1	-0.9936362
28	0xbfae1bf8	-1.3602285
29	0x3f198f3c	0.59984183
30	0x3f97a064	1.1845822
31	0x3fabcae3	1.3421291
32	0x40060594	2.0940905
33	0xbe4c2c75	-0.19938834
34	0xbfd2948d	-1.6451584
35	0xbfb169ff	-1.3860472
36	0x3f899864	1.0749631
37	0xbf8bf9d2	-1.0935614
38	0xbf83c5b3	-1.0294708
39	0x3f89d8fd	1.0769345
40	0xbfdefb14	-1.7420373
41	0xbfa3485f	-1.2756461
42	0xbf76507c	-0.9621656
43	0xbf004404	-0.50103784
44	0xbf53ea4d	-0.8277939
45	0x3d1e7d6e	0.038693838
46	0x3df9c3f7	0.121955805
47	0x3f841720	1.0319557
48	0x3f5f6f4e	0.8727921
49	0xbf3e9888	-0.74451494
50	0xbf808dbf	-1.0043257
51	0xbf9cc8a2	-1.2248728
52	0x3fc03496	1.5016048
53	0x3f8ecce0	1.1156273
54	0xbdfcd1a0	-0.1234467
55	0x3f8a039b	1.078235
56	0x3ece7ac6	0.40328044
57	0xbe966b0b	-0.29378542
58	0x3f825bb6	1.0184238
59	0x3eb0815a	0.34473687
60	0x3d6887a2	0.056769975
61	0x3d543942	0.051812418
62	0x3c45ad6a	0.012065271
63	0xbccef717	-0.025264306
64	0x3cc46e8b	0.023978492
65	0x3c138bdf	0.009005516
66	0xbc8d6be5	-0.017263362
67	0xbd217b46	-0.039424203
68	0x3c9951e6	0.01871581
69	0x3c47a118	0.012184404
70	0xbcea2936	-0.028584104
71	0x3d608ae7	0.054819968
72	0xbd02aa37	-0.03190061
73	0xbcb7c74e	-0.022433903
74	0x3c00da77	0.007864586
75	0x3bf5049d	0.0074773566
76	0x3b9c1d87	0.004764262
77	0xbc4bc88a	-0.012437949
78	0xbcfccc7d	-0.030859226
79	0x3bbd96d2	0.0057858014
80	0x3f368ccd	0.71308595
81	0xbf989fa2	-1.1923716
82	0x3f907c50	1.1287937
83	0x3f3dbfaf	0.7412061
84	0x3fb6e39e	1.4288213
85	0xbfa300a2	-1.2734568
86	0x3f908a87	1.1292275
87	0x3f4f17fb	0.80895966
88	0x3f47712e	0.77907073
89	0xbf32dcdc	-0.69868255
90	0x3f2bcaae	0.6710614
91	0x3fb316ac	1.3991294
92	0xbfabd23c	-1.3423533
93	0x3f3bf8cd	0.73426515
94	0xbfc8c775	-1.568587
95	0xbf184f57	-0.59496063
96	0xbf37e7f0	-0.71838284
97	0xbf87de70	-1.0614758
98	0x3f75953c	0.9593084
99	0xbf930cf3	-1.1488327
100	0x3fd2563b	1.6432565
101	0x3f802cce	1.0013673
102	0x3dd9c720	0.10633683
103	0xbfbfa34b	-1.4971708
104	0x3f24bf1c	0.6435411
105	0xbf999100	-1.1997375
106	0xbf697030	-0.9118681
107	0xbf70a6d8	-0.94004583
108	0x3fa70a38	1.3049994
109	0x3f6d0b78	0.92595625
110	0xbfcd9031	-1.6059629
111	0x3f7458a0	0.9544773
112	0xbfae3f9b	-1.3613161
113	0xbf930d44	-1.1488423
114	0x3fa2fdc5	1.2733694
115	0x3fce8afe	1.6136167
116	0x3faba6a6	1.3410232
117	0xbe96d286	-0.29457492
118	0xbe768bfa	-0.24076834
119	0x3fa673ce	1.3004091
120	0x3fb92e1a	1.4467194
121	0x3ee0561f	0.43815705
122	0xbf5d8545	-0.8653148
123	0xbf1ccc0c	-0.6124885
124	0xbf7131c4	-0.9421656
125	0x3f337f74	0.70116353
126	0xbeacbedc	-0.33739364
127	0xbcbc3d67	-0.022978498
128	0x3f64ec5d	0.8942316
129	0xbf4ab7c5	-0.7918666
130	0xbf722542	-0.945881
131	0xbeec6a03	-0.4617463
132	0x3fa18587	1.2618874
133	0x3f45ccf6	0.7726587
134	0xbd354682	-0.044256695
135	0x3f8190b7	1.0122288
136	0xbf761d3a	-0.96138346
137	0xbe23b1d8	-0.15985811
138	0x3ebd1a4f	0.36934134
139	0x3e844e8e	0.25841182
140	0xbf5d7b04	-0.8651583
141	0xbd5fee0a	-0.05467037
142	0x3e3f81b5	0.18701823
143	0x3d4a71e2	0.049425013
144	0xbe5003ef	-0.20314
145	0x3f1f684f	0.6226854
146	0x3ed49676	0.41521043
147	0xbe364821	-0.17800952
148	0xbd45f637	-0.048330512
149	0xbf019c71	-0.50629336
150	0xbf1d51e2	-0.6145307
151	0x3f0b65cc	0.54452205
152	0xbf3ed074	-0.74536824
153	0xbe810821	-0.25201514
154	0x3efc8aca	0.49324638
155	0xbee535a0	-0.44767475
156	0xbeb88baa	-0.36044055
157	0x3eb38ad4	0.35066855
158	0xbeb6cc1e	-0.35702604
159	0xbf269fe2	-0.6508771
160	0xbe3eb7f0	-0.18624854
161	0x3eef7da8	0.46775556
162	0xbfa79c13	-1.3094505
163	0xbe5f6af9	-0.2181815
164	0x3f869989	1.0515605
165	0xbf36d3ff	-0.7141723
166	0x3f8e4d17	1.1117276
167	0xbe7e2062	-0.2481704
168	0xbf8d5bbb	-1.1043619
169	0x3fb0be87	1.3808144
170	0x3f971e14	1.1806054
171	0xbf8f259e	-1.1183355
172	0x3d9aaf90	0.07553017
173	0x3e9ef71d	0.31047907
174	0x3f0a1018	0.5393081
175	0x3ee6118b	0.4493526
176	0xbf30d143	-0.6906931
177	0x3f382493	0.7193081
178	0xbfa6eb61	-1.3040582
179	0xbfcbc282	-1.5918734
180	0xbdb18b7e	-0.08669184
181	0xbdf464c0	-0.11933279
182	0x3e135e02	0.1439133
183	0x3db91d9e	0.09038852
184	0x3e366723	0.17812781
185	0xbe19ed48	-0.15031922
186	0x3d946fb8	0.07247871
187	0x3d7844ac	0.060612366
188	0x3c986c03	0.018606192
189	0xbcd12f8b	-0.025535366
190	0x3dfbc2d0	0.12293017
191	0x3de4c59f	0.11170506
192	0xbe09e72b	-0.1346709
193	0x3d531185	0.05153038
194	0xbe2ffa68	-0.17185366
195	0xbdff9aaa	-0.12480672
196	0x3d03a8b1	0.0321433
197	0xbdf54a1d	-0.119770266
198	0x3d665f35	0.05624314
199	0xbd728dea	-0.05921737
200	0xbf1e2202	-0.6177064
201	0x3d890acb	0.06691512
202	0xbd16084f	-0.036629017
203	0xbd95bc69	-0.07311327
204	0xbe520deb	-0.20513122
205	0x3eaed3f0	0.3414607
206	0x3e634712	0.2219508
207	0xbe32000b	-0.17382829
208	0xbd982ab5	-0.07430021
209	0xbdfcc4c5	-0.12342218
210	0xbed20862	-0.4102202
211	0x3de09b51	0.10967124
212	0xbea7c94b	-0.32770762
213	0xbe7075ab	-0.23482387
214	0x3ed4acb3	0.4153801
215	0xbdd718a4	-0.10502747
216	0xbdd110bf	-0.10208272
217	0x3e859e45	0.26097313
218	0xbe9546ec	-0.29155672
219	0xbebbfb6b	-0.36715254
220	0xbc76783b	-0.015043314
221	0x3b12b04a	0.0022382909
222	0x3d68daf7	0.056849446
223	0x3ce665cc	0.028124712
224	0x3d87124c	0.06595287
225	0xbcdf2b58	-0.027242348
226	0x3c36180c	0.011114132
227	0xbc712e57	-0.014720521
228	0xbd23d08f	-0.03999382
229	0x3d15bd73	0.036557626
230	0x3d3d62d4	0.046236828
231	0x3d6d30ae	0.057907753
232	0xbdb170e4	-0.0866411
233	0xbd28d83f	-0.041221853
234	0xbc30dd4d	-0.01079495
235	0xbd8cee9b	-0.06881448
236	0x3cd33198	0.025780484
237	0xba6e8a0b	-0.00090995495
238	0xbd03ffad	-0.032226253
239	0xbc917bde	-0.01775926
240	0xbc5e5896	-0.013570925
241	0xba278265	-0.0006389975
242	0x3d6a93d0	0.05726987
243	0x3d0d268a	0.03446058
244	0x3d656db7	0.056012835
245	0xbcc1e75a	-0.023669887
246	0x3c1cd62a	0.009572545
247	0xbc431641	-0.011907161
248	0xbd32b48b	-0.04362921
249	0x3d0ca69d	0.034338582
250	0x3d482c5e	0.048870437
251	0x3d4fb5f4	0.050710633
252	0xbdb439f3	-0.088001154
253	0xbd2eb0cc	-0.042649075
254	0xbbe96e21	-0.007123724
255	0xbd94e51a	-0.0727026

linear.bias f4 [14]
0	0x3f61aabc	0.88151145
1	0x3f94cdff	1.1625365
2	0x3f313712	0.69224656
3	0xbf86fd82	-1.0546114
4	0x3f4ca6e7	0.7994217
5	0x3f9fa13c	1.247108
6	0x3e723a84	0.23655134
7	0xbea1049a	-0.31448823
8	0x3ee08842	0.43853956
9	0xbf7f62bc	-0.9976003
10	0xbf1c0ebe	-0.60959995
11	0xbf96d8ba	-1.178489
12	0xbf95090b	-1.1643385
13	0xbf96d0f1	-1.1782514
