trained_weights/unicorn/unicorn19.pth (torch, 16655 bytes, 8 tensors)

conv1.lin_l.weight f4 [32, 30]
0	0x3d096d13	0.033551287
1	0x3d475167	0.048661616
2	0x3d222efa	0.03959558
3	0xbc61c8bb	-0.013780768
4	0xbd29020f	-0.04126173
5	0x3c93673e	0.017993566
6	0x3c1dbe16	0.00962784
7	0xbafbcc3f	-0.001921065
8	0x3cee8e19	0.029120492
9	0x3c7becbd	0.015376267
10	0x3cc46bfa	0.023977268
11	0x3b3e0106	0.002899231
12	0x3b8930d6	0.00418673
13	0x3d378216	0.044801794
14	0x3bcd657c	0.0062682014
15	0x3d02d532	0.0319416
16	0xbcdd5980	-0.027020216
17	0xbcc16f63	-0.023612684
18	0xbb4d7ba2	-0.0031354208
19	0xbc1d77f3	-0.009611118
20	0xbd0359be	-0.032068007
21	0x3bd2a0a4	0.0064278413
22	0x3b39b65e	0.002833746
23	0x3d2464b1	0.04013509
24	0x3bfd08c9	0.0077219945
25	0x3d0e1cd3	0.034695458
26	0x3cad8985	0.021183738
27	0x3d04faa6	0.0324656
28	0x3cae5d3b	0.02128469
29	0x3cb5d5f1	0.022196742
30	0x3cacd346	0.021096837
31	0x3d56aeb7	0.052412715
32	0xbdde4984	-0.10853866
33	0x3cbb3b82	0.022855524
34	0x3d8134e9	0.0630892
35	0xbd0da39a	-0.03457985
36	0xbce2674b	-0.027637145
37	0xbd014814	-0.03156288
38	0xbdb0a616	-0.086254284
39	0x3ce37d78	0.02776979
40	0x3d33e746	0.04392173
41	0xbcd6211b	-0.026138833
42	0x3d47f211	0.048814837
43	0xbe378a3a	-0.17923823
44	0x3cc62277	0.024186356
45	0xbdda53b3	-0.106604956
46	0xbdabc8fc	-0.08387944
47	0x3d5c7eb0	0.053831756
48	0xbc661a40	-0.014044344
49	0xbdeb2e53	-0.11483445
50	0x3e1c82ac	0.15284222
51	0x3bb34a1a	0.00547148
52	0xbc60e3a5	-0.01372615
53	0xbe0dc3df	-0.1384425
54	0x3d8a24e1	0.06745315
55	0x3de1c467	0.11023789
56	0xbd0d7056	-0.03453096
57	0x3d9ccd20	0.07656312
58	0xbdd27ef0	-0.10278118
59	0xbd4de9ab	-0.05027167
60	0xbe13f172	-0.14447573
61	0xbd760921	-0.0600673
62	0xbd225390	-0.039630473
63	0xbdcf759f	-0.10129856
64	0x3d64229f	0.05569708
65	0xbcbf165c	-0.023326091
66	0xbd3d64be	-0.046238653
67	0xbe1e4d68	-0.15459216
68	0x3db3a169	0.08771021
69	0x3e25de68	0.16198123
70	0xbbe41354	-0.006960312
71	0x3dc3a17c	0.09552285
72	0x3deb3140	0.11484003
73	0xbc7b263e	-0.015328942
74	0x3aabe0dc	0.0013113278
75	0xbc9401a8	-0.018067196
76	0x3dd6528d	0.10464964
77	0xbd981ede	-0.074277624
78	0xbdc42d08	-0.095789015
79	0xbd13c163	-0.0360731
80	0xbdb3f28c	-0.087864965
81	0xbdd36ec5	-0.10323862
82	0xbd779f20	-0.060454488
83	0xbdedf172	-0.11618318
84	0x3b147b42	0.0022656475
85	0xbc809ae0	-0.01569885
86	0x3e757e29	0.23973908
87	0xbe41b78f	-0.18917678
88	0x3e283c93	0.16429357
89	0xbca57f33	-0.020202255
90	0xbd7047cd	-0.058662225
91	0xbe1295dc	-0.1431498
92	0x3cd43856	0.02590577
93	0x3b935432	0.004496121
94	0x3e0bcaa0	0.13651514
95	0xbda87bfe	-0.08226775
96	0xbdbf3083	-0.09335425
97	0xbc69b126	-0.014263427
98	0x3e8143ba	0.25246984
99	0x3d9aea2c	0.07564196
100	0xbc95aecd	-0.018271828
101	0x3e84d131	0.2594085
102	0x3e3fc8ab	0.18728893
103	0x3e082ad1	0.13297583
104	0xbd2fe02f	-0.042938408
105	0xbc61a3a1	-0.013771922
106	0x3e1bc630	0.15212321
107	0x3aaf72b0	0.001338562
108	0xbe4569a2	-0.19278577
109	0x3dad3eba	0.0845923
110	0xbd517705	-0.051138896
111	0xbe2ca3e2	-0.16859391
112	0x3d0f45ac	0.034978554
113	0xbe3f85a6	-0.18703327
114	0xbcbc666e	-0.022998061
115	0xbd282dc4	-0.04105927
116	0x3eae24da	0.3401249
117	0xbe365c99	-0.1780876
118	0x3c740e46	0.014895981
119	0x3e11f4b1	0.14253499
120	0x3c5aa09b	0.013343955
121	0x3d43c05a	0.047790863
122	0xbe189dfb	-0.14904015
123	0xbc18e10e	-0.009331001
124	0x3c64e912	0.013971584
125	0xbd20ea0c	-0.039285704
126	0xbd20acd6	-0.03922733
127	0xbc023273	-0.007946598
128	0xbdf12e84	-0.1177645
129	0x3d8d23f1	0.06891621
130	0x3d17b51a	0.037037946
131	0xbd6ff1c7	-0.058580186
132	0x3d5b6cc8	0.05357054
133	0xbe3d2d89	-0.18474402
134	0x3d291b5b	0.041285854
135	0xbdd195d7	-0.10233658
136	0xbdb8f18d	-0.09030447
137	0x3d01b072	0.031662412
138	0x3ca6e0b3	0.020370817
139	0xbe2b32a2	-0.16718534
140	0x3e404fa3	0.18780379
141	0x3c88694a	0.016651768
142	0xbc9fd610	-0.019511253
143	0xbe0c94cf	-0.13728641
144	0x3dc34307	0.09534269
145	0x3dacd9dd	0.084399916
146	0xbd263a71	-0.040583078
147	0x3d82e75c	0.063917845
148	0xbde1def6	-0.110288545
149	0xbd6ecea7	-0.058302548
150	0xbc806007	-0.01567079
151	0x3d6a6def	0.057233747
152	0xbdd3c8ac	-0.103410095
153	0x3b7c7d0e	0.0038526687
154	0x3c3a1564	0.011357639
155	0x3bbd1d07	0.0057712826
156	0xbd755ac4	-0.059901014
157	0xbd2f6a6c	-0.0428261
158	0xbe0bb5d6	-0.13643584
159	0x3d6c9650	0.057760537
160	0x3d827015	0.06369034
161	0xbcb86b4c	-0.0225121
162	0x3d454d72	0.04816956
163	0xbe1546bf	-0.14577769
164	0x3cd7fd31	0.026365848
165	0xbdf2ad6e	-0.11849485
166	0xbdbbc2b6	-0.091679975
167	0x3cf6e8d1	0.030140312
168	0x3c4e9b1b	0.012610222
169	0xbe0fb902	-0.14035419
170	0x3e172e7d	0.14763828
171	0x3cfed3ed	0.031106913
172	0xbcedbe42	-0.029021386
173	0xbdf9d600	-0.121990204
174	0x3de5b5bc	0.11216304
175	0x3dc3294b	0.095293604
176	0xbc70351f	-0.014661103
177	0x3d9e0168	0.07715112
178	0xbd7031ba	-0.058641173
179	0xbdb9275a	-0.09040709
180	0xbd111432	-0.03541965
181	0xbd504f93	-0.050857138
182	0xbda19b3b	-0.07890936
183	0x3d16d166	0.03682079
184	0x3e030230	0.12793803
185	0xbd5747e8	-0.05255881
186	0xbcb16536	-0.021654706
187	0xbce310a7	-0.027717901
188	0x3e0c8f40	0.1372652
189	0x3ca4137f	0.020028828
190	0xbcb1a68e	-0.021685865
191	0x3e51fed8	0.20507371
192	0x3dcb350d	0.09922228
193	0xbd429f8b	-0.047515433
194	0xbdcca594	-0.09992519
195	0xbd91a85a	-0.07112189
196	0x3e42a44b	0.19007985
197	0x3df3ca1b	0.11903783
198	0xbe3fda1e	-0.18735549
199	0x3d66b24f	0.056322392
200	0xbd29f497	-0.041493025
201	0xbdd74dda	-0.10512896
202	0xbbaa79f9	-0.0052025286
203	0xbe1db10f	-0.15399574
204	0xbdff6e7e	-0.124722466
205	0x3d4b6aae	0.049662285
206	0x3ddd3a3a	0.108021215
207	0xbe30eb0a	-0.1727716
208	0x3d561648	0.052267343
209	0x3d9f7155	0.07785288
210	0x3cac44a4	0.021028824
211	0xbdfcb9f6	-0.12340157
212	0x3c614edd	0.013751713
213	0xbd074e5a	-0.033033706
214	0x3d7070e3	0.058701407
215	0xbe177dec	-0.14794129
216	0xbe18f053	-0.14935426
217	0x3d7d41f8	0.06183049
218	0x3e5948cc	0.21219176
219	0x3e87f463	0.2655364
220	0xbd47cfb1	-0.048782054
221	0x3e92690d	0.28595772
222	0x3e182e3d	0.14861389
223	0x3e08a203	0.13343053
224	0x3d68d3d6	0.056842647
225	0x3d6c5742	0.057700403
226	0x3e608ff0	0.21929908
227	0xbdc1b416	-0.09458177
228	0xbd0f5a4e	-0.03499823
229	0x3dd5320b	0.104099356
230	0xbd83f200	-0.06442642
231	0xbe1ddefc	-0.15417093
232	0xbcdc20cb	-0.026871106
233	0xbd7a84af	-0.061161693
234	0xbd43ada5	-0.047773022
235	0xbe36200f	-0.17785667
236	0x3e6971eb	0.22797363
237	0xbe26e483	-0.16298108
238	0xbddabd2c	-0.10680613
239	0x3e097a23	0.13425498
240	0xbcd61a8d	-0.026135707
241	0x3d24878d	0.040168334
242	0xbdf449d2	-0.119281426
243	0x3c20c506	0.009812599
244	0x3cb6fd09	0.022337453
245	0x3d971960	0.07377887
246	0x3c4806e7	0.012208677
247	0xbd127430	-0.035755336
248	0xbdcff320	-0.10153794
249	0x3cfdd08f	0.030983238
250	0x3d5b90df	0.053604957
251	0xbc4ca105	-0.012489562
252	0xbae79d47	-0.0017670774
253	0xbe28ff40	-0.1650362
254	0x3d73e0f9	0.059540723
255	0xbdea67a1	-0.11445547

conv1.lin_l.bias f4 [32]
0	0xbd0fbb94	-0.035090998
1	0xbdc11689	-0.09428126
2	0xbddfecf1	-0.10933865
3	0xbe270c66	-0.16313323
4	0xbe058f67	-0.13042985
5	0xbdbc3ec7	-0.09191661
6	0xbe2d69dc	-0.16934913
7	0xbe27c7bb	-0.16384785
8	0xbda228c3	-0.07917931
9	0xbe3747f9	-0.17898549
10	0xbc2ebdea	-0.010665396
11	0x3cf4aa7c	0.02986645
12	0xbe208a8c	-0.15677851
13	0xbbdd04ee	-0.0067449724
14	0xbe1d6773	-0.15371494
15	0xbd92db3e	-0.071707234
16	0x3d0b505a	0.034012176
17	0xbd49f8ac	-0.049309418
18	0x3d28097f	0.04102468
19	0xbe0a5be5	-0.13511617
20	0xbdbbb525	-0.0916541
21	0xbe30ae13	-0.17253904
22	0xbd3988fa	-0.045296647
23	0xbd3b6830	-0.045753658
24	0xbcc8955d	-0.024485284
25	0x3d4d69a5	0.05014958
26	0x3cd16529	0.025560932
27	0x3d43082c	0.047615215
28	0xbbda70d6	-0.006666283
29	0xbd91bc38	-0.07115978
30	0xbe1f50e6	-0.15558204
31	0xbdb70ff6	-0.08938591

conv1.lin_r.weight f4 [32, 30]
0	0xbe0fd974	-0.14047796
1	0x3d9c1a1e	0.07622169
2	0xbe3a6419	-0.18202247
3	0xbe159e2a	-0.14611116
4	0xbe042a43	-0.12906747
5	0xbdecdada	-0.1156518
6	0xbd04e456	-0.03244432
7	0xbe057815	-0.13034089
8	0xbde8e122	-0.11371066
9	0x3d8f9154	0.07010141
10	0x3c0b644c	0.008507799
11	0xbe060164	-0.13086468
12	0x3cdbefc7	0.026847733
13	0xbdd50221	-0.10400797
14	0x3dc1f457	0.09470432
15	0x3e046c2f	0.12931894
16	0xbdae3ae2	-0.08507325
17	0xbdcb2f9a	-0.09921189
18	0x3d699c92	0.057034083
19	0xbe074dde	-0.13213298
20	0xbd890ad6	-0.0669152
21	0xbbc82025	-0.0061073476
22	0xbdd79fe5	-0.10528544
23	0x3d1e899b	0.03870545
24	0x3d46bd60	0.048520446
25	0xbdc78027	-0.0974124
26	0x3d941d69	0.07232172
27	0xbe1f5478	-0.15559566
28	0x3cbe044f	0.023195414
29	0xbd220261	-0.03955305
30	0x3e48099c	0.19534916
31	0xbd8f0164	-0.06982687
32	0xbe4cdd6b	-0.20006339
33	0xbe475b32	-0.19468382
34	0x3c566885	0.013086443
35	0x3c20aadc	0.009806361
36	0x3ea24110	0.31690264
37	0xbe611d94	-0.2198394
38	0x3ded2f62	0.11581303
39	0xbdd48173	-0.10376253
40	0x3ec96df7	0.3934171
41	0x3e14b70d	0.14522953
42	0xbbe459c6	-0.0069687096
43	0x3e770af2	0.24125269
44	0xbe6a0426	-0.22853145
45	0x3c835664	0.016032405
46	0x3cb66887	0.02226664
47	0xbdf2e017	-0.11859148
48	0xbca01a43	-0.019543773
49	0x3d1df54d	0.038564015
50	0xbd5b04ef	-0.053471502
51	0xbecdd902	-0.40204626
52	0x3e662500	0.22475052
53	0x3dbc4ced	0.0919436
54	0xbeda2bbe	-0.42611498
55	0xbdd4fe67	-0.10400086
56	0x3e67fb4b	0.22654454
57	0xbe2e10d3	-0.16998605
58	0x3cb9e321	0.022691311
59	0xbd1d85cc	-0.038457677
60	0x3c306842	0.0107670445
61	0xbdd89c08	-0.105766356
62	0xbcdf229c	-0.027238183
63	0xbc32f3f7	-0.010922424
64	0x3dda3149	0.10653932
65	0xbdff0fa9	-0.12454159
66	0xbe0348d5	-0.12820752
67	0x3e646c4e	0.2230694
68	0x3d0f517a	0.03498981
69	0x3e98c6de	0.29839224
70	0xbe9e7845	-0.30951133
71	0x3c4c4efc	0.012470003
72	0x3e03a0db	0.1285433
73	0xbe4c622a	-0.19959322
74	0xbc8a1960	-0.016857803
75	0xbe10f781	-0.14156915
76	0x3d832ec0	0.06405401
77	0xbda9b536	-0.08286516
78	0xbd4945cc	-0.04913883
79	0x3d556e32	0.052107044
80	0x3e9a3be4	0.30123818
81	0x3e08687d	0.13321109
82	0xbe1fd4b9	-0.15608491
83	0xbe6e739f	-0.23286293
84	0xbd81e491	-0.06342424
85	0xbdb3671c	-0.08759901
86	0xbd931559	-0.07181806
87	0xbeb1b8d4	-0.34711325
88	0xbef51131	-0.47864679
89	0x3e61091d	0.21976133
90	0x3b2e2206	0.0026570573
91	0xbe47a707	-0.1949731
92	0xbe4b4bfc	-0.19853204
93	0x3bcc80ea	0.0062409537
94	0x3ccdff33	0.025146103
95	0xbe5b7ef7	-0.21435152
96	0xbe63e857	-0.222566
97	0x3e8cc02a	0.2749036
98	0x3dd61d70	0.104548335
99	0x3e8bf3aa	0.27334338
100	0xbeba0a3a	-0.36335927
101	0xbbb46f72	-0.0055064494
102	0x3e23fb68	0.16013873
103	0xbe6a62cd	-0.22889252
104	0x3dc70726	0.0971816
105	0xbe08ffca	-0.13378826
106	0x3e2e96d3	0.17049722
107	0xbdb34f6c	-0.08755383
108	0xbd1a450d	-0.03766351
109	0x3cbf3ae8	0.023343518
110	0x3e7ed646	0.24886426
111	0x3e239e54	0.15978366
112	0xbe3a6a75	-0.18204673
113	0xbeb35dce	-0.35032505
114	0xbd8b6a0c	-0.06807336
115	0xbe259435	-0.16169818
116	0x3d696d9a	0.05698929
117	0xbf008d93	-0.50216025
118	0xbecc58f3	-0.39911613
119	0x3e256db2	0.16155127
120	0x3e1d23c5	0.15345676
121	0xbdb405ae	-0.08790146
122	0xbe743492	-0.23848179
123	0xbe3d446e	-0.18483135
124	0xbc052d64	-0.008128498
125	0x3b215ba6	0.0024621277
126	0x3e8e7f98	0.2783172
127	0xbe72df5a	-0.23718014
128	0x3d739196	0.059465013
129	0xbddb2759	-0.10700864
130	0x3ecb4c2d	0.39706555
131	0x3df651d3	0.120273255
132	0xbbd7ddb2	-0.0065877074
133	0x3e5c0db2	0.214896
134	0xbe6e53ab	-0.23274104
135	0x3c3fc864	0.011705492
136	0x3cd4543e	0.025919076
137	0xbdfe984a	-0.124313906
138	0x3c1eea15	0.009699364
139	0x3cc98130	0.024597734
140	0xbcf61fcc	-0.030044459
141	0xbebe35ac	-0.37150323
142	0x3e70f158	0.23529565
143	0x3db6d4b0	0.08927286
144	0xbecd87c5	-0.40142646
145	0xbe1ecc76	-0.15507683
146	0x3e8c568f	0.2740979
147	0xbe4a55cd	-0.19759293
148	0x3cf23487	0.029566063
149	0xbd84153b	-0.06449362
150	0x3e29d7f3	0.16586284
151	0xbd5884c3	-0.052860986
152	0xbe29f34a	-0.16596714
153	0xbe268da5	-0.1626497
154	0x3cba1966	0.022717189
155	0x3cf3abe4	0.02974505
156	0x3e881ce9	0.26584557
157	0xbe8048cc	-0.2505554
158	0x3ddcea76	0.107869074
159	0xbdc58a44	-0.09645513
160	0x3ebbc72a	0.36675388
161	0x3e1776fb	0.14791481
162	0xbc709706	-0.014684444
163	0x3e7cc4e5	0.24684484
164	0xbe69674d	-0.22793312
165	0xbc00c013	-0.007858294
166	0x3ce8fb70	0.028440207
167	0xbdeb96c1	-0.115033634
168	0xbc8d5908	-0.017254367
169	0x3bd89745	0.0066098296
170	0xbdaea6dd	-0.085279204
171	0xbec3d9b7	-0.3825204
172	0x3e5d7913	0.21628217
173	0x3d3820eb	0.044953268
174	0xbec95a2e	-0.39326614
175	0xbdb223e3	-0.08698251
176	0x3e96b99d	0.29438487
177	0xbe207fca	-0.15673748
178	0x3d7d52a0	0.061846375
179	0xbd2b0279	-0.041750405
180	0xbbdc4e14	-0.006723175
181	0x3c604dcc	0.013690423
182	0xbe507273	-0.20356159
183	0xbe2d4e1f	-0.16924332
184	0xbe547d5b	-0.20750944
185	0xbe404f1f	-0.18780182
186	0xbe84f2a5	-0.25966373
187	0x3e1230a4	0.14276367
188	0xbc8c0afc	-0.017095082
189	0x3eda1579	0.42594507
190	0xbeafd8b2	-0.34345013
191	0xbe6b5b64	-0.22984082
192	0x3d022eff	0.0317831
193	0xbe57700f	-0.2103884
194	0x3e8ec2b4	0.27882922
195	0x3c7d5632	0.015462445
196	0xbe13255f	-0.14369725
197	0xbe8ef245	-0.27919212
198	0x3e472e1e	0.19451186
199	0xbe3f1c06	-0.18663034
200	0x3dcc5697	0.09977453
201	0x3dab0351	0.08350242
202	0xbe4412e9	-0.19147839
203	0xbe01eaf8	-0.1268729
204	0xbcb9db9b	-0.022687724
205	0xbe8a5547	-0.27018186
206	0x3e4be0d4	0.19909984
207	0xbec19930	-0.37812185
208	0xbe8f7a4b	-0.2802299
209	0x3d0d5508	0.03450492
210	0xbd48470d	-0.048895884
211	0xbe63bee5	-0.22240789
212	0xbe3a42fe	-0.18189618
213	0x3d924674	0.07142344
214	0x3d460a11	0.048349444
215	0xbe2a7b32	-0.16648558
216	0xbe7e284b	-0.24820058
217	0x3e89db75	0.26925245
218	0x3db25243	0.087070964
219	0x3e98979c	0.2980317
220	0xbec71d6c	-0.38889635
221	0x3d48eec4	0.04905583
222	0x3e148fd0	0.14507985
223	0xbe84ae05	-0.25914016
224	0x3e0dc0da	0.13843098
225	0xbe597e4d	-0.21239586
226	0x3e21379e	0.15743873
227	0xbd6f0508	-0.058354408
228	0xbd27ba9b	-0.040949445
229	0x3d0d09fb	0.034433346
230	0x3ea2eae5	0.31819835
231	0x3e015809	0.12631239
232	0xbe20eee0	-0.15716124
233	0xbeaef2e4	-0.34169686
234	0xbd81fe5b	-0.063473426
235	0xbe5fd000	-0.2185669
236	0xbd320aae	-0.043467216
237	0xbefb7ffe	-0.49121088
238	0xbee98fbe	-0.4561748
239	0x3e6e9d50	0.23302197
240	0x3e1b6ef6	0.15179047
241	0xbda10247	-0.078617625
242	0xbe1c347e	-0.15254399
243	0xbe0280ea	-0.1274449
244	0x3ba972ff	0.0051711793
245	0xba491ea3	-0.0007672107
246	0x3e70557c	0.2347011
247	0xbe935439	-0.28775194
248	0x3de8748d	0.11350355
249	0xbdbcb542	-0.0921426
250	0x3eb9aa7a	0.36262876
251	0x3e351e19	0.17687263
252	0x3c13d9f7	0.009024135
253	0x3e655d80	0.22398949
254	0xbe2ee466	-0.17079315
255	0x3c2573e8	0.010098435

conv2.lin_l.weight f4 [20, 32]
0	0x3e2ca95e	0.16861483
1	0x3bdf70c1	0.0068188612
2	0xbe174075	-0.14770682
3	0xbd4df0d2	-0.050278492
4	0xbbabe51a	-0.005245817
5	0xbb17987d	-0.0023131662
6	0xbcfc60f2	-0.030807946
7	0xbca0886e	-0.019596305
8	0xbba5c3cc	-0.005058741
9	0xbe08ba8f	-0.13352416
10	0xbcc6e028	-0.024276808
11	0xbe135766	-0.14388809
12	0xbc2831fc	-0.010265823
13	0xbee633f6	-0.44961518
14	0xbdceec3b	-0.10103651
15	0xbf0c8938	-0.5489688
16	0xbdd617e0	-0.104537725
17	0xbd9c848b	-0.07642468
18	0xbdbf2cc7	-0.093347125
19	0xbc49d9c3	-0.012319985
20	0xba9fb53e	-0.0012184752
21	0xbdf7c8d7	-0.12098854
22	0xbda709e1	-0.08156181
23	0xbd7ba6f3	-0.061438512
24	0xbd873e0b	-0.06603631
25	0xbd554a03	-0.052072536
26	0xbdde2667	-0.108471684
27	0xbe0956ab	-0.13411967
28	0xbba39bee	-0.0049929535
29	0x3eacd22c	0.33754098
30	0x3c7addce	0.015311671
31	0xbc8e2018	-0.017349288
32	0x3db425f5	0.08796302
33	0x3ca19e85	0.019728908
34	0x3c5f00bb	0.013611014
35	0xbc040999	-0.008058929
36	0x3cdf9eb1	0.02729735
37	0x3ce161b2	0.027512405
38	0xbcf23a73	-0.029568886
39	0x3c809c28	0.015699461
40	0x3d16a2e3	0.036776435
41	0xbd473f5d	-0.048644412
42	0x3c8c68f0	0.017139882
43	0xbd52ac63	-0.051433932
44	0xbd2a1232	-0.04152126
45	0xbe839e64	-0.2570678
46	0x3cc379e4	0.023861833
47	0xbeac11c2	-0.33607298
48	0xbce327a8	-0.02772887
49	0x3d779ce5	0.06045236
50	0x3c29c339	0.010361486
51	0x3d3d5227	0.046220925
52	0x3d96c53f	0.073618405
53	0xbe0b664f	-0.13613246
54	0x3d632ac7	0.055460718
55	0x3db04883	0.086075805
56	0x3da98238	0.082767904
57	0x3d374675	0.044744927
58	0xbc9088c6	-0.017643344
59	0xbbeead96	-0.0072838767
60	0x3d8cd24b	0.06876048
61	0x3e5d0e72	0.21587542
62	0xbbc760c8	-0.0060845353
63	0x3d4e17fd	0.050315846
64	0xbd5f0d19	-0.05445585
65	0x3d1ad56f	0.037801202
66	0x3d0a9c6e	0.03384059
67	0xbd04a015	-0.03237923
68	0x3d0849d8	0.033273548
69	0x3d04d2a3	0.03242744
70	0xbdd88950	-0.10573065
71	0x3c8d1002	0.017219547
72	0x3dbd7676	0.0925111
73	0xbcc3e698	-0.023913667
74	0x3c4cc352	0.01249774
75	0xbe018de8	-0.12651789
76	0xbc31c75f	-0.010850756
77	0xbe410def	-0.18852971
78	0xbd5de2db	-0.054171424
79	0xbe6a3e28	-0.22875273
80	0xbdbf822f	-0.093510024
81	0x3d64d701	0.055869106
82	0xbd14939b	-0.03627358
83	0x3d2096ef	0.03920644
84	0x3d4c07b1	0.049812023
85	0xbe05b191	-0.13056017
86	0x3d5d9bc0	0.054103613
87	0x3d6f9d31	0.05849952
88	0x3d84c20d	0.06482325
89	0xbb2afe3d	-0.002609148
90	0xbdfe208e	-0.12408553
91	0xbdb13f31	-0.08654631
92	0xbbd3fabc	-0.006469099
93	0x3a481831	0.00076329993
94	0xbcf02c5f	-0.029318033
95	0x3d2c800d	0.042114306
96	0xbdaac6c5	-0.083386935
97	0x3cbc7f6c	0.023009978
98	0x3dd7db04	0.10539821
99	0x3c83e71c	0.016101412
100	0x3ca5cc07	0.02023889
101	0x3d15789f	0.036491986
102	0xbc5f558e	-0.013631238
103	0x3d28a554	0.041173294
104	0x3da22140	0.07916498
105	0x3dca127f	0.09866809
106	0x3c70ce2c	0.014697593
107	0xbd8c3775	-0.06846515
108	0x3d87c9ee	0.06630312
109	0x3dbdd046	0.09268241
110	0xbcaa7f32	-0.020812605
111	0x3dbe8ea1	0.09304548
112	0xbd8541ba	-0.06506677
113	0x3c8026b8	0.015643463
114	0xbc0bd4ef	-0.008534654
115	0x3cc69f42	0.024245862
116	0x3bd8b273	0.0066130697
117	0xbd10370c	-0.035208747
118	0x3ca2dbce	0.019880202
119	0x3a48acc7	0.00076551404
120	0x3ba655cc	0.0050761458
121	0x3c8eb3fe	0.017419811
122	0xbd955d1a	-0.07293148
123	0xbd535751	-0.051596943
124	0xbc8c5162	-0.01712865
125	0xbe509375	-0.2036875
126	0x3d0db14a	0.034592904
127	0x3d0d180e	0.03444677
128	0xbd8ffdbc	-0.07030818
129	0xbc8c1c44	-0.017103322
130	0xbc9c5ffa	-0.019088734
131	0xba32f9bb	-0.0006827374
132	0xbb544501	-0.0032389762
133	0xbccd5225	-0.025063584
134	0x3d2ec998	0.042672724
135	0xbd429ae8	-0.04751101
136	0xbc5f9657	-0.013646684
137	0xbd96e5fa	-0.07368083
138	0xbcb1a777	-0.021686299
139	0xbdd978c8	-0.1061874
140	0xbd8a83cf	-0.06763422
141	0xbe23a96a	-0.15982595
142	0x3d035226	0.032060765
143	0xbe4e1f98	-0.2012924
144	0xbde0f092	-0.10983385
145	0x3cd143ea	0.02554508
146	0xbda84aec	-0.08217415
147	0xbbe76de2	-0.0070626596
148	0x3cdbf676	0.02685092
149	0xbdad9977	-0.08476537
150	0x3c799526	0.015233314
151	0x3c22cdfc	0.009936806
152	0x3c993b36	0.018704992
153	0xbd84ae97	-0.06478613
154	0xbda257cb	-0.079269014
155	0xbdd74e59	-0.105129905
156	0xbcd13348	-0.025537148
157	0x3b6c3ca7	0.0036046894
158	0xbd50866b	-0.05090944
159	0x3c8814bf	0.016611455
160	0x3ce57235	0.02800856
161	0x3d00539f	0.031329747
162	0x3e2b8932	0.16751555
163	0x3d027584	0.031850353
164	0x3d1cdfda	0.03829942
165	0x3d35a330	0.04434508
166	0xbd68a633	-0.056799125
167	0x3d9bee64	0.07613829
168	0x3db41d7b	0.087946855
169	0x3dbe2116	0.092836544
170	0x3d35a69c	0.044348344
171	0xbc455c8e	-0.012045993
172	0x3d51a2d2	0.05118067
173	0x3daca3e7	0.084296994
174	0x3ce71ba4	0.028211422
175	0x3d9b0428	0.07569152
176	0x3c2259dd	0.00990912
177	0x3dd208ea	0.102556065
178	0x3d319742	0.04335714
179	0x3da68cad	0.081323005
180	0x3d81149e	0.063027605
181	0xbc41ff72	-0.011840688
182	0x3dd3bee6	0.10339145
183	0x3dd9c9f4	0.106342226
184	0x3dee51a5	0.11636666
185	0x3d863ba6	0.06554346
186	0x3b4be408	0.003111126
187	0x3d26c085	0.040710945
188	0x3ce917fc	0.02845382
189	0xbd9384ec	-0.07203087
190	0x3d5524c3	0.05203701
191	0x3d5bcb62	0.053660758
192	0xbd638cb7	-0.055554118
193	0xbd47bccb	-0.04876403
194	0xbc47944e	-0.012181355
195	0x3caba7b3	0.020953989
196	0xbd233d61	-0.039853457
197	0xbd3f1155	-0.04664739
198	0x3dd26441	0.10273028
199	0xbd1d70f9	-0.038437817
200	0xbd6bb1ae	-0.057542495
201	0x3c4891d2	0.0122417975
202	0x39d24e40	0.00040112622
203	0xbcd5ecf2	-0.02611396
204	0x3ac58712	0.0015070161
205	0x3e08a137	0.13342749
206	0x3c0d8f60	0.00864014
207	0x3e2e9392	0.17048481
208	0xbd1cca94	-0.03827913
209	0xbd99bf1c	-0.07507154
210	0xbc469aa1	-0.012121827
211	0xbd4dc776	-0.05023905
212	0xbd86ffc4	-0.06591752
213	0x3d3b94b5	0.045796115
214	0xbd8c93bd	-0.06864116
215	0xbda81856	-0.08207767
216	0xbdab5727	-0.08366232
217	0xbc6c1ed5	-0.014411648
218	0xbc9d118b	-0.019173404
219	0xbd2d106e	-0.042251997
220	0xbb1ba8a5	-0.0023751643
221	0xbe4d11b8	-0.2002629
222	0x3b7c1996	0.00384674
223	0xbd15c010	-0.03656012
224	0xbd4e4fe9	-0.050369177
225	0xbc7833ec	-0.015149098
226	0x3b921255	0.0044577518
227	0x3c804a97	0.015660567
228	0xbca24fc2	-0.019813422
229	0xbc9eb84c	-0.019374989
230	0x3d0aa6c5	0.03385045
231	0xb9c8734d	-0.00038232878
232	0xbcc0c1e0	-0.023529947
233	0x3d5d8a5b	0.054087024
234	0xbc39d325	-0.011341845
235	0x3d206ae3	0.039164435
236	0x3d5894c7	0.05287626
237	0x3e69b9fb	0.22824852
238	0xbc84f002	-0.016227726
239	0x3e95c5e4	0.2925254
240	0x3ca7f3f0	0.02050206
241	0xbd48eba1	-0.04905284
242	0xbc132240	-0.008980334
243	0xbcf7ced7	-0.030249996
244	0xbd6f2616	-0.05838593
245	0x3dfb8961	0.12282062
246	0xbd383642	-0.04497362
247	0xbd8b2d8b	-0.06795796
248	0xbd90105d	-0.07034371
249	0xbd271fe4	-0.040801898
250	0x3c83f0b1	0.016105982
251	0x3bf41a79	0.007449445
252	0xbd85b367	-0.06528359
253	0xbe2898bc	-0.16464514
254	0x3cb14989	0.02164151
255	0xbd24e58a	-0.040257968

conv2.lin_l.bias f4 [20]
0	0x3b5da36a	0.0033819326
1	0xbb8de3ee	-0.00433015
2	0x3d54548f	0.051838454
3	0x3ca30bb7	0.019903047
4	0x3d52ff35	0.051512916
5	0xbd4be11a	-0.04977522
6	0x3c08eb68	0.0083569065
7	0xbc3460d8	-0.0110094175
8	0x396c793c	0.00022551877
9	0x3cafc5b1	0.021456571
10	0x3d026571	0.031835023
11	0x3d141863	0.03615607
12	0xbd695b3a	-0.056971766
13	0xbccd9982	-0.025097612
14	0xbbe52450	-0.006992854
15	0xbd02040c	-0.03174214
16	0x3ba696b1	0.005083882
17	0xbc29f452	-0.010373192
18	0xbc78abb1	-0.015177653
19	0xbc6c208c	-0.014412057

conv2.lin_r.weight f4 [20, 32]
0	0xbbac6a2b	-0.0052616796
1	0x3e27570b	0.16341798
2	0x3e07eca3	0.13273863
3	0x3dff5ca7	0.12468844
4	0x3e57758a	0.21040931
5	0x3e0c3800	0.13693237
6	0x3d85a38c	0.06525335
7	0x3e4830ec	0.19549912
8	0x3e0b6dbc	0.13616079
9	0x3e0f51ad	0.13996
10	0xbefabbd6	-0.48971432
11	0xbe4180cd	-0.1889679
12	0x3e0f4cd9	0.13994159
13	0xbef83dc8	-0.48484635
14	0x3de507a2	0.111830965
15	0xbf2732c6	-0.6531185
16	0xbe4b3aa1	-0.19846584
17	0xbd016a78	-0.031595677
18	0xbe201a3e	-0.1563501
19	0x3e4abd65	0.19798811
20	0x3e1753eb	0.14778106
21	0x3f49728d	0.78690416
22	0xbd1881d2	-0.03723318
23	0xbd09f139	-0.033677313
24	0xbd9ddcb4	-0.077081114
25	0xbe3a9d9e	-0.18224189
26	0xbe487d58	-0.19579065
27	0xbe545e13	-0.20739011
28	0xbdf48f50	-0.11941397
29	0xbc8ec106	-0.017426025
30	0x3e3899e9	0.18027462
31	0x3debb2d6	0.115087196
32	0xbcf90eee	-0.030402627
33	0xbd8fb558	-0.070170105
34	0x3d9ce5c7	0.07661014
35	0x3dd21e30	0.10259664
36	0xbd7b2899	-0.061318014
37	0xbdc34190	-0.095339894
38	0x3d1bee9d	0.038069356
39	0x3dd7d6f4	0.10539046
40	0xbd4e82a7	-0.05041757
41	0x3deb302a	0.11483796
42	0xbbf1b08d	-0.007375783
43	0x3e6aa302	0.22913745
44	0x3da95089	0.08267314
45	0xbebc031c	-0.36721122
46	0x3e090975	0.13382514
47	0xbeece76d	-0.46270314
48	0x3e6035fb	0.21895592
49	0x3dde8272	0.10864724
50	0x3e674180	0.2258358
51	0x3e080c89	0.13286032
52	0xbdd301ae	-0.10303055
53	0x3d84f603	0.064922355
54	0x3db295c2	0.0871997
55	0x3dd30ed0	0.1030556
56	0x3db61d2a	0.08892281
57	0x3e65e50c	0.22450656
58	0x3e75c5c0	0.24001217
59	0x3e73c963	0.23807292
60	0x3e6cf20c	0.23139209
61	0xbdcc9b8f	-0.09990608
62	0x3df4988a	0.11943157
63	0xbdaaa51c	-0.08332273
64	0x3dbf9bcb	0.09355887
65	0x3d7c0ab7	0.061533656
66	0xbd0639d6	-0.03277
67	0xbbbe78d7	-0.005812745
68	0x3dcf73f3	0.101295374
69	0x3d8068e0	0.06270003
70	0xbcb21634	-0.021739103
71	0xbd544bbb	-0.051830035
72	0x3d4b561c	0.049642667
73	0xb99d49f0	-0.0003000046
74	0xbb761e44	-0.003755466
75	0x3e0f9670	0.14022231
76	0xbd3fd442	-0.046833284
77	0xbe7a1c30	-0.24424815
78	0x3d870d3c	0.06594321
79	0xbe9e99ae	-0.30976623
80	0x3e0256a4	0.12728363
81	0xbe8350ba	-0.25647527
82	0x3e0ef103	0.13959126
83	0xbd967411	-0.07346357
84	0x3d8b8f92	0.06814493
85	0xbf258fcf	-0.6467256
86	0xbe88691b	-0.2664269
87	0xbe8985a5	-0.26859775
88	0xbe8cbcb1	-0.2748771
89	0x3dbcc91a	0.092180446
90	0x3e1b903a	0.15191737
91	0x3e1d11c2	0.15338805
92	0x3df8e026	0.12152128
93	0x3cfd5f00	0.030929089
94	0xbd65abe5	-0.056072135
95	0x3d85c1e9	0.06531126
96	0x3cf06187	0.02934338
97	0x3e4068a6	0.1878992
98	0xbde5709a	-0.11203118
99	0xbe038c9f	-0.12846611
100	0x3e500469	0.20314182
101	0x3e52d782	0.20590022
102	0xbdd50609	-0.10401542
103	0xbe1154ec	-0.14192551
104	0x3e3128dc	0.17300743
105	0xbe1a3d9a	-0.15062562
106	0xbc497b65	-0.012297486
107	0x3d482c1d	0.048870195
108	0xbe40e9f5	-0.18839248
109	0x3b935c26	0.004497069
110	0xbd89b1da	-0.067233756
111	0x3d1e16cd	0.038595963
112	0x3d4f98c8	0.050682813
113	0xbd2df528	-0.042470127
114	0x3d416a4d	0.047220517
115	0xbe543916	-0.20724902
116	0x3e641ce1	0.22276641
117	0x3b748b77	0.0037314573
118	0xbd26830a	-0.040652312
119	0xbd2d2443	-0.04227091
120	0xbd2703b0	-0.040775
121	0x3c8287d0	0.015933901
122	0x3d3c8112	0.04602153
123	0x3d87fe53	0.06640305
124	0xb9de7338	-0.00042428984
125	0x3da00860	0.078140974
126	0xbe46abd8	-0.1940149
127	0x3e564c0e	0.2092745
128	0x3dfeb0ff	0.12436103
129	0xbe92ed70	-0.28696775
130	0xbceaa7c7	-0.028644456
131	0x3d0e671f	0.034766313
132	0xbe87c613	-0.26518306
133	0xbe99d102	-0.30042273
134	0x3d0abf2c	0.033873722
135	0xbd3b6b2c	-0.045756504
136	0xbe874cd8	-0.26425815
137	0x3d2d8023	0.04235853
138	0xbde400c7	-0.11132961
139	0x3dc1e49c	0.09467432
140	0x3cef31ff	0.029198645
141	0xbe695e09	-0.22789778
142	0x3d146eb7	0.0362384
143	0xbe978998	-0.29597163
144	0x3d974b34	0.07387391
145	0x3e109738	0.14120185
146	0x3d5a1055	0.05323823
147	0xbb1cbeb5	-0.0023917381
148	0xbe9d6301	-0.30739596
149	0xbf5455bc	-0.8294332
150	0x3e0410b5	0.12896998
151	0x3e0f3136	0.13983616
152	0x3dcaea6e	0.09907995
153	0x3da03fd9	0.07824678
154	0x3dbc3ddb	0.091914855
155	0x3dd09890	0.10185349
156	0x3da7ec6a	0.08199389
157	0x3d8f7ba0	0.070060015
158	0x3adfd9f4	0.0017078505
159	0xbe91dc02	-0.28488165
160	0xbd1059fc	-0.035242066
161	0x3bdbeee1	0.006711826
162	0xbd0167a5	-0.031592984
163	0xbd636c8e	-0.055523448
164	0xbc633ec2	-0.013869943
165	0x3c2ebbda	0.0106649045
166	0xbd8c37cb	-0.06846579
167	0xbd15f4bb	-0.036610346
168	0x3c8754f9	0.01652001
169	0xbdb785b7	-0.08961051
170	0x3ea88b7e	0.32918924
171	0x3e9e8431	0.3096023
172	0xbddb644b	-0.10712489
173	0x3ca22961	0.019795122
174	0xbc854ead	-0.016272867
175	0x3dcc5362	0.099768415
176	0x3e9bbf27	0.30419275
177	0xbda81614	-0.08207336
178	0x3e9df144	0.30848134
179	0xbd4ebbb8	-0.05047199
180	0x3cb5ef1a	0.02220874
181	0x3f336ba6	0.70086133
182	0xbdb827e5	-0.08991984
183	0xbdb5ba23	-0.088733934
184	0xbd8b582c	-0.06803927
185	0x3e8fd36b	0.28090987
186	0x3e9efe5a	0.3105343
187	0x3ea94e2d	0.33067456
188	0x3e7c8a60	0.24662161
189	0xbcb032b7	-0.021508558
190	0xbda35131	-0.079744704
191	0x3d219fda	0.039459087
192	0x3c9c9991	0.019116195
193	0xbe052f73	-0.13006382
194	0xbd911fe4	-0.07086161
195	0xbd9e552c	-0.07731089
196	0xbdccd9ec	-0.10002503
197	0xbde3ce7d	-0.11123369
198	0xbce809d2	-0.028324995
199	0xbd8a67ac	-0.06758055
200	0xbde1bc6b	-0.11022266
201	0xbd9cc9b0	-0.07655656
202	0x3e5871e0	0.2113719
203	0xbe1a63bb	-0.15077107
204	0xbd83a781	-0.06428433
205	0x3dfc3d4f	0.12316381
206	0xbe0145e7	-0.12624322
207	0x3e400e21	0.1875539
208	0xbe171fe2	-0.14758256
209	0x3e418e00	0.18901825
210	0xbe2f2624	-0.17104393
211	0xbdba9eca	-0.09112318
212	0xbde5f063	-0.11227491
213	0x3dc0f430	0.09421575
214	0x3e4725b7	0.19447981
215	0x3e4daf09	0.20086302
216	0x3e4fe487	0.2030202
217	0xbe10401c	-0.14086956
218	0xbe34e4eb	-0.1766545
219	0xbe20cd61	-0.15703346
220	0xbe208aa4	-0.15677887
221	0x3dd4146e	0.10355459
222	0xbdbe512a	-0.092928246
223	0xbdd863b6	-0.10565893
224	0xbb844ecc	-0.0040377136
225	0x3dab9ac9	0.08379132
226	0xbd6cee32	-0.05784435
227	0xbdb58466	-0.088631436
228	0x3d983464	0.07431868
229	0x3dd9e19e	0.10638736
230	0xbd11fd30	-0.03564185
231	0xbd97800e	-0.07397471
232	0x3d84f4f5	0.06492034
233	0xbdd766d6	-0.10517661
234	0xbdd633bc	-0.10459086
235	0xbe34d959	-0.17661037
236	0xbd9cba4e	-0.07652722
237	0x3ea14355	0.31496683
238	0xbdf1cdbc	-0.11806819
239	0x3ecc3c10	0.39889574
240	0xbe2799e8	-0.16367304
241	0xbd6f8130	-0.058472812
242	0xbe2d4f65	-0.16924818
243	0xbdd3a35a	-0.10333891
244	0x3de3531d	0.11099837
245	0x3e48e7b7	0.19619642
246	0xbd287c6d	-0.041134287
247	0xbd5d6fcd	-0.0540617
248	0xbd3810d2	-0.044937916
249	0xbe306908	-0.17227566
250	0xbe3faa0e	-0.18717214
251	0xbe3a12d6	-0.18171248
252	0xbe38a5e3	-0.18032031
253	0x3d96edc5	0.0736957
254	0xbdcaa382	-0.09894468
255	0x3dc5fe6a	0.09667666

linear.weight f4 [14, 20]
0	0x3f51c264	0.8193724
1	0xbf3128ed	-0.6920307
2	0x3f3a857e	0.7285994
3	0x3fbd48ec	1.4787879
4	0xbfe2a722	-1.7707255
5	0xbe042935	-0.12906344
6	0xbf4e293d	-0.80531675
7	0x3f347b0f	0.7050027
8	0xbf97e0d5	-1.1865488
9	0xbd675314	-0.056475714
10	0x3f955889	1.1667644
11	0xbfca8a12	-1.5823386
12	0xbfac6959	-1.346965
13	0xbfa6c786	-1.302964
14	0x3f729c80	0.9477005
15	0xbfbab4ba	-1.4586403
16	0x3db5ca83	0.08876517
17	0x3fd53360	1.6656303
18	0x3f64d658	0.8938956
19	0x3f5c22f3	0.8599083
20	0xbfbb44d0	-1.4630375
21	0x3fa2d313	1.2720665
22	0x3f757c5a	0.9589287
23	0x3eda317a	0.42615873
24	0x3f295e73	0.66159743
25	0x3fdbe52b	1.7179312
26	0xbf80eb0f	-1.0071734
27	0xbf7d6f32	-0.98997796
28	0xbfae2e44	-1.3607869
29	0x3f171a86	0.59024847
30	0x3f974148	1.1816797
31	0x3fab6680	1.3390656
32	0x4006a04f	2.1035345
33	0xbe4138c3	-0.18869309
34	0xbfd28cd5	-1.6449229
35	0xbfb15bfb	-1.3856195
36	0x3f88e95c	1.0696216
37	0xbf8b0bd7	-1.0862988
38	0xbf8334f5	-1.0250536
39	0x3f89d22b	1.0767263
40	0xbfdaa1c0	-1.7080612
41	0xbfa21736	-1.2663333
42	0xbf7c0955	-0.9845174
43	0xbf0742a3	-0.52836055
44	0xbf59c4c1	-0.8506585
45	0x3d84eb8e	0.06490241
46	0x3ddc2fb2	0.10751285
47	0x3f8472c5	1.0347525
48	0x3f66ea59	0.90201336
49	0xbf443c7d	-0.766548
50	0xbf83e69a	-1.0304749
51	0xbf9ed462	-1.2408564
52	0x3fc2c284	1.5215611
53	0x3f912cc9	1.1341792
54	0xbdde9e1d	-0.108700015
55	0x3f8d621c	1.1045566
56	0x3eb8e9b4	0.361158
57	0xbe992912	-0.29914147
58	0x3f83a691	1.0285207
59	0x3eb0974a	0.34490424
60	0x3d64327f	0.05571222
61	0x3cfa45b8	0.030550823
62	0xbc8749c0	-0.016514659
63	0xbcb16267	-0.021653367
64	0xbb211e00	-0.0024584532
65	0x3d22510e	0.03962808
66	0xbb214dbf	-0.002461299
67	0xbca6803b	-0.020324817
68	0x3ce58cf4	0.028021313
69	0xbcaebb37	-0.021329505
70	0xbd2064db	-0.039158683
71	0x3d195e10	0.03744322
72	0x3c13e085	0.009025698
73	0x3cb8408f	0.022491721
74	0xbc91d8d4	-0.017803587
75	0x3c9095b5	0.01764951
76	0xbcb250ef	-0.021767108
77	0xbc6e941c	-0.014561679
78	0xbbaaa7cf	-0.0052079926
79	0xbc68a691	-0.014199869
80	0x3f30f006	0.69116247
81	0xbf94b9f3	-1.1619247
82	0x3f8c6402	1.096802
83	0x3f37b2e5	0.71757346
84	0x3fb2a597	1.3956784
85	0xbf9e0251	-1.2344457
86	0x3f8cad6f	1.0990428
87	0x3f484120	0.7822437
88	0x3f3c1055	0.7346242
89	0xbf2d6d94	-0.6774533
90	0x3f263102	0.6491853
91	0x3faf796e	1.3708932
92	0xbfa7fe59	-1.3124496
93	0x3f356f84	0.70873284
94	0xbfc39189	-1.5278789
95	0xbf14266b	-0.5787112
96	0xbf33fcad	-0.7030743
97	0xbf835fc2	-1.0263598
98	0x3f6cef7b	0.9255292
99	0xbf8f8611	-1.1212789
100	0x3fcfa6c6	1.622277
101	0x3f7a3ed6	0.9775213
102	0x3e008719	0.12551536
103	0xbfbe34ce	-1.4859865
104	0x3f2c6ae3	0.67350596
105	0xbf9bafa3	-1.2162975
106	0xbf636d81	-0.88838965
107	0xbf6d85fc	-0.9278257
108	0x3fa59fc2	1.2939379
109	0x3f6f08b0	0.9337263
110	0xbfcbca98	-1.5921202
111	0x3f7976b7	0.9744677
112	0xbfb07d80	-1.37883
113	0xbf9353f4	-1.1509995
114	0x3fa0fb6c	1.2576728
115	0x3fccb2d2	1.5992072
116	0x3faf258d	1.3683335
117	0xbea3983c	-0.31952083
118	0xbe6a253f	-0.22865771
119	0x3fa53796	1.2907588
120	0x3fb92481	1.4464265
121	0x3ee758b0	0.4518485
122	0xbf58fdb3	-0.84762114
123	0xbf189444	-0.59601235
124	0xbf6cd3b6	-0.92510545
125	0x3f307d0b	0.689408
126	0xbeab856c	-0.3350023
127	0xbd267b42	-0.04064489
128	0x3f5ff414	0.8748181
129	0xbf466b38	-0.7750735
130	0xbf6da21c	-0.92825484
131	0xbee1f49a	-0.4413193
132	0x3f9f5451	1.2447606
133	0x3f41574e	0.7552384
134	0xbd2d4ad6	-0.042307697
135	0x3f7e696b	0.99379605
136	0xbf73e0be	-0.95264804
137	0xbe13e099	-0.14441146
138	0x3eb31a09	0.349808
139	0x3e780576	0.24220833
140	0xbf514100	-0.8173981
141	0xbd30a7e5	-0.043128867
142	0x3e33dc87	0.17564593
143	0x3d3edff8	0.046600312
144	0xbe376ba7	-0.1791216
145	0x3f16eb97	0.5895323
146	0x3ec55e9b	0.3854874
147	0xbe18752e	-0.1488845
148	0xbd11f80a	-0.03563694
149	0xbef62bcf	-0.48080298
150	0xbf13a2b8	-0.57670164
151	0x3f035f23	0.5131704
152	0xbf340ca4	-0.7033179
153	0xbe58d18c	-0.21173686
154	0x3ee6070b	0.44927248
155	0xbed19841	-0.40936473
156	0xbeb07749	-0.34466007
157	0x3ea233a3	0.3168002
158	0xbea1b5e5	-0.31584087
159	0xbf1e4d85	-0.61837035
160	0xbe328260	-0.17432547
161	0x3eeb87ff	0.46002194
162	0xbfa61ed6	-1.297816
163	0xbe5b26df	-0.21401547
164	0x3f8628bf	1.0481185
165	0xbf361ae7	-0.711348
166	0x3f8dd413	1.1080345
167	0xbe79c726	-0.24392375
168	0xbf8b7683	-1.0895542
169	0x3faec368	1.3653383
170	0x3f958f53	1.1684364
171	0xbf8c8512	-1.097811
172	0x3d80dfa6	0.062926576
173	0x3e9feb5e	0.31234258
174	0x3f06ccf5	0.5265649
175	0x3ee39dbd	0.44456282
176	0xbf3183c7	-0.693417
177	0x3f33bab5	0.7020677
178	0xbfa5b067	-1.2944459
179	0xbfcb668c	-1.589067
180	0xbe64c80f	-0.22341941
181	0xbe6c50be	-0.23077676
182	0x3ea04d4e	0.3130898
183	0x3e3e0079	0.18554868
184	0x3eaca881	0.33722308
185	0xbea702ae	-0.32619232
186	0x3dd2d337	0.10294192
187	0x3dc9cfb6	0.09854071
188	0x3c07f15e	0.0082972925
189	0xbbab3b52	-0.0052255774
190	0x3e8a25ad	0.2698187
191	0x3e1a9ca2	0.15098813
192	0xbe627793	-0.22115926
193	0x3d30ad5e	0.043134086
194	0xbe955e08	-0.29173303
195	0xbe8df356	-0.27724713
196	0x3dc756da	0.097333625
197	0xbe4f5fd6	-0.20251402
198	0x3d941dc9	0.072322436
199	0xbda4eac7	-0.08052593
200	0xbf37d26a	-0.7180544
201	0x3d2e6705	0.042578716
202	0xbdc64f99	-0.09683151
203	0xbde39417	-0.1111223
204	0xbea323a2	-0.31863123
205	0x3ed3e4de	0.4138555
206	0x3e820a35	0.25398412
207	0xbe4c5554	-0.19954425
208	0xbd8d284d	-0.068924524
209	0xbe2e15d2	-0.17000511
210	0xbf09269d	-0.53574544
211	0x3dd47b72	0.10375108
212	0xbed7a3f4	-0.42117274
213	0xbea19156	-0.31556195
214	0x3f12468a	0.57138884
215	0xbdbb2422	-0.09137751
216	0xbdbc3e18	-0.09191531
217	0x3ec6d152	0.38831574
218	0xbeb0612a	-0.3444913
219	0xbecd7be3	-0.4013358
220	0x3bda0b1e	0.0066541573
221	0x3a029588	0.00049813883
222	0x3d45977b	0.048240166
223	0x3cffffe1	0.031249942
224	0x3d6879f2	0.05675692
225	0xbbe27a7f	-0.0069115753
226	0x3cadbc11	0.021207841
227	0xbc0c5cd1	-0.008567051
228	0xbd030762	-0.031989463
229	0x3c8f97ae	0.017528381
230	0x3d31312a	0.043259777
231	0x3d78ff37	0.060790267
232	0xbd9a8b2c	-0.07546076
233	0xbc8e6353	-0.017381346
234	0xbce0a81f	-0.027423916
235	0xbd8425db	-0.06452533
236	0xb9806850	-0.0002449178
237	0xbb55dff2	-0.0032634703
238	0xbcc5e9d2	-0.024159346
239	0xbd2241b8	-0.039613456
240	0x3b6989bf	0.0035635082
241	0xbbf9c4d3	-0.00762234
242	0x3d32a834	0.043617442
243	0x3d235f3f	0.039885756
244	0x3d2c3ed4	0.042052105
245	0xbaaf67d8	-0.0013382388
246	0x3cad2db2	0.021139953
247	0xbab7d8d8	-0.0014026416
248	0xbd170755	-0.036872227
249	0x3c43630b	0.011925469
250	0x3d3ecca4	0.04658188
251	0x3d40f1c0	0.04710555
252	0xbd9326b4	-0.071851164
253	0xbc6d9b3c	-0.014502343
254	0xbcc57aff	-0.0241065
255	0xbd8c4b28	-0.068502724

linear.bias f4 [14]
0	0x3f640743	0.8907358
1	0x3f9602d6	1.1719615
2	0x3f365346	0.71220815
3	0xbf83303f	-1.0249099
4	0x3f469877	0.7757639
5	0x3f9d8a30	1.2307796
6	0x3e641f5b	0.22277586
7	0xbeaff731	-0.3436828
8	0x3edfd37e	0.43716043
9	0xbf640e06	-0.890839
10	0xbf07fef4	-0.531234
11	0xbf959489	-1.1685954
12	0xbf9349fe	-1.1506956
13	0xbf958f30	-1.1684322
