trained_weights/unicorn/unicorn7.pth (torch, 16655 bytes, 8 tensors)

conv1.lin_l.weight f4 [32, 30]
0.019794222 0.029039703 0.029063191 -0.012329167 -0.038883336 0.024251882 0.008731755 0.0020039633
0.03272424 0.0138788605 -0.007476262 -0.016414788 -0.017868284 0.019829363 0.021514261 0.012365116
-0.019317808 -0.021991307 0.011009356 -0.03695282 -0.032001533 -0.009601017 0.0024258033 0.02104561
0.0024693636 0.016115416 0.013136929 0.010020379 0.021373337 0.007009662 0.03429326 0.06931505
-0.09516474 0.010715591 0.042541124 -0.049712017 -0.042348105 -0.022582818 -0.087067366 0.044823516
0.045914967 -0.040810086 0.05417877 -0.16884246 0.012512805 -0.0894306 -0.09670187 0.038028914
-0.007451097 -0.09685159 0.12546638 0.028173888 -0.037341587 -0.1196641 0.03701291 0.105470814
-0.07966745 0.0836589 -0.11884727 -0.033960495 -0.15997338 -0.08658088 0.02625568 -0.03419912
0.068585694 0.0049748397 -0.07086655 -0.14772138 0.113107435 0.11774201 -0.070901796 0.045106094
0.038610402 -0.02076028 0.019225013 -0.0045486856 0.119559556 -0.015524837 -0.10310158 -0.0032823863
-0.18006444 -0.05473766 -0.0973455 -0.07171508 -0.028293516 0.039474532 0.16018726 -0.2162435
0.18683186 -0.020496251 -0.1303013 -0.18840969 0.06120139 0.080590576 0.1787714 -0.04626445
-0.1140883 -0.047643162 0.25378975 0.04422222 -0.088467486 0.24522035 0.08363157 0.09045452
-0.052518506 -0.022087157 0.25046176 0.062343683 -0.20213409 0.14363538 -0.16406262 -0.12901588
-0.008886845 -0.15723449 -0.11710433 -0.0028561158 0.21517435 -0.2706153 0.051414803 0.12589727
0.017690217 0.050387025 -0.14578931 -0.01322 0.013752942 -0.049782325 -0.05240955 -0.0013375422
-0.11764191 0.080042765 0.029236492 -0.07803576 0.05162351 -0.1856912 0.03383976 -0.09421824
-0.09250825 0.023359528 0.030513942 -0.152266 0.19039324 0.030843116 -0.039278746 -0.12860735
0.0677016 0.07143515 -0.101384774 0.055943195 -0.12799418 -0.0484412 -0.013036057 0.05958869
-0.09027887 0.0060085338 0.008074635 0.0005471466 -0.063075356 -0.04254522 -0.13167304 0.062270038
0.054218736 -0.039783027 0.03938788 -0.14265087 0.01783523 -0.1120432 -0.094501495 0.021646494
0.022364534 -0.12619959 0.13389847 0.041798666 -0.043577988 -0.11081795 0.083571896 0.09800875
-0.051921993 0.06999917 -0.07321851 -0.08229682 -0.044283338 -0.09288765 -0.030432925 0.09588591
0.15969159 -0.020381503 -0.046496704 -0.005090262 0.16103236 -0.014364023 -0.085464 0.18556336
0.021986518 -0.066237465 -0.08382401 -0.06809167 0.20833392 0.16511534 -0.2012359 0.09188328
-0.07642847 -0.05109628 -0.021339554 -0.1254191 -0.1382379 0.081052214 0.024001237 -0.20170487
0.053763065 0.0771194 -0.01466996 -0.15010716 0.055043757 0.025962494 0.074199595 -0.13279873
-0.19299792 0.04743526 0.2130008 0.24473973 -0.09819518 0.24466729 0.074644595 0.10947657
0.06579413 0.07216782 0.27662078 -0.04430427 -0.025478555 0.17328049 -0.1583386 -0.10733822
-0.08251995 -0.011988045 -0.09684286 -0.16126452 0.12154026 -0.21797843 -0.091625415 0.13075456
-0.04592579 0.019102175 -0.13299282 0.024158867 0.01963095 0.0859198 0.014070549 -0.03828312
-0.10671203 0.035809826 0.020598592 -0.045587692 -0.032666307 -0.19221418 0.08589529 -0.12738428
00000000: 7e27 a23c ace4 ed3c ee15 ee3c 4600 4abc
00000010: 2244 1fbd e2ab c63c a30f 0f3c ed54 033b
00000020: da09 063d 2964 633c 6efb f4bb 4e78 86bc
00000030: 8260 92bc 3071 a23c ad3e b03c 0e97 4a3c
00000040: 6140 9ebc 1d27 b4bc 9660 343c d75b 17bd
00000050: 0a14 03bd 964d 1dbc 3afa 1e3b d867 ac3c
00000060: 0cd5 213b 7a04 843c 463c 573c 842c 243c
00000070: 2317 af3c 4fb1 e53b 1777 0c3d 0df5 8d3d
00000080: bbe5 c2bd 7290 2f3c 9a3f 2e3d d49e 4bbd
00000090: 3575 2dbd 9aff b8bc 6050 b2bd dd98 373d
000000a0: 5511 3c3d 7a28 27bd 8fea 5d3d 0ae5 2cbe
000000b0: 8202 4d3c 6427 b7bd a10b c6bd 35c4 1b3d
000000c0: 5528 f4bb 205a c6bd 427a 003e edcc e63c
000000d0: 7ef3 18bd 7412 f5bd d99a 173d 1501 d83d
000000e0: b028 a3bd 5b55 ab3d 3366 f3bd 291a 0bbd
000000f0: 10d0 23be 5151 b1bd 2716 d73c 6014 0cbd
00000100: a876 8c3d fb03 a33b 7b22 91bd 4644 17be
00000110: dfa4 e73d b922 f13d f634 91bd 2bc1 383d
00000120: f125 1e3d 7611 aabc c67d 9d3c 240d 95bb
00000130: a4db f43d e35b 7ebc ec26 d3bd 4e1d 57bb
00000140: d062 38be 9934 60bd 145d c7bd 5bdf 92bd
00000150: cec7 e7bc 0cb0 213d 2108 243e f06e 5dbe
00000160: da50 3f3e c1e7 a7bc b46d 05be 78ee 40be
00000170: 4fae 7a3d ac0c a53d da0f 373e cb7f 3dbd
00000180: 20a7 e9bd 7a25 43bd bbf0 813e 5c22 353d
00000190: 712e b5bd 0b1b 7b3e 0747 ab3d 3840 b93d
000001a0: a51d 57bd 20f0 b4bc 863c 803e 175c 7f3d
000001b0: 3dfc 4ebe 2715 133e 0800 28be bd1c 04be
000001c0: 219a 11bc 1402 21be 65d4 efbd ac2d 3bbb
000001d0: aa56 5c3e 178e 8abe 5498 523d 37eb 003e
000001e0: 13eb 903c a062 4e3d cb49 15be b398 58bc
000001f0: 0554 613c 8de8 4bbd 65ab 56bd 7850 afba
00000200: 3eee f0bd 76ed a33d 5e81 ef3c 36d1 9fbd
00000210: 2c73 533d d525 3ebe 8f9b 0a3d 7ef5 c0bd
00000220: f774 bdbd 7b5c bf3c 60f8 f93c 9eeb 1bbe
00000230: 72f6 423e b4aa fc3c c0e2 20bd a5b1 03be
00000240: 23a7 8a3d 984c 923d d2a2 cfbd b124 653d
00000250: e810 03be 486a 46bd 3095 55bc 4513 743d
00000260: 21e4 b8bd 3ce3 c43b 794b 043c 636e 0f3a
00000270: a72d 81bd e643 2ebd 4cd5 06be de0e 7f3d
00000280: 7714 5e3d 87f3 22bd 3055 213d 1213 12be
00000290: 301b 923c e876 e5bd 008a c1bd fd53 b13c
000002a0: d435 b73c 773a 01be ae1c 093e 1435 2b3d
000002b0: d57e 32bd 85f4 e2bd be27 ab3d d0b8 c83d
000002c0: 28ac 54bd ba5b 8f3d 96f3 95bd 3c8b a8bd
000002d0: 7262 35bd e13b bebd 784e f9bc d55f c43d
000002e0: 3186 233e 1cf7 a6bc 5473 3ebd 36cc a6bb
000002f0: abe5 243e 1457 6bbc c007 afbd 5204 3e3e
00000300: 121d b43c 82a7 87bd ecab abbd a573 8bbd
00000310: 7d55 553e ff13 293e c910 4ebe 4d2d bc3d
00000320: 8886 9cbd 554a 51bd 4ad0 aebc dd6d 00be
00000330: 3c8e 0dbe b4fe a53d 3e9e c43c b98b 4ebe
00000340: a936 5c3d c7f0 9d3d 465a 70bc b1b5 19be
00000350: 9075 613d 4caf d43c f5f5 973d 64fc 07be
00000360: 3fa1 45be 7a4b 423d e21c 5a3e 0d9d 7a3e
00000370: 8e1a c9bd 108a 7a3e 44df 983d 4035 e03d
00000380: 13bf 863d b9cc 933d 3da1 8d3e 6578 35bd
00000390: 67b8 d0bc 7170 313e 8423 22be 24d4 dbbd
000003a0: 3800 a9bd 8169 44bc 8d55 c6bd 8722 25be
000003b0: 1aea f83d bd35 5fbe 1ba6 bbbd 86e4 053e
000003c0: ae1c 3cbd 2a7c 9c3c 452f 08be d1e8 c53c
000003d0: 16d1 a03c b8f6 af3d 2988 663c c3ce 1cbd
000003e0: d68b dabd 53ad 123d 61be a83c 29ba 3abd
000003f0: 1bcd 05bd cbd3 44be dfe9 af3d 0671 02be

conv1.lin_l.bias f4 [32]
-0.060547188 -0.11379456 -0.106188 -0.099003255 -0.12949534 -0.10139405 -0.15855984 -0.15754575
-0.10598183 -0.11263034 -0.037736993 0.023101851 -0.1334621 -0.028124858 -0.15420978 -0.09179046
0.037862077 -0.086130306 0.019349784 -0.09618821 -0.11673865 -0.12615652 -0.06829026 -0.07717787
-0.053966656 0.030691056 0.04184027 0.03251047 0.016987313 -0.08540372 -0.11070546 -0.10631759
00000000: 5400 78bd 1f0d e9bd 1879 d9bd 38c2 cabd
00000010: 6d9a 04be afa7 cfbd 835d 22be ac53 21be
00000020: 000d d9bd bcaa e6bd 1b92 1abd 1840 bd3c
00000030: 4aaa 08be 1a66 e6bc 2be9 1dbe a3fc bbbd
00000040: 4415 1b3d 1665 b0bd 7083 9e3c 53fe c4bd
00000050: ac14 efbd 2d2f 01be c4db 8bbd 6e0f 9ebd
00000060: 240c 5dbd cf6b fb3c b460 2b3d b329 053d
00000070: fa28 8b3c 25e8 aebd 8bb9 e2bd 09bd d9bd

conv1.lin_r.weight f4 [32, 30]
-0.17083207 0.08538271 -0.2072929 -0.15908398 -0.1338647 -0.13072178 -0.03455023 -0.14891018
-0.12650405 0.07725754 0.015475742 -0.1388211 0.03097534 -0.13263364 0.0894975 0.13311206
-0.07005085 -0.107347205 0.06319478 -0.14167222 -0.08652327 -0.018759148 -0.12563477 0.03365297
0.023664946 -0.11933891 0.08996101 -0.19469349 0.048988204 -0.04941231 0.1736835 -0.0968271
-0.2257943 -0.18902652 0.004241938 0.0239277 0.32366595 -0.22763295 0.1165953 -0.10432177
0.36325982 0.12331052 -0.029539172 0.22212562 -0.20181337 0.0007041753 0.054894023 -0.11789399
-0.008861211 0.039713833 -0.06033543 -0.4212854 0.22257729 0.07543357 -0.4330828 -0.112481944
0.2288223 -0.20929989 0.03841276 -0.055657566 -0.042589605 -0.11219367 -0.0069436766 0.007479131
0.10807672 -0.1014117 -0.14765202 0.18548086 0.03020374 0.30561876 -0.33991426 -0.030697655
0.07999946 -0.23582384 -0.008012426 -0.13514557 0.084888496 -0.07861747 -0.030638086 0.04414246
0.23815319 0.1500843 -0.2053665 -0.227478 -0.09445341 -0.059572436 -0.10542778 -0.40514383
-0.4408296 0.20909451 0.027427295 -0.1707542 -0.11862642 0.028058304 0.02559616 -0.23778251
-0.29735088 0.30268744 0.123572595 0.26040745 -0.3973539 -0.03157364 0.12528029 -0.19247419
0.093684375 -0.06867048 0.11447837 -0.07758717 -0.040988747 0.03687928 0.19995339 0.2321396
-0.22627166 -0.26820946 -0.075096056 -0.13999467 -0.002950726 -0.4826377 -0.44441465 0.20587638
0.15792982 -0.10704693 -0.24447984 -0.15427402 0.010211213 0.009784009 0.29789445 -0.19977625
0.09136503 -0.14863329 0.376447 0.12300545 -0.012891868 0.21988752 -0.23111266 0.003297534
0.038127776 -0.09224553 -0.017863836 0.0525747 -0.018328603 -0.3742332 0.25129634 0.08038815
-0.41156697 -0.13571018 0.27780646 -0.2137474 0.026928348 -0.06349595 0.15751955 -0.06102788
-0.18148366 -0.15436348 0.012270249 0.03529411 0.2756423 -0.24907246 0.11381911 -0.10367409
0.3526196 0.12962812 -0.025048764 0.24592091 -0.21822065 -0.011201704 0.039223205 -0.11009709
-0.01302403 0.0020212512 -0.09516041 -0.38452762 0.2095565 0.04413506 -0.40250438 -0.08157224
0.30833262 -0.18047637 0.06501572 -0.04661031 -0.014364777 0.03218968 -0.17220427 -0.16581881
-0.20774193 -0.19788155 -0.2765476 0.13679445 -0.006715297 0.42609212 -0.37006447 -0.24587256
-0.004357067 -0.2092311 0.26999024 0.059466623 -0.15789574 -0.27793846 0.19220677 -0.1878172
0.051309194 0.11776038 -0.22419944 -0.08173213 -0.07559696 -0.25568265 0.1750552 -0.40355313
-0.28184548 0.06751462 -0.13463864 -0.24512316 -0.1535272 0.1292423 0.07112634 -0.13735378
-0.28679144 0.21863948 0.08252492 0.28134337 -0.43323326 0.00484194 0.07072369 -0.3156269
0.13917759 -0.1998047 0.21064705 -0.019834915 -0.038778216 0.05711127 0.22131208 0.1623907
-0.22983715 -0.32121 -0.12673798 -0.18051712 -0.10837646 -0.59036976 -0.40471014 0.22216195
0.13640742 -0.07390395 -0.18373747 -0.143921 -0.023810145 -0.011550758 0.22796194 -0.3096557
0.099499375 -0.07047044 0.36441988 0.15083495 0.0105518475 0.2182547 -0.16468397 0.01978569
00000000: 9aee 2ebe 21dd ae3d 9744 54be e9e6 22be
00000010: d413 09be eedb 05be 8b84 0dbd e97b 18be
00000020: 478a 01be 3339 9e3d f78d 7d3c 1e27 0ebe
00000030: ffbf fd3c 1dd1 07be 774a b73d 874e 083e
00000040: d276 8fbd dad8 dbbd 446c 813d 8612 11be
00000050: 1d33 b1bd c9ac 99bc 67a6 00be b2d7 093d
00000060: fddc c13c f567 f4bd 7a3d b83d bb5d 47be
00000070: dba7 483d 9064 4abd 16da 313e 494d c6bd
00000080: 9f36 67be 2b90 41be f4ff 8a3b 0604 c43c
00000090: 8bb7 a53e 9d18 69be 84c9 ee3d a7a6 d5bd
000000a0: 31fd b93e 3a8a fc3d 22fc f1bc e674 633e
000000b0: 2aa8 4ebe 6898 383a 8ed8 603d 6772 f1bd
000000c0: 9d2e 11bc f9aa 223d 4922 77bd b8b2 d7be
000000d0: 4deb 633e ea7c 9a3d 07bd ddbe ef5c e6bd
000000e0: 6550 6a3e b652 56be b356 1d3d 30f9 63bd
000000f0: 7072 2ebd cbc5 e5bd c887 e3bb 8013 f53b
00000100: 5457 dd3d f0b0 cfbd 1732 17be b2ee 3d3e
00000110: d56d f73c 107a 9c3e 3e09 aebe a679 fbbc
00000120: c2d6 a33d ce7b 71be 8d46 03bc 9a63 0abe
00000130: 05da ad3d 3202 a1bd b9fc fabc b9ce 343d
00000140: 6ede 733e b3af 193e 994b 52be feef 68be
00000150: ca70 c1bd 3a02 74bd 85ea d7bd 036f cfbe
00000160: 6bb4 e1be df1c 563e 35af e03c 30da 2ebe
00000170: 69f2 f2bd 87da e53c 0aaf d13c 427d 73be
00000180: 603e 98be d9f9 9a3e a113 fd3d 2054 853e
00000190: f871 cbbe 5c53 01bd 7a49 003e f417 45be
000001a0: 98dd bf3d 1ca3 8cbd a373 ea3d 06e6 9ebd
000001b0: d1e3 27bd ba0e 173d 95c0 4c3e 01b6 6d3e
000001c0: c2b3 67be c052 89be f6cb 99bd c35a 0fbe
000001d0: f860 41bb 4a1c f7be 518a e3be 42d1 523e
000001e0: 5bb8 213e 6c3b dbbd ec58 7abe 02fa 1dbe
000001f0: ee4c 273c 1c4d 203c 9f85 983e 2592 4cbe
00000200: 971d bb3d 5333 18be a9bd c03e 48ea fb3d
00000210: 6a38 53bc 322a 613e cca8 6cbe 711b 583b
00000220: df2b 1c3d 39eb bcbd 2e57 92bc 9258 573d
00000230: de25 96bc 7e9b bfbe eaa9 803e 8ba2 a43d
00000240: e8b8 d2be 9cf7 0abe a63c 8e3e 99e0 5abe
00000250: d798 dc3c 2a0a 82bd ce4c 213e 5ff8 79bd
00000260: dad6 39be 7611 1ebe 2809 493c 8f90 103d
00000270: fd20 8d3e da0c 7fbe fe19 e93d 1553 d4bd
00000280: 8e8a b43e 3cbd 043e 1133 cdbc b1d2 7b3e
00000290: 3c75 5fbe 5a87 37bc 83a8 203d 957a e1bd
000002a0: be62 55bc f876 043b 76e3 c2bd cee0 c4be
000002b0: fb95 563e f7c6 343d 0e15 cebe 590f a7bd
000002c0: c6dd 9d3e ccce 38be f626 853d 74ea 3ebd
000002d0: 3e5a 6bbc 53d9 033d 5156 30be 68cc 29be
000002e0: 4dba 54be 76a1 4abe a697 8dbe d813 0c3e
000002f0: fe0b dcbb bf28 da3e 1779 bdbe 04c6 7bbe
00000300: bac5 8ebb ad40 56be 293c 8a3e 4693 733d
00000310: 6caf 21be f34d 8ebe dad1 443e 2753 40be
00000320: 9729 523d 5b2c f13d 8a94 65be 2d63 a7bd
00000330: 94d2 9abd d6e8 82be ac41 333e 849e cebe
00000340: 0d4e 90be 1b45 8a3d b6de 09be 9101 7bbe
00000350: 3c36 1dbe 1858 043e b0aa 913d 78a6 0cbe
00000360: 54d6 92be 07e3 5f3e d302 a93d 3d0c 903e
00000370: c0d0 ddbe 23a9 9e3b 95d7 903d d999 a1be
00000380: 9284 0e3e 9a99 4cbe dcb3 573e d57c a2bc
00000390: e8d5 1ebd 82ed 693d a29f 623e bf49 263e
000003a0: 6e5a 6bbe a375 a4be 9ac7 01be 7bd9 38be
000003b0: 7af4 ddbd 7922 17bf 2b36 cfbe 6c7e 633e
000003c0: 63ae 0b3e f45a 97bd ad25 3cbe 0760 13be
000003d0: 7e0d c3bc 643f 3dbc db6e 693e 318b 9ebe
000003e0: 54c6 cb3d ce52 90bd 3e95 ba3e 7a74 1a3e
000003f0: a8e1 2c3c 297e 5f3e eaa2 28be 9915 a23c

conv2.lin_l.weight f4 [20, 32]
0.1848296 0.025009 -0.09919895 -0.009531807 0.0019054397 0.013118925 -0.010236028 0.047777295
0.01037423 -0.08885841 -0.020072186 -0.13276792 0.03576343 -0.36894897 -0.07365513 -0.4661236
-0.1324886 -0.096237645 -0.10058664 0.043080453 0.008438756 -0.05518339 -0.09224488 -0.0937527
-0.11376503 -0.038160738 -0.10365755 -0.14267637 0.00076445704 0.36297414 0.047982417 -0.00111613
0.086703524 -0.021246703 0.041201282 -0.014648715 0.0076132165 0.010259217 -0.009367624 0.03943142
0.010330573 -0.04081981 0.015239875 -0.065451406 -0.014631667 -0.18298471 -0.0035325442 -0.2539935
-0.051026776 0.062456205 -0.018715959 0.077618964 0.05602292 -0.057985708 0.059764467 0.094530135
0.07594537 0.013669733 -0.036746975 -0.03549069 0.027519908 0.2312226 0.0014551198 0.023151055
-0.06333421 0.037029143 0.03149706 -0.04309644 0.0351917 0.03531273 -0.11398978 0.030756677
0.0881139 -0.035008278 0.022718638 -0.11009779 -0.012773853 -0.14273834 -0.08021166 -0.1761987
-0.06550923 0.063490584 -0.030546185 0.055053152 0.04776489 -0.032994345 0.054478552 0.059588615
0.07279807 0.0040361686 -0.10155268 -0.07540977 -0.0016153026 0.000415466 -0.044387866 0.04072091
-0.088387616 0.03789059 0.074661404 0.009426959 0.023908777 0.04168932 -0.0399911 0.021250721
0.08481423 0.08399797 0.03150031 -0.05692376 0.038042888 -0.013240604 -0.023451868 -0.0028055469
-0.020216463 0.021590393 0.009629673 0.002319476 0.008451418 -0.14867906 0.023500787 -0.0077727786
0.004742493 0.025174959 -0.046513222 -0.028341288 0.0027807846 -0.21732844 0.018842274 0.042814095
-0.07898709 -0.058184527 0.012605558 0.012431122 -0.022088489 -0.048851185 0.08659432 -0.03315243
-0.042070676 -0.063956045 -0.033270296 -0.099867955 -0.032573927 -0.090126134 0.05711285 -0.13056387
-0.118679844 0.02801738 -0.10323066 0.014759926 0.008527671 0.016550476 0.02016157 0.012748828
0.0012885071 -0.07703818 -0.086451165 -0.121674724 -0.05288433 0.0037435396 -0.043270733 -0.012621248
0.029973513 0.0017493321 0.1171258 -0.026593147 0.020971129 0.027177898 -0.084813036 0.016097391
0.06415256 0.044826142 0.04601028 -0.015534744 2.8494745e-05 0.032843947 -0.032831125 0.03316183
0.03915939 0.11458464 0.047276273 0.030933693 0.044434797 -0.084738635 0.10924499 0.11670969
0.13201839 0.051561233 -0.0038321975 0.045052227 0.012990502 -0.07563138 0.011967216 0.0284489
-0.0665632 -0.050037276 -0.019182686 0.03656919 -0.04595253 -0.059312735 0.11483153 -0.059216723
-0.06774214 0.016057333 -0.0061854883 -0.00872215 0.003911482 0.056419373 0.05323884 0.08648624
-0.015728759 -0.09150808 -0.011474084 -0.074507564 -0.07543405 -0.04905878 -0.07339599 -0.087513976
-0.09861161 -0.031210188 -0.005122031 -0.033324905 -0.005883787 -0.22255102 0.006436267 -0.04556029
-0.04547669 0.022430744 -0.024081778 0.018977057 -0.0028348328 -0.0036642281 0.01286754 -0.025362734
0.00061248546 0.04566001 -0.0077755735 0.055675544 0.025478587 0.14959104 0.004578073 0.20740326
0.04441606 -0.051190484 0.021193042 -0.062088974 -0.043098032 0.028648507 -0.04877832 -0.07997624
-0.07058399 -0.0085181175 0.035934716 0.03734422 -0.025429903 -0.17478353 0.014379445 -0.015738916
00000000: f843 3d3e addf cc3c d228 cbbd 4c2b 1cbc
00000010: f2bf f93a c2f0 563c 03b5 27bc 20b2 433d
00000020: adf8 293c 66fb b5bd 6d6e a4bc 50f4 07be
00000030: ad7c 123d e1e6 bcbe 80d8 96bd c1a7 eebe
00000040: 17ab 07be 3e18 c5bd 5e00 cebd 2175 303d
00000050: b542 0a3c fa07 62bd e2ea bcbd 6a01 c0bd
00000060: a4fd e8bd 6f4e 1cbd 694a d4bd c119 12be
00000070: d865 483a bfd7 b93e 3689 443d 1c4b 92ba
00000080: 9e91 b13d 910d aebc adc2 283d 2a01 70bc
00000090: 4a78 f93b 4616 283c aa7a 19bc d782 213d
000000a0: 9041 293c ac32 27bd abb0 793c 630b 86bd
000000b0: a9b9 6fbc 5860 3bbe 4282 67bb 700b 82be
000000c0: 7401 51bd 14d2 7f3d 3652 99bc b1f6 9e3d
000000d0: 4a78 653d 6c82 6dbd 96cb 743d 0499 c13d
000000e0: 3f89 9b3d 04f7 5f3c ff83 16bd b05e 11bd
000000f0: 6e71 e13c 9ec5 6c3e b8b9 be3a 48a7 bd3c
00000100: 5eb5 81bd dfab 173d 1003 013d e585 30bd
00000110: 2c25 103d 15a4 103d 7973 e9bd 6df5 fb3c
00000120: 0f75 b43d d764 0fbd 701c ba3c f37a e1bd
00000130: 6c49 51bc 002a 12be 0346 a4bd 6f6d 34be
00000140: b429 86bd 5a07 823d fe3b fabc 6a7f 613d
00000150: 1ea5 433d 1425 07bd e724 5f3d 3113 743d
00000160: 2817 953d d641 843b dafa cfbd 7070 9abd
00000170: 90b8 d3ba e7d2 d939 0dd0 35bd f8ca 263d
00000180: 9104 b5bd 2a33 1b3d 14e8 983d 8873 1a3c
00000190: 57dc c33c 6cc2 2a3d b5cd 23bd fe15 ae3c
000001a0: 15b3 ad3d 2107 ac3d 7806 013d e328 69bd
000001b0: dcd2 1b3d 1eef 58bc 221e c0bc 44dd 37bb
000001c0: ff9c a5bc 56de b03c c7c5 1d3c 5a02 183b
000001d0: d177 0a3c 533f 18be b984 c03c cbb2 febb
000001e0: ea66 9b3b b73b ce3c a684 3ebd fd2b e8bc
000001f0: d33d 363b 598b 5ebe 1d5b 9a3c d55d 2f3d
00000200: fcc3 a1bd e652 6ebd 8b87 4e3c e8ab 4b3c
00000210: ebf2 b4bc 2e18 48bd 5d58 b13d d8ca 07bd
00000220: 4d52 2cbd 63fb 82bd 6f46 08bd 9287 ccbd
00000230: 3d6c 05bd 0d94 b8bd 2aef 693d 89b2 05be
00000240: 6b0e f3bd b484 e53c 996a d3bd 9ed3 713c
00000250: a5b7 0b3c dd94 873c e029 a53c 76e0 503c
00000260: 20e3 a83a 31c6 9dbd 4f0d b1bd 9930 f9bd
00000270: 3d9d 58bd 2c56 753b a73c 31bd 5ac9 4ebc
00000280: 038b f53c d849 e53a a7df ef3d dfd9 d9bc
00000290: a5cb ab3c 2fa4 de3c 75b2 adbd adde 833c
000002a0: 6b62 833d 9e9b 373d 4675 3c3d 7085 7ebc
000002b0: 0008 ef37 6087 063d ee79 06bd b3d4 073d
000002c0: 9965 203d 5aab ea3d c4a4 413d a868 fd3c
000002d0: 4301 363d 738b adbd d6bb df3d 7d05 ef3d
000002e0: d42f 073e df31 533d 9b25 7bbb af88 383d
000002f0: 1dd6 543c a0e4 9abd 2412 443c ab0d e93c
00000300: 4952 88bd e3f3 4cbd 0225 9dbc 93c9 153d
00000310: b838 3cbd e9f1 72bd cb2c eb3d 3c8d 72bd
00000320: 64bc 8abd ab8a 833c a3af cabb 59e7 0ebc
00000330: e42b 803b 0018 673d f810 5a3d b31f b13d
00000340: 99d9 80bc 9768 bbbd ccfd 3bbc 6c97 98bd
00000350: 2b7d 9abd dcf1 48bd a350 96bd 873a b3bd
00000360: e2f4 c9bd 82ac ffbc b6d6 a7bb b27f 08bd
00000370: c8cc c0bb 6ae4 63be 52e7 d23b 6d9d 3abd
00000380: c445 3abd aec0 b73c 2647 c5bc c675 9b3c
00000390: 9ac8 39bb 8c23 70bb 60d2 523c 82c5 cfbc
000003a0: 348f 203a fe05 3b3d 3dca febb 0a0c 643d
000003b0: 78b8 d03c 652e 193e a903 963b 8561 543e
000003c0: 9ded 353d 1dad 51bd 089d ad3c 0251 7ebd
000003d0: 9087 30bd 46b0 ea3c c7cb 47bd 95ca a3bd
000003e0: 578e 90bd 938f 0bbc 4830 133d 41f6 183d
000003f0: 5f52 d0bc 74fa 32be c497 6b3c e6ee 80bc

conv2.lin_l.bias f4 [20]
-0.043696783 -0.034366954 0.005928519 0.01023861 0.017823726 -0.022655692 0.011994089 0.022449983
0.009390565 -0.01654686 0.01469119 -0.006089777 0.009287149 0.027061258 -0.031140158 -0.0040647155
0.01852331 -0.024888448 0.020033801 -0.0009037501
00000000: 66fb 32bd 5dc4 0cbd 0644 c23b d8bf 273c
00000010: 1003 923c 6e98 b9bc db82 443c 07e9 b73c
00000020: e2da 193c 488d 87bc 51b3 703c c18c c7bb
00000030: 2029 183c 92af dd3c a519 ffbc 4e31 85bb
00000040: 32be 973c dce2 cbbc ed1d a43c a4e9 6cba

conv2.lin_r.weight f4 [20, 32]
-0.0022900729 0.14229551 0.16034631 0.1818707 0.16096939 0.1164881 0.10944926 0.29930043
0.11640643 0.17023392 -0.4673293 -0.26260695 0.20953317 -0.3820978 -0.011396954 -0.5655445
-0.2795085 -0.041875966 -0.23019667 0.28127062 0.13325217 0.9065401 -0.034054488 -0.03928728
-0.06400982 -0.18963529 -0.24951653 -0.2578895 -0.24675545 -0.016286992 0.23997205 0.07852829
-0.051553946 -0.090327315 0.079416975 0.13234791 -0.07809191 -0.1145038 0.07059068 0.18681833
-0.07123461 0.14640476 0.015951915 0.19992293 0.14773622 -0.2690943 0.023913462 -0.3755209
0.19427526 0.10461315 0.18936385 0.21721473 -0.1262412 0.18769309 0.09268148 0.095552064
0.089572996 0.20656732 0.21427654 0.20458579 0.23726179 -0.11404086 0.17889895 -0.095459044
0.09415897 0.060306948 -0.10092594 -0.072410055 0.07560867 0.056597233 0.003146186 -0.056040388
0.04602388 -0.06842424 -0.009521363 0.14987731 -0.042199556 -0.24392363 -0.05036218 -0.30314508
0.13970175 -0.2855068 0.14234348 -0.07782305 0.062038843 -0.5602398 -0.29362682 -0.29568
-0.29850498 0.07772949 0.13522477 0.16076134 0.14049087 0.033352077 -0.06721063 0.06873775
0.036650836 0.18483123 -0.14398913 -0.25534007 0.19546993 0.20102006 -0.13064252 -0.1965917
0.1754384 -0.22955813 -0.04668025 0.0937966 -0.25411665 -0.09734586 -0.06621006 -0.04945381
0.10047549 -0.05064616 0.100843474 -0.28650808 0.22253485 -0.077061616 -0.055263784 -0.056712274
-0.05944102 0.012909703 0.03564664 0.09941537 0.043968625 0.08849458 -0.26666757 0.20256363
0.12115803 -0.27838337 -0.06403344 0.058962293 -0.28011551 -0.29537883 0.07264822 -0.042879317
-0.26287696 0.053267278 -0.10648802 0.06526494 0.06412553 -0.21370308 -0.03461667 -0.26885608
0.05412304 0.16068995 0.022901522 0.025175668 -0.3030916 -0.7543265 0.14944308 0.15557224
0.122097194 0.06613225 0.07961879 0.06685838 0.085663065 0.07618745 0.024100984 -0.26680586
-0.05607379 -0.049408577 -0.019100115 -0.12207627 -0.037542626 -0.032133486 -0.09833789 -0.061819997
-0.018604543 -0.111021616 0.3233264 0.3448299 -0.14466563 0.020795736 0.0069177356 0.093748555
0.34471005 -0.10869392 0.3403113 -0.07591599 -0.014335992 0.67379403 -0.11932371 -0.11894345
-0.10400681 0.2631352 0.31041658 0.3386926 0.33244118 -0.028620403 -0.10216416 -0.0010033065
0.032689348 -0.116063364 -0.026783628 -0.05776179 -0.1267865 -0.0981646 -0.035628095 -0.14333472
-0.10825561 -0.0601662 0.18416461 -0.16150978 -0.10700869 0.044783868 -0.043338854 0.120045885
-0.15352921 0.20953763 -0.17039563 -0.15896 -0.08755371 -0.026799766 0.2104997 0.21792313
0.21480675 -0.14241754 -0.18561256 -0.17204948 -0.18266882 0.11820146 -0.13805084 -0.09529316
0.013248508 0.09221263 -0.044789903 -0.11559012 0.08356891 0.1168574 -0.067942455 -0.13603288
0.07726908 -0.12706348 -0.12813911 -0.15142614 -0.13401955 0.22669682 -0.016297963 0.3193781
-0.14049366 -0.05766845 -0.13495304 -0.1761568 0.12545371 0.07070139 -0.047988806 -0.051293623
-0.046589963 -0.15821376 -0.16862369 -0.15309028 -0.18545434 0.08569446 -0.14958455 0.09810412
00000000: 0c15 16bb eab5 113e d331 243e 503c 3a3e
00000010: 29d5 243e 5091 ee3d ef26 e03d e83d 993e
00000020: 7f66 ee3d cd51 2e3e c945 efbe 6b74 86be
00000030: dd8f 563e 53a2 c3be 4aba 3abc 86c7 10bf
00000040: bd1b 8fbe 2286 2bbd adb8 6bbe b402 903e
00000050: 4273 083e 0313 683f b87c 0bbd b3eb 20bd
00000060: 9517 83bd c12f 42be 4381 7fbe 180a 84be
00000070: 76ad 7cbe 4c6c 85bc 3cbb 753e 71d3 a03d
00000080: 3b2a 53bd 87fd b8bd 5ea5 a23d 3686 073e
00000090: a7ee 9fbd f880 eabd d991 903d 4e4d 3f3e
000000a0: 74e3 91bd 21eb 153e 97ad 823c 99b8 4c3e
000000b0: 2a48 173e bac6 89be 2ae6 c33c 4744 c0be
000000c0: 18f0 463e 6b3f d63d 99e8 413e 8a6d 5e3e
000000d0: 6045 01be 9e32 403e cacf bd3d cdb0 c33d
000000e0: 0c72 b73d 6286 533e 4f6b 5b3e f07e 513e
000000f0: c1f4 723e 418e e9bd 4931 373e 0880 c3bd
00000100: 6bd6 c03d 6b04 773d 42b2 cebd b94b 94bd
00000110: b8d8 9a3d 80d2 673d 3e30 4e3b 9b8a 65bd
00000120: 8983 3c3d 0222 8cbd 7eff 1bbc 7079 193e
00000130: 71d9 2cbd 1ec7 79be 9348 4ebd d535 9bbe
00000140: fa0d 0f3e f32d 92be 7dc2 113e b161 9fbd
00000150: 711c 7e3d e06b 0fbf 4156 96be 5e63 97be
00000160: a5d5 98be a430 9f3d 5d78 0a3e 9f9e 243e
00000170: d7dc 0f3e 309c 083d baa5 89bd 61c6 8c3d
00000180: 301f 163d 6644 3d3e e371 13be efbb 82be
00000190: 4529 483e 34d8 4d3e 27c7 05be 564f 49be
000001a0: 20a6 333e 4911 6bbe ca33 3fbd 6f18 c03d
000001b0: 941b 82be 445d c7bd 2499 87bd 1490 4abd
000001c0: 18c6 cd3d 5972 4fbd 0687 ce3d 30b1 92be
000001d0: 2de0 633e 7bd2 9dbd 475c 62bd 214b 68bd
000001e0: 6d78 73bd 3883 533c 3602 123d 499a cb3d
000001f0: 7218 343d a53c b53d a788 88be d76c 4f3e
00000200: b421 f83d 4488 8ebe f723 83bd 7282 713d
00000210: 4d6b 8fbe e53b 97be 97c8 943d 39a2 2fbd
00000220: cf97 86be ca2e 5a3d 6416 dabd a0a9 853d
00000230: 3f54 833d fbd4 5abe 36ca 0dbd 81a7 89be
00000240: 1fb0 5d3d e88b 243e f99b bb3c 343d ce3c
00000250: d22e 9bbe 8b1b 41bf 9b07 193e 544e 1f3e
00000260: 180e fa3d 5870 873d 2d0f a33d 0ced 883d
00000270: 1e70 af3d 2a08 9c3d 6d6f c53c c79a 88be
00000280: a1ad 65bd a660 4abd d877 9cbc 2003 fabd
00000290: 4cc6 19bd 679e 03bd 6065 c9bd f736 7dbd
000002a0: 8e68 98bc 4d5f e3bd 0a8b a53e 8b8d b03e
000002b0: 3a23 14be d25b aa3c 2cae e23b 3eff bf3d
000002c0: d67d b03e eb9a debd 483d ae3e d879 9bbd
000002d0: 82e1 6abc c47d 2c3f fd5f f4bd a098 f3bd
000002e0: 8601 d5bd a8b9 863e ecee 9e3e 1e69 ad3e
000002f0: bb35 aa3e 5675 eabc 713b d1bd 6181 83ba
00000300: 44e5 053d a1b2 edbd 5769 dbbc a097 6cbd
00000310: 52d4 01be 860a c9bd c4ee 11bd 56c6 12be
00000320: 1eb5 ddbd d570 76bd a695 3c3e d262 25be
00000330: 5f27 dbbd 4a6f 373d 1584 31bd 9eda f53d
00000340: c336 1dbe 0891 563e 317c 2ebe 69c6 22be
00000350: 5c4f b3bd 2f8b dbbc 3c8d 573e 3e27 5f3e
00000360: 4df6 5b3e e7d5 11be 3811 3ebe bd2d 30be
00000370: 890d 3bbe 9b13 f23d 335d 0dbe 0f29 c3bd
00000380: 4510 593c fad9 bc3d 9e75 37bd 83ba ecbd
00000390: 2d26 ab3d ef52 ef3d 6a25 8bbd 344c 0bbe
000003a0: 403f 9e3d ee1c 02be e636 03be 740f 1bbe
000003b0: 6c3c 09be 3623 683e 4e83 85bc 8785 a33e
000003c0: 92dd 0fbe c135 6cbd 2131 0abe 7362 34be
000003d0: f076 003e e4cb 903d e98f 44bd 4319 52bd
000003e0: 1ed5 3ebd ca02 22be b0ab 2cbe b3c3 1cbe
000003f0: bee7 3dbe 9480 af3d b12c 19be d0ea c83d

linear.weight f4 [14, 20]
0.8318446 -0.6521901 0.7255123 1.4683939 -1.7712519 -0.10282131 -0.8231348 0.67477334
-1.1948013 -0.035093214 1.1572069 -1.573121 -1.3419378 -1.3153048 0.9576597 -1.4521977
0.08599226 1.669324 0.871874 0.86806643 -1.4675379 1.2824689 0.9719152 0.419501
0.672489 1.7145504 -1.0151688 -0.9976437 -1.3614017 0.60409665 1.1831686 1.3404841
2.102833 -0.2058818 -1.6457977 -1.3853612 1.0822512 -1.0977159 -1.0316811 1.0931969
-1.757801 -1.2686276 -0.9258735 -0.45497525 -0.79221153 0.011322048 0.14985435 1.0158559
0.82448864 -0.71288466 -0.960663 -1.1923859 1.4688925 1.086304 -0.15076803 1.0330377
0.43365446 -0.27461776 0.99304676 0.32131258 0.046387427 0.048311427 0.0035046567 -0.039374333
0.017711896 -0.0009502051 -0.025402332 -0.037874356 0.035837132 0.013534208 -0.04374917 0.04342705
-0.02331849 -0.022584548 0.021405276 0.032843534 0.019097514 -0.016625337 -0.022455089 0.025291398
0.72471154 -1.2058352 1.1460327 0.751062 1.4466014 -1.294398 1.1446615 0.82031614
0.80789363 -0.710092 0.67894995 1.4143322 -1.3574868 0.7473095 -1.5893487 -0.5998157
-0.72820437 -1.0817949 0.9757861 -1.1640836 1.6743512 1.0216212 0.06533806 -1.524736
0.60331166 -1.1891699 -0.9391312 -0.94589955 1.3385017 0.9074076 -1.6361973 0.92048067
-1.3276842 -1.1320956 1.2918314 1.651461 1.3220636 -0.2932179 -0.21841419 1.3225633
1.4314705 0.40822053 -0.8814614 -0.62272054 -0.95797104 0.71141297 -0.32994264 0.0037360145
0.9093456 -0.80881137 -0.95913815 -0.48442182 1.2790952 0.79154605 -0.058574036 1.0264826
-0.96636695 -0.17661384 0.3913648 0.26765195 -0.89652926 -0.07008164 0.18666083 0.04882939
-0.22404955 0.6465168 0.43565488 -0.18853459 -0.04686647 -0.52769274 -0.64155585 0.559279
-0.7666944 -0.2667179 0.5191487 -0.4680175 -0.374633 0.37087595 -0.37634712 -0.67245823
-0.19418778 0.4727102 -1.3211645 -0.22659086 1.0501198 -0.71069455 1.1142786 -0.24921805
-1.1109322 1.3875144 1.1852759 -1.1358402 0.09522517 0.31930023 0.54366684 0.46375358
-0.6928783 0.7264207 -1.3089042 -1.5940067 -0.007315049 -0.058880106 0.11426477 0.056364432
0.13902265 -0.10644448 0.0537084 0.025138412 0.020689376 -0.002983387 0.07362983 0.12104505
-0.13235818 0.0059735416 -0.09212282 -0.08132821 0.0122336745 -0.07658064 0.028914163 -0.048521675
-0.57553935 0.08149971 -0.02957741 -0.07794817 -0.16542755 0.3121392 0.20784952 -0.16695014
-0.057792857 -0.10078905 -0.37259632 0.1071847 -0.28246605 -0.2058581 0.3618355 -0.07334806
-0.10339976 0.21460031 -0.27293596 -0.34872365 -0.032530196 -0.0049115657 0.04751138 0.016432982
0.058766533 -0.034723572 0.0045357025 -0.0116194645 -0.026209898 0.035743345 0.031372722 0.045525596
-0.072318904 -0.038041875 -0.0030865497 -0.04658712 0.03902321 -0.004938592 -0.0228624 -3.3834716e-05
-0.029996762 -0.006378133 0.04766806 0.020016821 0.05092676 -0.032258883 0.002013076 -0.010070726
-0.028399084 0.034551464 0.03176544 0.040337663 -0.07455407 -0.04027041 0.0008118487 -0.048710946
00000000: c5f3 543f eef5 26bf 2dbb 393f 55f4 bb3f
00000010: 62b8 e2bf fb93 d2bd f6b8 52bf f2bd 2c3f
00000020: 40ef 98bf e7bd 0fbd 5b1f 943f 075c c9bf
00000030: 9ec4 abbf e85b a8bf 3029 753f 9de1 b9bf
00000040: b61c b03d 69ac d53f 2233 5f3f 9a39 5e3f
00000050: 48d8 bbbf f127 a43f 6fcf 783f d6c8 d63e
00000060: 3d28 2c3f 6376 db3f 0df1 81bf 9465 7fbf
00000070: 6942 aebf 14a6 1a3f 1272 973f fc94 ab3f
00000080: d194 0640 aed2 52be 80a9 d2bf 8453 b1bf
00000090: 3587 8a3f f481 8cbf 200e 84bf e0ed 8b3f
000000a0: a0ff e0bf 6462 a2bf 0c06 6dbf 84f2 e8be
000000b0: 60ce 4abf 1c80 393c 6b73 193e 9107 823f
000000c0: b011 533f 9c7f 36bf 03ee 75bf 1aa0 98bf
000000d0: ab04 bc3f 020c 8b3f ef62 1abe 943a 843f
000000e0: f507 de3e b39a 8cbe 5038 7e3f 1583 a43e
000000f0: be00 3e3d 34e2 453d 62ae 653b fb46 21bd
00000100: 8a18 913c 2f17 79ba 8d18 d0bc 2422 1bbd
00000110: f5c9 123d 95be 5d3c 5432 33bd 90e0 313d
00000120: 6b06 bfbc 3b03 b9bc 1e5a af3c f186 063d
00000130: 6472 9c3c dc31 88bc bcf3 b7bc e82f cf3c
00000140: b286 393f cf58 9abf 33b1 923f 9945 403f
00000150: 3c2a b93f d5ae a5bf 4584 923f 3d00 523f
00000160: 1ed2 4e3f 97c8 35bf aacf 2d3f d608 b53f
00000170: 21c2 adbf ad4f 3f3f c76f cbbf 868d 19bf
00000180: 9a6b 3abf 4178 8abf 1ecd 793f b100 95bf
00000190: 2451 d63f 7cc4 823f f6cf 853d 8d2a c3bf
000001a0: a272 1a3f b836 98bf e76a 70bf 7926 72bf
000001b0: 0654 ab3f dd4b 683f ea6e d1bf 9fa4 6b3f
000001c0: 8ef1 a9bf 82e8 90bf bb5a a53f 1363 d33f
000001d0: 6139 a93f a820 96be f8a7 5fbe c149 a93f
000001e0: 6d3a b73f 4802 d13e 74a7 61bf 9d6a 1fbf
000001f0: 973d 75bf 291f 363f 3eee a8be ecd7 743b
00000200: e0ca 683f 430e 4fbf 148a 75bf 2306 f8be
00000210: 64b9 a33f c3a2 4a3f 54eb 6fbd c863 833f
00000220: d363 77bf 42da 34be f860 c83e ad09 893e
00000230: f182 65bf f686 8fbd 0424 3f3e 5401 483d
00000240: 3f6d 65be 2082 253f 280e df3e 360f 41be
00000250: 0ef7 3fbd df16 07bf 013d 24bf e92c 0f3f
00000260: 1646 44bf 408f 88be eee6 043f fd9f efbe
00000270: e6cf bfbe 74e3 bd3e 92b0 c0be 3926 2cbf
00000280: 29d9 46be 1207 f23e eb1b a9bf 6f07 68be
00000290: 536a 863f 14f0 35bf aea0 8e3f 0433 7fbe
000002a0: 0733 8ebf 129a b13f 1fb7 973f 3663 91bf
000002b0: 6a05 c33d 527b a33e c02d 0b3f 1c71 ed3e
000002c0: 7960 31bf b5f6 393f 2c8a a7bf 6908 ccbf
000002d0: 14b3 efbb 442c 71bd a603 ea3d 64de 663d
000002e0: f45b 0e3e 90ff d9bd 57fd 5b3d 12ef cd3c
000002f0: c47c a93c ee84 43bb 3ccb 963d 78e6 f73d
00000300: e788 07be b3bd c33b e4aa bcbd 688f a6bd
00000310: c06f 483c 50d6 9cbd 65dd ec3c aabe 46bd
00000320: 8c56 13bf 52e9 a63d 534c f2bc 4aa3 9fbd
00000330: d765 29be b6d0 9f3e 81d6 543e faf4 2abe
00000340: 34b8 6cbd 7d6a cebd f2c4 bebe a783 db3d
00000350: 649f 90be 77cc 52be 8142 b93e 8237 96bd
00000360: 41c3 d3bd 2fc0 5b3e 43be 8bbe e88b b2be
00000370: 623e 05bd 33f1 a0bb 4b9b 423d 769e 863c
00000380: 2db5 703d 4e3a 0ebd 3ba0 943b 915f 3ebc
00000390: 24b6 d6bc 9d67 123d af80 003d 0c79 3a3d
000003a0: ef1b 94bd ccd1 1bbd b647 4abb 23d2 3ebd
000003b0: cdd6 1f3d ead3 a1bb ee49 bbbc c0e9 0db8
000003c0: c5bb f5bc a8ff d0bb 953f 433d 51fa a33c
000003d0: 9498 503d e421 04bd d0ed 033b b0ff 24bc
000003e0: 32a5 e8bc d685 0d3d 7a1c 023d 1b39 253d
000003f0: ceaf 98bd 96f2 24bd 3ed2 543a 2185 47bd

linear.bias f4 [14]
0.87473 1.163226 0.6562542 -1.0621864 0.8121002 1.27828 0.24924344 -0.29358214
0.4414112 -1.0293653 -0.63446856 -1.1809398 -1.1680613 -1.1807095
00000000: 4eee 5f3f 97e4 943f 4600 283f b9f5 87bf
00000010: cce5 4f3f ae9e a33f ac39 7f3e 6650 96be
00000020: a600 e23e 3ec2 83bf 886c 22bf 0929 97bf
00000030: 0883 95bf 7d21 97bf
