trained_weights/unicorn/unicorn14.pth (torch, 16655 bytes, 8 tensors)

conv1.lin_l.weight f4 [32, 30]
00000000: d5cd 043d c897 373d 1258 193d 403a 78bc
00000010: 3918 39bd d89e 9c3c 9122 0a3c 13e2 f23a
00000020: d5ab 013d 62c8 7d3c 128e 653c 84f0 65bb
00000030: 3cc7 13bb 4855 223d 425c 4c3c 553f e43c
00000040: 0a27 e5bc a5ea cabc 376d 0e3b 9417 babc
00000050: 7e01 08bd 44d7 a639 1ba5 9b3b e715 133d
00000060: c652 f53b 7282 e83c 22b6 b43c 249b e33c
00000070: d791 ab3c ec84 983c ee66 d33c 65a7 713d
00000080: 6332 d5bd a2fa a43c b902 6a3d 4334 1fbd
00000090: 714b 05bd 88d1 e5bc dd3b b7bd 4ae1 023d
000000a0: 494b 3d3d c17f f2bc 61a7 503d 1638 34be
000000b0: 4ffe a83c f929 d0bd 4316 babd ab76 4b3d
000000c0: c048 44bc 6174 e6bd 0866 183e 7053 5c3c
000000d0: 78fd 9ebc 5823 08be bc7c 7b3d d784 e23d
000000e0: a3ae 39bd d2b7 a63d dcec dbbd c7e3 3abd
000000f0: dd87 19be bb62 87bd 6404 bbbc 7223 aebd
00000100: 1363 653d 977c 79bc 7563 60bd 06ff 1dbe
00000110: 1e42 c03d 7a99 1b3e ffc6 c1bc dd2b a83d
00000120: 5bed c23d ca34 86bc 708a 013c 1f51 64bc
00000130: 7ef5 de3d 8e50 76bd d6ec c6bd f39a ffbc
00000140: ebce eebd 361c babd 6223 91bd e2cf d7bd
00000150: 76e2 9fbb e04b d1ba 5d90 663e 9eff 47be
00000160: 3b00 333e 1f8a aabc 3b6c 9cbd 44a9 20be
00000170: f671 153d 5471 ed3c f66b 1a3e 08e6 91bd
00000180: 7904 cbbd c079 a7bc edf0 823e e56f 823d
00000190: 8282 15bd 3d39 863e 07af 243e 4e38 ff3d
000001a0: 84d8 3bbd 1bec 8bbc 81a4 3a3e 635e b43c
000001b0: dd56 4cbe f82d d63d 3cf0 a7bd 1e05 23be
000001c0: 8a70 e23c b278 39be 9da4 3ebd 3036 eebc
000001d0: 2c3f 9f3e 14a9 4bbe f0e3 ea3c 4e19 0e3e
000001e0: 1df5 793c acd2 473d 9437 17be 9183 11bc
000001f0: 076a 7c3c 83f7 2bbd 04b0 33bd 8e31 62bb
00000200: 0522 f4bd 9630 913d 248b 0f3d 1285 83bd
00000210: 8e81 593d dae1 3dbe 50f4 213d 7830 cebd
00000220: 4f1c c0bd edc5 f73c 3d88 c03c 686b 2abe
00000230: f64c 483e cb15 b23c ecd9 c2bc 9ed8 0abe
00000240: 9a22 bb3d 0107 a93d 566a 6dbd c8b7 813d
00000250: d3f8 edbd 8716 65bd 0915 66bc 28b1 6d3d
00000260: 2cf8 c7bd 9d33 f53b de51 733c e5bf 8f3b
00000270: 45b5 7fbd 8e82 25bd c336 0cbe 844f 693d
00000280: 9f40 7f3d 787d d1bc b558 3c3d 632b 14be
00000290: 8e54 b83c a93d f0bd 0147 c5bd 4775 f13c
000002a0: db44 683c 740e 0dbe fbb0 1b3e d28d 123d
000002b0: ba4a 03bd 6ca5 f3bd cb9b dc3d a7df ca3d
000002c0: 9fa5 cdbc 142a 9d3d 3ac6 85bd 7d00 b5bd
000002d0: 82ff 19bd f8bb 80bd 4d99 87bd ae45 5a3d
000002e0: b71a 0d3e cf4b 36bd bd83 efbc 59d9 adbc
000002f0: eaf9 133e 3ef1 2f3c de5c 22bd 77e0 4d3e
00000300: d95c a13d 12d2 59bd 3836 c5bd ae49 90bd
00000310: f234 4b3e 158f 073e b2a8 44be 8bff 883d
00000320: 0d5f 52bd d164 bcbd 51b1 22bc dd6d 17be
00000330: 4c35 05be 2337 703d 8ba5 af3d e00c 3abe
00000340: 7414 573d 8591 a03d 9179 653c 3be7 06be
00000350: 230e d93c 8693 70bc 84bb 6e3d be8f 11be
00000360: 725c 29be fd51 803d 6b35 5b3e 458c 843e
00000370: 38d9 83bd 9d50 8d3e 9319 033e 6a1b 043e
00000380: 430b 853d 25c5 793d b1f6 6e3e 0377 a4bd
00000390: f42d fcbc 49e6 f83d 64b5 b5bd 71ca 10be
000003a0: 225d 1cbd b09b 47bd 489e 60bd 5f17 34be
000003b0: d39b 503e efc0 30be cead ccbd c14d 073e
000003c0: f85d 00bd 2a57 143d ae99 f8bd eadc 883c
000003d0: 7188 b13c 8967 a43d 9a6d 6f3c b476 0dbd
000003e0: 1a73 d5bd 0e0d fa3c d65e 3c3d cc7c acbc
000003f0: 9f54 44bc f6a0 30be ed0f 8e3d 177e f4bd
0.03242286 0.044822484 0.037437506 -0.015150607 -0.045189116 0.019118711 0.008431093 0.001853051
0.031658012 0.0154896695 0.014010923 -0.0035085985 -0.0022549173 0.03963211 0.012473168 0.02786223
-0.027972717 -0.02477009 0.0021732578 -0.022716321 -0.033204548 0.00031822373 0.0047499067 0.03590956
0.007486674 0.028382514 0.022059504 0.027783938 0.020943565 0.01861807 0.025805917 0.05899753
-0.10410001 0.020139042 0.057131503 -0.0388682 -0.03254265 -0.028054014 -0.08946965 0.031953134
0.046214376 -0.029601933 0.050940875 -0.1759952 0.020629076 -0.10164256 -0.09086277 0.049673717
-0.011980236 -0.11252666 0.14882672 0.013447627 -0.019407973 -0.13294733 0.061398253 0.110604934
-0.045332562 0.0814053 -0.10738537 -0.04562738 -0.14993234 -0.06610628 -0.022829242 -0.085028544
0.056002688 -0.015227458 -0.05478235 -0.15429315 0.09387611 0.15195265 -0.023654459 0.08211491
0.09517928 -0.016382594 0.007906541 -0.013935356 0.10886668 -0.060135417 -0.097131416 -0.031201815
-0.1166056 -0.09087412 -0.07086827 -0.105376974 -0.004879291 -0.0015968047 0.22516008 -0.19531104
0.17480557 -0.020817814 -0.07637831 -0.1568957 0.036485635 0.028984703 0.15080246 -0.07123953
-0.099129625 -0.020443797 0.25574437 0.063689984 -0.036501415 0.26215544 0.16082393 0.12461911
-0.045860782 -0.017080357 0.18226816 0.022017663 -0.1995501 0.104579866 -0.08200118 -0.15919921
0.027641553 -0.18112448 -0.046543706 -0.029078573 0.31102884 -0.19888717 0.028673142 0.1387684
0.0152561935 0.048784897 -0.14767295 -0.0088814655 0.015406138 -0.041984092 -0.043869033 -0.00345144
-0.11920551 0.07089345 0.035044804 -0.064218655 0.05310207 -0.18543187 0.039539635 -0.100678384
-0.093803994 0.030245746 0.023502463 -0.16642535 0.19560608 0.021738907 -0.023785554 -0.13559195
0.09137459 0.08253289 -0.057962738 0.063338816 -0.11619725 -0.055929687 -0.014043101 0.058030277
-0.09764132 0.0074829594 0.014851062 0.0043868893 -0.06242873 -0.04040771 -0.13692765 0.056960598
0.062317487 -0.025572523 0.045983035 -0.14469676 0.022501256 -0.11730511 -0.096326835 0.029474868
0.014176573 -0.13775045 0.15204231 0.03577978 -0.032053687 -0.11896786 0.10771903 0.099059395
-0.025103388 0.076740414 -0.06531949 -0.08837984 -0.037597187 -0.06285852 -0.06621037 0.053289108
0.13779722 -0.04450589 -0.029237622 -0.021221804 0.14450803 0.010738669 -0.039639346 0.20105158
0.078790374 -0.053178854 -0.09629482 -0.07045303 0.19844416 0.13238175 -0.19204977 0.06689366
-0.05136018 -0.09198917 -0.009929971 -0.14788003 -0.13008612 0.058646332 0.08576497 -0.18168974
0.05250974 0.07840256 0.0140060345 -0.13174145 0.026495999 -0.01468361 0.058284298 -0.1421499
-0.16539171 0.06265638 0.21407096 0.25888267 -0.064379156 0.27600566 0.12802725 0.12901083
0.064962886 0.060979027 0.23336293 -0.08030512 -0.03078363 0.121532984 -0.08872488 -0.14139725
-0.038174756 -0.04873246 -0.05483845 -0.1758704 0.20371942 -0.17261098 -0.09994088 0.13213255
-0.031339616 0.03621594 -0.12138687 0.016706903 0.021671506 0.0802756 0.014613533 -0.034537032
-0.104223445 0.030523803 0.04598888 -0.021055602 -0.011983066 -0.17248902 0.06936631 -0.11938112

conv1.lin_l.bias f4 [32]
00000000: dfa5 33bd c715 cdbd 4885 f2bd e199 10be
00000010: 599f fcbd a013 c0bd fe14 2ebe ce33 1ebe
00000020: 89df b3bd 62fa 25be aebb bfbc d26d a83c
00000030: d556 1bbe 9601 163b db03 20be 72df 6fbd
00000040: b711 0d3d 7151 87bd 2c1c cb3c 61d5 05be
00000050: f99e cfbd b207 23be 9b64 62bd f08a 72bd
00000060: bc15 20bd 5ae1 353d 8fd8 ce3c ee9c 113d
00000070: b90f 7dbb 1b9b 94bd eeb5 0fbe 0a84 c1bd
-0.04385936 -0.10013919 -0.11841828 -0.141212 -0.12335081 -0.09378743 -0.17000195 -0.1544945
-0.0878287 -0.16208795 -0.023404922 0.020560179 -0.15169843 0.002288913 -0.1562647 -0.058562703
0.034440722 -0.066073306 0.024793707 -0.13069679 -0.101377435 -0.15920904 -0.055271726 -0.059214532
-0.039083228 0.044404365 0.025249748 0.03555005 -0.0038614108 -0.072561465 -0.14034244 -0.094490126

conv1.lin_r.weight f4 [32, 30]
00000000: 9d0b 1cbe 0b41 a53d d394 44be ebb0 1bbe
00000010: fb0c 07be d96b f8bd 4cb6 08bd d747 0cbe
00000020: 7d74 f4bd 384b 953d dd29 4a3c 1394 09be
00000030: 7f24 ff3c e260 eabd 7f8d c03d 2212 073e
00000040: 9b7c a5bd 02c5 d2bd 4124 733d 467b 0bbe
00000050: 8298 96bd 38ba 06bc 97c7 e7bd 540c 1d3d
00000060: e5e6 3d3d f94b d9bd b1bd a73d 4cf3 2cbe
00000070: 5657 1c3d 5ce3 37bd 50b7 3e3e 2670 a3bd
00000080: e73e 56be ecb2 42be 5015 513c 9202 8b3c
00000090: 477a a43e 7cf8 64be 10b1 ea3d 5af9 d8bd
000000a0: abbf c63e 8f8e 113e b23e 69bc 9a16 703e
000000b0: 6b54 61be b422 103c 9561 073d f393 edbd
000000c0: 43e1 8bbc 6c8a 203d bb37 5dbd 5978 d2be
000000d0: 113a 693e 2e64 ae3d 7538 dabe 3a79 dbbd
000000e0: 69fa 6c3e bcbc 39be 4530 fe3c 9717 3ebd
000000f0: f1af 88bc 8ce2 cebd f715 f7bc 40ea 1abc
00000100: d134 da3d 5617 f9bd e78e 0dbe a8b5 4c3e
00000110: baf8 a33c fcb6 9d3e 5037 9ebe 7342 233b
00000120: c5d2 f43d d66e 5bbe 59b2 c3bc 1fa9 0dbe
00000130: 5e36 933d 17d6 b0bd 449c 1fbd 9ca0 493d
00000140: 1e02 903e 88a2 133e 2878 36be 0aa6 6abe
00000150: 8ddb 9ebd 0dfa b8bd f879 97bd 1024 bdbe
00000160: 01c6 edbe 18c4 5a3e e5be 533c 2527 42be
00000170: a45d 31be 2bf6 5f3c 6c5a dc3c 2a6d 66be
00000180: 3582 82be 3f5d 933e 8f09 dc3d 86fd 893e
00000190: 435a bdbe 4be2 23bc ed3e 203e 2cbe 5abe
000001a0: 57c6 c33d 3dba e8bd 23ed 163e a86d aebd
000001b0: 1b6f 1ebd 973c f83c 2279 783e 9cc6 3e3e
000001c0: 0dad 44be 0062 a7be 6be7 75bd 2923 25be
000001d0: 10ae 3d3d a5c4 f9be c676 d6be 4224 333e
000001e0: 3657 1f3e 4a65 cebd 05fb 72be 2eda 20be
000001f0: 713a 7f3c d8b0 363c e7fc 953e ae81 59be
00000200: 9a7f a03d cf33 0fbe a2d3 c73e 342d 0c3e
00000210: 0c3f 18bc 5163 5f3e 6a83 6fbe 2d61 263b
00000220: dee4 033d 8da4 c3bd ca9d 6fbc 8da9 373d
00000230: c9fa 83bc 5dbb bfbe a83d 823e ce62 a43d
00000240: 1433 ccbe cec9 0cbe d487 8d3e fdc1 4cbe
00000250: 1b3c 003d ea8f 87bd 18d1 243e 5a9c 69bd
00000260: 45f7 2fbe 5c10 1bbe 7dbb da3c 5fe2 173d
00000270: 975a 8d3e 2ab8 7fbe a2ee e13d 4d73 dbbd
00000280: 2b86 bb3e e43a 1b3e fdbe 9ebc 8626 7c3e
00000290: 83b8 66be e155 5fbc 9f53 033d c4af d5bd
000002a0: b2ab b1bc 7484 593b bb46 acbd 020b c6be
000002b0: 938b 633e d6db 293d c6bf c7be 14b0 9ebd
000002c0: 8743 9c3e 3f89 26be 7a27 8b3d b2cd 40bd
000002d0: 0424 2cbc 2833 bc3c c321 4bbe 5e75 2dbe
000002e0: 2a9f 55be 8105 44be c33e 87be 2562 0e3e
000002f0: 0db5 81bc 9498 da3e e64a b2be 6c86 6fbe
00000300: 7835 c33c b4b1 57be ca8d 8c3e 38e7 df3c
00000310: 537b 19be 8c2e 8fbe 2fcf 463e a41b 42be
00000320: 5314 b13d 0ccb c13d eda2 4ebe 56a7 eabd
00000330: cd9b 1dbd 9168 88be 4b52 493e ede2 c5be
00000340: 8b39 8fbe 289c 2f3d f2fa 96bd d915 80be
00000350: 99ea 2dbe 1444 db3d 2219 973d 1bb7 13be
00000360: a4bf 83be 4824 893e f3d8 bc3d 52d0 8c3e
00000370: ade9 cfbe dfa3 423d cff1 f73d 0e69 8dbe
00000380: 8a95 133e c29e 67be 1232 373e 383d f7bc
00000390: 5678 55bd 2252 6f3d 7ad1 9c3e eed4 053e
000003a0: d127 1cbe ed55 b5be e5b5 89bd 0db2 4fbe
000003b0: 0d0d 6cbd c8f4 03bf 5842 dfbe abca 613e
000003c0: 394d 123e 3e69 9ebd c565 27be 54c7 05be
000003d0: 7832 28bb 9682 9aba 2647 703e 85df 99be
000003e0: 60d5 d83d feaf adbd 44a4 bc3e ff4c 313e
000003f0: a53b 203c 7472 633e 5e9e 2cbe e5ef 393c
-0.15238805 0.080690466 -0.19197397 -0.15204208 -0.13188545 -0.12129945 -0.033376977 -0.1369928
-0.11936281 0.072897375 0.012339083 -0.13435392 0.031145332 -0.1144426 0.09401988 0.13190511
-0.08080407 -0.102914825 0.059360746 -0.13621244 -0.07353307 -0.008223109 -0.113173656 0.038341835
0.046362776 -0.10610194 0.08190478 -0.16889685 0.038169228 -0.04489456 0.18624616 -0.07980375
-0.20922433 -0.19013566 0.012761429 0.016968999 0.3212454 -0.22360414 0.11459553 -0.10594435
0.38818106 0.14214538 -0.014236139 0.23446122 -0.22004859 0.008797336 0.033052046 -0.11600485
-0.017075187 0.03919451 -0.054008227 -0.41107443 0.22776057 0.085152015 -0.42621198 -0.107164815
0.23142399 -0.18138403 0.031028876 -0.046409216 -0.016685458 -0.10101804 -0.03016184 -0.009455264
0.10654605 -0.12162654 -0.13824044 0.19991171 0.020016063 0.30803668 -0.30901575 0.0024911433
0.119542636 -0.21429 -0.023888754 -0.13834046 0.07188104 -0.086345844 -0.038967386 0.049225435
0.28126615 0.1441747 -0.17819273 -0.22914901 -0.0775672 -0.090320684 -0.073963106 -0.36941576
-0.46440127 0.21363866 0.012923931 -0.18960245 -0.17320877 0.013669531 0.026898585 -0.2250258
-0.25489965 0.2878208 0.10744011 0.26951236 -0.36982927 -0.010002683 0.15649004 -0.21361607
0.09559315 -0.11363647 0.14738898 -0.08517009 -0.038680177 0.030302329 0.24264959 0.18630451
-0.19206639 -0.32691956 -0.06003515 -0.16126694 0.046308577 -0.4878284 -0.41887492 0.174943
0.15560612 -0.10077913 -0.23728569 -0.15708229 0.015577898 0.011150561 0.29294512 -0.21240875
0.07836838 -0.13984607 0.3902865 0.13689119 -0.009292375 0.2181523 -0.23389974 0.002538751
0.032200687 -0.0955287 -0.014625022 0.04483943 -0.016110795 -0.37447634 0.25437665 0.08026658
-0.3988272 -0.13748857 0.2764269 -0.19995876 0.03130732 -0.06619246 0.16095388 -0.057033874
-0.1718417 -0.1514296 0.02670073 0.03708112 0.27608177 -0.24972597 0.11031844 -0.10715351
0.366258 0.15159184 -0.01937818 0.2462407 -0.22531323 -0.013631315 0.03206217 -0.10433915
-0.021688316 0.003319052 -0.08411928 -0.38680273 0.22221212 0.041469418 -0.390135 -0.07748428
0.3052027 -0.16263293 0.06794639 -0.047071166 -0.010506634 0.022973612 -0.19837098 -0.16939303
-0.20861498 -0.19142725 -0.2641507 0.13904627 -0.015833402 0.42694533 -0.34822768 -0.23391122
0.023829207 -0.21063882 0.27451926 0.027331933 -0.1498845 -0.279652 0.19414972 -0.18955857
0.08646455 0.09462556 -0.20179339 -0.11457698 -0.03847866 -0.26642278 0.19660299 -0.38649693
-0.2797359 0.04287353 -0.07372083 -0.25016668 -0.16984023 0.10706344 0.073778406 -0.14425318
-0.25732148 0.26785493 0.09221067 0.27502686 -0.40607968 0.04751956 0.12106668 -0.27619213
0.14412513 -0.22619155 0.17890194 -0.030180559 -0.052116714 0.058427937 0.30628568 0.13069507
-0.15249564 -0.3541712 -0.06724147 -0.20282765 -0.057629634 -0.5154538 -0.43605304 0.22049968
0.1428727 -0.07734917 -0.16347416 -0.13064319 -0.0025664847 -0.0011788185 0.23464641 -0.30053344
0.10587573 -0.084808335 0.36844075 0.17314528 0.009779845 0.22211629 -0.16857287 0.011348699

conv2.lin_l.weight f4 [20, 32]
00000000: 5a60 373e 4e22 853c 365d 07be 238c 1dbd
00000010: cc9e 04bb 8ba5 803b 53c5 d3bc 882a b83a
00000020: 1c60 e33a 51e9 f3bd 3d10 abbc 1fdb 09be
00000030: aeea 903b cb12 dcbe ca97 bbbd 9430 07bf
00000040: b182 dabd a93c aebd d2f5 adbd 6767 813b
00000050: 8069 953b 0a98 d4bd dd43 b3bd c707 9bbd
00000060: b0ce afbd 4d82 09bd 42ac cabd 0e87 02be
00000070: 40d2 4b3c 306a b23e f55e cf3c ceff 0cbc
00000080: 7f76 b63d 8ec1 c2ba cd02 663c d364 8fbc
00000090: 1211 803c 81b3 823c 8a06 d5bc 4b81 7f3c
000000a0: 05e7 b73c 5d80 4fbd b6b0 813c b5c3 72bd
000000b0: 7881 20bd 56e8 76be 0c16 933b 2902 a2be
000000c0: 5e94 1dbd a003 7e3d 3dd1 50bb 8ef5 503d
000000d0: ff4f 7e3d cda0 edbd ac57 6d3d 0b43 bb3d
000000e0: 93c8 a73d 8102 033d 25e0 e3bc a908 b2bc
000000f0: 418e 613d 8bac 633e b915 fcbb 7de4 0a3d
00000100: 8761 6bbd 7fdf 093d ee80 e93c 631d 24bd
00000110: 84e0 fe3c 8ca8 f43c be56 e3bd 2f87 953c
00000120: 535d b93d d445 fabc 1519 8e3c f6e0 febd
00000130: c3c6 7cbc 2547 39be 7c96 8bbd c429 5fbe
00000140: 8e53 aebd f074 773d ce4f 0ebd 681b 2a3d
00000150: 8c75 3d3d c874 d9bd 26f8 673d 0d61 823d
00000160: 9f93 913d deec e73a 87b1 f6bd 2153 afbd
00000170: 3292 95bb 1f96 413a bc22 18bd 39f2 1c3d
00000180: 2096 b3bd 249c eb3c 1ca1 c73d b0f2 813c
00000190: ef23 b93c b639 1f3d a6e6 a8bc bd75 183d
000001a0: c715 aa3d f9e1 c03d 1511 aa3c 766f 92bd
000001b0: 75f5 6f3d ee1e 813d 0685 acbc 62cd 873d
000001c0: 39c9 5cbd 1526 983c 45fa dabb 39b1 a13c
000001d0: ae78 013c 2f9f 8abd 9a0b b83c 025d 8a39
000001e0: b9a2 cb3b 68f8 863c 4496 93bd 14b3 4dbd
000001f0: bc94 9abc 4092 56be 7cd0 f93c 7565 1e3d
00000200: 0bc3 94bd 9ef8 16bd 0d7d 88bc cc36 27bb
00000210: aaf7 61bc 6be1 1cbd 659f 5f3d 2d5c 49bd
00000220: 1eba e7bc ec6e 98bd 63ec debc 70dd d6bd
00000230: 4b4e 7bbd 5a54 14be b87b 043d cb5a 3dbe
00000240: ebd6 eabd 1e77 d73c 59cb bbbd cb40 c9bb
00000250: c46e 853c d83a 70bd fe78 883c 0132 133c
00000260: 4287 253c 202f 8dbd 3246 aabd 9c7b e6bd
00000270: ca74 0bbd 7fb5 7a3b a8d7 57bd 7c18 663a
00000280: 00f7 d63c 2ff7 493c f699 163e cce7 2a3c
00000290: 95a7 e63c a3c4 093d aea2 86bd 578e 583d
000002a0: c1b8 9a3d 47ee 983d 7842 313d bc29 c2bc
000002b0: 8bbe ff3c 6a71 8a3d 10ea a93a 40f9 803d
000002c0: 21bf 273c 6177 de3d 8f2e 003d e384 843d
000002d0: c32c 4e3d 2293 03bd 7135 dd3d f95b e93d
000002e0: ddcb ff3d 4910 423d 4cbf 3cbc 6f6c dd3c
000002f0: 9e33 e73b c6ff 96bd 434d 1a3d 4ab4 173d
00000300: caa5 81bd f390 42bd 9f2e 44bc 11f5 e33c
00000310: 6fb1 26bd a58e 4dbd 849b de3d 92ef 2ebd
00000320: c4a9 7abd 9bfc 6b3c 4961 9abb 5b71 e5bc
00000330: 49b8 923b 1b0e ed3d 78ac d03c ff2a 193e
00000340: d240 24bd 21c2 acbd 5a39 9ebc 4508 6bbd
00000350: 21b0 8abd d574 a23c f606 97bd 896d b5bd
00000360: ab5d bfbd 8ddd efbc df36 b9bc 9324 40bd
00000370: 6e7d 72bc 7ab2 56be 2ef9 b43b 0912 19bd
00000380: 3ded 4bbd 7377 653b 36de 403b adee bf3c
00000390: 1c17 21bc ca94 17bc 3b0c f63c 7af8 b6ba
000003a0: 10fa 31bc 6944 633d f83d 18bc df80 433d
000003b0: ca16 4c3d 9019 583e 60b3 56b9 3f54 8b3e
000003c0: 1441 023d 2624 4fbd 5180 973b cc55 10bd
000003d0: 744f 47bd 8a85 c93d 0961 41bd bc6e 98bd
000003e0: a4e0 93bd 792f e0bc 3266 d83c 43a9 b43c
000003f0: c7a3 54bd a7fe 2cbe 71f2 bd3c 88a4 d4bc
0.17907849 0.01625171 -0.13219151 -0.038463723 -0.0020236252 0.0039259843 -0.025850927 0.0014050761
0.0017347368 -0.11909736 -0.020881766 -0.13462494 0.0044225072 -0.42983088 -0.09159811 -0.528085
-0.10669459 -0.08507664 -0.08494152 0.003949094 0.0045596957 -0.10380562 -0.08753178 -0.07569843
-0.085843444 -0.03357153 -0.09896137 -0.12746832 0.012440264 0.3484664 0.025313834 -0.00860591
0.0890932 -0.0014858709 0.014038754 -0.017504131 0.01563314 0.015954735 -0.026004095 0.015594791
0.022449026 -0.050659526 0.015831333 -0.059268672 -0.03918597 -0.24112067 0.004488712 -0.31642273
-0.038471572 0.062015176 -0.0031862997 0.05101543 0.06208801 -0.11602936 0.05794494 0.09143647
0.08192553 0.03198481 -0.027816841 -0.021732645 0.055067305 0.22233789 -0.007693019 0.03390931
-0.057466056 0.033660408 0.028503861 -0.040067088 0.031112917 0.029865526 -0.11100529 0.018252937
0.09051003 -0.030550875 0.017345944 -0.12445252 -0.015428248 -0.18093546 -0.06815812 -0.21793276
-0.085120305 0.060414255 -0.034744076 0.041530043 0.04625468 -0.106179774 0.056633137 0.06366167
0.071082346 0.0017694493 -0.120455794 -0.085607775 -0.004564547 0.00073847355 -0.0371425 0.03831694
-0.087688684 0.028760977 0.09747526 0.015862793 0.022600142 0.038873397 -0.020617794 0.03722166
0.08304935 0.09418101 0.020760098 -0.07150166 0.058583695 0.063047275 -0.021059524 0.066309705
-0.05390284 0.018572846 -0.0066826665 0.019737827 0.007902307 -0.06768643 0.02246647 0.00026390707
0.0062144664 0.016475871 -0.07206395 -0.05021961 -0.01886975 -0.20954227 0.03049492 0.038670976
-0.07263764 -0.036858194 -0.016661191 -0.002551484 -0.013791958 -0.038300913 0.05459537 -0.04916017
-0.02828699 -0.07443032 -0.027212327 -0.104914546 -0.061353963 -0.14485303 0.03234455 -0.18491666
-0.114667736 0.026301917 -0.09169645 -0.006141757 0.016288169 -0.058649868 0.016659256 0.00898409
0.010103049 -0.06893754 -0.0831417 -0.11254045 -0.034046926 0.0038255153 -0.0526959 0.0008777452
0.026240826 0.012327 0.14707169 0.010431241 0.028156081 0.033634793 -0.065739974 0.05287012
0.0755477 0.07467323 0.04327628 -0.023701541 0.031218788 0.06759913 0.0012963433 0.06297541
0.01023844 0.108626135 0.0312944 0.06470659 0.050335657 -0.03212274 0.10801209 0.113944955
0.12490056 0.047378812 -0.011520218 0.027029244 0.007055714 -0.07373004 0.03767134 0.03703717
-0.0633045 -0.047501516 -0.011974006 0.027826818 -0.040696558 -0.050184865 0.10869506 -0.04270894
-0.061197057 0.014403488 -0.0047113043 -0.028008154 0.004477535 0.11574956 0.025472865 0.14957808
-0.04010088 -0.08435465 -0.019314457 -0.057380933 -0.06771875 0.0198311 -0.073743746 -0.08858783
-0.093440376 -0.029280448 -0.022609172 -0.04690988 -0.014800413 -0.20966521 0.0055228686 -0.037370715
-0.049786795 0.0035013824 0.0029429323 0.02342924 -0.00983217 -0.009251783 0.030035129 -0.001395955
-0.010862842 0.055485163 -0.009292118 0.047730323 0.04982642 0.21103501 -0.00020475453 0.27212712
0.031800345 -0.050571583 0.004623451 -0.035238072 -0.048659757 0.09839924 -0.04721168 -0.07442996
-0.07220581 -0.027366387 0.026415918 0.022053367 -0.051914003 -0.16894017 0.023186894 -0.02595736

conv2.lin_l.bias f4 [20]
00000000: d60f 90bc 8434 4abc 70df 213d fde4 933c
00000010: 5333 203d 9d8d 2cbd 8fe4 463b a882 3bbb
00000020: b00e 7fbb 3c89 953c ca2b f83c 8e41 963c
00000030: b019 09bd ba19 82bc b0ed 29bc fa29 d1bc
00000040: 2824 a03c d2bf 35bc e38f f3bb 0359 efba
-0.017585676 -0.012341622 0.039519727 0.018053526 0.039111447 -0.04212724 0.0030348634 -0.0028611813
-0.0038918667 0.018253915 0.030294318 0.018341806 -0.033471763 -0.015881408 -0.0103716105 -0.025532711
0.01954849 -0.011093097 -0.007432924 -0.001826078

conv2.lin_r.weight f4 [20, 32]
00000000: 734a 31bb 9078 223e b207 fe3d bd1c 053e
00000010: f16e 4a3e 65bc 063e 2000 943d 42fe 693e
00000020: 3aff 063e 544f 103e 681f efbe f29d 59be
00000030: 2cfb 1a3e 8a90 ebbe e46c 613d 29f9 21bf
00000040: 650a 64be e749 10bd 1eca 33be d8c8 5b3e
00000050: dfba 103e 2039 523f 2397 18bd aeb4 07bd
00000060: b20d 82bd 6078 38be 46de 56be 0fb9 5bbe
00000070: c047 22be 509d 84bc 53e7 493e 2ad7 d33d
00000080: 5f89 26bd 2d98 9ebd 6c71 613d a2d5 bd3d
00000090: b981 83bd e05d d5bd 4cce 213d 7815 f33d
000000a0: 8ea1 64bd 0e98 e83d 720b 2c3c 270c 5f3e
000000b0: 0f8e b93d 8b01 b0be 2332 9a3d 3de7 e2be
000000c0: 939c 553e 62d7 e13d 421f 553e 9d38 153e
000000d0: 4b57 e4bd ec6e ca3d cf33 b83d c6cd d43d
000000e0: 6f31 c43d 0bc4 583e b0d2 6b3e 9aad 663e
000000f0: ccea 703e f645 d9bd 155d 073e e4db b5bd
00000100: 5acf c13d 69f1 863d 0ae3 86bd 66db 2cbd
00000110: 2191 d03d ce1c 853d 1d52 90bc 27ac 8ebd
00000120: 51b7 5b3d 32b2 eabc 5aa9 6bbb e209 153e
00000130: 2cb4 61bd 3924 80be f0f3 ae3c 3a3d a1be
00000140: 417d 0b3e b548 87be 5582 123e e44a b8bd
00000150: e378 8b3d 3197 20bf f6bf 8cbe 2847 8cbe
00000160: 063c 8fbe 1bd1 b83d 2fe4 1b3e 1e22 253e
00000170: 4905 0d3e 312d 033d bf4f 8abd 7e7c 923d
00000180: ac67 093d d06c 3f3e cb98 dfbd bc87 31be
00000190: 1fe6 4c3e 0009 523e efa0 ddbd 8b2c 26be
000001a0: 29ab 323e 4d2a 33be c486 04bd cd3e 833d
000001b0: 764e 56be d63a b2bc 2e4b 71bd 21f0 833c
000001c0: 0348 963d 4628 37bd 5daf 943d 8357 6cbe
000001d0: 28b7 633e 8008 92bc cf30 38bd 840f 3fbd
000001e0: 1e1b 56bd 479e 9c3c eaf5 353d ffb0 9f3d
000001f0: 891d 9d3c 13b3 a83d 3125 61be 6efe 563e
00000200: 1c45 f83d 28e3 8ebe e756 5bbd eb09 133d
00000210: d00d 86be 6c09 97be 3074 2f3d 1bc1 71bd
00000220: d6cd 84be 311a 2c3d 5ef4 d7bd 58fb a43d
00000230: 6a7d 103d 4abb 66be 68c8 6e3b 88a9 95be
00000240: 8a53 783d 2d2d 1c3e c2f0 073d 4920 81bb
00000250: cf6c 9abe b823 50bf fc67 0d3e eb69 1a3e
00000260: f7e5 ea3d bf76 853d b329 a73d e485 ab3d
00000270: ed45 a53d 9cc8 933d 9bd0 873b 0fde 8dbe
00000280: a060 3ebd beaa c5bc bfcd b0bc cdcf a8bd
00000290: d1ef 05bd 4a40 6bbc 96a3 9dbd 2203 4cbd
000002a0: 006f 2dbb ddd1 cabd d18e a33e cab0 a23e
000002b0: 3413 f4bd 18ea b23c 2780 7ebc 6510 cc3d
000002c0: e0ef a03e 591f c1bd 20f2 9f3e 4ebe 63bd
000002d0: 6f29 863b 7b25 323f d746 d3bd 10fa d4bd
000002e0: 177d b4bd b789 883e 8a53 9c3e def3 a53e
000002f0: 57d8 8a3e e8f8 d0bc 5e8a b5bd 371b a93c
00000300: 4a1f c83c 2e8f fdbd 5b73 e2bc 6e24 4bbd
00000310: ab7e ddbd adf3 d5bd 67d0 b1bc 9ef6 a6bd
00000320: a5ca e5bd 14a3 66bd 9038 443e 06e1 21be
00000330: 2bc0 80bd 6200 de3d 5576 a5bd 978b 323e
00000340: 6b66 1dbe 7f63 483e 18aa 31be d683 c7bd
00000350: d8b7 cfbd f029 7d3d ddcf 4c3e 969b 523e
00000360: 9b7d 503e 932a 14be 4734 40be 699d 2cbe
00000370: dd8d 32be 0af7 df3d 2f1e cebd 3a85 cdbd
00000380: 86b6 8d3b 8d06 ae3d a146 06bd f54d a6bd
00000390: f07f 953d d5d1 e13d ffc8 1abd c63a a5bd
000003a0: 49e1 873d b29c d2bd 410f f7bd d6fe 2bbe
000003b0: 3ffe abbd edc3 963e 67d8 87bd 1178 c33e
000003c0: a349 1ebe 6ed7 7dbd 05e8 1cbe 212e e7bd
000003d0: 2a5f eb3d f64f 263e 862d 39bd b3b3 6cbd
000003e0: 6487 56bd d0c2 26be b1de 39be 0d64 30be
000003f0: 47e5 3dbe 6c96 a13d c5cf dfbd 6252 c73d
-0.0027052432 0.15866303 0.124038115 0.12999244 0.19768883 0.13157804 0.07226586 0.22850898
0.13183299 0.14092761 -0.4670365 -0.21251658 0.15134877 -0.46008712 0.055035487 -0.63270813
-0.2226959 -0.03522673 -0.1755757 0.21463335 0.14133786 0.82118416 -0.03725351 -0.033131294
-0.063502684 -0.1801467 -0.20983228 -0.21457313 -0.15847683 -0.016188294 0.1971715 0.10343774
-0.04065835 -0.07743869 0.05503981 0.09269263 -0.06421227 -0.10418296 0.03950338 0.11869329
-0.055818133 0.11357127 0.010500776 0.2178198 0.09060299 -0.34376177 0.07529094 -0.44317046
0.2086051 0.11027409 0.20812705 0.14572378 -0.11149462 0.09884438 0.08994257 0.10390811
0.09579741 0.21168534 0.2302959 0.22527161 0.23527068 -0.10609047 0.13219102 -0.088798314
0.09463377 0.06589014 -0.06586273 -0.042201422 0.10183931 0.06499635 -0.01761728 -0.06966429
0.05364162 -0.028649423 -0.0035959096 0.14554551 -0.055103466 -0.25027636 0.021356553 -0.31492025
0.13622 -0.2642266 0.1430753 -0.08998659 0.06810167 -0.627307 -0.27490205 -0.27398038
-0.27975482 0.09024259 0.15223764 0.16126296 0.13771547 0.03202552 -0.067534916 0.07152651
0.033546135 0.18693852 -0.10917815 -0.17336935 0.20009659 0.20511246 -0.10821711 -0.1622793
0.17448105 -0.17496605 -0.032355085 0.06408463 -0.20928368 -0.02175657 -0.058909588 0.016105713
0.07337954 -0.044716142 0.072600104 -0.23080258 0.22237837 -0.017826319 -0.044968423 -0.046645656
-0.052271955 0.019118441 0.044423975 0.07797431 0.019179123 0.08237281 -0.21986844 0.20995495
0.121225566 -0.2790768 -0.053549673 0.03589813 -0.26182413 -0.29499376 0.042835414 -0.05902205
-0.2593829 0.042017166 -0.10544656 0.080557525 0.035275854 -0.22532383 0.003643537 -0.29230905
0.060626544 0.15251608 0.03318859 -0.0039406163 -0.3016114 -0.813045 0.13809198 0.15079467
0.114696436 0.0651679 0.0816225 0.08375147 0.08069978 0.072159976 0.0041447408 -0.2770848
-0.046478868 -0.024129268 -0.021582482 -0.0824276 -0.03269941 -0.014358589 -0.07697217 -0.049807675
-0.0026463866 -0.099033095 0.31944898 0.31775504 -0.11917725 0.02184014 -0.015533484 0.099640645
0.3143301 -0.09429807 0.31239414 -0.05560141 0.0040942947 0.6958844 -0.10316246 -0.10399258
-0.088129215 0.26667568 0.30532485 0.32412618 0.2711818 -0.025509313 -0.08864282 0.02064286
0.024428982 -0.12380825 -0.027642896 -0.04959529 -0.108151756 -0.10446868 -0.02170582 -0.08152507
-0.11220292 -0.056307867 0.19162202 -0.15808496 -0.06286653 0.10839917 -0.08079211 0.17436062
-0.153711 0.19569205 -0.17350042 -0.097419426 -0.10142487 0.061807573 0.20001169 0.20567164
0.20360415 -0.14469366 -0.18769942 -0.16856922 -0.17436929 0.10935791 -0.10064351 -0.100351766
0.004324737 0.08497343 -0.0327822 -0.08120338 0.07299793 0.110263504 -0.03778934 -0.08067851
0.066347666 -0.102837935 -0.12063456 -0.16796431 -0.08398103 0.29446355 -0.06633072 0.3817754
-0.15457778 -0.061973028 -0.15322883 -0.11288095 0.114927605 0.1624144 -0.04520943 -0.057788562
-0.052375212 -0.16285253 -0.18151356 -0.17225666 -0.18544494 0.07890019 -0.10928301 0.0973251

linear.weight f4 [14, 20]
00000000: 4a6e 513f cd3b 2cbf c944 3b3f 75e0 bc3f
00000010: d369 e2bf ae10 f2bd f04c 50bf d63b 303f
00000020: 37e5 98bf e144 32bd 9153 953f bcae c9bf
00000030: 2c2d acbf 7aa4 a7bf d370 733f 9fdf babf
00000040: f5d7 bf3d 194a d53f 8d91 613f 5c6c 5d3f
00000050: 7b57 bbbf a4cd a23f 2abe 773f 8f96 da3e
00000060: 80da 2c3f 0203 db3f d9cb 80bf 93e8 7dbf
00000070: ac22 aebf 4dd9 183f 94a1 973f 0f9f ab3f
00000080: 5810 0640 c184 48be 7a91 d2bf c375 b1bf
00000090: 0750 893f 67aa 8bbf b295 83bf 0e78 893f
000000a0: 75bb ddbf 4d1a a3bf 9d99 78bf 2b06 03bf
000000b0: 2c42 56bf 9647 453d 8b44 ed3d 4167 843f
000000c0: cd61 623f acc5 40bf 96e1 81bf f9b2 9dbf
000000d0: 1540 c13f 69c1 8f3f eafd f0bd e15c 8b3f
000000e0: 8a5d c73e cdc6 97be ddfb 823f 6c76 b13e
000000f0: f87c 6d3d 825f 473d b289 0c3c 04f6 b6bc
00000100: 12ca a63c eed7 843c b0dc 5cbc 2537 15bd
00000110: 8e96 8f3c 06e2 cb3b 8ddc e4bc 33d7 5b3d
00000120: 02df d4bc 2b9e 6fbc 342b a33a d869 a53b
00000130: eb4f 1dbb bd86 44bc e7e7 e4bc 0ce3 81ba
00000140: a13a 353f 5f91 97bf ce3a 8f3f 0c22 3c3f
00000150: 439d b53f 9274 a1bf d084 8f3f 695d 4d3f
00000160: d118 443f b38c 31bf f533 2a3f 5b13 b23f
00000170: a0b2 aabf 2d65 3a3f 9161 c7bf 662e 17bf
00000180: 5d1c 37bf e58f 86bf 474f 733f 5124 92bf
00000190: 4f40 d13f 9892 7e3f d1f2 eb3d 1d0e bfbf
000001a0: 3ee7 273f 6e6b 9abf 537f 67bf e810 70bf
000001b0: 0f62 a63f 1e50 6e3f bed6 ccbf c0a3 763f
000001c0: ec54 afbf 3b7b 93bf 9462 a23f a6ba cd3f
000001d0: cd17 ad3f b599 9abe f695 76be 040f a63f
000001e0: 2264 b93f dda2 e33e 2c0d 5cbf 8f8b 1bbf
000001f0: 9eca 6fbf a595 323f d4ee acbe 56d6 f4bc
00000200: f25d 633f 3a4a 49bf 2fc1 70bf 4bd1 e8be
00000210: 08cc a03f 2747 443f 4a50 2dbd fdd3 803f
00000220: ec87 75bf 0af5 1dbe 0198 b93e b0d9 813e
00000230: e404 5abf 44d9 4bbd 08e3 3d3e 0e54 493d
00000240: 9a36 48be 7bf2 1c3f 883a d03e 4fc0 2fbe
00000250: 15db 3ebd 171d ffbe 1281 1abf 516f 093f
00000260: 371d 3cbf c7de 78be c68d f63e 2038 e0be
00000270: d018 b6be a9ef ae3e c2ba b1be 3e52 24bf
00000280: c856 3bbe b345 ee3e 6710 a7bf 6901 5dbe
00000290: 9780 863f 46b0 36bf 3920 8e3f 4109 7dbe
000002a0: 8cdc 8cbf d136 b03f 7ab6 963f 5149 8ebf
000002b0: 1fbe 8f3d 895f 9e3e 973f 093f aa38 e43e
000002c0: b1d7 30bf ac06 373f 9493 a6bf 019f cbbf
000002d0: b781 07be 9aae 1ebe 142a 313e 6b25 ea3d
000002e0: de63 543e f637 3dbe 1334 a93d cce7 a23d
000002f0: 5b59 823c f67b 05bd 3b23 213e b872 e03d
00000300: d6f1 11be 9688 8c3d 6d1c 5bbe e3bb 21be
00000310: 4cc0 3d3d 79ed 12be 26fb 8e3d eb2d 85bd
00000320: 0e73 24bf 4a58 683d 1a9d 45bd 9418 9ebd
00000330: d637 6fbe c3d0 b73e 5737 6b3e ae53 35be
00000340: 5305 9bbd ace9 0cbe 1d2b e0be 5f94 db3d
00000350: e375 b3be 18d3 80be 6ad5 e63e 20a8 dfbd
00000360: 2e85 cebd c908 953e 7a56 9abe 8165 c0be
00000370: e4e4 ffbb 17e0 6a3b 8ca5 6a3d bd44 fc3c
00000380: 7b4e 863d 6989 b5bc 707f 633c bb93 6dbc
00000390: 29b4 28bd 6bd7 093d 984b 463d e9a9 783d
000003a0: 7f0a b3bd b7d6 1bbd 0ca7 6ebc e015 94bd
000003b0: a733 973c dfd5 5eb9 9d9d 07bd 35d2 ccbc
000003c0: 5c1e f4bb 2495 1fba 33be 683d 5e08 1c3d
000003d0: a987 5e3d 357f 93bc 9f95 513c 3fe1 2dbc
000003e0: 4cb8 39bd f388 fa3c ca66 533d 3f7d 543d
000003f0: e87e b3bd 9a86 1dbd 32bc 34bc 86c0 9cbd
0.8180891 -0.6727875 0.7315183 1.4755999 -1.7688545 -0.11819588 -0.813674 0.688413
-1.1944951 -0.04352272 1.1666127 -1.575645 -1.3451285 -1.3097069 0.9509403 -1.4599494
0.093673624 1.6663238 0.8811272 0.8649347 -1.4636072 1.2719007 0.9677454 0.42692992
0.67520905 1.7110293 -1.0062209 -0.99183005 -1.3604331 0.59706575 1.1846185 1.3407916
2.0947475 -0.19581892 -1.6450646 -1.3864063 1.0727547 -1.0911378 -1.0280058 1.0739763
-1.7322832 -1.2742401 -0.97109395 -0.51181287 -0.8369472 0.048163973 0.11585339 1.034401
0.8843048 -0.75301623 -1.0146968 -1.2320243 1.5097681 1.1230899 -0.1176718 1.0887719
0.38938552 -0.2964386 1.0233113 0.3466066 0.057980508 0.048675068 0.008577751 -0.022334106
0.020360027 0.016216245 -0.01348035 -0.036429543 0.017527845 0.0062220125 -0.027937198 0.053672027
-0.025985245 -0.0146251125 0.0012448789 0.005048018 -0.0024003934 -0.011995015 -0.02794261 -0.0009909584
0.70792586 -1.1841239 1.1189821 0.7348945 1.4188617 -1.26137 1.1212406 0.8022066
0.76600367 -0.69355315 0.6648553 1.3912157 -1.3335762 0.7281063 -1.557665 -0.59055173
-0.71527654 -1.0512663 0.9504284 -1.1417333 1.634775 0.99442434 0.11520923 -1.4926182
0.6558722 -1.2064035 -0.90428656 -0.93775797 1.2998675 0.93091 -1.6003034 0.9634361
-1.3697791 -1.1521982 1.2686334 1.6072586 1.3522888 -0.30195394 -0.24080643 1.2973332
1.4483683 0.44460192 -0.859576 -0.60759825 -0.93668544 0.6975959 -0.3377596 -0.02988736
0.88815224 -0.78628886 -0.94044775 -0.45472178 1.2562265 0.7667107 -0.042312898 1.0064694
-0.95910525 -0.15425506 0.36248782 0.25361395 -0.8516371 -0.049767748 0.18543637 0.049152426
-0.19552079 0.61307496 0.40669656 -0.17163204 -0.04659565 -0.4982688 -0.60353196 0.5368548
-0.7348208 -0.24303733 0.4815504 -0.4379282 -0.35565805 0.3416722 -0.34712797 -0.6418799
-0.18294823 0.4653755 -1.3051881 -0.21582569 1.0507993 -0.7136272 1.1103584 -0.24710561
-1.1004806 1.3766729 1.1774437 -1.1116124 0.070186846 0.30932263 0.53612655 0.4457448
-0.6907912 0.71494555 -1.3013787 -1.5907899 -0.13233076 -0.15496293 0.17301208 0.11432918
0.20741221 -0.18478379 0.082618855 0.07954368 0.015911749 -0.03258892 0.15736096 0.10959381
-0.1425241 0.06861989 -0.21397562 -0.1579433 0.046325967 -0.14348401 0.069814965 -0.06502899
-0.6423806 0.056724824 -0.048245527 -0.07719532 -0.23361143 0.3590146 0.22970329 -0.17707703
-0.07569375 -0.13761014 -0.43782893 0.10721659 -0.35050878 -0.25161052 0.45084697 -0.10920739
-0.10083996 0.29108265 -0.301441 -0.3757744 -0.0078092683 0.0035839134 0.057286784 0.030794496
0.06557938 -0.022160249 0.013885364 -0.014500554 -0.04118744 0.033652704 0.048411936 0.060708914
-0.08742236 -0.038046565 -0.014566194 -0.07230735 0.018457247 -0.00021251243 -0.033109296 -0.025002578
-0.007449908 -0.00060875923 0.056822013 0.038093917 0.054328594 -0.018004993 0.01279202 -0.010612785
-0.045341775 0.03058288 0.0516117 0.051877256 -0.0876444 -0.038458444 -0.011031197 -0.076539084

linear.bias f4 [14]
00000000: a666 623f d80a 953f ce3e 333f 1025 86bf
00000010: 6fc9 4a3f b6fe 9e3f cb8a 6d3e 6f44 a5be
00000020: f527 e03e 6ea0 79bf d289 17bf 7190 96bf
00000030: b4a2 94bf 2e89 96bf
0.8843788 1.1643934 0.7001771 -1.048006 0.79213613 1.2421482 0.23197477 -0.32278773
0.43780485 -0.9751042 -0.5919467 -1.176283 -1.1612153 -1.1760614
