trained_weights/unicorn/unicorn2.pth (torch, 16655 bytes, 8 tensors)

conv1.lin_l.weight f4 [32, 30]
0.014244201 0.020021787 0.029563075 -0.0069779106 -0.034141313 0.029613595 0.013665678 0.0026956466
0.035349853 0.010274347 -0.018976595 -0.02175876 -0.029402716 0.01347499 0.025232047 0.0038656723
-0.014206158 -0.018087681 0.015104643 -0.039241206 -0.037606426 -0.014468036 0.0049760663 0.017187433
-0.0031255763 0.012247693 0.007700112 0.0020474605 0.022570943 0.0011191451 0.046957042 0.08061096
-0.08218042 -0.0035960013 0.024506593 -0.06239656 -0.050069284 -0.012035829 -0.07633184 0.05862601
0.046740174 -0.05133315 0.060299784 -0.15727684 0.0021409846 -0.0748493 -0.10408646 0.021523278
-0.0052141813 -0.07837414 0.09979829 0.0420532 -0.054662146 -0.103740394 0.011487994 0.09938303
-0.104754396 0.08801839 -0.13236268 -0.01962499 -0.1636683 -0.10412924 0.07775065 0.020853736
0.08209086 0.02465298 -0.079393245 -0.14073634 0.13314512 0.07894466 -0.117153324 0.012539938
-0.019660879 -0.018630676 0.023559632 0.004475116 0.1343826 0.03544336 -0.1128581 0.032122064
-0.24664488 -0.016721059 -0.11949564 -0.032939132 -0.057285346 0.09017747 0.087181576 -0.23209155
0.19699715 -0.017150719 -0.1621793 -0.21837126 0.09369407 0.13075656 0.19937703 -0.018610526
-0.12867038 -0.053827606 0.26068756 0.019765189 -0.14623682 0.22201644 0.009731377 0.06693932
-0.04388377 -0.02977759 0.28943115 0.10136285 -0.20414828 0.17036046 -0.22315371 -0.09542975
-0.031102236 -0.13685843 -0.1520761 0.031222884 0.12672834 -0.31722233 0.06896305 0.11254677
0.022970254 0.052496526 -0.14231528 -0.021254646 0.0040955367 -0.057290122 -0.057456028 0.003887583
-0.10931006 0.08949914 0.023157295 -0.09222044 0.05181499 -0.18262613 0.028810311 -0.087166086
-0.09171294 0.01187455 0.03720068 -0.13840914 0.18047544 0.037469897 -0.051101033 -0.12158326
0.043757994 0.05936209 -0.12907314 0.051087793 -0.13794857 -0.040002905 -0.00795039 0.0638553
-0.08179159 -0.004164973 -0.007329333 -0.005220553 -0.058007672 -0.045024376 -0.12028416 0.071184985
0.048057772 -0.054304793 0.035958495 -0.13638544 0.011453232 -0.103759915 -0.0910871 0.006824838
0.03031394 -0.11277771 0.105844125 0.044750202 -0.054287493 -0.09964643 0.0540494 0.09524871
-0.0686288 0.065356165 -0.08005618 -0.07310267 -0.049055655 -0.119827524 0.0030850302 0.13647482
0.18012476 0.004342186 -0.057248797 0.009085396 0.17559646 -0.039333235 -0.12567753 0.17395778
-0.031162238 -0.073761396 -0.0737903 -0.06921006 0.21941264 0.19740255 -0.21066758 0.116530225
-0.10009673 -0.013440376 -0.028474422 -0.103033066 -0.14428328 0.10535055 -0.034998234 -0.21646217
0.057660624 0.07443356 -0.017238405 -0.1597293 0.09475095 0.06171848 0.080773994 -0.12913635
-0.22128984 0.052770946 0.2214868 0.22471312 -0.13125472 0.2091508 0.031248845 0.10696517
0.06933676 0.08972782 0.2825806 -0.012469049 -0.025911883 0.21257322 -0.20884617 -0.06469089
-0.1149347 0.02682448 -0.121544726 -0.1387353 0.045775246 -0.23420574 -0.09599288 0.13888316
-0.056043945 0.006451873 -0.15047927 0.0198697 0.01063296 0.08485121 0.010847033 -0.042391192
-0.109548524 0.04522033 -0.0037404685 -0.07319334 -0.04580721 -0.21118812 0.09898511 -0.13187091
00000000: 8260 693c bb04 a43c 432e f23c f5a6 e4bb
00000010: c3d7 0bbd 3698 f23c 02e6 5f3c 72a9 303b
00000020: 02cb 103d bc55 283c ce74 9bbc 6d3f b2bc
00000030: f7dd f0bc 34c6 5c3c 70b3 ce3c 3857 7d3b
00000040: f2c0 68bc 9e2c 94bc 7779 773c 63bb 20bd
00000050: 3209 1abd 570b 6dbc 450e a33b a9cc 8c3c
00000060: 78d6 4cbb 8caa 483c 3951 fc3b b02e 063b
00000070: b3e6 b83c 47b0 923a 0756 403d 5c17 a53d
00000080: 354e a8bd e4aa 6bbb 0dc2 c83c 8993 7fbd
00000090: 7315 4dbd ed31 45bc de53 9cbd d421 703d
000000a0: a072 3f3d b642 52bd e8fc 763d 2e0d 21be
000000b0: c34f 0c3b 974a 99bd 482b d5bd 9651 b03c
000000c0: b9db aabb 9f82 a0bd 0c63 cc3d fa3f 2c3d
000000d0: 6ae5 5fbd d875 d4bd 2438 3c3c 5489 cb3d
000000e0: 7989 d6bd fc42 b43d 158a 07be 96c4 a0bc
000000f0: aa98 27be b641 d5bd bc3b 9f3d 74d5 aa3c
00000100: 411f a83d 0cf5 c93c ed98 a2bd 301d 10be
00000110: 3257 083e bdad a13d 15ee efbd 5074 4d3c
00000120: da0f a1bc 5c9f 98bc 2100 c13c fea3 923b
00000130: 989b 093e 0f2d 113d 2622 e7bd 6d92 033d
00000140: 7a90 7cbe 9afa 88bc 21ba f4bd 2feb 06bd
00000150: 0aa4 6abd f7ae b83d 418c b23d 68a9 6dbe
00000160: 9fb9 493e aa7f 8cbc 5512 26be b79c 5fbe
00000170: ade2 bf3d 0ce5 053e 7e29 4c3e 1a75 98bc
00000180: 2bc2 03be 567a 5cbd d778 853e 9bea a13c
00000190: 1bbf 15be 4758 633e 5a70 1f3c 7b17 893d
000001a0: 78bf 33bd 22f0 f3bc 5230 943e 5397 cf3d
000001b0: 3f0c 51be f972 2e3e 6882 64be ac70 c3bd
000001c0: 1eca febc 9e24 0cbe d6b9 1bbe 22c7 ff3c
000001d0: 13c5 013e f76a a2be 803c 8d3d ec7e e63d
000001e0: 1d2c bc3c 9906 573d 19bb 11be 391e aebc
000001f0: da33 863b 0ca9 6abd 0357 6bbd d2c6 7e3b
00000200: f4dd dfbd 534b b73d 5eb4 bd3c 12de bcbd
00000210: f43b 543d 5802 3bbe 9a03 ec3c 2284 b2bd
00000220: fed3 bbbd 798d 423c bd5f 183d 20bb 0dbe
00000230: 8ece 383e 097a 193d 514f 51bd a500 f9bd
00000240: 953b 333d aa25 733d c02b 04be 6f41 513d
00000250: 6442 0dbe 16da 23bd 5a42 02bc 91c6 823d
00000260: 5982 a7bd 537a 88bb e72a f0bb 2c11 abbb
00000270: 7499 6dbd 7b6b 38bd 8b57 f6bd 6fc9 913d
00000280: 3ad8 443d b46e 5ebd 3749 133d a0a8 0bbe
00000290: 56a6 3b3c 1480 d4bd e08b babd e4a2 df3b
000002a0: f154 f83c 00f8 e6bd cec4 d83d fd4b 373d
000002b0: 905c 5ebd 6d13 ccbd e762 5d3d c111 c33d
000002c0: 428d 8cbd 74d9 853d 7ff4 a3bd dab6 95bd
000002d0: 95ee 48bd 2268 f5bd 382e 4a3b 0ec0 0b3e
000002e0: a072 383e e548 8e3b b77d 6abd eada 143c
000002f0: 8fcf 333e e31b 21bd 9cb1 00be fd21 323e
00000300: f347 ffbc 3710 97bd 5e1f 97bd 01be 8dbd
00000310: b5ad 603e e523 4a3e 3eb9 57be 66a7 ee3d
00000320: 84ff ccbd 0635 5cbc 3143 e9bc 0003 d3bd
00000330: ffbe 13be 07c2 d73d 4f5a 0fbd 42a8 5dbe
00000340: 8c2d 6c3d 9f70 983d 8e37 8dbc 1490 23be
00000350: c90c c23d 84cc 7c3d d66c a53d 523c 04be
00000360: ce99 62be 5926 583d 70cd 623e 321b 663e
00000370: a367 06be a12b 563e 94fd ff3c 8e10 db3d
00000380: 6e00 8e3d 38c3 b73d 68ae 903e fb4a 4cbc
00000390: 2845 d4bc cbac 593e c5db 55be a87c 84bd
000003a0: e262 ebbd 03bf db3c 71ec f8bd a010 0ebe
000003b0: d37e 3b3d a1d3 6fbe ea97 c4bd 6337 0e3e
000003c0: 568e 65bd 3c6a d33b 3d17 1abe c8c5 a23c
000003d0: de35 2e3c 79c6 ad3d c1b7 313c 63a2 2dbd
000003e0: fa5a e0bd f438 393d a622 75bb 64e6 95bd
000003f0: 57a0 3bbd b341 58be b5b8 ca3d 2b09 07be

conv1.lin_l.bias f4 [32]
-0.0675897 -0.10355147 -0.07960272 -0.08024295 -0.12175071 -0.0897041 -0.1531169 -0.1298569
-0.1079369 -0.073087834 -0.040303573 0.022730326 -0.10701615 -0.062541425 -0.14773849 -0.1403484
0.038488735 -0.087461144 0.039471142 -0.06363186 -0.10431189 -0.11344022 -0.07405418 -0.08289825
-0.060023665 0.017068425 0.045353647 0.031170003 0.0068314513 -0.093969226 -0.08380475 -0.09884128
00000000: 786c 8abd cb12 d4bd c006 a3bd 6a56 a4bd
00000010: 7058 f9bd c8b6 b7bd adca 1cbe 35f9 04be
00000020: 050e ddbd 13af 95bd 5c15 25bd f334 ba3c
00000030: 492b dbbd b815 80bd c248 17be 7eb7 0fbe
00000040: 5da6 1d3d d41e b3bd 7eac 213d 6c51 82bd
00000050: 79a1 d5bd 5953 e8bd b8a9 97bd 8fc6 a9bd
00000060: 60db 75bd 15d3 8b3c bfc4 393d 3c58 ff3c
00000070: 5eda df3b f072 c0bd d3a1 abbd 4c6d cabd

conv1.lin_r.weight f4 [32, 30]
-0.17731535 0.087332584 -0.2138436 -0.1615472 -0.13584849 -0.13259742 -0.035781287 -0.15231669
-0.1280294 0.07837173 0.0139180245 -0.1415279 0.026969368 -0.14066176 0.092749566 0.13271867
-0.070296735 -0.10894381 0.06533862 -0.14570016 -0.09267308 -0.02841597 -0.12985305 0.030854918
0.014010384 -0.12600316 0.09286544 -0.20511134 0.052345462 -0.05169449 0.19628091 -0.079330616
-0.21854924 -0.2033916 -0.0076298667 -0.0035699313 0.3065063 -0.21315204 0.12434197 -0.098118775
0.36697352 0.11482076 -0.008191961 0.24417375 -0.21383263 0.028015036 0.037656825 -0.12803888
-0.010595267 0.044260968 -0.07395097 -0.39721495 0.20248093 0.10046649 -0.46045804 -0.11976732
0.22230658 -0.20144212 0.010190865 -0.029637134 -0.03762367 -0.1333967 0.028567573 0.029488033
0.11215555 -0.0750128 -0.14359732 0.19795793 0.06038291 0.28731778 -0.37898844 -0.054415
0.04247545 -0.24243444 0.020776452 -0.14471133 0.10061775 -0.060672656 -0.035374146 0.051779784
0.2165465 0.14424264 -0.20715532 -0.23258893 -0.09156827 -0.010666197 -0.14836167 -0.41768584
-0.429306 0.20669565 0.023160072 -0.18761978 -0.09129473 0.04383326 0.024757976 -0.21399958
-0.29960528 0.30559924 0.14575195 0.25010785 -0.438169 -0.053140387 0.08165656 -0.206317
0.122684255 -0.073856845 0.14239617 -0.06556136 -0.04163827 0.03993376 0.16587608 0.22354561
-0.23697908 -0.2685047 -0.081954226 -0.10707635 -0.048125565 -0.50794244 -0.42423818 0.20042199
0.17856607 -0.09449528 -0.23919682 -0.17200512 -0.0075070206 -0.011148307 0.2854462 -0.1760189
0.10397442 -0.14219084 0.37478065 0.108424574 0.00093468884 0.2373171 -0.23961495 0.024654176
0.024674164 -0.10633366 -0.02048368 0.06070314 -0.029297035 -0.3579432 0.23369917 0.099468715
-0.43529564 -0.14434642 0.2744293 -0.20963489 0.0050243074 -0.04313968 0.18163341 -0.042996846
-0.17238219 -0.17555304 -0.0069777677 0.0074572037 0.2578872 -0.22590852 0.12640998 -0.093288206
0.3524614 0.11360136 -0.006338583 0.26772776 -0.22873762 0.016719254 0.024716865 -0.12697889
-0.014001133 0.01073369 -0.11172657 -0.360265 0.18131329 0.07063452 -0.42978403 -0.0907293
0.29402748 -0.17563163 0.03466025 -0.02047909 -0.022649849 0.019201977 -0.15611501 -0.15807037
-0.20620589 -0.17641889 -0.27892762 0.13717106 0.0036215354 0.42266247 -0.40037966 -0.2571914
-0.0398931 -0.227518 0.29031694 0.053772043 -0.14158484 -0.27316713 0.19254008 -0.18774718
0.032818057 0.11217499 -0.2316155 -0.08605463 -0.08075 -0.24282233 0.1512623 -0.42601025
-0.2640206 0.06126887 -0.12971324 -0.2525411 -0.11605144 0.14772858 0.06789207 -0.12857878
-0.29770127 0.22846863 0.11235949 0.26700675 -0.4724021 -0.02683334 0.03507454 -0.3202209
0.15639701 -0.1872786 0.22154735 -0.007182541 -0.04514742 0.066238955 0.18129337 0.17288508
-0.2558809 -0.310826 -0.14929521 -0.13897043 -0.1568937 -0.61192536 -0.40126532 0.23615035
0.15260845 -0.061406683 -0.18886141 -0.16429535 -0.0481935 -0.035654426 0.21501806 -0.2937753
0.10550629 -0.057393663 0.3563348 0.12750721 0.020041304 0.22894476 -0.16572064 0.042551663
00000000: 2892 35be 6ddb b23d d1f9 5abe a16c 25be
00000010: de1b 0bbe 9ec7 07be 668f 12bd e8f8 1bbe
00000020: 241a 03be 5c81 a03d 6d08 643c b1ec 10be
00000030: ddee dc3c a309 10be 7cf3 bd3d 67e7 073e
00000040: bcf7 8fbd ef1d dfbd 41d0 853d 6c32 15be
00000050: 62cb bdbd 9cc8 e8bc 33f8 04be 74c3 fc3c
00000060: cf8b 653c f906 01be 3c30 be3d b508 52be
00000070: 3268 563d 9abd 53bd ddfd 483e 1778 a2bd
00000080: 5fcb 5fbe e345 50be f603 fabb 82f5 69bb
00000090: 65ee 9c3e 8744 5abe 01a7 fe3d 7ff2 c8bd
000000a0: f4e3 bb3e 2627 eb3d 9337 06bc af08 7a3e
000000b0: f1f6 5abe ca7f e53c 0b3e 1a3d a01c 03be
000000c0: c597 2dbc fd4a 353d 9b73 97bd c25f cbbe
000000d0: 2957 4f3e 60c1 cd3d 28c1 ebbe 9248 f5bd
000000e0: 56a4 633e d846 4ebe 96f7 263c 93c9 f2bc
000000f0: 471b 1abd 2599 08be 8b06 ea3c e390 f13c
00000100: cfb1 e53d 50a0 99bd 2d0b 13be 7cb5 4a3e
00000110: 1254 773d 511b 933e c60a c2be 43e2 5ebd
00000120: bdfa 2d3d bc40 78be 6133 aa3c 352f 14be
00000130: ae10 ce3d e483 78bd 7be4 10bd 0a17 543d
00000140: 5ebe 5d3e 58b4 133e 8620 54be cb2b 6ebe
00000150: 2588 bbbd 46c1 2ebc 1fec 17be ebda d5be
00000160: ffcd dbbe 06a8 533e 31ba bd3c 661f 40be
00000170: bbf8 babd 818a 333d 3dd1 ca3c b522 5bbe
00000180: dd65 99be 8177 9c3e 0040 153e 230e 803e
00000190: b057 e0be bca9 59bd 8e3b a73d c344 53be
000001a0: e241 fb3d 4242 97bd 4dd0 113e 0945 86bd
000001b0: e48c 2abd 9591 233d 6bdb 293e 24e9 643e
000001c0: a5aa 72be 7379 89be 9ed7 a7bd d84a dbbd
000001d0: 501f 45bd 8408 02bf bf35 d9be 6c3b 4d3e
000001e0: 06da 363e be86 c1bd 03f0 74be 1c22 30be
000001f0: 74fd f5bb 63a7 36bc 0126 923e 4c3e 34be
00000200: 8af0 d43d 7a9a 11be 40e3 bf3e b40d de3d
00000210: e805 753a 4103 733e 9f5d 75be 8ef7 c93c
00000220: 7921 ca3c 76c5 d9bd 64cd a7bc dba3 783d
00000230: 5600 f0bc 5544 b7be d64e 6f3e 41b6 cb3d
00000240: 12df debe 8ccf 13be ff81 8c3e 87aa 56be
00000250: f2a2 a43b 3cb3 30bd 1cfe 393e 761d 30bd
00000260: f584 30be 2dc4 33be c2a5 e4bb 8f5b f43b
00000270: cb09 843e 9054 67be 9e71 013e e30d bfbd
00000280: d275 b43e d4a7 e83d e3b3 cfbb 9d13 893e
00000290: 323a 6abe d1f6 883c 067b ca3c c106 02be
000002a0: 0265 65bc 5cdc 2f3c e6d0 e4bd a774 b8be
000002b0: 31aa 393e d5a8 903d a70c dcbe 49d0 b9bd
000002c0: c58a 963e c7d8 33be e8f7 0d3d c4c3 a7bc
000002d0: 2d8c b9bc 774d 9d3c 9ddc 1fbe 33dd 21be
000002e0: a327 53be 27a7 34be 9acf 8ebe 9276 0c3e
000002f0: 4857 6d3b 3767 d83e 90fe ccbe 97ae 83be
00000300: f266 23bd 7bfa 68be 6ca4 943e 1340 5c3d
00000310: 9efb 10be 90dc 8bbe 3a29 453e cc40 40be
00000320: 3a6c 063d 00bc e53d 9d2c 6dbe 693d b0bd
00000330: 4260 a5bd 6ba6 78be 81e4 1a3e 041e dabe
00000340: b52d 87be 11f5 7a3d 8cd3 04be 114d 81be
00000350: 61ac edbd 2946 173e ff0a 8b3d 28aa 03be
00000360: 4d6c 98be aef3 693e bb1c e63d 1cb5 883e
00000370: b0de f1be 98d1 dbbc 52aa 0f3d fef3 a3be
00000380: 8a26 203e f6c5 3fbe 4fdd 623e 855b ebbb
00000390: 80ec 38bd 4aa8 873d f8a4 393e c908 313e
000003a0: d202 83be 9624 9fbe d8e0 18be 444e 0ebe
000003b0: bea8 20be 24a7 1cbf a672 cdbe 66d1 713e
000003c0: 6445 1c3e 9385 7bbd e364 41be 0a3d 28be
000003d0: 8c66 45bd 600a 12bd b22d 5c3e b769 96be
000003e0: af13 d83d 9e15 6bbd 8471 b63e 4091 023e
000003f0: a92d a43c 7f70 6a3e acb2 29be a74a 2e3d

conv2.lin_l.weight f4 [20, 32]
0.19374111 0.036488805 -0.069688275 0.016411565 0.0094907535 0.026068568 0.0013358901 0.07593671
0.025109082 -0.060292464 -0.019712968 -0.10559363 0.0623321 -0.31119016 -0.05556072 -0.41263998
-0.13233311 -0.099656075 -0.100331225 0.07345929 0.015569132 -0.031955622 -0.091324896 -0.10139893
-0.1286015 -0.03501412 -0.07945928 -0.13126309 -0.00133761 0.37391952 0.06925902 0.013213847
0.0902612 -0.02451536 0.07030958 -0.0036466897 0.0141883725 0.02133939 0.0027654418 0.058806922
0.015799975 -0.026268827 0.015181217 -0.03560856 0.00825993 -0.12110612 0.0024371827 -0.19550204
-0.019207118 0.06220621 0.0017220182 0.10275114 0.060221206 -0.025481597 0.059482634 0.09959633
0.07180162 0.028213048 -0.0006694044 -0.008787113 0.03561656 0.238064 0.01176248 0.03121633
-0.06514555 0.05556812 0.04405455 -0.03553652 0.050766677 0.05397753 -0.11199476 0.045078903
0.09633781 -0.028254889 0.026776543 -0.07513474 -0.002968261 -0.09429716 -0.08175754 -0.12931155
-0.020068062 0.06350481 -0.008354878 0.07369562 0.0585105 0.02137645 0.047609925 0.05039561
0.07043106 0.016914852 -0.058669142 -0.039727353 0.016099758 0.0002710289 -0.041668832 0.05980271
-0.089701526 0.047297068 0.053524926 0.002759776 0.02366074 0.042884093 -0.054828443 0.008416089
0.08298686 0.076396935 0.04138873 -0.049357753 0.021397319 -0.08693019 -0.027031327 -0.0651117
0.00013554981 0.022602754 0.020143272 -0.017104838 0.008498508 -0.21175392 0.021853203 -0.018926878
0.0018145471 0.026510844 -0.033793867 -0.011910512 0.013649325 -0.22302617 0.008193762 0.045469057
-0.08252422 -0.06709504 0.04490649 0.034337208 -0.020481665 -0.046041254 0.11698007 -0.015874293
-0.041343063 -0.050146095 -0.036598947 -0.07911289 -0.004453785 -0.028578348 0.0937525 -0.07583874
-0.09445545 0.03128389 -0.096359104 0.04209353 0.008798036 0.07536752 0.024524806 0.02507992
0.00520769 -0.07250212 -0.06931191 -0.11204572 -0.051386222 0.0037324075 -0.029030764 -0.011731762
0.03227213 0.0023631018 0.08813928 -0.058936723 0.02132813 0.028841365 -0.10467923 -0.012292575
0.057707928 0.017500965 0.04814822 -0.010261819 -0.03090065 0.0037152912 -0.06146807 0.007246199
0.06712913 0.1142341 0.06902556 -0.0040285396 0.04304244 -0.13150533 0.10448476 0.113334745
0.13159256 0.06436147 0.00052562734 0.062997386 0.02683552 -0.07702816 -0.015695572 0.028119855
-0.07148078 -0.058538474 -0.030177532 0.0411874 -0.05806105 -0.0737394 0.12041711 -0.07309248
-0.07983581 0.012298367 -0.0061134025 0.0030487082 0.0010249405 -0.007673935 0.07718771 0.024850285
-0.0030792255 -0.08917917 -0.010680478 -0.09009588 -0.08573762 -0.09608625 -0.06473813 -0.07832243
-0.09414061 -0.035805684 -0.0009047347 -0.031019943 -0.005577621 -0.23217858 0.005379293 -0.062050443
-0.04663699 0.027125705 -0.054820087 0.005914922 -0.0085526565 -0.012952851 -0.0014076583 -0.046530537
-0.0038035214 0.030209728 -0.0069405567 0.029682953 0.0013635866 0.083483696 -0.0043419804 0.14551091
0.014731966 -0.05127748 0.004248201 -0.090205394 -0.0466415 -0.015580715 -0.048473578 -0.087086156
-0.069790885 -0.020456955 0.0027183713 0.01473948 -0.032260824 -0.17929915 0.0025990936 -0.022433266
00000000: 1264 463e 4975 153d bab8 8ebd 8c71 863c
00000010: 1b7f 1b3c c08d d53c 0919 af3a b584 9b3d
00000020: 90b1 cd3c 3bf5 76bd 177d a1bc 7941 d8bd
00000030: f24f 7f3d 5154 9fbe a393 63bd 8c45 d3be
00000040: 5582 07be 7c18 ccbd 757a cdbd d371 963d
00000050: ac15 7f3c e6e3 02bd 8c08 bbbd 3eaa cfbd
00000060: 1db0 03be f76a 0fbd 8cbb a2bd d569 06be
00000070: be52 afba 6172 bf3e acd7 8d3d e47e 583c
00000080: ddda b83d 70d4 c8bc 78fe 8f3d 4dfd 6ebb
00000090: 5976 683c f2cf ae3c 6a3c 353b 87df 703d
000000a0: f36e 813c b931 d7bc a4ba 783c 48da 11bd
000000b0: a854 073c 7c06 f8bd 24b9 1f3b b031 48be
000000c0: 3f58 9dbc f0cb 7e3d 58b5 e13a 316f d23d
000000d0: 83aa 763d c8be d0bc 10a4 733d 29f9 cb3d
000000e0: ba0c 933d 0d1f e73c f87a 2fba d3f7 0fbc
000000f0: ace2 113d 0dc7 733e 6bb7 403c 64b9 ff3c
00000100: 086b 85bd 669b 633d 8b72 343d be8e 11bd
00000110: b8f0 4f3d 8b17 5d3d 825d e5bd a8a4 383d
00000120: c24c c53d cc76 e7bc 7b5a db3c 3ee0 99bd
00000130: 2887 42bb df1e c1bd 7f70 a7bd 3f6a 04be
00000140: c765 a4bc cf0e 823d e6e2 08bc bbed 963d
00000150: b5a8 6f3d aa1d af3c a002 433d a16b 4e3d
00000160: 293e 903d 0491 8a3c 0e4f 70bd 26b9 22bd
00000170: a4e3 833c e218 8e39 f0ac 2abd b0f3 743d
00000180: 6fb5 b7bd 92ba 413d f43c 5b3d 5cdd 343b
00000190: 2bd4 c13c 3ba7 2f3d ca93 60bd a3e3 093c
000001a0: 04f5 a93d ff75 9c3d 3b87 293d 5b2b 4abd
000001b0: 6e49 af3c 7508 b2bd cd70 ddbc 4859 85bd
000001c0: 6022 0e39 6929 b93c 8103 a53c 721f 8cbc
000001d0: 533d 0b3c 05d6 58be 7d05 b33c 8a0c 9bbc
000001e0: 19d6 ed3a 452d d93c 706b 0abd 4f24 43bc
000001f0: 6ba1 5f3c f960 64be 213f 063c c33d 3a3d
00000200: 7502 a9bd 2069 89bd deef 373d 2ca5 0c3d
00000210: 2ac9 a7bc c195 3cbd 3f93 ef3d ce0a 82bc
00000220: 5857 29bd fe65 4dbd c7e8 15bd f005 a2bd
00000230: 0ef1 91bb 241d eabc 5001 c03d 5751 9bbd
00000240: dc71 c1bd 8923 003d ec57 c5bd 446a 2c3d
00000250: a325 103c 495a 9a3d 3fe8 c83c 6874 cd3c
00000260: 45a5 aa3b fe7b 94bd 67f3 8dbd 3a78 e5bd
00000270: 5c7a 52bd 689b 743b edd1 edbc 9436 40bc
00000280: c82f 043d 45de 1a3b 5e82 b43d a267 71bd
00000290: 55b8 ae3c ba44 ec3c 1062 d6bd cc66 49bc
000002a0: 265f 6c3d 2f5e 8f3c 1137 453d 3021 28bc
000002b0: 5c23 fdbc 3e7c 733b f1c5 7bbd 8671 ed3b
000002c0: ff7a 893d 91f3 e93d 465d 8d3d d701 84bb
000002d0: 454d 303d 55a9 06be 1bfc d53d 0c1c e83d
000002e0: 33c0 063e f2cf 833d 41ca 093a c604 813d
000002f0: 2ad6 db3c f1c0 9dbd 0094 80bc 9c5b e63c
00000300: 8464 92bd 0ac6 6fbd df36 f7bc 1fb4 283d
00000310: 6cd1 6dbd af04 97bd 3f9d f63d 83b1 95bd
00000320: f580 a3bd 177f 493c f052 c8bb d6cc 473b
00000330: 4c57 863a a275 fbbb 9714 9e3d d392 cb3c
00000340: d5cc 49bb 92a3 b6bd 2cfd 2ebc 3084 b8bd
00000350: 3597 afbd dec8 c4bd 6d95 84bd 8367 a0bd
00000360: cbcc c0bd fba8 12bd b82b 6dba 891d febc
00000370: 7ac4 b6bb 39c0 6dbe c844 b03b 9b28 7ebd
00000380: 6e06 3fbd ba36 de3c 078b 60bd f6d1 c13b
00000390: 7120 0cbc 3238 54bc 2d81 b8ba ce96 3ebd
000003a0: 8044 79bb 647a f73c 9c6d e3bb aa29 f33c
000003b0: 60ba b23a 80f9 aa3d 2c47 8ebb d000 153e
000003c0: 585e 713c 5608 52bd 7e34 8b3b 9bbd b8bd
000003d0: 280b 3fbd 4146 7fbc 3b8c 46bd 3a5a b2bd
000003e0: 86ee 8ebd 5895 a7bc b426 323b dc7d 713c
000003f0: ed23 04bd 329a 37be 8e55 2a3b f8c5 b7bc

conv2.lin_l.bias f4 [20]
-0.0060593425 -0.019881131 0.017417463 0.009392936 0.022131382 -0.023365036 0.011518377 0.010131422
0.012579268 -0.009407954 0.013072111 0.013112394 -0.0115341805 0.012354555 -0.025199391 -0.007686477
0.0046360423 -0.022355132 0.012205349 -0.007539101
00000000: 738d c6bb c1dd a2bc 11af 8e3c d4e4 193c
00000010: df4c b53c 0868 bfbc 93b7 3c3c 44fe 253c
00000020: 4619 4e3c d223 1abc 682c 563c 5ed5 563c
00000030: dcf9 3cbc c26a 4a3c f46e cebc d8de fbbb
00000040: f1e9 973b 1c22 b7bc f2f8 473c 900a f7bb

conv2.lin_r.weight f4 [20, 32]
-0.0011584957 0.13437383 0.240899 0.2440637 0.15091349 0.10897765 0.14032024 0.35074478
0.11434014 0.24271686 -0.47579548 -0.28895113 0.27027625 -0.32329 0.05371521 -0.5168014
-0.30812722 -0.036920562 -0.2694338 0.3332312 0.13924369 0.9554917 -0.024424003 -0.03503542
-0.058997806 -0.18907973 -0.26417857 -0.27605247 -0.26925007 -0.016469 0.274761 0.08203915
-0.057539184 -0.10247136 0.15630722 0.19909006 -0.08736548 -0.1143135 0.10144806 0.24406992
-0.07385522 0.20976973 0.0204928 0.19731274 0.20981334 -0.2130064 0.091820836 -0.32536125
0.20158984 0.10288255 0.20054343 0.27691048 -0.12885363 0.24463998 0.09659492 0.09364372
0.08858646 0.21397096 0.21935484 0.21012767 0.24905393 -0.119128674 0.21621306 -0.09406247
0.094645925 0.068386756 -0.0667909 -0.035066675 0.07498245 0.06277102 0.030161288 -0.02123494
0.050246757 -0.038152765 -0.012841313 0.15695514 -0.0067655784 -0.24694626 -0.018028475 -0.2900315
0.15024255 -0.29998305 0.15452877 -0.039729714 0.0650793 -0.5022752 -0.30564302 -0.30951124
-0.31181866 0.06316461 0.12752675 0.16432351 0.13704991 0.034672022 -0.04226229 0.07428902
0.03784021 0.2009613 -0.19519627 -0.29603592 0.20319906 0.20788714 -0.1470365 -0.22898604
0.18203689 -0.26352438 -0.057397224 0.11266485 -0.29026392 -0.1622032 -0.11360334 -0.09762259
0.11300162 -0.056222968 0.11485849 -0.32660577 0.22626436 -0.1436643 -0.06393929 -0.06596146
-0.06780449 -0.0017142438 0.02577287 0.10674902 0.027092587 0.093176745 -0.29128593 0.20430623
0.12322281 -0.29912338 -0.026067585 0.09562185 -0.29575834 -0.30565825 0.097472586 -0.010488087
-0.27228725 0.08120634 -0.10206094 0.0627275 0.0984397 -0.21805032 0.00927585 -0.255071
0.066003636 0.16596293 0.04099779 0.062212214 -0.3122884 -0.6890542 0.15728168 0.15981507
0.12557738 0.078344055 0.0968745 0.07477888 0.10388232 0.07924527 0.044770774 -0.27421153
-0.06329135 -0.038847562 -0.063300565 -0.15982747 -0.03459667 -0.021064565 -0.11921229 -0.09288993
-0.014410462 -0.15016678 0.32676935 0.36619642 -0.17805804 0.024903145 -0.033313546 0.08980653
0.36893746 -0.119061664 0.37337348 -0.11067209 -0.018427897 0.6283531 -0.13107985 -0.12913877
-0.113318175 0.26217103 0.31583828 0.35373014 0.34895894 -0.030537125 -0.12453553 -0.0037696734
0.038412027 -0.11513589 -0.1046592 -0.124723285 -0.13109581 -0.10114432 -0.06038867 -0.20552063
-0.111552484 -0.12546933 0.18700969 -0.1632958 -0.17035791 -0.010026947 -0.10166368 0.0750577
-0.15684423 0.21929893 -0.1743765 -0.22394945 -0.08779038 -0.1007431 0.21742383 0.2255154
0.22132143 -0.13499549 -0.17826486 -0.1729922 -0.1849514 0.12467675 -0.18186596 -0.10140178
0.017839924 0.10440397 -0.116442114 -0.17886838 0.092321225 0.11788827 -0.09960338 -0.19156598
0.08014832 -0.18416727 -0.1360932 -0.14850765 -0.19190587 0.17637585 -0.08275562 0.272481
-0.14679584 -0.056079615 -0.14476174 -0.23530062 0.1282753 0.0033720802 -0.051459566 -0.049802452
-0.045179456 -0.16375762 -0.1738462 -0.15752639 -0.19715822 0.08996227 -0.18598028 0.09696242
00000000: aad8 97ba 4b99 093e 3aae 763e d6eb 793e
00000010: 1189 1a3e ad2f df3d 1cb0 0f3e d294 b33e
00000020: 2a2b ea3d c58a 783e 779b f3be 67f1 93be
00000030: a661 8a3e 4486 a5be 7b04 5c3d 194d 04bf
00000040: dac2 9dbe 043a 17bd 3af3 89be 489d aa3e
00000050: e695 0e3e 1b9b 743f d914 c8bc 4d81 0fbd
00000060: afa7 71bd 1e9e 41be 6a42 87be c056 8dbe
00000070: 25db 89be ffe9 86bc 79ad 8c3e 2404 a83d
00000080: 35ae 6bbd 81dc d1bd 000f 203e 44de 4b3e
00000090: acec b2bd 321d eabd 00c4 cf3d 77ed 793e
000000a0: 6841 97bd e0cd 563e 84e0 a73c 5a0c 4a3e
000000b0: 4fd9 563e 5a1e 5abe 900c bc3d c095 a6be
000000c0: 916d 4e3e 16b4 d23d 425b 4d3e 36c7 8d3e
000000d0: 35f2 03be e782 7a3e 8fd3 c53d 47c8 bf3d
000000e0: d16c b53d 341b 5b3e 8e9e 603e b52b 573e
000000f0: fe07 7f3e bcf9 f3bd f566 5d3e d3a3 c0bd
00000100: b9d5 c13d 5b0e 8c3d abc9 88bd 13a2 0fbd
00000110: 6690 993d 188e 803d ce14 f73c e6f4 adbc
00000120: 8bcf 4d3d 1346 1cbd 5f64 52bc d9b8 203e
00000130: c9b1 ddbb 7bdf 7cbe 74b0 93bc 027f 94be
00000140: 2fd9 193e 6197 99be ca3c 1e3e a0bb 22bd
00000150: 4c48 853d 1c95 00bf 3e7d 9cbe 4278 9ebe
00000160: b2a6 9fbe 725c 813d 5f96 023e 6c44 283e
00000170: d056 0c3e 4004 0e3d 391b 2dbd d724 983d
00000180: 56fe 1a3d cdc8 4d3e 88e1 47be 0592 97be
00000190: 6a13 503e 5ee0 543e bc90 16be 517b 6abe
000001a0: e167 3a3e abec 86be 5a19 6bbd d4bc e63d
000001b0: 799d 94be 9818 26be dea8 e8bd 5aee c7bd
000001c0: 656d e73d 0e4a 66bd ee3a eb3d df38 a7be
000001d0: d8b1 673e bc1c 13be 9af2 82bd cd16 87bd
000001e0: 15dd 8abd 7ab0 e0ba a021 d33c 3b9f da3d
000001f0: 46f1 dd3c 73d3 be3d 6e23 95be a735 513e
00000200: 3e5c fc3d b326 99be b08b d5bc 63d5 c33d
00000210: a36d 97be 3d7f 9cbe b59f c73d 3ad6 2bbc
00000220: 3c69 8bbe 824f a63d 5305 d1bd 4777 803d
00000230: c19a c93d 9548 5fbe bcf9 173c ab98 82be
00000240: ea2c 873d 30f2 293e 4ced 273d 3cd2 7e3d
00000250: 44e4 9fbe db65 30bf 730e 213e 90a6 233e
00000260: 5b97 003e d972 a03d 2366 c63d ab25 993d
00000270: 41c0 d43d 584b a23d 8f61 373d 7465 8cbe
00000280: e59e 81bd 9f1e 1fbd baa3 81bd d0a9 23be
00000290: 3db5 0dbd 988f acbc 9325 f4bd 133d bebd
000002a0: dc19 6cbc 52c5 19be 504e a73e 197e bb3e
000002b0: d954 36be ae01 cc3c c973 08bd 7cec b73d
000002c0: 5fe5 bc3e 9ad6 f3bd cf2a bf3e 0ca8 e2bd
000002d0: 1af6 96bc c0db 203f cc39 06be f43c 04be
000002e0: 5c13 e8bd 483b 863e 8eb5 a13e 1e1c b53e
000002f0: bfaa b23e fe28 fabc 7c0c ffbd a00c 77bb
00000300: ee55 1d3d 5ecc ebbd 9057 d6bd ec6e ffbd
00000310: fb3d 06be c124 cfbd 1c5a 77bd 0074 52be
00000320: a175 e4bd 087b 00be 787f 3f3e 0437 27be
00000330: 4e72 2ebe 1048 24bc 0c35 d0bd dab7 993d
00000340: c69b 20be e68f 603e c18f 32be 0153 65be
00000350: 71cb b3bd 6652 cebd 5aa4 5e3e 82ed 663e
00000360: 16a2 623e 423c 0abe 108b 36be de24 31be
00000370: e663 3dbe 8656 ff3d 123b 3abe bdab cfbd
00000380: 0825 923c c0d1 d53d 3479 eebd 4629 37be
00000390: e912 bd3d 686f f13d dbfc cbbd df29 44be
000003a0: cd24 a43d 5896 3cbe 045c 0bbe 6412 18be
000003b0: f982 44be df9b 343e c77b a9bd a182 8b3e
000003c0: a651 16be bdb3 65bd 6c3c 14be a5f2 70be
000003d0: 9a5a 033e 1efe 5c3b 44c7 52bd a8fd 4bbd
000003e0: 180e 39bd 14b0 27be bd04 32be 994e 21be
000003f0: d8e3 49be 233e b83d 9d71 3ebe 3c94 c63d

linear.weight f4 [14, 20]
0.8493685 -0.6491293 0.7186732 1.4629967 -1.7749825 -0.109148435 -0.83159024 0.6748985
-1.1867725 -0.028584527 1.1486909 -1.5793098 -1.3452824 -1.3195918 0.9659046 -1.4409206
0.085690096 1.6733252 0.8757207 0.87442833 -1.4746131 1.2870464 0.9730854 0.41917518
0.6570742 1.7227218 -1.0236994 -0.99933547 -1.3636851 0.60397065 1.1813176 1.3356421
2.116125 -0.20936486 -1.6470593 -1.3863332 1.0887585 -1.1000942 -1.031354 1.1118582
-1.7247555 -1.2391897 -0.89630604 -0.41150013 -0.76372707 0.0022292074 0.17847595 0.9917571
0.7783231 -0.6881924 -0.91956174 -1.1588039 1.4422436 1.062234 -0.18101689 0.99081963
0.428486 -0.24366318 0.9640644 0.28424278 0.032264933 0.03623794 -0.014565819 -0.055704463
-0.00012020138 -0.002301604 -0.031205624 -0.029594209 0.061031695 0.0052676457 -0.0667327 0.023589656
0.0006975688 -0.010236251 0.032987785 0.067924574 0.02535586 -0.02041171 -0.0037667758 0.04170861
0.7182136 -1.2162211 1.1560987 0.75762963 1.4566025 -1.3085381 1.1538415 0.82859194
0.8278331 -0.7201893 0.6844929 1.4179996 -1.3625042 0.7592427 -1.6039715 -0.60164905
-0.73155534 -1.0974318 0.98725104 -1.1730158 1.7208395 1.0570914 0.007331366 -1.5692319
0.55848825 -1.1814753 -0.97551125 -0.9607584 1.3925816 0.8821447 -1.6821063 0.8869571
-1.2837414 -1.1079257 1.3149987 1.71039 1.3081136 -0.31757364 -0.1848017 1.3574967
1.3784503 0.3523971 -0.8827435 -0.61436504 -0.95934904 0.70698047 -0.30419457 0.037337255
0.9053732 -0.8119491 -0.95581585 -0.49901435 1.2834936 0.799182 -0.08322878 1.0227896
-0.94976676 -0.18510167 0.40691465 0.26442754 -0.9222216 -0.08772019 0.18673825 0.05290508
-0.24483347 0.6676986 0.4541236 -0.19296892 -0.044777654 -0.54767483 -0.6640979 0.5693253
-0.7842915 -0.27689138 0.5401011 -0.48709172 -0.39148864 0.38886648 -0.38953963 -0.69274044
-0.2044548 0.475547 -1.329646 -0.23253149 1.0448447 -0.7002434 1.1145099 -0.24861711
-1.1145576 1.3892586 1.1866833 -1.149751 0.11743466 0.33045223 0.5424221 0.47517616
-0.6960923 0.72836435 -1.3110919 -1.5946335 -0.0040308945 -0.05653467 0.105193265 0.04749296
0.12581748 -0.1007922 0.049900617 0.025064904 0.037798718 -0.0023102388 0.057904676 0.11470052
-0.12309624 0.0045246105 -0.07760873 -0.062138405 0.011107429 -0.0723863 0.031915694 -0.043383274
-0.5612825 0.060486365 -0.0421512 -0.08234992 -0.16616575 0.30027652 0.19912414 -0.145577
-0.03851823 -0.10124152 -0.35845983 0.08709986 -0.2400544 -0.1755655 0.33484486 -0.039751653
-0.102209166 0.19797243 -0.24794891 -0.33089015 -0.045799755 -0.0146088 0.038246293 0.0061821775
0.048072983 -0.03837822 0.00026934384 -0.006286406 -0.009280629 0.031474717 0.015219986 0.032859564
-0.056553546 -0.031701386 0.004435472 -0.024009945 0.0432547 -0.0068156365 -0.011239207 0.010805602
-0.044281173 -0.01695901 0.037109382 0.0076451753 0.040191356 -0.036730476 -0.0031073582 -0.004368563
-0.0102206515 0.03021733 0.013040762 0.027210118 -0.058089107 -0.033574928 0.008995877 -0.024088087
00000000: 3770 593f 562d 26bf f8fa 373f 7a43 bb3f
00000010: a032 e3bf 3789 dfbd 19e3 54bf 26c6 2c3f
00000020: 29e8 97bf 192a eabc 4e08 933f d326 cabf
00000030: 3732 acbf 62e8 a8bf 8645 773f 1670 b8bf
00000040: 4a7e af3d 852f d63f 3b2f 603f 89da 5f3f
00000050: 1fc0 bcbf f0bd a43f 201c 793f 219e d63e
00000060: 0436 283f 2682 dc3f 9508 83bf 73d4 7fbf
00000070: 3c8d aebf d29d 1a3f 6a35 973f 52f6 aa3f
00000080: 986e 0740 be63 56be d7d2 d2bf 5e73 b1bf
00000090: 705c 8b3f e3cf 8cbf 6803 84bf 5f51 8e3f
000000a0: cac4 dcbf c59d 9ebf 5074 65bf 25b0 d2be
000000b0: 9e83 43bf e517 123b 66c2 363e cbe3 7d3f
000000c0: 2f40 473f 612d 30bf 6668 6bbf b053 94bf
000000d0: 709b b83f 49f7 873f 7e5c 39be 5ba6 7d3f
000000e0: 8462 db3e d782 79be edcc 763f 4588 913e
000000f0: 3c28 043d 3c6e 143d 79a5 6ebc 5d2a 64bd
00000100: a014 fcb8 82d6 16bb f0a2 ffbc 8e6f f2bc
00000110: 5ffc 793d 379c ac3b 27ab 88bd 183f c13c
00000120: 0ddd 363a f3b5 27bc 331e 073d 0a1c 8b3d
00000130: 18b7 cf3c 7536 a7bc 03dc 76bb a6d6 2a3d
00000140: d9dc 373f 22ad 9bbf 0bfb 933f 04f4 413f
00000150: f371 ba3f 2d7e a7bf 14b1 933f 9a1e 543f
00000160: dfec 533f 535e 38bf ed3a 2f3f 0381 b53f
00000170: 8a66 aebf bb5d 423f f04e cdbf ac05 1abf
00000180: 3647 3bbf a578 8cbf 7cbc 7c3f 6225 96bf
00000190: 7844 dc3f c54e 873f f53b f03b 97dc c8bf
000001a0: 16f9 0e3f 953a 97bf 1bbb 79bf 43f4 75bf
000001b0: 1d40 b23f 3cd4 613f 424f d7bf 9f0f 633f
000001c0: a351 a4bf 82d0 8dbf e151 a83f 0fee da3f
000001d0: 4470 a73f 0399 a2be a83c 3dbe 74c2 ad3f
000001e0: 0f71 b03f 656d b43e 7afb 61bf 0747 1dbf
000001f0: e697 75bf acfc 343f 64bf 9bbe f3ee 183d
00000200: 8ac6 673f e5db 4fbf 59b0 74bf cf7e ffbe
00000210: 8549 a43f 3197 4c3f da73 aabd c5ea 823f
00000220: ea23 73bf 4b8b 3dbe 1e57 d03e 0c63 873e
00000230: b716 6cbf a5a6 b3bd 5038 3f3e ffb2 583d
00000240: a0b5 7abe 4cee 2a3f e382 e83e a599 45be
00000250: c668 37bd 6b34 0cbf 5202 2abf 4ebf 113f
00000260: 54c7 48bf b5c4 8dbe 1144 0a3f 1664 f9be
00000270: 3371 c8be 8219 c73e bd71 c7be 7057 31bf
00000280: 995c 51be e57a f33e d731 aabf bc1c 6ebe
00000290: 79bd 853f 2743 33bf 43a8 8e3f 7c95 7ebe
000002a0: d3a9 8ebf 3ad3 b13f 3de5 973f 0a2b 93bf
000002b0: 9581 f03d 0931 a93e 2ddc 0a3f 4a4a f33e
000002c0: 1b33 32bf 1676 3a3f dcd1 a7bf f31c ccbf
000002d0: 9815 84bb e690 67bd 916f d73d fa87 423d
000002e0: 4cd6 003e 246c cebd 9764 4c3d ea54 cd3c
000002f0: d4d2 1a3d 6067 17bb 742d 6d3d 1be8 ea3d
00000300: e219 fcbd 2f43 943b 53f1 9ebd d784 7ebd
00000310: effb 353c 453f 94bd 08ba 023d a9b2 31bd
00000320: 36b0 0fbf 8dc0 773d bda6 2cbd 13a7 a8bd
00000330: 5b27 2abe d8bd 993e 33e7 4b3e 2312 15be
00000340: 4bc5 1dbd b757 cfbd 0c88 b7be 6961 b23d
00000350: d2d0 75be 71c7 33be c970 ab3e a1d2 22bd
00000360: 0a53 d1bd 49b9 4a3e 52e6 7dbe 6f6a a9be
00000370: 8698 3bbd c059 6fbc 25a8 1c3d dd93 ca3b
00000380: 2de8 443d 7b32 1dbd b836 8d39 32fe cdbb
00000390: c80d 18bc a2eb 003d 405d 793c c097 063d
000003a0: b1a4 67bd 50d9 01bd 7057 913b 81b0 c4bc
000003b0: d72b 313d b455 dfbb a724 38bc fb09 313c
000003c0: 2d60 35bd 9fed 8abc 0200 183d 6184 fa3b
000003d0: b19f 243d b272 16bd d2a4 4bbb 2a26 8fbb
000003e0: 8574 27bc 568a f73c eca8 553c c1e7 de3c
000003f0: d8ee 6dbd dd85 09bd 7163 133c 6154 c5bc

linear.bias f4 [14]
0.87588733 1.1672707 0.6193305 -1.0608191 0.820689 1.3285223 0.24633805 -0.27357808
0.44469395 -1.0317061 -0.64084005 -1.1806344 -1.167744 -1.18044
00000000: 273a 603f 2069 953f 728c 1e3f ecc8 87bf
00000010: ad18 523f 050d aa3f 0b40 7c3e 6d12 8cbe
00000020: edae e33e f20e 84bf 180e 24bf 071f 97bf
00000030: a378 95bf a818 97bf
