trained_weights/unicorn/unicorn17.pth (torch, 16655 bytes, 8 tensors)

conv1.lin_l.weight f4 [32, 30]
000000 22 0d 0b 3d 8f e6 45 3d 04 9d 21 3d 65 ad 6d bc
       0.03394807 0.04831558 0.039456382 -0.0145066725
000010 e5 a6 34 bd 0c f2 98 3c d4 ca 19 3c 40 aa 3d 38
       -0.044104476 0.018670104 0.009386737 4.521967e-05
000020 51 a2 f6 3c c7 cc 7b 3c 7a d4 a9 3c 64 00 09 3a
       0.030106695 0.015368647 0.0207312 0.00052261935
000030 e3 7d e4 3a 39 23 34 3d 79 e3 13 3c cb dd fd 3c
       0.0017432537 0.043978903 0.009026402 0.030989548
000040 cb ce eb bc cf 47 c8 bc 02 22 37 ba de da 79 bc
       -0.02878513 -0.024448304 -0.00069859636 -0.015249936
000050 15 30 07 bd 92 ea 89 3b 34 72 99 3b dc ec 21 3d
       -0.03300484 0.004208871 0.0046828035 0.039532527
000060 79 41 07 3c 92 07 04 3d 06 ab ba 3c 65 7a 02 3d
       0.008255356 0.032233782 0.022786628 0.031855006
000070 a5 4b b1 3c 9b c8 ab 3c b8 df bb 3c ea 2e 61 3d
       0.021642515 0.02096968 0.022933826 0.05497638
000080 38 03 db bd a3 25 b4 3c 3f 74 7a 3d a1 da 13 bd
       -0.10693973 0.021990603 0.061146017 -0.036097173
000090 72 64 f1 bc 29 da f6 bc 8e b2 b3 bd 94 30 ee 3c
       -0.029466841 -0.030133324 -0.08774291 0.029075898
0000a0 ec 1e 38 3d 5d 6a df bc 90 78 4b 3d 96 61 36 be
       0.044951364 -0.027272398 0.049675524 -0.17810664
0000b0 eb 56 bb 3c 67 c6 d6 bd 73 eb b1 bd 58 ee 56 3d
       0.022868594 -0.10487061 -0.086874865 0.052473396
0000c0 03 ad 5b bc c1 bf ea bd 48 db 1b 3e 8e 24 0a 3c
       -0.013407948 -0.114623554 0.15220368 0.008431567
0000d0 e1 08 7f bc ee d8 0b be 8a bc 86 3d e1 d1 e2 3d
       -0.015566082 -0.13656971 0.0657893 0.110751875
0000e0 62 6a 1b bd d6 15 a1 3d 3f e3 d5 bd 97 37 47 bd
       -0.03794325 0.07865493 -0.104437344 -0.048637
0000f0 f9 ee 15 be 49 e1 7c bd 88 ee 0b bd 54 13 c5 bd
       -0.14641942 -0.061738286 -0.034163028 -0.09622827
000100 ce 07 61 3d 7f d6 a7 bc 67 ac 4a bd ca 63 1e be
       0.054939084 -0.020488022 -0.049480822 -0.15467754
000110 e1 9a b7 3d 44 c5 22 3e f9 3c 4b bc 32 7e ba 3d
       0.08965088 0.15895563 -0.012404674 0.09106101
000120 ea 2c de 3d b6 c8 7d bc 66 50 82 3b 84 89 87 bc
       0.108484104 -0.015489748 0.0039768694 -0.016545065
000130 47 e8 d8 3d 5a 28 8f bd 08 d1 c4 bd 67 c4 10 bd
       0.105911784 -0.06990118 -0.09610182 -0.035343554
000140 81 2c c9 bd 90 08 cb bd 9e d4 82 bd e4 fb e6 bd
       -0.098229416 -0.099137425 -0.0638821 -0.11278513
000150 30 a9 93 39 8f 28 36 bc da 01 72 3e b8 45 43 be
       0.0002816408 -0.011118068 0.23633519 -0.19069564
000160 c1 e2 2c 3e 5b db a7 bc 9c 40 82 bd 5e 66 17 be
       0.16883375 -0.020490339 -0.063599795 -0.14785144
000170 63 35 f6 3c 38 c9 5b 3c 7a b7 10 3e 74 fd 9f bd
       0.030054754 0.0134146735 0.14132491 -0.07812014
000180 b6 b4 c3 bd ec cb 76 bc 60 4c 82 3e 21 27 91 3d
       -0.09555952 -0.015063267 0.25448895 0.07087541
000190 cc f0 c9 bc 36 b5 85 3e cb fb 36 3e 90 4a 06 3e
       -0.024650954 0.26114815 0.17869489 0.13114381
0001a0 03 ad 30 bd e8 03 76 bc d7 86 25 3e f6 07 12 3c
       -0.043133747 -0.01501558 0.16164719 0.008913031
0001b0 57 6a 48 be be 11 bb 3d 5f ce 7a bd be 76 29 be
       -0.19571815 0.091342434 -0.061231967 -0.16549203
0001c0 78 b3 0a 3d e4 10 3e be 8c a5 ef bc 4d c1 15 bd
       0.03386256 -0.18561131 -0.029253744 -0.0365613
0001d0 12 f9 a9 3e 12 a2 3b be 3c 0f a8 3c 1e d1 10 3e
       0.33197838 -0.18323544 0.020515077 0.14142272
0001e0 b5 7f 67 3c a4 07 45 3d de 15 18 be 36 67 12 bc
       0.014129569 0.04810299 -0.14852092 -0.00893574
0001f0 23 56 73 3c fc 9c 24 bd 5f be 27 bd 81 6a c1 bb
       0.01485208 -0.040188774 -0.040953036 -0.005902589
000200 33 68 f2 bd c7 23 8e 3d 1c d1 14 3d 16 35 78 bd
       -0.11836281 0.06940418 0.036332235 -0.0605975
000210 de e8 5a 3d 38 8e 3d be a9 ca 26 3d 70 aa d0 bd
       0.053444736 -0.18511283 0.040720616 -0.101887584
000220 1b 2c bc bd 16 5e 00 3d aa 52 af 3c 54 64 2b be
       -0.091881 0.031339727 0.021401722 -0.16737491
000230 f1 83 44 3e 38 0b 98 3c 43 bf aa bc 51 23 0c be
       0.19190957 0.018560037 -0.020843154 -0.13685347
000240 b3 cc c1 3d a5 66 ac 3d e4 45 40 bd 98 cf 82 3d
       0.094628714 0.084180154 -0.046941653 0.063872516
000250 bb 91 e6 bd b0 ac 6b bd 5b a0 74 bc f9 d1 6b 3d
       -0.11258265 -0.057537735 -0.01493081 0.057573292
000260 81 2c cf bd 0f bb b1 3b 55 b1 57 3c c4 7d ad 3b
       -0.1011591 0.0054239105 0.013164838 0.0052945334
000270 a5 ab 79 bd 6a 28 2b bd dc 10 0c be 1c 63 6a 3d
       -0.06095471 -0.04178659 -0.13678306 0.057223424
000280 5c e5 81 3d 66 ff bf bc 46 5f 42 3d 92 f3 14 be
       0.06342575 -0.023437213 0.04745414 -0.1454604
000290 b4 d9 ca 3c 9b f6 f1 bd 94 01 c0 bd ef d7 f6 3c
       0.024762012 -0.118146144 -0.09375301 0.030132262
0002a0 5c 6e 53 3c 9b ff 0e be 7c 0c 1a 3e 6d e4 06 3d
       0.01290473 -0.13964693 0.15043825 0.032932688
0002b0 f4 4d f6 bc ad 98 f7 bd f1 76 e3 3d d0 52 c7 3d
       -0.030066468 -0.120896675 0.11106671 0.09732592
0002c0 2a 4e 99 bc 77 ed 9d 3d 3a 84 7b bd f4 b8 b7 bd
       -0.01871403 0.077113084 -0.061405398 -0.08970824
0002d0 65 e1 13 bd de 65 61 bd 6e f1 98 bd a7 d8 2d 3d
       -0.036103625 -0.05502879 -0.07467924 0.042442944
0002e0 ac 9a 06 3e 39 4b 4c bd fc e0 c6 bc 52 9b d0 bc
       0.1314494 -0.049876425 -0.024277203 -0.025464687
0002f0 6c 3f 0f 3e 7e 68 8a 3c 19 77 e4 bc a4 d0 50 3e
       0.13989037 0.016895529 -0.027888821 0.2039209
000300 92 3f bd 3d c5 ca 4a bd 44 44 ca bd 54 59 91 bd
       0.09240641 -0.049509782 -0.09876302 -0.07097116
000310 0f 23 46 3e 5c 48 fd 3d 41 a5 41 be cb c6 75 3d
       0.19349311 0.12367317 -0.18910696 0.060004037
000320 a8 f9 37 bd 2c 13 cf bd 77 7c de bb 47 f8 1b be
       -0.044915825 -0.101110786 -0.0067897397 -0.15231429
000330 03 da 01 be f3 60 58 3d d7 41 ce 3d 35 2b 34 be
       -0.12680821 0.052826833 0.10071152 -0.17594607
000340 93 bd 56 3d 64 0a a0 3d 28 0b a4 3c 83 3f 01 be
       0.052426886 0.07814482 0.020024851 -0.12621884
000350 c0 26 99 3c 9a e4 da bc a2 bf 67 3d e3 28 15 be
       0.018695235 -0.026720334 0.05657924 -0.14566378
000360 9f 89 1f be 72 eb 82 3d 4c ae 5a 3e 55 b8 86 3e
       -0.15579842 0.06392564 0.21355551 0.2631251
000370 1e 3e 60 bd d7 68 90 3e 01 20 11 3e fa e9 07 3e
       -0.05474674 0.28204986 0.14172365 0.13272849
000380 1e d3 7b 3d 84 ea 70 3d f1 70 63 3e d0 d2 b8 bd
       0.061480634 0.0588174 0.22211052 -0.09024584
000390 f4 2a 06 bd e2 ff dd 3d da a5 92 bd 44 70 19 be
       -0.032755807 0.108398214 -0.0716054 -0.14984232
0003a0 ef f5 f0 bc 77 86 6a bd 8e dc 43 bd d2 23 36 be
       -0.029414145 -0.057257142 -0.04781776 -0.17787102
0003b0 6e a3 62 3e 57 26 28 be 9e 75 d5 bd f2 95 08 3e
       0.22132656 -0.16420875 -0.10422824 0.1333845
0003c0 01 18 e0 bc d6 0c 22 3d 6e 13 f5 bd 0f 3d 41 3c
       -0.027355196 0.039563023 -0.119665965 0.011794343
0003d0 ab 8d b4 3c 20 a9 9b 3d 1e f5 5a 3c e8 f4 0d bd
       0.022040209 0.076006174 0.013364105 -0.03465739
0003e0 94 5b d2 bd 81 1c f9 3c 78 5f 53 3d b2 76 7e bc
       -0.102713734 0.0304091 0.051604718 -0.015531229
0003f0 0f 1f 9f bb 89 67 2b be 2c fa 7f 3d 94 4f ed bd
       -0.0048559974 -0.16738714 0.062494442 -0.11587444

conv1.lin_l.bias f4 [32]
000000 90 60 1a bd 75 0a c1 bd ac 83 e7 bd e5 47 1e be
       -0.037689745 -0.09425823 -0.11304411 -0.15457113
000010 30 33 03 be 53 f2 be bd c6 3d 2e be 76 3d 21 be
       -0.12812495 -0.093235634 -0.17015752 -0.15746102
000020 5c ed a6 bd 76 69 31 be e3 ee 8a bc 1f cc c5 3c
       -0.081507415 -0.17325386 -0.016959613 0.024145184
000030 a2 a6 1d be 86 15 48 bb ca 97 1e be db 6b 88 bd
       -0.15395597 -0.0030530407 -0.1548759 -0.06661197
000040 a5 6a 02 3d 48 ef 64 bd c7 2a 0c 3d 19 ba 06 be
       0.031839985 -0.05589226 0.034220483 -0.13156928
000050 c9 4b bf bd df b5 2a be 1c b9 4a bd 1f ec 53 bd
       -0.09340627 -0.16670941 -0.04949294 -0.051738854
000060 ac 33 fe bc 47 ce 41 3d 2d e3 bd 3c f5 35 29 3d
       -0.031030498 0.047315862 0.023179615 0.041311223
000070 f7 0a b3 bb 31 5e 91 bd 16 ad 17 be 4b 1d b8 bd
       -0.0054639536 -0.07098044 -0.14812121 -0.08989962

conv1.lin_r.weight f4 [32, 30]
000000 c6 0c 14 be e5 13 a1 3d 06 0a 3e be 88 29 18 be
       -0.14457998 0.07865123 -0.18558511 -0.14859593
000010 5d 8f 05 be cb 2c f2 bd be b6 08 bd a0 9c 07 be
       -0.1304297 -0.1182495 -0.0333774 -0.13243341
000020 24 94 ed bd 8d b7 91 3d 3e 42 2c 3c 4f 59 07 be
       -0.11600521 0.07115088 0.01051384 -0.13217662
000030 d1 64 f3 3c ac 5f db bd c2 fd c1 3d f3 5c 06 3e
       0.029711159 -0.10711607 0.094722286 0.13121395
000040 7d 14 ad bd 6f 5c ce bd a2 fd 6c 3d 71 e2 08 be
       -0.084511735 -0.10076224 0.05785907 -0.1336763
000050 fe 7a 8d bd 4a 23 ad bb 77 0e de bd e5 b6 22 3d
       -0.069082245 -0.005283748 -0.10842603 0.039725203
000060 9f 6d 4d 3d 35 7d ce bd a4 22 9d 3d a9 45 23 be
       0.05015337 -0.10082475 0.07672623 -0.15944542
000070 39 45 f1 3c cc 7f 29 bd b0 c4 46 3e ad 60 94 bd
       0.029451953 -0.041381642 0.19410968 -0.07245002
000080 62 7d 4e be 9e a0 44 be c0 06 71 3c d2 41 36 3c
       -0.20165017 -0.19201896 0.014711082 0.011124091
000090 7b e4 a2 3e 6d 5d 60 be 9d 7d ee 3d 21 5b d9 bd
       0.31814942 -0.21910639 0.116450526 -0.106130846
0000a0 3d 8e c9 3e 54 25 16 3e 46 bd ef bb 54 7d 76 3e
       0.39366332 0.14662677 -0.0073162643 0.24071246
0000b0 51 35 69 be 96 ef 6d 3c 5c d3 c9 3c 16 05 ee bd
       -0.22774245 0.014522454 0.024636917 -0.11622064
0000c0 0b 0b aa bc dc f2 25 3d 6b 2b 57 bd 53 8a ce be
       -0.020757219 0.040514812 -0.05253164 -0.40339908
0000d0 8e dd 67 3e ef 07 ba 3d 6c 6f da be 25 94 d5 bd
       0.2264311 0.090835445 -0.42663133 -0.10428647
0000e0 47 7c 68 3e 4d bd 2f be 94 33 c3 3c cd e8 21 bd
       0.22703658 -0.17162056 0.023828305 -0.039528657
0000f0 a0 28 07 3a e3 80 d5 bd d0 bf ec bc 99 7d 2b bc
       0.0005155895 -0.10424974 -0.028900057 -0.0104669565
000100 35 7b da 3d 61 47 fd bd 3c 9a 07 be 83 f8 5b 3e
       0.10668031 -0.1236713 -0.1324243 0.21481518
000110 63 00 ea 3c 7f ae 9a 3e 0a 12 9e be 9b 3d 1c 3c
       0.028564638 0.30211255 -0.30873138 0.009536172
000120 29 f2 00 3e 84 ed 51 be c8 65 a0 bc b7 35 10 be
       0.12592377 -0.20500761 -0.019579783 -0.1408299
000130 76 f6 89 3d b6 7d ac bd 5f 87 38 bd 51 01 54 3d
       0.06736462 -0.08422415 -0.045050975 0.051759068
000140 cb 18 97 3e 5a b5 0c 3e df b2 27 be ef f6 6c be
       0.29511103 0.13741055 -0.16376828 -0.23141073
000150 6f e4 89 bd 8e 7b b8 bd 6e 60 93 bd 0c ab b5 be
       -0.067330234 -0.09007941 -0.07196127 -0.3548206
000160 24 75 f2 be 61 08 5e 3e 2a 03 e1 3b 76 1c 47 be
       -0.47354996 0.21682884 0.0068668323 -0.1944445
000170 97 cc 41 be 3d 39 19 3c 42 2e d6 3c 36 39 5f be
       -0.18925701 0.009352026 0.026145104 -0.21799168
000180 25 b1 70 be e0 d1 8f 3e 60 ec d8 3d 70 14 8b 3e
       -0.23505075 0.2808981 0.1059196 0.2716403
000190 95 66 bb be c2 11 e1 bb e5 27 23 3e c9 9e 64 be
       -0.366017 -0.006868572 0.15933187 -0.22326197
0001a0 4e ad c7 3d ac 37 02 be e8 00 26 3e 91 5e b1 bd
       0.09749852 -0.1271655 0.16211283 -0.08660615
0001b0 09 fb 1b bd 3e b7 da 3c a8 1b 7e 3e 76 6a 2d 3e
       -0.038081203 0.026698705 0.24815238 0.16935143
0001c0 80 e9 3c be 53 ac af be 73 0d 82 bd 6d a4 26 be
       -0.18448448 -0.3431116 -0.063502215 -0.16273661
0001d0 9d d1 5d 3d 71 0d fe be e4 11 d0 be 18 0a 2a 3e
       0.05415498 -0.4961963 -0.4063865 0.16605413
0001e0 5c 60 1d 3e a5 05 bd bd 50 2e 74 be eb 5f 33 be
       0.1536879 -0.09229592 -0.23845792 -0.17517059
0001f0 80 fa 31 b9 0e 9f c1 3b d5 76 91 3e 6a d5 6a be
       -0.00016973354 0.0059088534 0.28410974 -0.22932974
000200 e0 b8 86 3d 5c b2 f1 bd 08 34 ca 3e 9c 1b 01 3e
       0.06578231 -0.118015975 0.39492822 0.12608188
000210 be 85 fc bb 82 25 5d 3e bb 52 6e be 34 f6 06 3c
       -0.007706373 0.2159634 -0.23273747 0.00823741
000220 b7 47 e6 3c c5 55 ea bd c8 e6 db 3a 9f 23 fa 3c
       0.028110368 -0.114421405 0.0016777152 0.030534564
000230 f3 a6 d0 bc 38 f8 be be 5d d8 77 3e 36 bd af 3d
       -0.025470233 -0.3729875 0.2420363 0.08581011
000240 42 e9 cc be 30 39 18 be 00 1c 8d 3e c8 5d 4b be
       -0.40021712 -0.14865565 0.27560425 -0.19859993
000250 28 dd fa 3c d8 08 86 bd 32 cb 26 3e 6d 4e 5f bd
       0.030623034 -0.065446556 0.1628845 -0.054518152
000260 6a dc 2c be 81 d8 21 be e7 a0 c3 3c 18 81 0a 3d
       -0.16880956 -0.15805246 0.023880435 0.03381452
000270 9d c1 8a 3e 39 e0 80 be 40 6d dd 3d e7 76 cd bd
       0.2710084 -0.25171068 0.108118534 -0.100324444
000280 d5 c8 bb 3e 60 f2 18 3e 8e c3 8e bc a4 dc 7b 3e
       0.3667666 0.14936209 -0.017427232 0.24595886
000290 ce 7d 67 be bb 82 34 bc d5 b4 f6 3c 3b 31 e3 bd
       -0.22606584 -0.011017497 0.030115524 -0.11093374
0002a0 8c 8f 94 bc 9e c4 64 3b cd d9 ad bd a7 42 c5 be
       -0.018134855 0.0034907232 -0.08488808 -0.38527414
0002b0 d8 77 60 3e c9 65 30 3d e3 19 c8 be ec 60 a9 bd
       0.21920717 0.04306582 -0.3908225 -0.082704395
0002c0 f7 7b 99 3e 3a 2f 23 be 52 2b 86 3d f6 0b 38 bd
       0.2997739 -0.15935984 0.065512314 -0.04493328
0002d0 9d 55 0f bc 11 7e 86 3c f3 29 4f be 60 48 2d be
       -0.008748439 0.016417535 -0.20230846 -0.1692214
0002e0 7f e6 54 be ce fc 40 be 6e d2 85 be 8d 85 10 3e
       -0.20791052 -0.18846437 -0.26137108 0.14113446
0002f0 01 47 8b bc 48 52 da 3e f7 bd b0 be 18 bd 6c be
       -0.01700163 0.426409 -0.34519932 -0.23119009
000300 87 be eb 3c e5 2a 58 be 86 2c 8e 3e 66 12 99 3c
       0.028777374 -0.21110113 0.27768344 0.01868553
000310 55 6a 14 be eb 01 8f be a1 32 47 3e 02 4c 40 be
       -0.14493687 -0.2793115 0.19452907 -0.18778995
000320 37 ff c2 3d e7 e5 b1 3d 18 ad 47 be 78 f0 fc bd
       0.095213346 0.086864285 -0.19499624 -0.12350553
000330 4e b8 e2 bc 00 b2 89 be 89 85 4b 3e 66 74 c3 be
       -0.027675774 -0.26893616 0.19875158 -0.38174742
000340 6c ec 8e be a4 d2 14 3d 29 71 68 bd 13 d3 74 be
       -0.2791475 0.036333695 -0.056748543 -0.23908643
000350 b9 e2 33 be 1a 6f b7 3d 90 20 81 3d fc 87 1d be
       -0.17566957 0.08956738 0.06305039 -0.15383905
000360 1e 38 7f be 83 02 8c 3e 50 70 bd 3d 26 6f 91 3e
       -0.24923751 0.27345666 0.092499375 0.28405112
000370 17 93 cb be ce e2 52 3d 91 1c 0a 3e 2b df 87 be
       -0.39760658 0.05148583 0.1348746 -0.2653745
000380 4e 43 12 3e 21 1b 64 be 01 5f 2c 3e cf d7 2f bd
       0.14283487 -0.22275974 0.16833116 -0.04293042
000390 e9 ac 48 bd 12 2f 46 3d 66 d0 a2 3e d7 ad ff 3d
       -0.048993025 0.048384733 0.3179962 0.12484329
0003a0 bb 48 17 be 8d 2d b4 be 97 25 79 bd aa b5 56 be
       -0.14773838 -0.35191002 -0.060826864 -0.20967737
0003b0 b6 34 47 bd 2c 6c ff be d7 ca e4 be e5 86 67 3e
       -0.048634253 -0.49887216 -0.44686005 0.22610052
0003c0 58 65 18 3e 8e 10 9d bd 0d a8 1f be 36 23 04 be
       0.1488241 -0.07669173 -0.1559145 -0.12904057
0003d0 10 99 10 3b 95 41 9b ba 93 cc 70 3e 21 fd 95 be
       0.0022063889 -0.0011845106 0.23515539 -0.29294685
0003e0 03 c6 e2 3d 65 ac b6 bd 1b 63 bb 3e 06 c5 34 3e
       0.11072924 -0.089196004 0.3659905 0.17653283
0003f0 f1 20 24 3c b3 8d 65 3e bc 69 2e be c6 49 37 3c
       0.0100176195 0.22417335 -0.17032522 0.011187023

conv2.lin_l.weight f4 [20, 32]
000000 f9 bc 31 3e 2c b1 3f 3c d8 04 11 be 22 e3 3a bd
       0.17357244 0.011699956 -0.14162004 -0.045626767
000010 80 dd 83 bb 7c 8c 9e 3a 1e 1b ee bc ca 5b 3b bc
       -0.0040242076 0.0012096311 -0.029065665 -0.011435458
000020 2a 08 ae ba ce d7 02 be 64 b4 b6 bc bd af 0d be
       -0.001327758 -0.12777635 -0.022302814 -0.1383657
000030 cf 0f 93 bb c9 f3 e2 be 46 6c c5 bd e5 ce 0a bf
       -0.0044879685 -0.44326618 -0.09639792 -0.54221946
000040 7a e5 d2 bd 7a a2 a3 bd 67 0d b4 bd 56 32 c6 bb
       -0.102976754 -0.07989974 -0.08791619 -0.006048481
000050 74 b2 0c 3b 34 26 ec bd 43 07 ac bd 34 30 89 bd
       0.002146867 -0.11530724 -0.083998226 -0.06698647
000060 1d 70 96 bd a2 a5 29 bd 99 a0 d1 bd 59 98 03 be
       -0.07345603 -0.041417725 -0.1023571 -0.12851085
000070 7b 29 9c 3b 00 0d af 3e 46 60 9d 3c 94 d1 52 bc
       0.004765687 0.34189606 0.019210946 -0.01286735
000080 e1 89 b5 3d f2 ce 34 3c ac 98 5b 3c 09 af 40 bc
       0.08864189 0.011035668 0.013403099 -0.011760482
000090 ce c0 bc 3c fb ea b5 3c 11 3d e9 bc dc 27 7c 3c
       0.023041155 0.022206774 -0.028471502 0.015390363
0000a0 b5 53 fb 3c ee 4a 4c bd 8e 03 8d 3c 88 85 5c bd
       0.030679563 -0.049876146 0.01721361 -0.053838283
0000b0 ee f4 28 bd dd 66 81 be d3 aa 8b 3c 66 ec a8 be
       -0.04124921 -0.2527379 0.017049229 -0.32992858
0000c0 7b db ff bc 2c 07 7b 3d 33 f9 d2 3b a9 69 43 3d
       -0.031232586 0.061286137 0.0064383983 0.047708187
0000d0 c4 41 8d 3d 23 99 04 be d0 f4 67 3d d0 55 b6 3d
       0.068973094 -0.12949042 0.056629956 0.08903086
0000e0 75 90 aa 3d c8 89 24 3d f7 bf ad bc 9c 66 46 bc
       0.08328334 0.04017046 -0.0212097 -0.012109425
0000f0 41 b9 82 3d 9a b5 5f 3e f8 11 d9 bb 44 80 33 3d
       0.06382991 0.21846619 -0.0066244565 0.043823496
000100 b2 8c 63 bd 50 fc 12 3d ae f3 01 3d 9e f6 10 bd
       -0.0555541 0.035885155 0.03172653 -0.035391442
000110 ec 2f 05 3d d7 a7 fd 3c 0a ca dc bd 1d ff 8e 3c
       0.032516405 0.030963821 -0.107807234 0.017455632
000120 b6 63 bb 3d 7d e0 d8 bc 56 43 73 3c 87 24 01 be
       0.09149878 -0.026474232 0.014847597 -0.1261159
000130 1c 78 51 bc 86 93 3f be 63 b3 72 bd 60 1b 67 be
       -0.012784984 -0.1870862 -0.059253108 -0.22569036
000140 35 a2 b9 bd 4e ba 6c 3d a2 56 10 bd 77 26 24 3d
       -0.09064142 0.05779486 -0.03523887 0.040075745
000150 98 fa 46 3d 57 55 fb bd f4 eb 62 3d af 33 7b 3d
       0.04857883 -0.12272137 0.055400804 0.061328586
000160 12 23 8b 3d 95 92 87 ba 1d 70 fc bd 44 ea b0 bd
       0.067937985 -0.0010343367 -0.123260714 -0.086384326
000170 26 bb ca bb 2d 0b 49 3a 2b 38 03 bd 32 35 26 3d
       -0.0061868606 0.0007669207 -0.032035988 0.040578075
000180 59 13 af bd ca da cc 3c 2b 8e d1 3d 46 fc 7f 3c
       -0.08548612 0.02500667 0.102321945 0.0156241115
000190 e4 b3 ac 3c 3f e2 18 3d f7 f6 83 bc ad 19 21 3d
       0.021081872 0.03732514 -0.016108973 0.039331127
0001a0 b5 47 a5 3d 88 a2 c6 3d 57 a2 84 3c 51 cc 92 bd
       0.08070318 0.09698969 0.01619069 -0.071678765
0001b0 55 db 81 3d ef 07 a9 3d e6 cc b4 bc ef dc ab 3d
       0.063406624 0.08253466 -0.02207036 0.08391749
0001c0 a0 44 81 bd f4 35 89 3c 60 e8 1b bc d2 6b b7 3c
       -0.06311917 0.01674936 -0.009515852 0.02239028
0001d0 f6 83 e6 3b 1c 50 3e bd 3e dc ab 3c d1 2c 53 3a
       0.007034774 -0.046463117 0.020979043 0.00080556894
0001e0 59 6e ba 3b 86 72 74 3c b0 75 99 bd 3c 5d 5b bd
       0.005689424 0.014919883 -0.0749315 -0.053555712
0001f0 cc fc a3 bc 27 f9 52 be 7e d9 06 3d 79 f9 12 3d
       -0.020018004 -0.20602857 0.03292226 0.035882447
000200 16 89 91 bd 5f 60 ce bc dc bd 99 bc 3c 5b cf ba
       -0.07106225 -0.025192438 -0.01876729 -0.0015820037
000210 e6 5d ed bb 64 c3 fc bc b0 7f 3f 3d e8 d0 45 bd
       -0.0072438596 -0.030854888 0.04675263 -0.04829493
000220 81 9e a3 bc ce 4f 98 bd 32 f1 bb bc 4a 4e d7 bd
       -0.019973041 -0.074370965 -0.02294216 -0.10512979
000230 66 c5 86 bd bf 5d 1f be 1c bf 03 3d 58 f0 48 be
       -0.065806195 -0.15563105 0.032164678 -0.19622934
000240 79 46 e3 bd 53 e2 d3 3c 16 0d ad bd 99 37 e6 bb
       -0.11097426 0.025864756 -0.084497616 -0.0070256707
000250 d1 8c b8 3c 33 00 9c bd 98 ff 80 3c 57 27 1e 3c
       0.022528084 -0.076172255 0.015746877 0.009652934
000260 2b d0 81 3c ee 20 87 bd 1b f4 a4 bd 26 60 db bd
       0.015846333 -0.06598078 -0.08054372 -0.10711698
000270 3f 2f eb bc 4d d7 72 3b 8d c5 53 bd 46 59 28 3c
       -0.028709052 0.0037054599 -0.05170207 0.010275191
000280 f5 87 db 3c 44 53 b7 3c 48 75 23 3e 8b b9 c0 3c
       0.026798228 0.022378571 0.15962708 0.023525974
000290 85 6d 0d 3d 83 ff 1d 3d c1 f5 75 bd 60 13 89 3d
       0.034528274 0.038573753 -0.060048822 0.066931486
0002a0 c7 21 a8 3d ad 5e af 3d f4 6c 32 3d db 76 9b bc
       0.082095675 0.0856298 0.043560937 -0.018977573
0002b0 97 52 31 3d b4 40 9f 3d c1 42 8e 3c 9c c0 91 3d
       0.043291654 0.07776013 0.017365815 0.071168154
0002c0 03 a2 ea 3b b0 6b d7 3d 73 c6 16 3d 72 50 99 3d
       0.0071604266 0.10518587 0.03681035 0.07486047
0002d0 d1 fd 68 3d af 05 99 bc f3 15 d8 3d 68 6e e1 3d
       0.056882683 -0.018679468 0.105510615 0.110073864
0002e0 b0 18 f6 3d d3 09 60 3d 5e 33 b7 bb 77 e3 02 3d
       0.120164275 0.05469687 -0.0055908402 0.03195521
0002f0 20 54 89 3c 08 eb 94 bd 65 54 3f 3d 25 65 3c 3d
       0.016763747 -0.07271391 0.046711344 0.045994896
000300 99 a0 72 bd 38 96 45 bd 03 25 48 bc d4 ce bf 3c
       -0.05923519 -0.048238963 -0.0122158555 0.023414053
000310 d3 a4 25 bd e3 7a 43 bd 94 f5 d6 3d c9 2e 24 bd
       -0.04044039 -0.047724616 0.10496059 -0.04008368
000320 63 d4 70 bd 47 6d 56 3c 48 ce 2a bb 4b 2b ee bc
       -0.058796298 0.013087577 -0.0026062895 -0.029073378
000330 c3 4d 30 3b 20 85 03 3e 32 9f 67 3c be b6 27 3e
       0.0026901818 0.12843752 0.014137076 0.16378304
000340 12 f7 27 bd a8 dd a1 bd 64 b8 8a bc a4 1a 59 bd
       -0.04100711 -0.07903606 -0.016933627 -0.053003922
000350 d2 c2 88 bd 2b 89 17 3d 3d 87 91 bd 34 bc ae bd
       -0.06677784 0.036996048 -0.07105873 -0.08531991
000360 3a 51 b4 bd 94 37 b3 bc c2 f1 b7 bc 35 20 3d bd
       -0.08804555 -0.021877088 -0.022454146 -0.046173293
000370 06 f0 0d bc f3 e6 50 be be 39 88 3b 1b b0 17 bd
       -0.008663183 -0.204006 0.004157274 -0.03703318
000380 1e 15 4e bd 18 37 fb bb 72 d4 89 3b a5 dc 98 3c
       -0.050313108 -0.00766648 0.0042062337 0.018659899
000390 61 ce 84 bc b4 62 73 bc 69 ce 05 3d ea da 18 ba
       -0.01621169 -0.014855076 0.03266755 -0.00058309606
0003a0 3c ee 94 bc b5 45 61 3d 5d bd 34 bc ee ef 2b 3d
       -0.018180005 0.05499812 -0.011031476 0.04197686
0003b0 46 17 56 3d 99 d8 64 3e 49 2e 30 bc 26 81 92 3e
       0.05226829 0.2234825 -0.010753223 0.28614157
0003c0 15 ee c6 3c f3 15 4c bd 3e a6 9f bb 42 93 02 bd
       0.024283448 -0.04982562 -0.0048721125 -0.031878717
0003d0 93 a6 5f bd 4d fb ea 3d 5f 7d 3c bd 9e e0 91 bd
       -0.054602217 0.11473713 -0.046018 -0.071229205
0003e0 c3 1d 93 bd 1a 76 13 bd 38 93 a1 3c b7 8a 4a 3c
       -0.07183411 -0.036001302 0.01972352 0.012362174
0003f0 ec fc 77 bd 46 5d 2a be 32 6b b5 3c 6f 47 0e bd
       -0.06054394 -0.16637143 0.022145841 -0.034736093

conv2.lin_l.bias f4 [20]
000000 e4 fb e7 ba 19 de 82 bb fe a9 45 3d 78 3c 88 3c
       -0.0017698971 -0.0039937613 0.04825782 0.016630396
000010 47 85 41 3d 0d 05 47 bd 1a ea 54 3b 8c 8d 3b bc
       0.047246244 -0.0485888 0.0032488168 -0.011447322
000020 fc 80 91 ba 73 d0 cc 3c 92 86 ef 3c b2 b4 f7 3c
       -0.0011101062 0.02500174 0.029238973 0.03023753
000030 4c 53 50 bd d0 46 db bc 89 bd 68 bb 78 ff e1 bc
       -0.050860688 -0.026767164 -0.0035513362 -0.027587637
000040 52 f6 55 3c 56 2c 0e bc 5a e7 79 bc 96 a7 dd bb
       0.013059216 -0.008677563 -0.015252912 -0.0067643626

conv2.lin_r.weight f4 [20, 32]
000000 61 39 8b bb 37 df 26 3e f8 cc 04 3e 7d fc 02 3e
       -0.0042487835 0.16296087 0.12968814 0.12791629
000010 77 57 54 3e 36 5f 0b 3e 74 6c 89 3d e4 b3 56 3e
       0.2073649 0.13610539 0.06710139 0.2096706
000020 d2 d1 0a 3e 29 c4 10 3e 2e 76 f4 be 77 fd 48 be
       0.13556603 0.14137329 -0.47746414 -0.19627939
000030 7f 45 13 3e 12 1b f4 be 8a 93 bd 3d 8b 8c 25 bf
       0.1438198 -0.47676903 0.092566565 -0.64667577
000040 ba e6 4f be 62 27 05 bd 25 20 25 be 1a 81 52 3e
       -0.20302859 -0.03250826 -0.16125543 0.20557061
000050 b9 d0 15 3e 68 70 4c 3f 58 5c 17 bd b9 72 02 bd
       0.14630403 0.7985902 -0.0369533 -0.03184769
000060 5c 22 8d bd b2 29 38 be b0 a8 4b be cc 49 53 be
       -0.06891319 -0.17984655 -0.19888568 -0.2063362
000070 b9 53 07 be 0a 9b 8a bc bf 5c 40 3e d6 5e e5 3d
       -0.13215531 -0.016919632 0.1878538 0.11199729
000080 9e 41 0d bd 18 c5 94 bd 69 28 8d 3d e9 69 cc 3d
       -0.034486406 -0.07264155 0.06892473 0.09981138
000090 34 8d 79 bd a1 36 c9 bd 87 91 19 3d f2 a0 e2 3d
       -0.060925677 -0.09824873 0.0374923 0.11065854
0000a0 a1 bc 52 bd 04 63 eb 3d 44 69 09 3b 63 55 67 3e
       -0.05144942 0.11493495 0.0020967284 0.22591166
0000b0 e6 d7 ae 3d 50 21 b8 be de 2c e9 3d 8a d1 e9 be
       0.08537273 -0.35962915 0.11385511 -0.45667678
0000c0 b4 f0 5b 3e 49 9f e1 3d d0 00 61 3e 61 2b 0c 3e
       0.2147854 0.11016709 0.21972966 0.13688423
0000d0 76 fe d6 bd 05 15 9c 3d 01 da b5 3d ca a1 d6 3d
       -0.10497753 0.07621197 0.088794716 0.104800776
0000e0 c3 cb bf 3d f9 3d 61 3e 19 d1 73 3e 56 7a 70 3e
       0.09365036 0.21996297 0.23810233 0.23484167
0000f0 c3 99 70 3e 90 7a d1 bd 26 10 fe 3d 5a 4c af bd
       0.23496155 -0.10228455 0.12405424 -0.08559485
000100 23 43 c1 3d 39 cc 83 3d 9f 4c 32 bd 98 6d 91 bc
       0.094366334 0.06435437 -0.043530103 -0.017752454
000110 78 99 d4 3d 77 a4 84 3d 22 f0 a2 bc 9b ae 6e bd
       0.10380834 0.06476682 -0.019889895 -0.058271986
000120 c5 7d 56 3d e8 e5 08 bc 3b 47 56 bb bc 6b 12 3e
       0.052366037 -0.008355595 -0.0032696265 0.1429891
000130 b3 06 4e bd bd 74 7c be f1 c8 56 3d 25 d8 9f be
       -0.050299358 -0.24653907 0.052437726 -0.31219593
000140 53 c5 06 3e 20 4a 84 be a2 f2 11 3e a0 18 a5 bd
       0.1316121 -0.25837803 0.14252713 -0.080613375
000150 78 76 8e 3d 47 23 24 bf f0 b6 89 be 14 a0 89 be
       0.0695619 -0.6411633 -0.26897383 -0.26879942
000160 59 f7 8c be 4b ea bb 3d 7f 86 1d 3e 27 0e 21 3e
       -0.2753246 0.09175547 0.15383337 0.15728055
000170 b3 30 05 3e 32 78 00 3d f4 e5 76 bd 14 3f 8c 3d
       0.13006859 0.031364627 -0.060277894 0.06847969
000180 d6 32 00 3d b1 68 40 3e 6f 34 df bd 7a 55 14 be
       0.03129848 0.18789937 -0.10898673 -0.14485732
000190 f4 9e 4e 3e 42 7e 52 3e b1 70 d5 bd 48 f5 19 be
       0.20177823 0.20555976 -0.10421885 -0.15034974
0001a0 2f b2 31 3e 33 45 22 be 52 9d b3 bc f8 14 5a 3d
       0.17353128 -0.1584671 -0.021925602 0.053242654
0001b0 b9 26 49 be ec 5e 73 bb 8e 13 81 bd bc a6 00 3d
       -0.19643678 -0.0037135435 -0.06302558 0.03140901
0001c0 c3 68 71 3d da 95 30 bd 3f 4e 6b 3d 2b 5c 5e be
       0.0589378 -0.04311166 0.05744767 -0.21714847
0001d0 02 f9 63 3e ea 22 4f bb 5a 62 2c bd dc f5 35 bd
       0.22262958 -0.0031606504 -0.042085983 -0.044423923
0001e0 0b 94 3e bd ba 5e 7d 3c fa 33 37 3d 6c 92 8a 3d
       -0.046527904 0.015464479 0.044727303 0.06766209
0001f0 be 77 cd 3b 8a 4c a3 3d 5d 16 51 be c3 3c 57 3e
       0.006270378 0.07973583 -0.20418687 0.21019273
000200 da 12 fc 3d 56 32 91 be 02 82 1e bd 3b cf 13 3d
       0.12308283 -0.28358716 -0.038698204 0.036086302
000210 c4 0f 86 be 60 3f 98 be b8 be 16 3d ff 34 50 bd
       -0.26183903 -0.2973585 0.036802977 -0.05083179
000220 95 db 85 be 10 3e 2e 3d 55 25 dc bd 9e f1 b8 3d
       -0.2614409 0.042539656 -0.10749308 0.0903046
000230 33 c9 00 3d 20 6c 68 be b9 d0 ce 3c 97 1e 97 be
       0.03144188 -0.22697496 0.025246011 -0.29515526
000240 05 c3 89 3d b8 f6 15 3e c8 a5 37 3d fe e9 74 bb
       0.0672665 0.14644897 0.044835836 -0.0037370916
000250 20 d5 9b be e1 2d 53 bf 06 32 08 3e 9d fd 14 3e
       -0.3043604 -0.8249188 0.13300332 0.14549871
000260 0c 2a dc 3d f1 17 98 3d 68 4c b5 3d 94 b6 c5 3d
       0.10750207 0.074264415 0.08852464 0.09653965
000270 e9 ac aa 3d d0 3f 91 3d 52 b8 1d 3b c2 81 90 be
       0.08333761 0.070922494 0.0024066162 -0.28223997
000280 f0 6e 22 bd c2 3a ca bb 04 af de bc 0f c7 87 bd
       -0.03965658 -0.0061715553 -0.027183063 -0.06629764
000290 1e eb b6 bc 90 94 dc b9 2f 7e 92 bd 63 d5 31 bd
       -0.02232891 -0.00042072358 -0.07152974 -0.043416392
0002a0 7e 7b 0a 3c 6d e5 bf bd 5a 98 a5 3e c4 78 9f 3e
       0.008452294 -0.09369931 0.32342798 0.31146824
0002b0 6c 74 e4 bd 4a e9 a7 3c 8a f1 85 bc e7 75 cc 3d
       -0.11155018 0.020496983 -0.016350526 0.099834256
0002c0 92 f5 9b 3e 89 69 b2 bd 39 2b 9e 3e 0a 6e 5f bd
       0.30460793 -0.087115355 0.3089235 -0.0545483
0002d0 4b 25 73 3c 56 23 33 3f fc 50 c3 bd 7a fa c3 bd
       0.014840434 0.69975793 -0.09536931 -0.09569259
0002e0 c2 7e 9e bd e9 21 8c 3e 1e 93 9d 3e 7f a4 a6 3e
       -0.07739021 0.2736962 0.30776304 0.32547376
0002f0 33 7c 82 3e 9c 29 bd bc 6b c8 ac bd fa bf 01 3d
       0.2548538 -0.02309113 -0.08436664 0.031677224
000300 e7 2e ad 3c c3 95 02 be 76 7f 62 bd 01 c1 8a bd
       0.021140529 -0.12752442 -0.055297337 -0.06775094
000310 2c 86 d2 bd ae 3d de bd e6 3d cc bc 0d 2a 96 bd
       -0.102794975 -0.10851608 -0.02493186 -0.07332239
000320 a4 bd e4 bd 2e ab 8f bd 59 45 4e 3e be dc 1d be
       -0.111689836 -0.07015072 0.20143642 -0.15416238
000330 ed 4b 81 bd 9c c8 f3 3d 62 15 e2 bd 7f 36 3c 3e
       -0.0631331 0.119034976 -0.11039235 0.18380164
000340 ea 75 1a be 8e c5 43 3e db 6e 31 be b1 41 be bd
       -0.15084043 0.1911833 -0.17327444 -0.092898734
000350 a2 95 df bd be 73 ab 3d dd 18 49 3e 10 a6 4e 3e
       -0.10917212 0.083716854 0.19638391 0.20180535
000360 5f e1 4e 3e bf ed 11 be 9e 09 3b be 6c 5e 26 be
       0.2020316 -0.14250849 -0.18265387 -0.16246957
000370 54 dd 28 be 57 a7 d8 3d 34 7a c4 bd af 9a d3 bd
       -0.1649068 0.105787925 -0.09593621 -0.10332238
000380 f4 32 42 ba 68 92 ab 3d 8d 06 48 bd f5 de b1 bd
       -0.00074081053 0.08377534 -0.048834372 -0.08685104
000390 86 dc 93 3d 8c 7c db 3d 50 52 11 bd a1 6a 9d bd
       0.07219796 0.10717115 -0.03547889 -0.076863535
0003a0 c2 e1 83 3d d9 fc d6 bd 18 bf e6 bd 57 dc 32 be
       0.06439544 -0.104974456 -0.11266917 -0.17466865
0003b0 ce 17 a2 bd 38 e7 9d 3e 29 2c ce bd 80 95 c9 3e
       -0.07914697 0.30840468 -0.10067017 0.39371872
0003c0 11 26 24 be 30 34 79 bd d8 dc 27 be 3b b0 d9 bd
       -0.16030146 -0.060840786 -0.16392839 -0.106293164
0003d0 e5 b0 e3 3d f5 97 3d 3e 74 a3 31 bd 42 81 6a bd
       0.11117724 0.18514998 -0.04336877 -0.057252176
0003e0 dc 11 4c bd d7 7a 2d be 12 73 3f be a2 83 38 be
       -0.04982172 -0.16941391 -0.1869624 -0.18018964
0003f0 45 10 3d be 71 04 9b 3d 1f 71 d2 bd 74 c4 c6 3d
       -0.18463238 0.075692065 -0.102754824 0.09705439

linear.weight f4 [14, 20]
000000 7e 61 51 3f 7b 2e 2f bf 93 f0 3a 3f 06 20 bd 3f
       0.81789386 -0.684303 0.7302334 1.4775398
000010 65 83 e2 bf dd 52 00 be 47 ff 4e bf 0e af 32 3f
       -1.7696348 -0.1253161 -0.8085827 0.6979836
000020 96 51 98 bf 05 76 4f bd 77 5d 95 3f 14 29 ca bf
       -1.1899898 -0.05064966 1.1669148 -1.5793786
000030 51 56 ac bf 0d 25 a7 bf a9 f0 72 3f 77 cf ba bf
       -1.3463842 -1.3058182 0.9489847 -1.4594563
000040 47 b3 bb 3d 13 39 d5 3f e4 6b 63 3f 24 af 5c 3f
       0.09165054 1.6658043 0.88836503 0.86204743
000050 07 46 bb bf 53 b3 a2 3f f6 4d 76 3f 8f 9e da 3e
       -1.4630746 1.2710975 0.9621271 0.42699096
000060 39 d2 2a 3f c6 7b db 3f fc c6 80 bf 79 80 7d bf
       0.66727024 1.7147148 -1.0060725 -0.9902416
000070 52 28 ae bf 33 b5 17 3f 62 6d 97 3f 53 6b ab 3f
       -1.3606055 0.59260863 1.1830256 1.3392128
000080 38 58 06 40 2b 7f 43 be 28 8a d2 bf d4 65 b1 bf
       2.0991344 -0.1909148 -1.6448412 -1.38592
000090 fa fb 88 3f ef 3b 8b bf 5f 53 83 bf 0e 77 89 3f
       1.0701897 -1.0877665 -1.0259818 1.0739458
0000a0 ee db db bf c0 90 a2 bf 02 fc 7a bf c8 ec 05 bf
       -1.7176492 -1.2700424 -0.98040783 -0.52314425
0000b0 02 b4 58 bf 4b 39 73 3d d9 2e e1 3d 04 88 84 3f
       -0.8464967 0.05938081 0.109952636 1.0354009
0000c0 fe 7d 65 3f 33 26 43 bf c5 45 83 bf 41 89 9e bf
       0.89645374 -0.7623016 -1.0255667 -1.2385637
0000d0 fa 50 c2 3f 32 c0 90 3f 55 c9 e4 bd 3a c2 8c 3f
       1.5180962 1.1308653 -0.111712135 1.0996773
0000e0 0e 14 be 3e 77 e5 98 be 16 81 83 3f 9b 4d b1 3e
       0.37124676 -0.29862568 1.0273769 0.3462952
0000f0 d2 df 6c 3d b3 57 21 3d 6d ff 8b bb 02 9f ab bc
       0.05783064 0.039390277 -0.0042723925 -0.020949844
000100 6a be 09 3c 9e 41 f4 3c c5 ab e8 bb 54 7d e5 bc
       0.008407215 0.029816445 -0.0071005546 -0.028013863
000110 b8 c2 b3 3c 5b 94 0d bc 28 a1 06 bd 6e 97 3b 3d
       0.021943435 -0.008641328 -0.032868534 0.04579871
000120 c8 49 00 bc 5d e3 aa 3b 35 2b 20 bc 1b 3c 23 3c
       -0.007830091 0.005215092 -0.009775926 0.009963061
000130 b4 b9 68 bc ae e2 51 bc 09 b3 86 bc d2 f8 1d bc
       -0.014204431 -0.012810392 -0.016442792 -0.009641843
000140 0b c8 32 3f 80 e4 95 bf cc 76 8d 3f 9f 8d 39 3f
       0.6983649 -1.1710358 1.1051879 0.7248172
000150 94 c7 b3 3f b6 4c 9f bf fd d9 8d 3f cc 6d 4a 3f
       1.4045281 -1.2445285 1.108215 0.79073787
000160 f5 28 3f 3f 4f 38 2f bf 1f d4 27 3f 35 81 b0 3f
       0.7467187 -0.68445295 0.65558046 1.3789431
000170 63 09 a9 bf 54 98 37 3f cf 24 c5 bf 8c 6a 15 bf
       -1.320599 0.7171681 -1.5401858 -0.583657
000180 36 6b 35 bf 25 a0 84 bf 3d 97 6f 3f ad 9e 90 bf
       -0.70866716 -1.0361372 0.93590146 -1.1298424
000190 55 16 d0 3f 76 f8 7b 3f e0 da fc 3d b1 78 be bf
       1.6256815 0.98425996 0.123464346 -1.4880582
0001a0 14 45 2b 3f d4 60 9b bf 47 ea 64 bf d7 c9 6e bf
       0.6690228 -1.2138925 -0.8941998 -0.93276733
0001b0 56 d0 a5 3f 4f 3a 6f 3f 39 1b cc bf ab e3 78 3f
       1.2954204 0.93448347 -1.5945808 0.97222394
0001c0 53 51 b0 bf f7 9f 93 bf 75 8d a1 3f ea f7 cc 3f
       -1.3774818 -1.1533192 1.2621294 1.6013157
0001d0 ed a2 ae 3f 1a 32 a0 be d7 87 71 be a9 89 a5 3f
       1.3643471 -0.31288224 -0.23586975 1.2932636
0001e0 46 5a b9 3f a7 8a e6 3e cb 1f 5a bf 9f be 19 bf
       1.4480674 0.45027658 -0.8520476 -0.6005649
0001f0 3a ef 6d bf 54 4d 31 3f 1f 5f ac be 99 ea 18 bd
       -0.92943156 0.6925862 -0.33666322 -0.037333105
000200 2d 3f 61 3f 43 76 47 bf be d5 6e bf 9d 61 e4 be
       0.87987024 -0.7791483 -0.93294895 -0.44605723
000210 47 dd 9f 3f d0 61 42 3f df e9 29 bd 0d a5 7f 3f
       1.2489403 0.759305 -0.041482802 0.9986122
000220 9e 90 74 bf 6f 28 17 be 75 58 b5 3e d1 97 7c 3e
       -0.9553317 -0.14761518 0.3541905 0.24667288
000230 c2 c3 54 bf 3b 39 37 bd 83 c5 38 3e b2 4e 44 3d
       -0.831112 -0.044732314 0.18044095 0.047926612
000240 01 c2 3d be 82 53 19 3f 38 b5 c9 3e 3c f7 22 be
       -0.18531038 0.5989305 0.3939607 -0.15914625
000250 a8 8d 28 bd 83 88 f9 be 07 5c 16 bf b1 fa 05 3f
       -0.04115072 -0.48736963 -0.5873417 0.5233565
000260 87 7d 37 bf 89 20 67 be 41 eb ec 3e 92 cb d7 be
       -0.71675915 -0.22571005 0.46273234 -0.421475
000270 fa b3 b2 be be 87 a7 3e 9d b2 a8 be 03 c4 20 bf
       -0.34902936 0.3272075 -0.3294877 -0.6279909
000280 54 32 36 be 2e 97 ec 3e 92 6f a6 bf 8a 4c 5b be
       -0.17792636 0.4620909 -1.3002799 -0.21415916
000290 73 47 86 3f 90 3e 36 bf 20 eb 8d 3f a8 30 7b be
       1.0490555 -0.7118921 1.108738 -0.2453028
0002a0 de 0a 8c bf 26 59 af 3f 23 04 96 3f ea 29 8d bf
       -1.0940816 1.3699081 1.1720012 -1.1028416
0002b0 57 f2 84 3d b8 cb 9e 3e 8d e4 07 3f 4b 3a e3 3e
       0.06491535 0.310148 0.53083116 0.44380412
0002c0 15 2c 31 bf 7b 28 35 3f 54 0c a6 bf 72 77 cb bf
       -0.6920789 0.70764893 -1.2972512 -1.5895827
0002d0 17 6b 47 be 0d 3d 51 be a4 da 7c 3e b9 a9 1f 3e
       -0.19474445 -0.20433445 0.2469278 0.15592088
0002e0 c3 92 8d 3e 1c e5 85 be 46 88 c3 3d b2 3d c6 3d
       0.27651033 -0.2615136 0.095474765 0.09679736
0002f0 c2 79 27 3c 32 f6 c2 bc 2f 12 63 3e 74 38 00 3e
       0.0102219 -0.023799036 0.22174905 0.12521535
000300 f0 1c 37 be 54 79 86 3d a6 d2 88 be 26 dc 65 be
       -0.17882133 0.0656611 -0.26723212 -0.22447261
000310 c2 07 9c 3d 42 39 38 be 27 99 9e 3d c9 b7 95 bd
       0.07618667 -0.17990592 0.07744055 -0.07310445
000320 5a e8 2e bf 66 ae 3a 3d bd db 95 bd ae f5 bd bd
       -0.6832329 0.045576476 -0.073173024 -0.09275375
000330 51 4f 90 be 34 f3 c6 3e 35 b4 77 3e f9 42 3f be
       -0.28185514 0.38857424 0.24189837 -0.18677892
000340 d4 94 93 bd f2 85 21 be 7b 01 fb be a5 16 d5 3d
       -0.07206121 -0.15773752 -0.49024567 0.1040471
000350 26 2d c7 be 8d ad 91 be 5c 13 04 3f c9 95 d2 bd
       -0.38901633 -0.2845272 0.5159204 -0.102824755
000360 6f 49 c5 bd 9a 16 b0 3e 7b b5 a4 be 09 ea c6 be
       -0.09633147 0.34392244 -0.3216971 -0.3885043
000370 56 10 e2 3a 89 40 3d 3b 05 c0 5a 3d 6b 58 03 3d
       0.00172473 0.0028877577 0.05340578 0.032066744
000380 53 52 7b 3d 17 42 56 bc 06 83 95 3c 9d e6 41 bc
       0.061357807 -0.0130772805 0.018250953 -0.011834768
000390 85 d5 19 bd df af ce 3c 88 12 40 3d e9 8d 7d 3d
       -0.037557144 0.025230346 0.046892673 0.061902914
0003a0 41 cf a8 bd 6d ed e1 bc ae a4 b1 bc 26 e8 8f bd
       -0.082426555 -0.027579034 -0.02168497 -0.07026701
0003b0 41 68 e5 3b 6c 02 9a ba d9 42 f2 bc aa 7f 0d bd
       0.0070009534 -0.0011749989 -0.029572891 -0.034545578
0003c0 40 54 82 38 e0 c0 6c bb 31 c3 4f 3d d6 43 25 3d
       6.214576e-05 -0.0036125705 0.05072326 0.040347897
0003d0 e2 e1 44 3d fa c8 03 bc 6a e0 91 3c 1a 06 c6 bb
       0.04806698 -0.008043522 0.017807204 -0.006043208
0003e0 d3 07 2d bd 92 6d a9 3c f7 54 4e 3d 06 dc 4d 3d
       -0.04224379 0.02068213 0.050373998 0.05025866
0003f0 37 cd a4 bd 01 b7 d5 bc fc 38 96 bc ec 9c 98 bd
       -0.08046954 -0.02608824 -0.01833772 -0.074518055

linear.bias f4 [14]
000000 ff 70 63 3f 55 85 95 3f 83 5c 35 3f c8 7d 84 bf
       0.88844293 1.1681315 0.70844287 -1.0350885
000010 70 31 48 3f 36 2b 9e 3f 30 8b 67 3e 52 a2 ab be
       0.78200436 1.2356937 0.2261169 -0.33522278
000020 06 e5 df 3e 07 de 6d bf 85 33 0f bf 47 02 96 bf
       0.4372942 -0.9291691 -0.5593799 -1.1719445
000030 92 df 93 bf 17 fc 95 bf
       -1.1552603 -1.1717557
