trained_weights/unicorn/unicorn15.pth (torch, 16655 bytes, 8 tensors)

conv1.lin_l.weight f4 [32, 30]
000000 da 1c 09 3d 08 f3 3d 3d d9 93 1d 3d 2b 53 75 bc
       0.03347478 0.04637435 0.038471077 -0.014973442
000010 b5 ca 39 bd 3b 66 9b 3c 99 c2 0e 3c 16 13 e2 3a
       -0.045359332 0.018969646 0.008713388 0.001724812
000020 b7 9b 00 3d 64 d5 7b 3c a2 55 86 3c 4e 1b 0a bb
       0.0313985 0.0153707005 0.016398255 -0.0021073404
000030 98 a2 5b ba 38 94 2a 3d e4 1a 3e 3c e6 97 ef 3c
       -0.00083784154 0.04164526 0.011603091 0.029247236
000040 aa 01 ec bc 04 00 cb bc 8d 67 a7 3a 3f a9 a6 bc
       -0.028809387 -0.02478028 0.0012771949 -0.020344375
000050 0d dd 07 bd c0 6b db 3a bd 3f a9 3b d3 ce 19 3d
       -0.033169795 0.0016740486 0.005165069 0.03755076
000060 ac 40 04 3c 42 0d f3 3c 47 a3 b8 3c d0 3a f3 3c
       0.00807206 0.029669408 0.022538794 0.02969113
000070 21 24 ad 3c c1 9a a0 3c 99 40 cb 3c 8c 2c 6c 3d
       0.021135392 0.019605042 0.024811076 0.05765967
000080 d5 ef d6 bd f4 b4 ab 3c da 48 70 3d 19 bb 1a bd
       -0.10494963 0.020960309 0.058663227 -0.037776086
000090 e9 64 00 bd 3c bb eb bc 1c 96 b6 bd b8 e0 fb 3c
       -0.031346235 -0.028775804 -0.0891535 0.030746803
0000a0 6f fd 3b 3d 62 b7 ea bc d1 c8 4e 3d 6e f3 34 be
       0.04589599 -0.028651897 0.050484482 -0.17670986
0000b0 f4 f7 ae 3c 30 aa d2 bd 28 d9 b7 bd 2b d0 4f 3d
       0.021358468 -0.10286367 -0.08976966 0.050735634
0000c0 a3 d4 4c bc ac 80 e8 bd 82 1e 1a 3e 7f c4 40 3c
       -0.012501868 -0.11352667 0.150507 0.011765598
0000d0 d1 81 91 bc 14 7e 09 be df be 81 3d 06 4a e3 3d
       -0.017762097 -0.13427001 0.06335234 0.11098103
0000e0 17 5f 2c bd 34 47 a5 3d 4e 96 d9 bd 7d 8d 3f bd
       -0.042082872 0.080702215 -0.106243715 -0.046765793
0000f0 e7 37 18 be b2 d6 83 bd b6 96 dd bc 75 da b6 bd
       -0.14865075 -0.06437434 -0.027049404 -0.08928386
000100 11 bb 62 3d db 43 8c bc 95 ae 58 bd 4f 2e 1e be
       0.05535418 -0.0171222 -0.05290087 -0.15447353
000110 22 13 bd 3d 7d 59 1e 3e f2 71 9f bc d2 f7 ae 3d
       0.09232165 0.15463825 -0.019463513 0.08543362
000120 eb 24 cd 3d ae f3 82 bc e4 82 d8 3b fb 50 73 bc
       0.10016807 -0.015985336 0.0066074003 -0.01485085
000130 ed 95 dc 3d 09 c5 82 bd 11 1d c6 bd 92 68 07 bd
       0.107707836 -0.06385238 -0.09673513 -0.03305871
000140 37 60 e1 bd db 7a c0 bd 02 ca 8b bd e7 92 dd bd
       -0.1100468 -0.09398433 -0.06825639 -0.10819035
000150 f6 bd 37 bb fa 57 a7 bb d6 43 6b 3e 20 14 46 be
       -0.002803681 -0.005106923 0.22975096 -0.19343615
000160 06 10 31 3e 30 ab a9 bc ea fa 90 bd bd 6d 1d be
       0.17291269 -0.020711511 -0.07079108 -0.15373893
000170 58 d0 0d 3d 1b a3 c1 3c 49 c2 16 3e b5 7f 96 bd
       0.03462252 0.023637345 0.14722551 -0.07348577
000180 bf b7 c8 bd bd e7 8d bc 82 08 83 3e 20 e5 86 3d
       -0.09800672 -0.017322415 0.25592428 0.06586671
000190 90 41 05 bd cd 23 86 3e eb 82 2b 3e 90 98 02 3e
       -0.03253323 0.2619919 0.1674916 0.1275351
0001a0 8f 88 34 bd 4e e8 86 bc a2 0c 32 3e 39 19 8f 3c
       -0.044075545 -0.016468193 0.17387632 0.017468082
0001b0 bf 23 4b be b9 fa cb 3d 89 91 96 bd ec 60 25 be
       -0.19837855 0.09959931 -0.073519774 -0.16150254
0001c0 70 6b fc 3c aa 70 3b be c3 ed 1d bd 1e 74 01 bd
       0.030812949 -0.18304697 -0.038556825 -0.03160488
0001d0 c0 7a a3 3e 7c 8d 44 be f1 48 d3 3c 5b 1b 0f 3e
       0.31929588 -0.19194597 0.025791617 0.13975279
0001e0 b0 04 74 3c 7b ff 46 3d 95 52 17 be 6f b5 0e bc
       0.014893696 0.04858349 -0.14777596 -0.008710249
0001f0 cc 99 7c 3c e6 f5 28 bd 42 1b 2f bd 4f 07 89 bb
       0.015417527 -0.041250132 -0.042750604 -0.0041817795
000200 72 ff f3 bd d4 b1 8f 3d be c2 11 3d 07 aa 80 bd
       -0.11913957 0.0701634 0.03558611 -0.0628243
000210 35 fa 59 3d a4 ba 3d be 09 57 23 3d c0 40 cf bd
       0.05321713 -0.18528229 0.039877925 -0.10119772
000220 bb 6d bf bd bb a1 fb 3c da 39 ba 3c aa ff 2a be
       -0.09347101 0.030716768 0.022732664 -0.1669909
000230 33 a0 47 3e 94 df a9 3c a9 ef b7 bc 83 5c 0b be
       0.19494705 0.020736493 -0.022453146 -0.13609509
000240 94 72 be 3d 4a d6 aa 3d 4f 50 5b bd 58 a2 82 3d
       0.09299198 0.08341654 -0.053543385 0.06378621
000250 cb 4d eb bd ef b5 67 bd af bf 6a bc 37 17 6d 3d
       -0.11489447 -0.05656999 -0.0143279275 0.057883468
000260 1e 17 ca bd bd 6a e4 3b eb 95 70 3c c8 9f 9c 3b
       -0.098676905 0.006970732 0.014684181 0.0047797896
000270 59 74 7d bd f3 1c 27 bd 89 69 0c be d9 c3 68 3d
       -0.061878536 -0.040799093 -0.13712133 0.0568274
000280 e5 a3 80 3d 56 28 ca bc ca 6c 3e 3d a6 71 14 be
       0.062812604 -0.024677437 0.046490468 -0.14496478
000290 52 30 bd 3c 47 12 f1 bd a0 21 c4 bd 08 81 f4 3c
       0.02309433 -0.11771064 -0.09576726 0.029846683
0002a0 ee 72 5f 3c db c8 0d be dc eb 1b 3e ab 2a 0f 3d
       0.013638241 -0.13846152 0.15226692 0.0349528
0002b0 40 35 ff bc cc 1a f5 bd da dd df 3d dd 37 ca 3d
       -0.031153321 -0.11968002 0.10930987 0.09873936
0002c0 d0 ed b8 bc 15 c1 9d 3d e8 26 83 bd f6 1b b6 bd
       -0.022574335 0.07702843 -0.06403905 -0.08892052
0002d0 d8 7e 17 bd 81 f0 75 bd a9 fc 8d bd 4e 0a 4a 3d
       -0.036986202 -0.060043816 -0.06932957 0.049326234
0002e0 ef c7 0a 3e a9 5d 3e bd 8d 93 e0 bc 6a 13 ba bc
       0.13552831 -0.04647604 -0.027414108 -0.022714335
0002f0 9d 55 12 3e 2a c3 54 3c d8 f8 10 bd 91 08 4f 3e
       0.14290471 0.012985984 -0.035393566 0.20218112
000300 21 ae ab 3d 35 5d 54 bd a8 04 c7 bd 29 cb 90 bd
       0.08382822 -0.0518467 -0.09717685 -0.0707
000310 da 8d 49 3e d8 54 04 3e 79 9d 43 be d8 ea 83 3d
       0.19683018 0.1292299 -0.1910304 0.06441277
000320 15 8c 48 bd 02 9e c3 bd 38 0e 0f bc 56 41 19 be
       -0.048961718 -0.09551622 -0.008731417 -0.1496633
000330 b8 ff 03 be 37 a8 67 3d 17 f8 ba 3d 7d e8 37 be
       -0.12890518 0.056556907 0.09129351 -0.17959781
000340 bc f8 56 3d be 73 a0 3d 1f d4 8b 3c 15 19 05 be
       0.052483305 0.07834576 0.01706892 -0.1299785
000350 dc e2 c5 3c 7c a1 99 bc 46 1a 6a 3d d5 a4 12 be
       0.024156027 -0.01875376 0.057153963 -0.14320691
000360 de 30 26 be 48 c3 83 3d 40 a4 5b 3e 12 1f 85 3e
       -0.16229579 0.06433731 0.21449375 0.26000267
000370 b3 78 7b bd b3 50 8e 3e 00 2b 08 3e b1 e1 05 3e
       -0.061394405 0.27795944 0.13297653 0.13074376
000380 d8 60 84 3d ab 01 76 3d d6 b5 69 3e 5e cf ab bd
       0.06463784 0.060060184 0.22823271 -0.083891615
000390 55 7b 00 bd bb 37 ee 3d ce e8 a6 bd a6 ec 13 be
       -0.03136762 0.116317235 -0.08149873 -0.14445743
0003a0 2a de 0b bd c1 3f 55 bd 2e b7 50 bd be f8 34 be
       -0.03414742 -0.052062754 -0.050955944 -0.17673013
0003b0 81 92 57 3e 2a 9b 2c be 76 39 d0 bd 7d b5 07 3e
       0.2105198 -0.16856065 -0.1016721 0.13252826
0003c0 8d 54 f4 bc 15 af 18 3d 05 49 f7 bd b0 19 77 3c
       -0.029825473 0.037276346 -0.12074474 0.015081808
0003d0 6f 18 b4 3c c7 56 a1 3d 77 df 67 3c c2 b8 0c bd
       0.021984307 0.078778796 0.014152399 -0.034355886
0003e0 f4 2b d4 bd 0b e4 f8 3c f2 33 44 3d 63 43 9c bc
       -0.10359946 0.030382177 0.0479011 -0.019075101
0003f0 22 60 1a bc e7 d6 2e be ce 3b 89 3d 84 2b f2 bd
       -0.009422334 -0.17074166 0.0670086 -0.11824706

conv1.lin_l.bias f4 [32]
000000 98 57 2a bd 99 19 c8 bd e5 00 f0 bd 4e 24 15 be
       -0.041587442 -0.09770507 -0.117189206 -0.1456463
000010 9f 11 00 be 3a 63 bf bd df 7c 2e be 11 89 1c be
       -0.12506722 -0.09345098 -0.17039822 -0.15286662
000020 75 33 af bd c2 e0 29 be 87 fe ac bc 0c 4f a7 3c
       -0.085547365 -0.16589645 -0.021117462 0.020423435
000030 b7 ee 1b be 9e 45 45 3a db 60 1f be 0e 24 7a bd
       -0.15227781 0.00075253274 -0.15564291 -0.06106954
000040 02 f7 05 3d 70 60 80 bd 2c 32 e2 3c b7 77 05 be
       0.032706268 -0.06268394 0.027611814 -0.13033949
000050 36 bf c7 bd 8e 09 26 be 0c 68 5a bd 2e e1 67 bd
       -0.097532675 -0.16214582 -0.053321883 -0.056611232
000060 76 f6 15 bd 4d ba 3b 3d fe a2 be 3c 0f b0 15 3d
       -0.036611997 0.045831967 0.02327108 0.036544856
000070 fa b6 93 bb 7b 45 92 bd 43 aa 11 be 5d 9c bd bd
       -0.0045078965 -0.071421586 -0.14225106 -0.092583396

conv1.lin_r.weight f4 [32, 30]
000000 6b 31 19 be db cf a3 3d 62 4a 42 be 5f 89 1a be
       -0.14960258 0.0799863 -0.18973687 -0.15091465
000010 d3 99 06 be 1c 1d f6 bd c4 a8 08 bd 00 84 0a be
       -0.13144617 -0.12017271 -0.033364072 -0.13526917
000020 a4 06 f2 bd fb fb 93 3d e5 4c 40 3c 1f d6 08 be
       -0.11817673 0.07225796 0.011737083 -0.1336293
000030 57 f9 fc 3c c3 0c e5 bd 7f 79 c1 3d b7 d9 06 3e
       0.030880613 -0.11184075 0.09447002 0.13168989
000040 29 37 a8 bd 72 57 d1 bd 3f f1 70 3d df 87 0a be
       -0.08213646 -0.10221757 0.05882382 -0.13528393
000050 43 14 93 bd ef af e8 bb 72 3a e4 bd 2c 5e 1f 3d
       -0.07181599 -0.007101051 -0.1114396 0.03890817
000060 35 ff 45 3d f7 bb d5 bd a0 87 a4 3d 21 63 29 be
       0.048339088 -0.10436242 0.08033681 -0.16541721
000070 78 aa 11 3d cd 47 33 bd 31 e3 41 3e ea 13 9d bd
       0.035562962 -0.043769646 0.18934323 -0.07669814
000080 0a 52 53 be df 88 43 be 9b e5 5a 3c 51 0f 6f 3c
       -0.20636764 -0.19095181 0.013360406 0.014591054
000090 51 d2 a3 3e 40 54 63 be 6c d9 eb 3d a0 fd d8 bd
       0.31996396 -0.22200108 0.11516079 -0.1059525
0000a0 fc 17 c8 3e 61 74 13 3e 8a fd 39 bc 0c cc 72 3e
       0.390808 0.14399864 -0.011351952 0.2371065
0000b0 29 73 64 be 62 f3 37 3c 5f 7c f1 3c 81 e2 ed bd
       -0.22309555 0.011227461 0.02947825 -0.11615468
0000c0 12 32 97 bc ee ad 21 3d 50 44 5c bd 0e fe d0 be
       -0.018456493 0.039472513 -0.053776085 -0.40818828
0000d0 fa b6 68 3e 18 4f b3 3d a4 68 da be d9 86 d9 bd
       0.2272605 0.0875532 -0.4265796 -0.10621423
0000e0 00 dc 6b 3e a9 98 35 be 4d 72 e8 3c a8 e1 32 bd
       0.23033142 -0.17734016 0.028374815 -0.043672234
0000f0 ab 5b 3a bc e0 fc cf bd 6c 65 f6 bc e5 19 24 bc
       -0.011374394 -0.10155654 -0.030077659 -0.010015939
000100 22 03 db 3d 34 21 fb bd 2c bd 0b be f3 7f 51 3e
       0.10693957 -0.12262192 -0.13646382 0.20458965
000110 2e f6 b2 3c 90 c3 9c 3e 73 b1 9d be f0 f6 b1 3b
       0.021845903 0.30617952 -0.30799446 0.0054310486
000120 ea cf fa 3d 42 1b 58 be 81 7d bf bc 46 af 0e be
       0.12246688 -0.21104148 -0.023375275 -0.13934049
000130 96 23 8f 3d b6 ca af bd 9b b1 27 bd c1 9e 4f 3d
       0.06989209 -0.08583586 -0.040940862 0.05068851
000140 73 ea 92 3e 94 30 12 3e c3 86 31 be 8c 2d 6b be
       0.28694496 0.14276344 -0.17336564 -0.22966594
000150 c7 1a 97 bd d0 de ba bd 20 dd 94 bd 14 7a ba be
       -0.07378154 -0.09124529 -0.07268739 -0.36421263
000160 46 8f ef be 87 99 5b 3e 70 bc 34 3c 41 ae 44 be
       -0.46788996 0.21445285 0.011031255 -0.19207098
000170 e9 0e 37 be 61 d9 4b 3c a8 e6 da 3c 74 88 63 be
       -0.17876782 0.012441964 0.026721314 -0.22220021
000180 63 4a 7e be 8d 7c 92 3e 79 3e db 3d 2c 48 8a 3e
       -0.24833064 0.2861065 0.10705275 0.27008188
000190 6a d3 bc be 9f ed 11 bc 98 51 21 3e 49 5d 5e be
       -0.36880046 -0.008906751 0.15753782 -0.21715273
0001a0 5a b4 c6 3d 81 94 f3 bd ad 06 1c 3e 6e 5c af bd
       0.09702368 -0.11893559 0.15236922 -0.085625514
0001b0 a8 2d 1d bd 1b 6d ef 3c b7 6d 7b 3e 74 8e 38 3e
       -0.03837362 0.02922683 0.24553572 0.18023092
0001c0 d5 35 41 be 9a ac aa be 16 11 76 bd 6a 2b 26 be
       -0.18868192 -0.3333481 -0.06007489 -0.16227499
0001d0 7a 6b 4a 3d 9b 12 fb be 8d 43 d4 be 10 88 2f 3e
       0.049418904 -0.49037632 -0.41457787 0.17141747
0001e0 e5 92 1e 3e 21 ce c7 bd c0 91 73 be 91 a0 27 be
       0.15485723 -0.09756113 -0.23786068 -0.16369845
0001f0 da 82 1d 3c b1 da 17 3c 64 59 94 3e f3 f8 5f be
       0.009613717 0.009268449 0.2897445 -0.2187231
000200 3e cb 96 3d 96 ed 06 be 97 cd c8 3e 41 32 08 3e
       0.07362984 -0.1317657 0.39219353 0.1330042
000210 04 1d 0e bc 75 b0 5e 3e 9f 08 6f be 4e f8 98 3b
       -0.00867391 0.21747 -0.23343132 0.004668272
000220 f7 f1 f9 3c 86 f0 d1 bd 04 e0 0b bc 30 67 20 3d
       0.030510886 -0.10250954 -0.008537296 0.039160907
000230 76 98 a1 bc d8 86 bf be fb fb 7f 3e 80 8c a8 3d
       -0.01972602 -0.37407565 0.24998467 0.08229923
000240 c9 75 cc be 2b 10 11 be ce c2 8d 3e 20 29 4c be
       -0.39933613 -0.14166324 0.27687687 -0.19937563
000250 58 9c ff 3c 67 17 87 bd cc 77 25 3e cc 09 64 bd
       0.03120248 -0.065962605 0.1615898 -0.055673406
000260 8e f8 2e be 0e 7d 1d be f7 c4 cf 3c ae a8 13 3d
       -0.17087004 -0.15379736 0.025362475 0.036049537
000270 30 85 8c 3e 84 65 80 be 3e dd df 3d c5 37 d6 bd
       0.27445364 -0.2507745 0.109308705 -0.10459856
000280 8f dc bb 3e ae 9d 1a 3e 11 88 98 bc 76 37 7c 3e
       0.3669171 0.15099213 -0.018619569 0.24630532
000290 94 ec 66 be a8 14 4f bc 87 76 fd 3c 0e 81 da bd
       -0.22551185 -0.012639202 0.030940307 -0.106691465
0002a0 a1 bf a6 bc 8a 19 1c 3b 03 68 ad bd c3 ca c5 be
       -0.020355048 0.0023818933 -0.08467104 -0.38631257
0002b0 84 79 62 3e ab a0 2c 3d 1c af c7 be 17 6b a1 bd
       0.22116667 0.042145412 -0.39000785 -0.07881754
0002c0 97 a6 9b 3e a5 0c 25 be d1 f2 89 3d 0b 1b 3e bd
       0.30400535 -0.16118105 0.06735767 -0.04641251
0002d0 4e 1e 26 bc fd b5 a8 3c 4a fd 4c be 71 52 2d be
       -0.010139061 0.020594591 -0.20018497 -0.1692598
0002e0 bf 6b 55 be ac 76 42 be e4 b7 86 be 2c 09 0f 3e
       -0.20841883 -0.18990582 -0.26312172 0.13968343
0002f0 87 4d 86 bc e2 7d da 3e 0f b3 b1 be 21 7f 6e be
       -0.01639439 0.42674166 -0.34706923 -0.23290683
000300 83 ae d0 3c 44 4a 58 be d1 42 8d 3e d1 26 c2 3c
       0.025473839 -0.2112208 0.2759004 0.02370015
000310 47 76 17 be 03 18 8f be 9c 01 47 3e c1 9f 41 be
       -0.14791213 -0.27948007 0.19434208 -0.18908598
000320 34 f0 b7 3d b7 ee bb 3d c0 0f 4c be 73 db f1 bd
       0.08981362 0.091763906 -0.19927883 -0.11809435
000330 ea 55 0c bd 46 df 88 be 76 4b 4a 3e d6 26 c5 be
       -0.03426162 -0.26732844 0.19755349 -0.38506192
000340 14 e1 8e be cf 7f 23 3d 06 b8 86 bd a8 91 7f be
       -0.27906096 0.03991681 -0.065780684 -0.24957907
000350 f0 19 2e be 33 ff d5 3d 4a 4b 98 3d 9b 11 15 be
       -0.17002082 0.10449066 0.07436235 -0.14557497
000360 36 92 81 be 29 11 8c 3e 5c 14 c3 3d 7d 1f 8c 3e
       -0.25306863 0.27356842 0.095253676 0.27367774
000370 0f f4 ce be e3 43 53 3d 5a ab 00 3e a1 f8 8a be
       -0.40420577 0.051578414 0.12565365 -0.27142814
000380 ff 7a 13 3e 25 f8 68 be cd 83 34 3e bb 9c fa bc
       0.14402388 -0.2275091 0.17628403 -0.030592313
000390 94 7e 61 bd 0b 57 72 3d e1 6e a0 3e 70 d8 02 3e
       -0.055052355 0.059165042 0.31334594 0.12777877
0003a0 d5 a2 15 be ca 3a b6 be 64 d3 80 bd bf 11 4f be
       -0.14612897 -0.35591727 -0.062903196 -0.20221613
0003b0 b8 9e 62 bd 81 02 02 bf 72 39 e1 be cf 96 63 3e
       -0.055327147 -0.5078507 -0.4398914 0.22225498
0003c0 56 89 14 3e 43 cf 9d bd 36 95 24 be ba 39 05 be
       0.14505515 -0.07705548 -0.16072544 -0.13010302
0003d0 f0 0f 4a ba e5 dd a9 ba 19 76 70 3e ef 7b 98 be
       -0.00077080633 -0.0012959806 0.2348255 -0.29782054
0003e0 d6 9c dc 3d ea ce b0 bd e4 39 bc 3e d5 aa 32 3e
       0.107721016 -0.08633216 0.36762917 0.1744798
0003f0 99 f2 23 3c 86 48 64 3e df 3d 2d be 31 a2 39 3c
       0.01000657 0.2229329 -0.16918133 0.011330173

conv2.lin_l.weight f4 [20, 32]
000000 e4 bf 35 3e c8 ad 6e 3c 26 4d 0a be 8d f6 25 bd
       0.17748982 0.0145678 -0.13505992 -0.040518332
000010 2e cc 33 bb ca e4 4c 3b 55 23 dd bc da 80 26 bb
       -0.0027434933 0.0031264299 -0.026994387 -0.0025406391
000020 38 8b 24 3a 1a fd f8 bd ef 5b ad bc 2e 7b 0a be
       0.0006276849 -0.1215765 -0.021162001 -0.13523552
000030 64 3d d7 3a 26 b0 de be 63 59 bd bd 33 8d 08 bf
       0.0016421494 -0.43493766 -0.09245565 -0.5334045
000040 4c ff d5 bd 64 b3 aa bd 6b f0 ad bd a8 64 3c 3a
       -0.10449085 -0.08334997 -0.08493122 0.000718663
000050 68 67 70 3b 23 61 dd bd ae f0 b0 bd a4 08 95 bd
       0.0036682729 -0.10809543 -0.08639656 -0.07277039
000060 0e 00 a7 bd 30 7c 0e bd 91 6a cb bd 82 cf 01 be
       -0.08154307 -0.034786403 -0.09932435 -0.12676814
000070 c2 81 2e 3c e3 4d b1 3e 7a 7e c0 3c 73 02 26 bc
       0.010651054 0.34629735 0.023497809 -0.01013242
000080 89 6b b6 3d cf ff 3c 3b ce 9c 5f 3c ee e8 7f bc
       0.089072295 0.0028838997 0.013648225 -0.0156195
000090 d8 42 95 3c 92 eb 92 3c ff e6 dc bc 5c 06 7b 3c
       0.01822035 0.017934594 -0.026965616 0.01532134
0000a0 90 a9 ce 3c 6e e4 4e bd 8f 5d 86 3c 85 12 6a bd
       0.025227338 -0.050510816 0.016402034 -0.057146568
0000b0 34 3e 24 bd cf 71 7b be 08 b0 11 3c c4 a4 a4 be
       -0.040098384 -0.24555133 0.008892067 -0.32156956
0000c0 a5 3b 12 bd ae 67 7d 3d 90 52 f6 39 96 a6 4b 3d
       -0.035701413 0.061866455 0.0004698229 0.049719416
0000d0 d2 64 84 3d 64 f3 f7 bd 6e da 6b 3d c9 3b ba 3d
       0.064645424 -0.1210697 0.057581358 0.09093434
0000e0 fd 5e a9 3d 2f 9c 0f 3d 8e 83 ce bc 81 e2 92 bc
       0.08270071 0.035061058 -0.025209215 -0.017930271
0000f0 ab 54 6f 3d a4 5c 62 3e 51 6e f3 bb ee c4 19 3d
       0.058430355 0.22105652 -0.007428922 0.037541322
000100 39 b0 68 bd 26 f2 0c 3d 66 45 f1 3c e0 36 1e bd
       -0.056808684 0.03441062 0.029452037 -0.03862655
000110 80 49 01 3d f6 3c f7 3c 15 31 e1 bd 17 d0 90 3c
       0.031564236 0.030180436 -0.1099569 0.01767735
000120 44 40 ba 3d a7 df ef bc b9 6d 88 3c 5e 11 00 be
       0.09094289 -0.02928145 0.016653882 -0.12506625
000130 7e 91 70 bc f8 bf 3b be 10 bc 85 bd fa 4e 62 be
       -0.014683126 -0.18334949 -0.06530011 -0.2210044
000140 3f 35 b2 bd 4c 2b 74 3d bc f1 0d bd 6a 68 27 3d
       -0.08701562 0.059611604 -0.034654364 0.04087106
000150 44 64 41 3d b2 51 e6 bd 8f be 66 3d 90 61 81 3d
       0.04721476 -0.11246051 0.056334075 0.06317437
000160 57 da 8f 3d c4 9a 8d 3a 06 a7 f8 bd ab 9f af bd
       0.07024067 0.001080357 -0.12141232 -0.08575376
000170 20 04 a5 bb 6b a3 45 3a de 19 11 bd a4 c7 20 3d
       -0.005035892 0.0007539305 -0.03542506 0.039252892
000180 56 77 b2 bd 16 79 e0 3c b8 68 ca 3d fc 84 7b 3c
       -0.08714168 0.027401488 0.09883255 0.01535153
000190 17 9b b4 3c 2b 37 1d 3d 93 08 9c bc 59 6d 19 3d
       0.022046609 0.03838269 -0.019047057 0.037457798
0001a0 d1 98 a8 3d 6e 31 c2 3d 48 6f 9b 3c e9 23 94 bd
       0.082322724 0.09482084 0.018973961 -0.07233412
0001b0 7a 0b 76 3d 49 d6 8f 3d 2f 26 b7 bc 74 fe 94 3d
       0.06006954 0.070232935 -0.022357075 0.072750956
0001c0 10 4a 6d bd 3e 1c 93 3c 28 14 06 bc 97 f9 a6 3c
       -0.05793196 0.017957803 -0.008183517 0.020382686
0001d0 6b 17 f9 3b 02 8b 75 bd b9 20 b4 3c 6d ab 0b 3a
       0.0076016686 -0.05994702 0.02198826 0.00053279736
0001e0 12 0e c4 3b 73 e9 78 3c 21 85 97 bd e9 ac 56 bd
       0.0059831226 0.015192377 -0.07398439 -0.052410994
0001f0 8d 04 a4 bc 82 62 55 be 35 ef fe 3c 43 57 1a 3d
       -0.020021701 -0.20838359 0.031119922 0.037680876
000200 f4 72 93 bd 5b 64 06 bd 9b 20 90 bc de ed 17 bb
       -0.0719966 -0.03281055 -0.017593672 -0.0023182551
000210 20 0e 3d bc 06 34 13 bd 42 de 53 3d c5 55 48 bd
       -0.011539012 -0.035938285 0.051725633 -0.04890992
000220 a0 d3 d0 bc 95 a7 98 bd ed 43 d1 bc c0 53 d6 bd
       -0.025491536 -0.07453839 -0.025545085 -0.10465193
000230 0b 3d 81 bd aa 82 18 be f1 ed 03 3d 18 ca 41 be
       -0.06310471 -0.14893594 0.03220934 -0.18924749
000240 39 86 e7 bd 6f 72 d6 3c 50 03 b6 bd ff dc d6 bb
       -0.11304898 0.026177613 -0.088873506 -0.0065571065
000250 dc e3 97 3c f2 98 85 bd db eb 85 3c 97 54 17 3c
       0.018541269 -0.06523313 0.016347816 0.009236476
000260 af 5f 49 3c 3e 7c 8a bd 17 72 a7 bd a7 36 e1 bd
       0.012290879 -0.067619786 -0.08176058 -0.10996752
000270 7b 32 02 bd db e9 78 3b 59 c9 56 bd d2 12 8b 3b
       -0.031786423 0.0037981186 -0.052438114 0.004244187
000280 95 27 d7 3c 7e 9f 81 3c 5a 9b 1a 3e 02 ba 6c 3c
       0.026263991 0.015823122 0.15098324 0.014448645
000290 8f e5 f8 3c 94 ef 0f 3d 24 93 82 bd 20 71 69 3d
       0.0303829 0.03514059 -0.06375721 0.05699265
0002a0 48 51 9f 3d 84 a7 9f 3d 58 02 31 3d 13 a5 bb bc
       0.07779175 0.07795623 0.043215126 -0.022905862
0002b0 4a 6f 0f 3d 2b 0e 92 3d 11 6d c5 3b 75 03 87 3d
       0.035018243 0.071316086 0.0060249646 0.06592456
0002c0 16 2c 05 3c 13 46 dc 3d 63 ae 04 3d 9e e6 8a 3d
       0.008128187 0.10755553 0.03239287 0.06782268
0002d0 5b 07 58 3d bc 72 de bc c9 b9 db 3d b6 42 e7 3d
       0.05274139 -0.027154319 0.10728795 0.11292021
0002e0 59 b4 fc 3d 87 d8 46 3d 20 9a 29 bc 39 9a e2 3c
       0.12339086 0.04854634 -0.010351688 0.02766143
0002f0 21 ef 1c 3c 8b 53 96 bd 40 92 25 3d 0b eb 24 3d
       0.009578497 -0.07340153 0.040422678 0.040263217
000300 79 7d 7e bd 4b 13 44 bd 2c f2 45 bc c0 e0 d6 3c
       -0.06213138 -0.04786996 -0.012081664 0.026230216
000310 5b 95 26 bd 07 37 4a bd 31 f5 db 3d 8b f6 2a bd
       -0.04066978 -0.049368884 0.10740126 -0.041739028
000320 74 8b 77 bd 35 ab 63 3c fc 33 8c bb 3d 2d ee bc
       -0.060435727 0.013895799 -0.004278658 -0.029074306
000330 6e f3 7a 3b 0e d1 f6 3d b0 de ad 3c a1 a9 1e 3e
       0.0038292068 0.12051593 0.02122435 0.15494396
000340 76 02 29 bd 31 5f a9 bd f6 7f 9d bc 51 e4 64 bd
       -0.041262113 -0.082701094 -0.019226056 -0.055881802
000350 60 69 8a bd 1f 5f d6 3c e4 81 95 bd fb b6 b3 bd
       -0.0675838 0.026168404 -0.07300165 -0.08775135
000360 d4 14 bc bd 5f ef e1 bc ad f0 be bc 3a d2 42 bd
       -0.0918366 -0.027579961 -0.023308123 -0.04756377
000370 60 2e 5a bc 48 c5 54 be 43 0b a4 3b dd 71 19 bd
       -0.013316721 -0.20778382 0.0050062253 -0.037462104
000380 74 16 4d bd 18 ca de b9 98 d1 64 3b 11 b0 b2 3c
       -0.05007024 -0.0004249371 0.0034914967 0.02181247
000390 59 c3 45 bc d9 ea 34 bc 9d 5d fe 3c f9 42 83 ba
       -0.0120705 -0.01104232 0.031050498 -0.0010014466
0003a0 4a c9 5a bc f1 d8 62 3d d9 66 23 bc f8 64 3a 3d
       -0.013353655 0.055382673 -0.009973251 0.045506448
0003b0 f0 2e 50 3d 6d f2 5c 3e de 7b 83 bb ba 0f 8e 3e
       0.050826013 0.21576853 -0.004012569 0.27746373
0003c0 5e 39 ed 3c 0c 70 4e bd 24 70 8a 3a 4b 30 0b bd
       0.028958019 -0.050399825 0.0010561985 -0.033981603
0003d0 08 6a 50 bd c1 0a d6 3d aa 05 40 bd 26 c6 96 bd
       -0.05088237 0.1045127 -0.0468804 -0.073620126
0003e0 6e 3e 94 bd 3a 9e fa bc 0b dc c2 3c dd 90 95 3c
       -0.0723847 -0.030593026 0.023786565 0.018257553
0003f0 cf 2b 62 bd 2a 20 2c be 97 7a bb 3c ad 24 ef bc
       -0.05521756 -0.16809145 0.022885604 -0.029192293

conv2.lin_l.bias f4 [20]
000000 44 a3 37 bc 3e 5a 03 bc e7 d1 2f 3d d0 f9 85 3c
       -0.011208359 -0.008017121 0.042924788 0.016354471
000010 a1 b7 2c 3d 04 3e 38 bd c6 44 ec 3a ae 11 f1 bb
       0.04216731 -0.044981018 0.0018025867 -0.007356844
000020 5e 6f 38 bb fa fe b8 3c e4 a5 ed 3c 7a 21 bb 3c
       -0.0028142552 0.02258252 0.029009767 0.022843111
000030 10 93 25 bd 4a 97 b1 bc f6 b1 ca bb f6 29 d0 bc
       -0.040423453 -0.021678586 -0.0061857654 -0.025410634
000040 88 b9 97 3c 32 d9 1d bc cd 1a 3c bc b5 c6 13 bb
       0.018521085 -0.009634303 -0.011480999 -0.0022548859

conv2.lin_r.weight f4 [20, 32]
000000 7d 87 48 bb 51 86 24 3e 9d 2f 01 3e 1d fa 04 3e
       -0.0030598335 0.16066863 0.1261582 0.12986036
000010 ea a1 4e 3e d4 ac 08 3e ac 53 8f 3d 90 2e 64 3e
       0.20178953 0.13347179 0.06998381 0.22283387
000020 e7 6b 08 3e 73 7c 11 3e 03 60 f0 be 89 56 53 be
       0.13322411 0.1420763 -0.4694825 -0.2063848
000030 3d 19 18 3e 25 bf ee be 18 91 8d 3d ac 58 23 bf
       0.14853378 -0.46630207 0.0691244 -0.6380718
000040 83 f2 5b be 09 c9 0b bd 18 f8 2d be c2 ff 58 3e
       -0.2147923 -0.03412727 -0.16989172 0.21191314
000050 52 d8 12 3e 2d 1d 50 3f 15 0a 18 bd 24 40 04 bd
       0.14340332 0.8129452 -0.03711899 -0.03228773
000060 76 45 84 bd 22 a5 37 be 2c 72 51 be 56 46 57 be
       -0.06458561 -0.17934087 -0.2045371 -0.21022925
000070 f6 06 18 be ee 49 86 bc 43 13 47 3e 31 92 da 3d
       -0.14846405 -0.016392674 0.19440942 0.10672415
000080 e7 8b 1e bd 3a 00 9b bd 56 77 75 3d 76 03 c3 3d
       -0.03870764 -0.075684026 0.05992826 0.095221445
000090 b8 9d 80 bd 38 06 d1 bd 75 2f 1c 3d 40 6c ed 3d
       -0.062800825 -0.10206264 0.038131196 0.11592913
0000a0 b9 e5 5b bd 0c 76 ea 3d 8f 12 0b 3c 32 24 62 3e
       -0.053685877 0.11448297 0.008488311 0.2208412
0000b0 70 45 b5 3d 6a 05 b3 be b0 ea b6 3d 87 91 e5 be
       0.08851135 -0.34965068 0.08931482 -0.4483759
0000c0 08 21 58 3e 29 82 e2 3d b9 94 59 3e 40 82 11 3e
       0.2110635 0.11059982 0.2124814 0.14209843
0000d0 d6 e3 de bd 6f 60 b9 3d 92 a1 b7 3d 6c 63 d6 3d
       -0.108833 0.090515964 0.08966364 0.10468182
0000e0 48 06 c4 3d ac 67 5b 3e ae a2 6e 3e d4 22 6a 3e
       0.095715106 0.21426266 0.23304245 0.22864848
0000f0 41 61 71 3e 59 b1 d6 bd 56 7f 04 3e 4c 8c b3 bd
       0.23572256 -0.10483045 0.129392 -0.08766994
000100 f4 ad c1 3d 64 a0 86 3d e6 f8 6b bd c3 7c 08 bd
       0.09457007 0.06573561 -0.057610415 -0.033322107
000110 92 a8 d3 3d 64 63 86 3d 1c cc 94 bc f0 93 87 bd
       0.103348866 0.06561926 -0.018163733 -0.06620014
000120 fc c0 5b 3d 2e 38 a9 bc 84 71 4d bb 4f 2d 14 3e
       0.05365084 -0.020656671 -0.0031348178 0.14470409
000130 16 d8 5a bd 97 d9 7e be b4 06 08 3d f0 d0 a0 be
       -0.05342873 -0.24887691 0.033209518 -0.31409407
000140 87 0e 0a 3e 5e 01 86 be 28 e0 12 3e 8d 2a b3 bd
       0.13482104 -0.26172918 0.14343321 -0.0874835
000150 b8 a8 8d 3d 61 f6 21 bf 98 a4 8b be a1 45 8b be
       0.06916946 -0.6326657 -0.27274013 -0.2720156
000160 ef 35 8e be 55 8b ba 3d 42 ea 1c 3e a4 21 24 3e
       -0.27775523 0.09108607 0.15323737 0.16028458
000170 9f 32 0b 3e 7f 38 02 3d 68 28 85 bd 14 22 91 3d
       0.13593529 0.03179216 -0.065018475 0.07086578
000180 37 5b 06 3d cc e8 3f 3e 3b 6d de bd d9 6b 27 be
       0.032801833 0.18741149 -0.10860678 -0.16349734
000190 33 83 4d 3e 72 4e 52 3e 06 46 d9 bd 77 ef 22 be
       0.2006958 0.20537737 -0.10609059 -0.15911661
0001a0 04 2e 32 3e 9d 40 2d be d4 df f1 bc ac d9 74 3d
       0.17400366 -0.1691918 -0.029525675 0.0597779
0001b0 80 83 51 be 78 fb 74 bc 29 ae 78 bd b4 f1 b4 3c
       -0.2046032 -0.014952533 -0.060712967 0.02208791
0001c0 3f ca 8a 3d 89 a0 34 bd 8c d1 89 3d 69 2a 68 be
       0.06776857 -0.04409841 0.06729421 -0.22672428
0001d0 13 da 63 3e f0 a1 4b bc 69 be 33 bd 11 19 3d bd
       0.22251157 -0.012428746 -0.04388276 -0.046166483
0001e0 f3 81 4f bd 50 99 93 3c 06 40 35 3d 0d 97 97 3d
       -0.05066104 0.018017441 0.04425051 0.074018575
0001f0 34 f8 6c 3c 1f d9 a6 3d fb df 5b be 36 58 57 3e
       0.014463473 0.08146881 -0.2147216 0.21029744
000200 8e 52 f9 3d 0c b4 8f be 23 d5 46 bd a1 ad 13 3d
       0.12173949 -0.28067052 -0.048543107 0.036054257
000210 ea c3 85 be 5b 46 97 be f9 d8 26 3d 61 72 67 bd
       -0.26126033 -0.29545864 0.040734265 -0.056505565
000220 bf d4 84 be fd 5f 2e 3d 63 38 d8 bd 0a 25 ac 3d
       -0.25943562 0.04257201 -0.1055763 0.08405502
000230 aa 20 0a 3d 8d 30 67 be cd 6c 3f 3c d0 49 96 be
       0.033722557 -0.22577114 0.011683655 -0.2935319
000240 e0 f0 80 3d 3a 78 1a 3e 64 62 18 3d fc aa 8b bb
       0.06295943 0.15084925 0.037203208 -0.0042623263
000250 f1 cb 9a be 4f 51 51 bf 0d b4 0b 3e 03 be 18 3e
       -0.3023372 -0.8176469 0.13642903 0.14916234
000260 af 51 e7 3d e5 4f 8b 3d 37 ce aa 3d 08 15 b4 3d
       0.11294877 0.06802348 0.083401136 0.08793074
000270 dc e4 a7 3d 1d e0 92 3d 36 4b 68 3b 56 d4 8e be
       0.08197948 0.071716525 0.003544522 -0.27896374
000280 b5 07 36 bd aa 00 96 bc 5a 49 c1 bc dc c4 9e bd
       -0.044440944 -0.018310864 -0.023594547 -0.07752392
000290 a4 12 f5 bc 6b 7c 28 bc 07 d6 99 bd ff 8e 47 bd
       -0.029916115 -0.01028357 -0.075115256 -0.048720356
0002a0 62 65 8b 3a 7e e9 c8 bd c1 df a3 3e 70 56 a1 3e
       0.0010635073 -0.0981016 0.32006648 0.3151126
0002b0 6e 9d ee bd 1e c7 ae 3c 41 13 8d bc af 81 cc 3d
       -0.11651121 0.02133518 -0.017221095 0.09985673
0002c0 da d1 9e 3e 77 7a bc bd fa 28 9f 3e 5a 64 66 bd
       0.3101948 -0.09203046 0.3108595 -0.056248046
0002d0 67 36 f8 3b d2 89 32 3f f0 f9 cd bd f7 8b cf bd
       0.0075748446 0.6974155 -0.100574374 -0.10134118
0002e0 21 ec ad bd d1 74 89 3e fe 34 9c 3e cb a0 a5 3e
       -0.08492304 0.26846936 0.3050918 0.32349238
0002f0 6a a3 87 3e 82 b8 ca bc 59 95 b3 bd 56 53 c7 3c
       0.26491863 -0.024746183 -0.0876872 0.02433173
000300 b8 4c bf 3c a4 4f 00 be 4c fd 18 bd 10 03 66 bd
       0.023352012 -0.1253038 -0.037350938 -0.056155264
000310 db 52 d9 bd 47 bf d8 bd 1a 99 b5 bc 85 ca a1 bd
       -0.106115066 -0.10583358 -0.022167731 -0.07899956
000320 05 f2 e5 bd d8 6d 7c bd ca e9 46 3e 82 ac 20 be
       -0.11227802 -0.061628193 0.19425121 -0.15690807
000330 09 99 80 bd 5d 87 e6 3d 7a 82 bb bd b2 71 36 3e
       -0.06279189 0.11256287 -0.09155746 0.17816809
000340 43 c8 1c be ff 95 46 3e c7 22 32 be a2 59 c3 bd
       -0.15310769 0.19393156 -0.17396079 -0.095385805
000350 a8 33 d6 bd 9d 2d 8f 3d 04 82 4b 3e cc 0e 51 3e
       -0.104590714 0.06991122 0.19873816 0.20415801
000360 ef 92 4f 3e 5a 78 13 be ed 22 3f be 83 e4 2a be
       0.20270894 -0.14401379 -0.18665667 -0.16688733
000370 52 e2 2f be 00 82 dd 3d 62 e9 ca bd 50 dd cf bd
       -0.17176178 0.10815811 -0.099077955 -0.10149634
000380 80 55 32 3b 9e e6 ac 3d 6d 83 1d bd f6 a3 aa bd
       0.0027211607 0.08442424 -0.038455416 -0.08332054
000390 8c 2a 94 3d 60 26 df 3d b0 36 15 bd 50 b6 a2 bd
       0.07234678 0.10895991 -0.036429107 -0.079449296
0003a0 30 2b 85 3d 56 2c d5 bd 92 09 f3 bd 13 b1 2e be
       0.06502378 -0.10408847 -0.1186706 -0.17059736
0003b0 02 1d a8 bd ef 69 99 3e 59 12 a2 bd 06 d9 c5 3e
       -0.08208658 0.29963633 -0.07913656 0.38642138
0003c0 f2 b7 20 be f1 14 7e bd 44 19 21 be 24 95 e1 bd
       -0.1569517 -0.06203169 -0.15732294 -0.110147744
0003d0 b4 d5 e7 3d c8 ec 2e 3e 08 2d 37 bd 17 e1 6d bd
       0.113200575 0.17082512 -0.04472068 -0.05807599
0003e0 45 bb 55 bd 41 ee 28 be e6 fd 3b be 1a 6c 33 be
       -0.052180547 -0.16497137 -0.18358573 -0.17521706
0003f0 04 50 3e be ad 68 9f 3d c4 4b db bd 83 0c c7 3d
       -0.18585211 0.07783637 -0.107078105 0.09719183

linear.weight f4 [14, 20]
000000 33 58 51 3f db 34 2d bf 33 2f 3b 3f 91 f4 bc 3f
       0.81775206 -0.67658776 0.73118895 1.4762136
000010 33 6f e2 bf 32 2c f7 bd 45 df 4f bf 97 06 31 3f
       -1.7690185 -0.120689765 -0.8120006 0.6915068
000020 1f b6 98 bf b8 4e 3b bd 43 58 95 3f be d4 c9 bf
       -1.1930579 -0.04572937 1.166756 -1.5768049
000030 ab 39 ac bf 92 7a a7 bf 68 42 73 3f 3b db ba bf
       -1.3455099 -1.308428 0.950232 -1.4598154
000040 cb 30 bf 3d e4 41 d5 3f 70 2b 62 3f 4e 34 5d 3f
       0.093354784 1.6660733 0.8834753 0.86407936
000050 23 53 bb bf 4a b2 a2 3f bd 40 77 3f aa d0 da 3e
       -1.4634746 1.271066 0.9658316 0.42737323
000060 96 35 2c 3f ae 23 db 3f 14 bf 80 bf 60 b3 7d bf
       0.67269266 1.7120264 -1.0058312 -0.9910183
000070 82 24 ae bf 8d 6d 18 3f 2f 95 97 3f 13 84 ab 3f
       -1.3604891 0.5954216 1.1842402 1.3399681
000080 1d 23 06 40 96 74 46 be 3a 8f d2 bf d2 72 b1 bf
       2.0958931 -0.19380412 -1.6449959 -1.3863165
000090 67 2c 89 3f 15 81 8b bf ca 79 83 bf a8 60 89 3f
       1.0716676 -1.0898768 -1.0271542 1.0732622
0000a0 e7 17 dd bf 5e f1 a2 bf b6 82 79 bf 93 21 04 bf
       -1.727292 -1.272991 -0.97465074 -0.5161373
0000b0 4a 31 57 bf 50 39 56 3d 66 62 e8 3d 7a 7a 84 3f
       -0.84059584 0.05230075 0.11346893 1.0349877
0000c0 27 91 63 3f d4 aa 41 bf 71 69 82 bf 87 08 9e bf
       0.8889336 -0.7565129 -1.0188428 -1.2346352
0000d0 9c a9 c1 3f 17 23 90 3f 10 69 ec bd d0 e5 8b 3f
       1.5129886 1.1260709 -0.115434766 1.0929508
0000e0 90 0e c4 3e 52 48 98 be 47 33 83 3f d4 92 b1 3e
       0.3829236 -0.29742676 1.0250024 0.34682333
0000f0 ef d3 6e 3d 69 25 3d 3d d0 b0 ac 3b c7 d8 af bc
       0.058307584 0.046178255 0.005270101 -0.021465672
000100 da 7c 8c 3c ed 6b a7 3c 3a 2f 3c bc 8d b9 0b bd
       0.017149378 0.020437205 -0.011485869 -0.034112502
000110 a7 44 95 3c 08 bd 02 3b 3c f4 eb bc b8 37 54 3d
       0.018221213 0.0019949097 -0.028802983 0.05181095
000120 9a df ac bc 23 0a 14 bc fd f1 17 bb dd 31 b7 3b
       -0.021102715 -0.00903562 -0.0023185008 0.005590661
000130 4a 3d cd bb 42 97 45 bc 2a 71 cc bc bd 76 84 bb
       -0.0062634097 -0.012059988 -0.024956305 -0.004042475
000140 67 76 34 3f e6 05 97 bf 63 9b 8e 3f 56 4a 3b 3f
       0.7049317 -1.1798675 1.114117 0.731603
000150 98 f9 b4 3f 1b b2 a0 bf ca fa 8e 3f 53 72 4c 3f
       1.413867 -1.2554353 1.1170285 0.79861945
000160 3f 6e 42 3f 8f d8 30 bf c3 64 29 3f bb 8b b1 3f
       0.7594947 -0.6908044 0.66169375 1.3870767
000170 58 1f aa bf 83 8c 39 3f f1 a7 c6 bf 01 96 16 bf
       -1.3290815 0.7248003 -1.5520002 -0.5882264
000180 d8 9f 36 bf 06 e9 85 bf 0f 20 72 3f 5f a7 91 bf
       -0.7133765 -1.0461738 0.9458017 -1.1379203
000190 89 cc d0 3f c3 bb 7d 3f c0 3e f3 3d a6 d5 be bf
       1.6312419 0.99114627 0.11877203 -1.490895
0001a0 b4 43 29 3f 24 d0 9a bf 92 9e 66 bf c0 c0 6f bf
       0.6611893 -1.209477 -0.9008571 -0.9365349
0001b0 86 26 a6 3f 56 ce 6e 3f 7c 8e cc bf d8 9a 77 3f
       1.2980506 0.93283594 -1.5980983 0.9672065
0001c0 65 c4 af bf a9 9f 93 bf f5 1c a2 3f 68 6c cd 3f
       -1.373181 -1.15331 1.2665087 1.6048708
0001d0 ea ba ad 3f 97 87 9c be da da 75 be c0 e4 a5 3f
       1.3572667 -0.30572197 -0.24009266 1.2960434
0001e0 a7 6b b9 3f 42 d7 e4 3e c5 60 5b bf b0 ee 1a bf
       1.4485978 0.4469548 -0.85694534 -0.6052046
0001f0 83 25 6f bf 18 27 32 3f 88 d7 ac be 3b ec 05 bd
       -0.93416613 0.695909 -0.33758187 -0.03269599
000200 22 a2 62 3f a9 a5 48 bf de 17 70 bf 8d 3b e7 be
       0.88528645 -0.7837778 -0.9378642 -0.4516262
000210 56 78 a0 3f a7 9a 43 3f 0d 60 2b bd f4 7a 80 3f
       1.2536724 0.76407856 -0.041839648 1.0037522
000220 e4 39 75 bf ed 78 1b be 13 10 b8 3e b8 a3 80 3e
       -0.9579146 -0.15182848 0.35949764 0.25124907
000230 d8 42 58 bf 5d b3 43 bd 27 8f 3c 3e db 44 48 3d
       -0.84476995 -0.047778476 0.18413983 0.04889379
000240 7f 8e 44 be cf b9 1b 3f 52 08 ce 3e 0c d7 2b be
       -0.19194983 0.60830396 0.40240723 -0.16781253
000250 6a f5 38 bd 6c 2b fd be b9 19 19 bf cb 57 08 3f
       -0.04515592 -0.4944719 -0.59804875 0.5325896
000260 ed a3 3a bf 81 71 73 be 12 67 f3 3e a9 88 dd be
       -0.7290638 -0.23773767 0.47539574 -0.43268326
000270 61 ef b4 be 46 85 ac 3e 62 e1 ae be 56 24 23 bf
       -0.35338882 0.3369543 -0.34156328 -0.6372732
000280 c3 94 39 be 76 b2 ed 3e 81 d5 a6 bf 05 37 5c be
       -0.18123154 0.46425217 -1.3033906 -0.21505363
000290 fc 6f 86 3f c9 93 36 bf ea 0c 8e 3f 6c 71 7c be
       1.0502925 -0.7131925 1.1097691 -0.24652642
0002a0 35 99 8c bf ca ef af 3f 49 7e 96 3f a2 e5 8d bf
       -1.0984255 1.3745053 1.1757289 -1.1085703
0002b0 e3 76 8b 3d 7d 5a 9e 3e f5 d1 08 3f c4 b1 e3 3e
       0.06809785 0.30928412 0.5344537 0.44471562
0002c0 45 ec 30 bf 43 6f 36 3f 1b 67 a6 bf 7c 90 cb bf
       -0.6911052 0.7126352 -1.3000215 -1.5903468
0002d0 2d bb 1e be 5c ca 30 be 38 69 46 3e a2 fe 02 3e
       -0.1550109 -0.17264694 0.19376075 0.12792447
0002e0 68 74 68 3e 78 0a 54 be 26 d8 b2 3d 23 ea b2 3d
       0.22700655 -0.20707119 0.08732633 0.08736064
0002f0 ca 0e 60 3c 23 a3 05 bd 11 f6 35 3e 54 c4 e4 3d
       0.013675401 -0.032626282 0.17769648 0.11170259
000300 9b 86 1a be fc b9 93 3d a8 9b 6f be 30 bf 36 be
       -0.1509041 0.07213208 -0.23399222 -0.1784637
000310 48 87 62 3d 8f 79 1f be 9e a1 98 3d 8f c9 8a bd
       0.055304796 -0.15573715 0.07452701 -0.067767255
000320 87 d7 27 bf 50 46 56 3d aa 38 63 bd 59 b7 a5 bd
       -0.65563244 0.05231315 -0.05547396 -0.080916114
000330 51 29 7f be b9 c6 bc 3e f0 72 6f 3e 81 fb 37 be
       -0.24918105 0.36870363 0.23383689 -0.17967035
000340 09 75 9a bd 20 3c 14 be 95 66 e8 be 00 63 d9 3d
       -0.07541854 -0.14476061 -0.45390764 0.10614586
000350 23 da b9 be 92 fa 85 be 83 36 f1 3e 3d bc df bd
       -0.36299238 -0.26167732 0.47111902 -0.109245755
000360 58 b3 cc bd f4 a6 9d 3e a2 78 9d be da b4 c2 be
       -0.099951446 0.30791438 -0.30756098 -0.38028604
000370 25 dc 8f bb 58 72 73 3b 7d cd 67 3d dc 65 01 3d
       -0.004390257 0.0037147012 0.056592453 0.03159128
000380 54 53 84 3d df e5 9d bc 9c bb 7a 3c 97 ef 63 bc
       0.06461206 -0.01927465 0.015303519 -0.013912103
000390 a1 9a 26 bd 50 6a 00 3d bd cd 46 3d b8 e2 7b 3d
       -0.04067481 0.031351388 0.04853605 0.061495513
0003a0 4f 3c b1 bd c1 85 10 bd 4c 5f 89 bc 96 aa 94 bd
       -0.08654081 -0.035283808 -0.016769074 -0.07259099
0003b0 88 e5 6f 3c 62 10 87 b9 91 57 05 bd 0c 7b e8 bc
       0.014642127 -0.00025761413 -0.032554213 -0.028378986
0003c0 7e 3a 98 bb aa 8f 9d ba 1f 68 63 3d 40 ee 20 3d
       -0.0046456447 -0.0012020965 0.05551922 0.039289713
0003d0 49 cd 57 3d f7 05 73 bc 6b 36 6c 3c f6 7b 1a bc
       0.05268601 -0.014832965 0.014417271 -0.009428969
0003e0 ef 87 38 bd 4c e9 e3 3c ac a2 54 3d 5e 0e 54 3d
       -0.04505151 0.027821206 0.05191295 0.051771514
0003f0 5c 63 b0 bd 3e e9 0f bd 70 89 59 bc 43 83 9d bd
       -0.08612701 -0.035134546 -0.013277397 -0.07691052

linear.bias f4 [14]
000000 ca bf 62 3f 2e 2a 95 3f 38 0b 34 3f 6d a5 85 bf
       0.88573897 1.1653497 0.7032962 -1.0441109
000010 f8 df 49 3f 00 be 9e 3f ac 6b 6b 3e fa 66 a7 be
       0.78857374 1.2401733 0.22990292 -0.32695752
000020 36 08 e0 3e 18 22 76 bf ea f0 14 bf 63 65 96 bf
       0.43756264 -0.9614577 -0.58180106 -1.1749691
000030 14 67 94 bf 74 5e 96 bf
       -1.1593957 -1.1747575
