trained_weights/theia/lword2vec_gnn_theia19_E3.pth (torch, 11223 bytes, 6 tensors)

conv1.lin_l.weight f4 [32, 30]
-0.11407865 -0.19920978 0.028105183 0.019281322 -0.10448371 -0.059350207 -0.04177012 0.06342505
0.106243156 0.06351233 0.018955735 0.10886244 0.15134598 -0.17180365 -0.0735367 0.09975541
-0.043668434 -0.15529007 0.12603144 0.023038056 0.027647292 -0.25376505 -0.14508294 -0.110272296
0.04881398 0.08140313 0.1496556 0.07972814 0.08707924 -0.12501518 -0.21071368 -0.086790346
-0.11899623 0.122405395 -0.15997757 0.08282259 0.073675275 0.0805541 0.08973538 0.15219533
-0.12254934 -0.1511055 -0.02369819 -0.05629756 -0.06872048 0.16352968 -0.101677015 0.0034445294
0.13726453 0.17866406 -0.18178487 -0.09086659 0.15159275 -0.14100614 0.018651558 0.1512267
-0.0029999437 0.15198578 0.16414489 0.097162 0.016449707 -0.080911845 0.003068235 -0.08414709
-0.16960254 -0.19813123 -0.040308427 -0.07397446 0.21596794 0.14104909 -0.08451236 -0.27211273
-0.26589078 0.015482196 0.19507557 -0.1191704 -0.15536235 0.2969392 0.09917549 -0.04179751
-0.047538184 -0.14390591 -0.22084089 0.004434586 0.065934144 0.0027787155 0.12795635 -0.012683258
-0.25792634 -0.12333084 -0.1691823 -0.04585116 -0.11413686 0.07571361 0.03195246 -0.1665564
0.019003836 0.07085884 0.105833426 0.0032456294 0.07165933 -0.09752179 0.005310357 -0.11596013
0.06733842 -0.029270975 -0.21325243 -0.017640723 -0.20883916 -0.170009 -0.11724123 0.10186537
-0.0677921 0.118490785 -0.18290102 -0.16375555 -0.12925452 -0.035462387 -0.040510233 0.15210757
-0.3517594 -0.08012493 -0.029924136 -0.105314255 0.02585667 0.22303027 -0.25198093 -0.065747574
-0.09292392 0.016514815 -0.13069235 0.16718507 0.034035765 -0.23931153 0.11696448 0.015397625
-0.0058633955 -0.055579603 -0.18960612 0.18942954 -0.23616192 0.07139948 0.15671477 -0.016774729
-0.040357485 -0.16110106 0.017113995 0.046456754 0.012764879 0.20808579 -0.1603771 -0.12700316
-0.020908177 -0.11601439 -0.05066549 -0.13003948 -0.2518155 -0.22768962 0.100522295 -0.046267048
-0.11041853 0.07028181 -0.15320729 -0.16349497 0.14030056 0.14873947 -0.15554926 -0.07624495
-0.12535772 -0.01349554 -0.10942084 0.11342973 0.13537839 0.07163022 -0.08545601 -0.12364157
-0.00056122994 -0.0113790855 0.15141214 0.17289658 0.030333554 0.038434274 0.23436193 -0.07690872
0.036349516 0.17434645 0.2775027 -0.032726303 -0.069461554 -0.07554498 -0.15205221 -0.021951433
0.1815746 0.23263043 -0.1817444 -0.03494394 0.21610938 -0.10547384 0.53758067 0.24658975
-0.07821249 -0.28785756 0.22350629 -0.001529632 0.04755688 0.2682512 0.14250302 0.14671506
-0.12930652 0.051335927 0.2839975 -0.16079547 0.13957995 -0.11508461 -0.21004589 -0.098741785
0.27807194 0.032721058 -0.123181276 0.015039869 -0.07251928 0.113455035 0.03229328 0.38481307
-0.15394725 0.19758537 0.13282478 -0.045730237 -0.012234006 0.15820915 -0.06676686 -0.05865578
0.18992506 0.1063117 0.13628432 0.21182244 -0.22327544 0.0684689 -0.028535211 -0.1466789
0.07232109 0.14438084 0.16752405 0.02878425 -0.0648479 -0.13995 -0.08054242 0.068862036
0.06773973 -0.00805276 -0.021076204 -0.2126225 0.09323969 -0.026165277 -0.014893871 -0.1964013
00000000: 11a2 e9bd a6fd 4bbe d73c e63c ddf3 9d3c
00000010: 8efb d5bd 3419 73bd 2517 2bbd fee4 813d
00000020: 0396 d93d c112 823d 0f49 9b3c 45f3 de3d
00000030: 71fa 1a3e 4ced 2fbe 699a 96bd 904c cc3d
00000040: acdd 32bd 5c04 1fbe 630e 013e 4eba bc3c
00000050: 937c e23c 7eed 81be 9f90 14be 71d6 e1bd
00000060: 2bf1 473d afb6 a63d 513f 193e 8248 a33d
00000070: 9a56 b23d fb03 00be 54c5 57be 23bf b1bd
00000080: 4cb4 f3bd aeaf fa3d 29d1 23be e49e a93d
00000090: 10e3 963d 8cf9 a43d 2fc7 b73d 18d9 1b3e
000000a0: 26fb fabd 66bb 1abe b522 c2bc 4598 66bd
000000b0: 53bd 8cbd 5374 273e 0a3c d0bd 9dbd 613b
000000c0: 138f 0c3e b6f3 363e d025 3abe 4318 babd
000000d0: 213b 1b3e ea63 10be 27cb 983c 2cdb 1a3e
000000e0: b49a 44bb 29a2 1b3e 9915 283e dffc c63d
000000f0: 89c1 863c 1cb5 a5bd 7114 493b 4f55 acbd
00000100: 4aac 2dbe eae2 4abe 731a 25bd ec7f 97bd
00000110: b326 5d3e 2c6f 103e d114 adbd 5c52 8bbe
00000120: d622 88be 09a9 7d3c e4c1 473e 9c0f f4bd
00000130: 4f17 1fbe 6a08 983e 851c cb3d de33 2bbd
00000140: 66b7 42bd 125c 13be 1d24 62be 0150 913b
00000150: 7b08 873d 1c1b 363b fd06 033e 71cd 4fbc
00000160: ec0e 84be e194 fcbd 203e 2dbe 6dce 3bbd
00000170: 96c0 e9bd bd0f 9b3d 95e0 023d c38d 2abe
00000180: efad 9b3c 711e 913d 32bf d83d a0b4 543b
00000190: 20c2 923d 81b9 c7bd 8102 ae3b 817c edbd
000001a0: bae8 893d afc9 efbc d85e 5abe 4783 90bc
000001b0: efd9 55be d716 2ebe 2c1c f0bd cb9e d03d
000001c0: 96d6 8abd 4cab f23d 684a 3bbe 89af 27be
000001d0: 4c5b 04be 0241 11bd 0fee 25bd 16c2 1b3e
000001e0: cf19 b4be 8a18 a4bd 7623 f5bc 00af d7bd
000001f0: 5ed1 d33c 0c62 643e a503 81be aaa6 86bd
00000200: e54e bebd 144a 873c 37d4 05be 9032 2b3e
00000210: 1669 0b3d 150e 75be 138b ef3d 5246 7c3c
00000220: ba21 c0bb 70a7 63bd 1b28 42be d1f9 413e
00000230: 6ed4 71be e439 923d d679 203e 286b 89bc
00000240: e44d 25bd adf7 24be a632 8c3c 7049 3e3d
00000250: c823 513c 7114 553e e539 24be 1e0d 02be
00000260: a047 abbc f498 edbd 9e86 4fbd 1229 05be
00000270: f6ed 80be 7827 69be a2de cd3d 8482 3dbd
00000280: 1c23 e2bd e9ef 8f3d 5fe2 1cbe 3a6b 27be
00000290: f3aa 0f3e 294f 183e 4e48 1fbe 5026 9cbd
000002a0: c65d 00be 661c 5dbc 0918 e0bd d94d e83d
000002b0: a2a0 0a3e ddb2 923d 9003 afbd cb37 fdbd
000002c0: 811f 13ba 586f 3abc c90b 1b3e cd0b 313e
000002d0: 137e f83c 426d 1d3d 93fc 6f3e 5282 9dbd
000002e0: 3be3 143d e087 323e d514 8e3e 040c 06bd
000002f0: dc41 8ebd 54b7 9abd 93b3 1bbe 7ed3 b3bc
00000300: b1ee 393e ac36 6e3e 341b 3abe 6021 0fbd
00000310: c74b 5d3e ab02 d8bd e39e 093f 0682 7c3e
00000320: df2d a0bd 1162 93be d5de 643e ef7d c8ba
00000330: 01cb 423d 3958 893e 50ec 113e 793c 163e
00000340: ee68 04be 9f45 523d 1f68 913e 91a7 24be
00000350: 0cee 0e3e 7bb1 ebbd 4516 57be 2239 cabd
00000360: 725f 8e3e 8406 063d 7746 fcbd c869 763c
00000370: fd84 94bd 1d5b e83d f545 043d 3806 c53e
00000380: 59a4 1dbe d253 4a3e 3803 083e a14f 3bbd
00000390: 2471 48bc 9401 223e 10bd 88bd 0b41 70bd
000003a0: b77b 423e f3b9 d93d 1e8e 0b3e fbe7 583e
000003b0: 51a2 64be 6c39 8c3d adc2 e9bc fe32 16be
000003c0: 141d 943d 92d8 133e 6d8b 2b3e f3cc eb3c
000003d0: face 84bd 0e4f 0fbe 6df3 a4bd 8a07 8d3d
000003e0: 21bb 8a3d b9ef 03bc 01a8 acbc b6b9 59be
000003f0: 73f4 be3d 9058 d6bc 6c05 74bc 6c1d 49be

conv1.lin_l.bias f4 [32]
0.18093093 0.04735317 -0.12001814 0.039840072 0.060280986 0.05738801 -0.015596166 -0.0870788
-0.0731388 -0.013079396 0.0296114 0.2006144 0.20467083 0.1012667 0.3648977 -0.14870903
0.092549525 -0.10179883 -0.2347313 0.06449896 0.24112616 -0.13299273 0.047025092 -0.08233411
0.11848873 -0.00045295508 0.2530647 -0.22054654 0.030813284 -0.07834141 0.12668458 -0.09565423
00000000: f545 393e 66f5 413d 12cc f5bd 582f 233d
00000010: 32e9 763d b10f 6b3d 1087 7fbc 5f56 b2bd
00000020: ccc9 95bd f74a 56bc 9b93 f23c dc6d 4d3e
00000030: 3b95 513e ea64 cf3d dfd3 ba3e 2e47 18be
00000040: 9b8a bd3d e87b d0bd 675d 70be 0818 843d
00000050: c7e9 763e 3f2f 08be 629d 403d c99e a8bd
00000060: 38aa f23d 9a7a edb9 b291 813e f4d6 61be
00000070: 246c fc3c 7671 a0bd 9ab9 013e 5de6 c3bd

conv1.lin_r.weight f4 [32, 30]
0.1282881 0.13508184 -0.23150772 0.02183127 0.07122479 -0.16491441 -0.13350981 0.05742718
0.01668736 0.016638314 0.22061808 -0.063072756 0.0028279175 0.23918171 0.12007079 0.12343983
0.15856276 0.20922902 -0.1564202 0.05349692 0.21629445 -0.08820074 0.07660366 0.12217485
-0.15819307 0.24281906 0.16564433 -0.0022525797 -0.2502543 0.02609344 0.061326332 0.016982824
0.034590796 -0.030311152 -0.1684279 -0.10179359 -0.24245521 0.08255269 0.18491456 -0.047395017
0.138798 0.06352383 0.100467816 -0.17394435 0.015422103 -0.039143965 -0.2983692 0.16513626
-0.1992338 -0.11771618 -0.0623656 -0.017269336 -0.16234386 0.063230336 0.08397703 -0.1956701
0.06218252 0.22899856 0.013796944 -0.0507124 0.13833311 -0.10221037 0.1812266 -0.030675434
0.024424061 -0.115025684 0.02606779 0.051153295 -0.004527128 0.084305175 0.08601466 -0.17440052
-0.06070307 0.056361925 0.05757451 -0.06414601 -0.11247844 -0.15351753 0.0019521903 0.024568312
0.18016453 -0.17601402 -0.013773778 -0.036613487 -0.058641832 0.041203666 0.05004848 0.10304926
-0.11514886 -0.13981357 -0.10741173 -0.00821407 -0.10205839 0.18725684 -0.12551518 -0.008500447
-0.26263693 -0.07744567 0.024952909 0.11192319 0.23397681 0.044338547 -0.038572427 -0.19283167
0.04336648 -0.16157888 -0.09790293 0.01091705 -0.33532584 -0.006980124 -0.13337792 -0.05773466
0.0765982 -0.12748674 -0.06609633 -0.21359256 0.042576883 -0.08625414 0.08573987 0.04959572
-0.3030356 -0.1616256 0.03932338 -0.08032443 -0.016779428 -0.1150689 0.04503227 -0.111333534
0.08945723 0.25448835 -0.06151205 0.1271316 -0.13450204 -0.29399586 0.2314412 -0.06392242
-0.01728764 0.31702816 0.08974907 -0.063265465 -0.20619686 -0.22603038 -0.06816193 0.30200472
0.019610355 0.004838458 0.14568955 0.076131165 -0.26090646 0.00050755986 -0.19549283 -0.14046206
-0.036693677 -0.08045723 0.17127362 -0.08871996 0.03985717 0.008777246 0.05159356 0.23092309
-0.050235722 -0.098656714 -0.069564976 -0.07791553 0.079302825 0.05189985 -0.0114473915 0.027190315
0.14924265 0.1755564 -0.14731088 -0.17942384 -0.23814768 0.17343049 -0.02414872 0.16062877
0.16184762 0.13075168 0.012599921 -0.18098609 0.06607394 -0.0323206 0.15597819 -0.06456017
0.06320616 0.21599776 0.20494188 0.22375083 -0.09298263 -0.17630973 0.0055633276 0.014722725
0.24659103 0.12838542 -0.14422162 -0.101896904 -0.016156774 -0.08029688 -0.0016295979 0.119992316
0.07994148 0.07049093 0.14783452 -0.105708994 0.039230075 -0.057958927 -0.013928136 -0.06794059
0.2030032 -0.07792276 0.13897268 0.047279093 0.07071723 -0.118745774 0.042603794 -0.015292087
0.16114067 0.00047678564 -0.07103335 -0.10111153 0.17983137 -0.10935237 0.00028724602 0.06889088
-0.27846095 0.03883102 0.01697628 -0.32553402 -0.1864695 0.08134188 -0.104440734 0.065206625
-0.024664598 0.057364386 -0.16109076 0.000135308 -0.04625398 0.09398127 -0.08302489 -0.04747964
-0.08594503 -0.08386984 -0.024786066 0.14003283 0.0017970526 0.22837326 0.10137371 -0.023904026
0.07135293 0.1681743 -0.11288046 0.006248497 -0.10288099 -0.07935454 0.04117147 0.02400277
00000000: f55d 033e e552 0a3e 5c10 6dbe 7ed7 b23c
00000010: 4dde 913d 53df 28be ccb6 08be c338 6b3d
00000020: eeb3 883c 134d 883c b5e9 613e 4a2c 81bd
00000030: 9554 393b 0dec 743e ade7 f53d 06ce fc3d
00000040: 475e 223e 2240 563e 9e2c 20be 961f 5b3d
00000050: 4b7c 5d3e 97a2 b4bd 61e2 9c3d cf36 fa3d
00000060: 5dfd 21be 8fa5 783e ab9e 293e 04a0 13bb
00000070: 5521 80be e9c1 d53c 5231 7b3d 901f 8b3c
00000080: 14af 0d3d 184f f8bc 5d78 2cbe 2879 d0bd
00000090: 2e46 78be 6211 a93d 3e5a 3d3e 4721 42bd
000000a0: 1021 0e3e c818 823d 12c2 cd3d 781e 32be
000000b0: fdac 7c3c 6c55 20bd d9c3 98be 7b19 293e
000000c0: f203 4cbe 2e15 f1bd 1273 7fbd 6c78 8dbc
000000d0: 783d 26be e87e 813d 26fc ab3d be5d 48be
000000e0: 19b3 7e3d 997e 6a3e 940c 623c ceb7 4fbd
000000f0: 32a7 0d3e ac53 d1bd 7793 393e 0c4b fbbc
00000100: f814 c83c 9692 ebbd 1e8c d53c 1e86 513d
00000110: 4d58 94bb 31a8 ac3d 7428 b03d 0d96 32be
00000120: c8a3 78bd c3db 663d 40d3 6b3d fc5e 83bd
00000130: 195b e6bd b333 1dbe a3e0 ff3a 7c43 c93c
00000140: 0d7d 383e 053d 34be 6aab 61bc 06f8 15bd
00000150: 6b32 70bd 2dc5 283d a3ff 4c3d 7e0b d33d
00000160: 2ad3 ebbd 4a2b 0fbe aefa dbbd 4f94 06bc
00000170: fd03 d1bd 42c0 3f3e 0d87 00be 7545 0bbc
00000180: 5978 86be d69b 9ebd 0b6a cc3c fc37 e53d
00000190: 9e97 6f3e 569c 353d 1ffe 1dbd aa75 45be
000001a0: 0da1 313d ef74 25be 5581 c8bd 6ddd 323c
000001b0: d4af abbe 86b9 e4bb 3994 08be 2e7b 6cbd
000001c0: 84df 9c3d e28b 02be 835d 87bd 02b8 5abe
000001d0: 1965 2e3d 03a6 b0bd 6398 af3d e224 4b3d
000001e0: 7b27 9bbe 2e81 25be 8d11 213d 2281 a4bd
000001f0: 0375 89bc 3ea9 ebbd c273 383d d602 e4bd
00000200: 5a35 b73d 4c4c 823e 0ff4 7bbd c92e 023e
00000210: e7ba 09be a086 96be ecfe 6c3e c2e9 82bd
00000220: cf9e 8dbc 8451 a23e 5cce b73d 5391 81bd
00000230: 4525 53be 8274 67be 7b98 8bbd 5da0 9a3e
00000240: e5a5 a03c ed8b 9e3b a42f 153e a8ea 9b3d
00000250: 8895 85be c40d 053a 462f 48be 49d5 0fbe
00000260: 1c4c 16bd c3c6 a4bd 5a62 2f3e cfb2 b5bd
00000270: 4641 233d 70ce 0f3c c553 533d 1a77 6c3e
00000280: f9c3 4dbd 880c cabd 1578 8ebd 2d92 9fbd
00000290: 8569 a23d f094 543d d78d 3bbc 39be de3c
000002a0: 11d3 183e 0fc5 333e aad8 16be e2ba 37be
000002b0: fcdc 73be c397 313e 89d3 c5bc de7b 243e
000002c0: 62bb 253e c5e3 053e e66f 4e3c 6b54 39be
000002d0: c651 873d 9b62 04bd bfb8 1f3e 1f38 84bd
000002e0: 3b72 813d 842e 5d3e 49dc 513e f01e 653e
000002f0: ad6d bebd 8a8a 34be 934c b63b 9637 713c
00000300: 5c82 7c3e 7877 033e d5ae 13be 53af d0bd
00000310: 365b 84bc b172 a4bd 3b98 d5ba 88be f53d
00000320: 5cb8 a33d 8c5d 903d ef61 173e f57d d8bd
00000330: b7af 203d 5766 6dbd d632 64bc 7024 8bbd
00000340: 12e0 4f3e f895 9fbd db4e 0e3e b9a7 413d
00000350: 32d4 903d fc30 f3bd 5181 2e3d a98b 7abc
00000360: 0f02 253e 16f9 f939 ef79 91bd 9013 cfbd
00000370: b725 383e 23f4 dfbd 8299 9639 a916 8d3d
00000380: 6f92 8ebe 470d 1f3d d711 8b3c 65ac a6be
00000390: dcf1 3ebe 9296 a63d 06e5 d5bd 0d8b 853d
000003a0: 690d cabc ebf6 6a3d faf4 24be 77e1 0d39
000003b0: d074 3dbd 4179 c03d f408 aabd 037a 42bd
000003c0: f303 b0bd f3c3 abbd 260c cbbc c464 0f3e
000003d0: 148b eb3a aeda 693e 059d cf3d 60d2 c3bc
000003e0: 7c21 923d e235 2c3e df2d e7bd 31c0 cc3b
000003f0: 45b3 d2bd a284 a2bd 6aa3 283d 75a1 c43c

conv2.lin_l.weight f4 [5, 32]
0.3060523 0.08144656 0.12015251 0.046915814 0.03781265 -0.07222584 0.11245667 0.10024856
-0.09651709 0.045521494 0.17127714 0.16619055 0.29629782 0.17877896 0.11382558 0.29807687
0.0585273 0.13791974 0.06330878 -0.038639944 0.05172864 0.14820495 0.24463521 -0.04612602
0.2803778 0.10571075 -0.03739585 -0.06737374 0.049044445 -0.026902141 0.07327709 0.038171608
0.017548995 0.16052161 -0.035533596 -0.008282308 0.09609315 0.09836179 0.23239073 0.20250538
-0.059274122 0.11727952 0.26515383 -0.14585984 -0.0077345334 -0.20223865 -0.2144611 0.18054591
0.032739773 -0.0760814 0.13413656 0.21830143 0.04062542 0.08418667 -0.112333566 0.0040400764
0.060373086 0.079200685 0.114092514 -0.04411908 0.062165696 0.035845343 0.10513299 -0.20349361
-0.08907593 0.023157366 -0.21401684 0.049449272 0.04579532 0.041660033 -0.047010258 -0.09874989
-0.02636424 -0.030506857 -0.18184185 0.014451071 -0.1825542 -0.29872054 -0.043950308 0.054045383
0.042891767 -0.23320912 -0.09313258 -0.12662682 -0.06854775 0.054473393 -0.26191399 0.005652641
-0.11430991 -0.14391093 -0.02540208 0.24206361 -0.17308007 0.10486055 -0.061983768 -0.010154233
-0.080782935 -0.20364703 -0.025860477 -0.018275348 -0.025610218 0.069556974 -0.1904985 -0.16413924
-0.106637865 -0.05097884 -0.11209975 0.03204648 0.09011284 0.25496513 -0.10918223 -0.035034094
0.014541353 -0.16120812 -0.07571878 0.03907508 0.13585444 -0.081411555 0.13949412 -0.01892761
-0.07028417 0.008430475 0.016186664 -0.099926874 -0.015737494 0.12503454 0.010854564 0.117532186
0.009239229 -0.035431985 0.05473406 -0.08409901 -0.11584839 -0.1509695 -0.082636885 -0.1522856
-0.22194855 -0.1297106 -0.0005840234 -0.114174 -0.103026964 -0.18925042 -0.19460192 -0.15165976
-0.10960399 0.024452124 -0.15689299 -0.1994242 -0.20417638 -0.2498139 -0.23835148 -0.0856385
-0.23404422 -0.16929609 -0.20955044 -0.01397691 -0.18890044 -0.06513525 -0.19056597 -0.082676046
00000000: e3b2 9c3e 74cd a63d 8512 f63d cc2a 403d
00000010: 70e1 1a3d 24eb 93bd af4f e63d 1e4f cd3d
00000020: c1aa c5bd bf74 3a3d 4663 2f3e db2d 2a3e
00000030: 59b4 973e d511 373e 631d e93d 889d 983e
00000040: 52ba 6f3d d53a 0d3e 09a8 813d eb44 1ebd
00000050: 69e1 533d 0ac3 173e a781 7a3e a3ee 3cbd
00000060: ae8d 8f3e e17e d83d 642c 19bd 3efb 89bd
00000070: d4e2 483d e161 dcbc 4d12 963d d559 1c3d
00000080: e9c2 8f3c c75f 243e ad8b 11bd 84b2 07bc
00000090: 7ccc c43d e871 c93d d6f7 6d3e 925d 4f3e
000000a0: 6cc9 72bd 3f30 f03d 3ec2 873e 485c 15be
000000b0: f871 fdbb a617 4fbe b19b 5bbe 07e1 383e
000000c0: 241a 063d 91d0 9bbd 185b 093e 698a 5f3e
000000d0: d766 263d 106a ac3d 240f e6bd 9e62 843b
000000e0: c549 773d f833 a23d 56a9 e93d 35b6 34bd
000000f0: 75a1 7e3d 91d2 123d f74f d73d a160 50be
00000100: 716d b6bd 84b4 bd3c 3b27 5bbe 528b 4a3d
00000110: e093 3b3d b6a3 2a3d d48d 40bd 623d cabd
00000120: d2f9 d7bc 84e9 f9bc c034 3abe 2fc4 6c3c
00000130: 7def 3abe e6f1 98be 3d05 34bd b15e 5d3d
00000140: 47af 2f3d 5fce 6ebe 4bbc bebd 76aa 01be
00000150: c362 8cbd 7e1f 5f3d 9719 86be ca39 b93b
00000160: 501b eabd 635d 13be 0618 d0bc 86df 773e
00000170: e73b 31be 21c1 d63d b1e2 7dbd f15d 26bc
00000180: 8671 a5bd d988 50be 5ad9 d3bc 2fb6 95bc
00000190: 85cc d1bc e373 8e3d 0a12 43be 1e14 28be
000001a0: f464 dabd 30cf 50bd 8e94 e5bd 2b43 033d
000001b0: 158d b83d ca8a 823e ef9a dfbd e97f 0fbd
000001c0: db3e 6e3c be13 25be 7312 9bbd 310d 203d
000001d0: 6d1d 0b3e 1abb a6bd 8cd7 0e3e 130e 9bbc
000001e0: 26f1 8fbd fa1f 0a3c e599 843c 76a6 ccbd
000001f0: ebeb 80bc 0e09 003e 57d7 313c b7b4 f03d
00000200: 2360 173c 2121 11bd d230 603d 1a3c acbd
00000210: ec41 edbd c097 1abe 873d a9bd c2f0 1bbe
00000220: 7b46 63be dbd2 04be 2619 19ba 0fd4 e9bd
00000230: cdff d2bd ddca 41be ba45 47be b24c 1bbe
00000240: 0f78 e0bd d24f c83c 8ea8 20be dc35 4cbe
00000250: 9d13 51be 37cf 7fbe 6912 74be 3d63 afbd
00000260: 4aa9 6fbe f45b 2dbe 6494 56be 69ff 64bc
00000270: 1e6f 41be a165 85bd ba23 43be 0f52 a9bd

conv2.lin_l.bias f4 [5]
0.11861443 0.030266147 -0.008276218 -0.090132155 -0.016965505
00000000: 1fec f23d b6f0 f73c f998 07bc 3597 b8bd
00000010: 3efb 8abc

conv2.lin_r.weight f4 [5, 32]
0.31263342 0.1765291 -0.086966805 0.033152144 0.34350514 0.23918316 0.13937642 0.17828955
0.08107523 0.10605289 0.2718412 0.4585734 0.5227725 0.19838844 0.57147765 -0.04939841
0.061321527 0.099233896 0.050530456 0.35537374 0.55072516 -0.004743904 0.15376176 -0.0230428
0.37957808 0.29708326 0.42857328 0.11695884 0.34233898 -0.072083175 0.44469413 0.22771826
-0.26672927 -0.027059624 -0.026975585 0.22112428 -0.16233142 -0.04648026 -0.18133418 0.05209359
0.26874956 0.1572218 -0.058348056 -0.4923238 -0.4622815 0.030058375 -0.24020757 -0.07747638
0.21660006 0.13629374 0.25464043 -0.27433375 -0.13912116 0.10887985 -0.23362906 -0.094835065
0.106022045 0.010721264 -0.2466651 -0.3338679 -0.5743321 0.29553005 -0.0119188195 -0.59406626
-0.1380426 0.15720585 0.081192546 -0.003994104 0.030119576 0.08304766 -0.1328546 -0.27163756
-0.18574673 -0.11443935 -0.014933858 0.19060814 -0.041681573 -0.336803 -0.29268888 -0.19679314
-0.08740735 -0.008596989 -0.17146929 0.08307834 -0.2644741 0.03199209 -0.44842166 0.38762814
-0.24701641 -0.09015345 -0.27088615 0.38101417 0.10347616 -0.010474926 -0.20234025 0.38811636
-0.00085389323 -0.19289806 -0.0886802 -0.1653064 -0.25988436 -0.23357409 0.26689884 0.11900258
-0.08688415 -0.08773393 -0.20131373 -0.122407384 -0.23319165 0.25109047 0.1635973 -0.019211067
-0.08583576 -0.044723485 0.03423608 -0.17601195 -0.14846556 -0.13918492 0.21925792 -0.19996315
-0.16570398 0.00034596736 0.023219563 0.010057943 0.37362763 -0.17442706 0.042063285 0.19789137
-0.07524201 -0.117956586 -0.015534387 -0.14367764 -0.1083956 -0.25113004 -0.22644982 -0.15789545
-0.072459586 -0.12106386 0.03306482 -0.28089073 -0.29982343 -0.119611435 -0.16332965 -0.041528296
-0.1291662 -0.17689541 -0.13140814 -0.11397979 -0.15716535 -0.19331224 -0.15565996 -0.075419135
-0.03550074 -0.101786725 -0.024824947 -0.11507022 -0.15599374 -0.13914338 -0.07731099 -0.17081627
00000000: 7d11 a03e 0bc4 343e a71b b2bd 8bca 073d
00000010: e8df af3e 6eec 743e b1b8 0e3e 8991 363e
00000020: c50a a63d 4232 d93d c52e 8b3e 22ca ea3e
00000030: 6bd4 053f 5726 4b3e 5c4c 123f fd55 4abd
00000040: 482c 7b3d 243b cb3d 06f9 4e3d 8cf3 b53e
00000050: 53fc 0c3f c072 9bbb b973 1d3e 41c4 bcbc
00000060: 0f58 c23e 4c1b 983e f56d db3e 1e88 ef3d
00000070: 0e47 af3e 58a0 93bd f3ae e33e fa2e 693e
00000080: bd90 88be 25ac ddbc e7fb dcbc 676e 623e
00000090: 353a 26be 1662 3ebd abaf 39be 1760 553d
000000a0: 8b99 893e c0fe 203e 5ffe 6ebd dd11 fcbe
000000b0: 29b0 ecbe fb3c f63c f9f8 75be f0ab 9ebd
000000c0: 68cc 5d3e 9690 0b3e 3b60 823e 7975 8cbe
000000d0: c775 0ebe 66fc de3d 753c 6fbe e338 c2bd
000000e0: 1622 d93d 3ea8 2f3c c795 7cbe bcf0 aabe
000000f0: 6e07 13bf b74f 973e 2747 43bc ba14 18bf
00000100: 0a5b 0dbe 92fa 203e 4748 a63d f9e0 82bb
00000110: 54bd f63c e414 aa3d 090b 08be 1414 8bbe
00000120: 6434 3ebe 2e5f eabd 24ad 74bc c82e 433e
00000130: 4cba 2abd 7171 acbe 51db 95be 2484 49be
00000140: a002 b3bd 63da 0cbc a595 2fbe fa24 aa3d
00000150: 2669 87be 230a 033d 8697 e5be 3277 c63e
00000160: dff1 7cbe 5fa2 b8bd 97b1 8abe 4a14 c33e
00000170: 4feb d33d 069f 2bbc 4832 4fbe 30b7 c63e
00000180: ced7 5fba 1287 45be f79d b5bd 1546 29be
00000190: 900f 85be 0c2e 6fbe f7a6 883e a0b7 f33d
000001a0: 51f0 b1bd d9ad b3bd 3025 4ebe b9b0 fabd
000001b0: cbc9 6ebe ee8e 803e 0d86 273e 8760 9dbc
000001c0: a9ca afbd f92f 37bd 223b 0c3d 7a3c 34be
000001d0: 5b07 18be 7e86 0ebe 2685 603e 24c3 4cbe
000001e0: 4eae 29be f462 b539 f436 be3c 12ca 243c
000001f0: 1f4c bf3e 029d 32be 8d4a 2c3d 09a4 4a3e
00000200: 7c18 9abd 3993 f1bd f183 7ebc 3b20 13be
00000210: 83fe ddbd 1e94 80be 76e2 67be 58af 21be
00000220: b165 94bd 54f0 f7bd fa6e 073d e9d0 8fbe
00000230: 7582 99be d7f6 f4bd e33f 27be 9319 2abd
00000240: 2544 04be 1224 35be db8f 06be 3c6e e9bd
00000250: f4ef 20be a5f3 45be 5365 1fbe 5975 9abd
00000260: 3969 11bd 8f75 d0bd b05d cbbc efa9 ebbd
00000270: d3bc 1fbe 9a7b 0ebe 3955 9ebd 76ea 2ebe
