trained_weights/theia/lword2vec_gnn_theia8_E3.pth (torch, 11223 bytes, 6 tensors)

conv1.lin_l.weight f4 [32, 30]
000000 1a c4 aa bd a1 fd 32 be a0 a4 41 3d aa 4a ab 3c
       -0.08338185 -0.17479564 0.04727614 0.020909626
000010 23 36 85 bd b2 e3 3f bd 57 89 f6 3a 91 8a b5 3d
       -0.065044664 -0.046848007 0.0018809241 0.0886432
000020 a0 15 b9 3d 20 31 21 3c 7c c3 8b 3c 8f 36 9d 3d
       0.09037328 0.0098383725 0.017060988 0.07676422
000030 21 1e 40 3e ae d1 e8 bd 9c ea 93 bd 60 80 df 3d
       0.18761493 -0.11368118 -0.072224826 0.109131575
000040 20 18 dc bc eb 33 06 be a3 07 13 3e 40 0e 72 3d
       -0.026866972 -0.13105743 0.14358382 0.05909562
000050 b3 19 0a 3d 7f 18 5a be 40 44 ea bd 1a 32 e7 bd
       0.033715915 -0.21298407 -0.11438799 -0.11288853
000060 ab c6 cb 3c d4 f2 cb 3d ed 72 08 3e 6e 0e d7 3d
       0.024875006 0.09958425 0.1332509 0.10500799
000070 81 4a e1 3d 45 c4 f4 bd 04 e7 3a be 57 b2 a5 bd
       0.110005386 -0.11951498 -0.18252188 -0.08090656
000080 9d 23 e4 bd 1d 18 02 3e 1e 44 56 be f1 55 a5 3d
       -0.11139605 0.12704511 -0.20924422 0.08073033
000090 1e 46 a4 3d 10 bb c0 3d a3 cb b2 3d 0c e0 1b 3e
       0.08021186 0.09410679 0.08730247 0.15222186
0000a0 e6 fc be bd b5 df 19 be 05 69 5c bc 68 34 49 bd
       -0.0932558 -0.15026744 -0.013452773 -0.049122244
0000b0 33 58 9d bd f4 01 27 3e 76 f9 c6 bd 30 7c 09 bc
       -0.07682838 0.16309339 -0.0971555 -0.008391425
0000c0 77 d2 01 3e f4 be 38 3e 81 3f 38 be 71 f0 d1 bd
       0.12677942 0.18041593 -0.17992975 -0.10250939
0000d0 95 89 1e 3e 0a e4 10 be 3e 67 9e 3c 73 7c 1b 3e
       0.15482171 -0.1414949 0.01933634 0.15184192
0000e0 6c 00 8a bb 0e 29 1e 3e 24 c8 2c 3e ed 77 c4 3d
       -0.004211476 0.15445349 0.16873223 0.095931865
0000f0 85 18 8e 3c 9c a4 b5 bd a8 49 7b b9 a1 b0 bc bd
       0.017345676 -0.08869287 -0.00023964664 -0.09213377
000100 40 6f 3b be 72 3a 47 be 7f 9d 03 bd e7 f6 72 bd
       -0.18304157 -0.19455889 -0.03213262 -0.059317496
000110 c3 55 56 3e 88 5d 0d 3e e2 63 b6 bd 6b eb 8c be
       0.20931153 0.1380521 -0.0890577 -0.2752336
000120 af e7 6f be 58 e3 01 3d ef e9 47 3e 8b 98 eb bd
       -0.23428224 0.031710953 0.19522832 -0.11503705
000130 e0 7d 05 be c1 73 93 3e dc b2 e1 3d 78 5d a3 bc
       -0.13036299 0.2879925 0.11020443 -0.01994203
000140 35 f0 43 bd 04 de 10 be 67 22 55 be 5d 2b 8a 3a
       -0.0478365 -0.14147192 -0.20813905 0.0010541488
000150 03 d1 6c 3d 71 a1 b8 3c 7c ac fc 3d e4 6a df bb
       0.057816517 0.022537919 0.12337586 -0.0068181623
000160 31 4c 84 be b6 3c ed bd 58 78 4a be e0 f5 a2 bd
       -0.2583938 -0.11583845 -0.1977247 -0.07957053
000170 3c fb 16 be c9 a8 7b 3d fa 90 74 3d 33 c0 0f be
       -0.14744276 0.061440263 0.059708573 -0.14038162
000180 11 51 9d bb 08 35 de 3c a7 49 bd 3d 8a 9d 1e bc
       -0.0048009236 0.027124897 0.09242564 -0.009681115
000190 1a 27 42 3d 21 ac a1 bd a7 73 2a bd 12 94 13 be
       0.04740057 -0.07894159 -0.0416142 -0.14411953
0001a0 3a 49 55 3d 0a 7a 97 bb 7b e8 57 be 9c 2f f5 bc
       0.052071787 -0.0046227025 -0.21084778 -0.029929928
0001b0 4a 08 40 be 06 86 1b be 43 9d 0a be 45 cc ff 3d
       -0.18753162 -0.15187845 -0.13536553 0.12490133
0001c0 ba 9c 5f bd dc da c6 3d b0 2b 51 be 1e 38 09 be
       -0.054592825 0.09709713 -0.20426822 -0.13400313
0001d0 5a 53 15 be 8f c4 bf bc d0 98 fe bc 2f 83 37 3e
       -0.14582577 -0.023409156 -0.031078726 0.17921136
0001e0 34 2b ac be 00 15 96 bd b8 77 47 bc a4 73 e1 bd
       -0.3362671 -0.07328224 -0.012174539 -0.11008385
0001f0 57 7a 96 bc 60 b9 66 3e 3a 7e 61 be a5 df 2a bd
       -0.018368883 0.22531652 -0.22020808 -0.04171719
000200 41 06 d4 bd 44 48 43 3c 01 3d d4 bd 17 a0 2b 3e
       -0.10352755 0.011919085 -0.10363198 0.16760288
000210 e1 9c 82 3d ff 4b 49 be 74 c5 e8 3d b5 4f 91 3c
       0.063775785 -0.19657896 0.11365786 0.017738203
000220 39 ce 94 3c d2 be 96 bd 15 11 4c be 5f b6 57 3e
       0.01816474 -0.07360615 -0.19928391 0.21065663
000230 1a aa 6c be 93 0e 80 3d 76 72 31 3e 53 95 77 bc
       -0.23111764 0.0625278 0.1732882 -0.015111285
000240 2c 3e 38 bd 12 e5 12 be 84 a5 4e 3c bd 34 53 3d
       -0.044981167 -0.14345196 0.012612704 0.051563967
000250 ff 95 c7 3c 54 3c 58 3e 2f 67 1d be 55 ae 07 be
       0.024363516 0.21116763 -0.15371393 -0.13250096
000260 6c 91 60 bc 80 ec ec bd fa ef 3c bd 41 f2 00 be
       -0.013706546 -0.11568546 -0.046127297 -0.12592413
000270 3b 00 6e be 10 99 63 be 11 dd bb 3d 6c 24 56 bd
       -0.23242275 -0.22226357 0.091730244 -0.05228083
000280 a6 b7 05 be a0 a0 74 3d 19 e2 14 be 6d 45 07 be
       -0.13058338 0.059723496 -0.14539374 -0.13210078
000290 52 01 0f 3e 7d 44 18 3e b4 d4 0b be 8b c6 ae bd
       0.13965347 0.14869876 -0.13655359 -0.08533963
0002a0 29 ee a4 bd 21 60 98 b9 5a 44 c8 bd 30 f0 bf 3d
       -0.08053238 -0.0002906332 -0.09778662 0.09371984
0002b0 3a cf 17 3e 89 12 9d 3d 5b 6f b2 bd 93 4f d8 bd
       0.14825144 0.07669551 -0.087126456 -0.105620526
0002c0 46 d7 29 bb 51 c2 57 bc 3b af 20 3e c2 d3 35 3e
       -0.0025915666 -0.013168887 0.15691845 0.1775656
0002d0 1c 19 84 3d 2d b9 78 3d be 13 70 3e 9f de a0 bd
       0.06450102 0.060723472 0.23445031 -0.078549616
0002e0 e4 04 b4 ba 18 95 31 3e fc f2 8f 3e 0e 8a a7 bb
       -0.0013734368 0.17342031 0.2811507 -0.005112893
0002f0 30 b4 a7 bd ec 17 b2 bd 49 e4 64 bd ec e7 84 3c
       -0.08188665 -0.08695969 -0.055881772 0.01622387
000300 7b 44 55 3e 5e c1 74 3e 3c 9d 59 be f3 aa 85 bc
       0.20826904 0.23901889 -0.21251386 -0.016316867
000310 4a 4d 69 3e dc 4a 11 be 49 96 d4 3e d4 76 85 3e
       0.2278339 -0.14188713 0.41520908 0.2606722
000320 d2 9f c4 bd a9 bb 88 be aa f1 73 3e 26 2a b1 bc
       -0.09600796 -0.26705673 0.23822656 -0.021626543
000330 10 f2 07 3d 06 8b 83 3e 5e b3 01 3e 23 2c 31 3e
       0.033189833 0.25692004 0.1266608 0.17301993
000340 6b 69 e6 bd d9 6e 5f 3d f0 24 8b 3e e1 ab 27 be
       -0.11250576 0.054549072 0.2717662 -0.1637416
000350 0c 2a 06 3e c2 16 f1 bd 2a 5c 62 be 7f 9f c8 bd
       0.13101977 -0.11771919 -0.2210547 -0.097960465
000360 04 07 8d 3e 80 7a 01 3d f7 0f fb bd 56 35 80 3c
       0.27544415 0.031610966 -0.122589044 0.015650433
000370 10 90 88 bd 14 69 f3 3d 46 40 fe 3c 87 9d c1 3e
       -0.06668103 0.118852764 0.031036507 0.37815496
000380 e8 af 1c be 01 3e 4f 3e 5c 01 06 3e a8 cf 33 bd
       -0.15301478 0.20238496 0.13086456 -0.04389921
000390 33 c3 19 bd e2 f4 23 3e fa 56 93 bd c6 97 2a bd
       -0.037539672 0.16011384 -0.07194324 -0.04164865
0003a0 08 77 42 3e 8a 59 d4 3d 96 ac 08 3e 81 ab 57 3e
       0.1899072 0.10368641 0.13347086 0.21061517
0003b0 4b 26 66 be f3 c9 90 3d b9 69 e2 bc de 01 14 be
       -0.22475545 0.07069769 -0.027638303 -0.14453837
0003c0 63 89 39 3d 43 77 08 3e cc fe 18 3e 95 4f d0 3c
       0.045297038 0.13326745 0.14940947 0.025428573
0003d0 77 20 69 bd ae 53 07 be cb 0a a8 bd 61 ff 7e 3d
       -0.056915727 -0.13215515 -0.082051836 0.062255267
0003e0 87 de 89 3d 2a b8 31 bc bc 2e 63 bd 95 fa 63 be
       0.06731897 -0.010847131 -0.05546449 -0.22263558
0003f0 73 90 b8 3d 20 9d 0a bd e8 94 2c bc b6 bd 44 be
       0.090119265 -0.033841252 -0.010533549 -0.19212994

conv1.lin_l.bias f4 [32]
000000 fe ca 22 3e 6e b2 9d 3d 5f 3c fa bd d3 a2 8e 3d
       0.15897748 0.077000484 -0.12218546 0.0696465
000010 ab 9b 46 3d 23 bb 84 3d b2 17 10 bd cb ff ae bd
       0.0484883 0.06481006 -0.035178848 -0.085448824
000020 a1 18 f4 bd 26 20 50 bb ec 6e 57 3c a2 b2 69 3e
       -0.1191876 -0.0031757443 0.013149004 0.2282205
000030 5b 33 35 3e 9d c0 ff 3c 99 43 82 3e 2c f2 24 be
       0.17695372 0.031219775 0.25442198 -0.16108006
000040 01 f9 dc 3d c4 e7 f2 bd 93 6b 61 be 7b a7 8b 3d
       0.10789681 -0.11860612 -0.22013693 0.06819054
000050 f2 d9 24 3e f7 2f 12 be f8 ee d2 bb 04 3d 92 bd
       0.16098765 -0.1427611 -0.0064371787 -0.07140544
000060 18 4e f9 3c ad 13 44 bd 53 bf 4d 3e 87 70 27 be
       0.030432746 -0.047870327 0.20092516 -0.1635152
000070 42 14 d4 3d db f5 34 bd d0 82 1e 3d 7a 0e 28 bd
       0.10355426 -0.04417978 0.03869897 -0.04102943

conv1.lin_r.weight f4 [32, 30]
000000 3b 75 d5 3d 70 bb fd 3d b9 cf 48 be 0c 4f 1c 3d
       0.104227506 0.123892665 -0.1961049 0.038161322
000010 e4 12 c5 3d aa ed 17 be 7f 12 5f bd 18 58 2c 3d
       0.09622744 -0.14836755 -0.054461 0.0420762
000020 74 38 38 bd e9 c3 37 bc fc 7e 13 3e 88 bd 7a bd
       -0.044975713 -0.011216142 0.1440391 -0.061215907
000030 5d 4a 96 bd aa 78 61 3e cd 23 ba 3d 8f e5 02 3e
       -0.073384024 0.22018686 0.0908886 0.12782882
000040 47 bb 34 3e 51 86 32 3e a9 d9 67 bd 3e 5d ab 3c
       0.17649566 0.1743405 -0.05660406 0.020918485
000050 c3 27 46 3e 0c 5a 1a be c3 0f d5 3d b3 d4 89 3d
       0.19351105 -0.15073413 0.10403397 0.06730022
000060 dc 64 0f be bf 4f 57 3e f9 33 0f 3e bd 4b 8a b9
       -0.14003319 0.21026514 0.1398467 -0.0002637784
000070 8e b9 4b be 19 13 35 3b e4 08 11 3d 92 6a 71 bc
       -0.19895002 0.0027629791 0.03540887 -0.014734881
000080 fc f8 c8 3c 39 e5 23 bd 92 73 23 be 4a 27 cf bd
       0.024532788 -0.040013526 -0.15962055 -0.10114916
000090 5a 2f 57 be db 51 86 3d e0 26 49 3e 17 4e 3b bd
       -0.21014157 0.065585814 0.19643736 -0.04572877
0000a0 fe 5b c6 3d 59 b8 9b 3d 5b bd a0 3d a8 f5 37 be
       0.09685515 0.07603521 0.07848617 -0.17964804
0000b0 d9 58 01 3d b2 bf dd bc 64 2c a2 be 7d f0 4e 3e
       0.031578872 -0.027068947 -0.31674492 0.20208926
0000c0 72 38 3b be 75 d5 bd bd 6f 9d 9a bd 99 22 02 bc
       -0.18283251 -0.09269229 -0.07549559 -0.007942819
0000d0 05 70 28 be d7 79 83 3d 35 fc a8 3d 8c 3b 34 be
       -0.16448982 0.064197235 0.0825123 -0.1760084
0000e0 58 da 77 3d 55 a0 75 3e c1 28 e5 3b a8 4f 30 bd
       0.060510963 0.23986943 0.0069933836 -0.043044716
0000f0 14 fa 14 3e 6e ce cd bd b7 fe 36 3e d2 d7 04 bd
       0.14548522 -0.10049139 0.17870604 -0.032432385
000100 96 99 bc 3c a4 31 e9 bd e0 a6 a7 3c fa 1a 23 3d
       0.023022454 -0.11386421 0.020465314 0.03982065
000110 23 c2 14 3c da de b6 3d 68 c2 cc 3d ef 9c 3c be
       0.009079489 0.08929224 0.099980175 -0.1841924
000120 0a 1c 87 bd b6 a2 d1 3d e2 8e 74 3d 31 0c 80 bd
       -0.06597145 0.10236113 0.059706576 -0.06252325
000130 f8 38 c4 bd 9c 9e 25 be 21 85 22 3c 4a 81 12 3d
       -0.095811784 -0.16173786 0.009919436 0.03576783
000140 3a 7c 49 3e 2e 39 34 be dc 2b 59 bb 53 9e 18 bd
       0.19676295 -0.17599937 -0.0033137714 -0.037260365
000150 5b 7c 90 bd 2c cd 46 3d bb 3e 65 3d 4c df bc 3d
       -0.07054969 0.04853551 0.055968028 0.09222278
000160 69 c8 e0 bd 6e b6 08 be 2c a1 14 be af 1d 5e bd
       -0.10975725 -0.13350841 -0.14514607 -0.054227527
000170 b4 9a 00 be 0f b7 27 3e 73 07 cc bd c0 43 92 3c
       -0.12559015 0.16378425 -0.09962358 0.017854571
000180 d3 89 84 be 7e 1d fc bd 1b c8 85 bb 7d 2b e6 3d
       -0.25886402 -0.12310313 -0.0040826923 0.112387635
000190 f8 a6 4d 3e a4 05 8e 3d 2d 52 97 bd 95 75 62 be
       0.20083225 0.069346696 -0.07388721 -0.22115166
0001a0 a3 a4 14 3d 86 1d 10 be 78 b4 e1 bd 48 f3 d2 3c
       0.036289822 -0.14073762 -0.1102075 0.025750771
0001b0 44 d0 9f be 4d fa 6a 3c 6c fa 24 be c0 d3 4d bd
       -0.31213582 0.014341903 -0.16111153 -0.05025077
0001c0 73 3b b8 3d 30 a3 19 be 03 7d a4 bd 3d cf 3c be
       0.08995714 -0.15003657 -0.080316566 -0.1843843
0001d0 8f 25 ce 3c 18 69 95 bd 3c 67 b7 3d c8 9a 8d 3d
       0.025164394 -0.07295436 0.08955237 0.06914288
0001e0 d7 1c 8d be da 57 20 be 0a d8 76 3d 87 3b 91 bd
       -0.27561066 -0.15658513 0.060264625 -0.07091432
0001f0 84 c0 47 bd 45 dc 04 be a4 ba e3 3d da df cd bd
       -0.04876758 -0.12974651 0.11119583 -0.10052462
000200 75 39 8c 3d d6 4b 87 3e 28 8a 15 bd eb d7 11 3e
       0.068468966 0.26425046 -0.03650871 0.14242522
000210 e0 b1 f6 bd 52 76 87 be 7e 50 51 3e da 10 8b bd
       -0.12045646 -0.2645746 0.20440862 -0.067903236
000220 48 c8 14 3d dd 4f 8c 3e a6 33 dd 3d 6f f0 41 bd
       0.036323816 0.2740468 0.10800867 -0.047348436
000230 a6 34 31 be 8d 1e 82 be 91 df 41 bc 1e 7f 8e 3e
       -0.1730524 -0.25413933 -0.011833088 0.27831358
000240 15 da aa bc a7 36 b9 bb 20 be 11 3e d8 2c 35 3d
       -0.020855943 -0.005652267 0.14232683 0.04423222
000250 1c b5 5d be 71 0c 63 3c 1c 45 45 be 47 04 1c be
       -0.21651119 0.013857947 -0.19264644 -0.15236007
000260 f8 a5 10 bd f2 bf bb bd 81 b0 33 3e 1b e8 8a bd
       -0.03531453 -0.0916747 0.175478 -0.06782552
000270 d0 2d c7 3d ae 35 28 bc 64 a2 f3 3c f3 88 6c 3e
       0.09725535 -0.0102667045 0.02974052 0.23099117
000280 3d 93 35 bd 7f 10 b1 bd fe 42 9a bd 54 3d a1 bc
       -0.04432987 -0.086457245 -0.07532309 -0.019682564
000290 73 6f 20 3d a0 24 82 3d e3 07 07 3d 2f 17 09 3a
       0.039168786 0.06354642 0.032966506 0.000522959
0002a0 8e 32 2d 3e 92 0a 37 3e 5b c2 05 be 28 69 5b be
       0.16913816 0.17875126 -0.13062422 -0.21426833
0002b0 51 94 63 be 34 16 1c 3e 10 af 06 bd 7c 3d 31 3e
       -0.22224547 0.15242845 -0.032881796 0.1730861
0002c0 3e b9 27 3e 9b 79 e4 3d c9 f3 a8 3c 1f 12 29 be
       0.16379258 0.11156007 0.020624058 -0.16510819
0002d0 e6 d6 96 3d 3b b6 d6 3b e5 96 2e 3e 56 cf 05 bd
       0.073652074 0.0065524853 0.17049749 -0.032668434
0002e0 e6 71 58 3d 6e cf 23 3e 05 3c 04 3e 70 b5 62 3e
       0.052842997 0.15997097 0.1291352 0.22139525
0002f0 b1 73 56 3c 47 56 86 bd 0f b6 5e bc 83 82 8f 3b
       0.013089106 -0.06559425 -0.013593211 0.004379572
000300 f7 27 6c 3e df c6 b3 3d c4 07 61 bd 71 ab 08 be
       0.2306212 0.08778166 -0.054939047 -0.1334665
000310 b7 f7 b9 bd 4c 5f 23 bd 2a 78 1e bd b9 ae a9 3d
       -0.09080451 -0.039885804 -0.038688816 0.08285279
000320 fb 59 c5 3d b2 23 98 3d 3b 60 8d 3d 13 93 27 bd
       0.09636303 0.07428683 0.0690312 -0.040911745
000330 84 1f 81 3d f6 31 ea bd 1e 4f 0d 3d 74 f7 b7 bd
       0.06304839 -0.114353105 0.03449928 -0.08982745
000340 ef 68 1f 3e 58 b0 de bd 94 cc f9 3d 24 19 21 3d
       0.15567373 -0.10873479 0.12197223 0.039330617
000350 c1 fc 8b 3d e6 65 f7 bd 16 55 69 3d 6b ea 0a bd
       0.06835318 -0.120799825 0.05696591 -0.033914965
000360 58 09 0a 3e cf 41 01 bd 92 1f 4d bd 4f 31 96 bd
       0.13480127 -0.0315569 -0.050078936 -0.073336236
000370 cc 53 1d 3e 00 06 bb bd 72 86 13 bd 53 10 d7 3c
       0.15363997 -0.09132004 -0.03601689 0.026252901
000380 a4 83 79 be 7d 62 07 3d 74 71 2b bd 23 51 94 be
       -0.24366623 0.03305291 -0.041856244 -0.28968152
000390 18 76 5d be 26 c0 48 3d ef af f9 bd 44 e7 aa 3d
       -0.2162708 0.049011372 -0.1219176 0.08344892
0003a0 f3 21 5a bd 2c 13 88 3d 45 70 20 be a8 1e 2c bd
       -0.053255033 0.06644282 -0.15667827 -0.042021424
0003b0 08 a7 12 bd 41 ab c6 3d 3b 16 ce bd 08 4d 6b bd
       -0.035803825 0.09700633 -0.10062834 -0.05744651
0003c0 7f ca 9b bc 5a 2a 1d bd df 39 24 bd 95 5f 5c 3e
       -0.019017456 -0.038370468 -0.040094253 0.21520837
0003d0 bc da 64 bc f2 f1 80 3e 81 45 44 bc 70 43 96 bb
       -0.013968166 0.2518459 -0.011979462 -0.004585676
0003e0 6f 1f 83 3d cb 6f 0c 3e 1d 81 49 bd 30 72 c2 bd
       0.0640248 0.1371452 -0.049195398 -0.09494436
0003f0 d1 e2 b5 bd 84 a3 a3 bd d9 8e db bb e3 cc 1b bd
       -0.088811524 -0.079901725 -0.0067003784 -0.038037192

conv2.lin_l.weight f4 [5, 32]
000000 e1 14 78 3e dd 5a 99 3c 26 e3 dc 3d 8c e5 f3 3a
       0.24226715 0.018720085 0.107855126 0.0018607839
000010 46 e4 cf bc e9 04 d7 bd 82 f9 2e 3d eb da dd 3c
       -0.025377404 -0.104989834 0.042718418 0.027081927
000020 72 15 c1 bd 7a 4e c2 bc c5 4c 32 3e 74 59 af 3d
       -0.094279185 -0.023719061 0.17412098 0.08561984
000030 7c a0 6d 3e f1 9e c9 3d b9 8e c6 3c 14 66 64 3e
       0.23205751 0.09844769 0.024237977 0.22304565
000040 4d eb 13 3a fd 4f 01 3e 3c 98 80 3c 4a cf 77 bd
       0.00056426675 0.1262817 0.015697591 -0.06050042
000050 2e 48 cd bc 6f 59 09 3e f1 39 26 3e 1c 55 7d bd
       -0.025058832 0.13413022 0.1623304 -0.061848745
000060 dd 47 6b 3e ea a5 d9 3d e6 ec c8 bd 31 4f ce bd
       0.22976632 0.10627349 -0.0981081 -0.10073698
000070 e7 bf 78 bc 30 ac 4c bd 21 43 e3 3c 29 3d a7 bc
       -0.015182472 -0.0499689 0.02774197 -0.020414906
000080 b3 ec f5 3d c3 31 39 3e 0e e2 e2 bc 90 3c cf 3c
       0.120080374 0.18085389 -0.027695682 0.025297433
000090 26 dd 0f 3e 02 32 ec 3d b2 3d 7b 3e 83 e9 5c 3e
       0.14049205 0.11532976 0.24535254 0.21573453
0000a0 cc ff 68 bd 09 cb 0b 3e ff cf 8b 3e 69 93 9a bd
       -0.056884572 0.1365167 0.27307126 -0.075476475
0000b0 7d 89 7b 3d 6c b8 a0 be 1d fd 65 be 97 d2 40 3e
       0.061410416 -0.31390703 -0.22459836 0.18830334
0000c0 e9 1f 51 3d 3d cf 9a bd a9 fe 08 3e 6c 85 67 3e
       0.051055823 -0.07559059 0.13378395 0.2260949
0000d0 5c fa b6 3c 2f ca ae 3d 1f fd 79 be 5e 5b 88 3b
       0.022336178 0.08534657 -0.24412964 0.0041612824
0000e0 c6 b8 2b 3c 2b af a9 3d 2e fe 17 3e 5f 5e 0f bd
       0.010481065 0.08285364 0.14843056 -0.03500211
0000f0 b9 11 c2 3d b3 e3 49 3d ae f4 3a 3e 37 8e 1e be
       0.094760366 0.049289417 0.182574 -0.15483938
000100 2f 5c c2 bd 81 95 b2 3c 18 d7 47 be 57 8d 09 3d
       -0.09490239 0.021799805 -0.19515646 0.033582058
000110 64 fa 83 3d 26 14 84 3d 85 89 d1 bc 7a 17 c6 bd
       0.064442426 0.064491555 -0.02557827 -0.096724465
000120 30 9f 1f bd 43 fb 00 bd c9 92 47 be 1a c5 70 3d
       -0.038970172 -0.03148962 -0.19489588 0.05878172
000130 a7 18 09 be cf f7 49 be c8 05 c4 3c 45 b3 91 3d
       -0.1338831 -0.19723438 0.023928538 0.07114271
000140 69 44 2b 3d 21 77 72 be 68 d3 ad bd 23 32 cf bd
       0.041813288 -0.23678257 -0.08487588 -0.10116985
000150 f8 b1 36 bb cd 9c 72 3d 08 0a 01 be 11 e9 91 3b
       -0.0027877074 0.059231568 -0.12601483 0.0044528325
000160 5b a1 77 bd 40 55 12 be 68 73 15 39 64 fe 88 3e
       -0.060456615 -0.14290333 0.0001425274 0.26756585
000170 5a 69 f4 bd 26 b8 ba 3d c2 f6 f0 bc d5 b3 fc 3c
       -0.11934157 0.09117155 -0.029414538 0.03084747
000180 46 d2 cf bd 85 07 3b be 73 dd ed bc 38 fa b9 bb
       -0.10147528 -0.18264587 -0.02903626 -0.0056755804
000190 7f 3a 18 bd 51 69 05 3c 13 63 23 be a9 76 ee bd
       -0.03716516 0.008142785 -0.15955763 -0.116437264
0001a0 a6 1c d7 bd bb 5c 66 bc 95 ec f2 bd 19 2a 86 bc
       -0.10503511 -0.014060195 -0.11861531 -0.016377496
0001b0 59 35 7f bd 38 56 9d 3e d9 f7 da bd ed 5b 0d 3b
       -0.062306736 0.30729842 -0.106918044 0.0021569685
0001c0 47 0e 55 3d 9e a9 25 be 0c 6d 6e bd 78 11 80 bd
       0.05201557 -0.16177985 -0.058209464 -0.06253332
0001d0 54 69 02 3d 4f eb a7 bd 0f 47 57 3e 85 ca 8e bc
       0.03183873 -0.081991784 0.210232 -0.017430553
0001e0 9b 86 b4 bc 73 ee 1e bc 84 6a 23 bd e7 00 10 be
       -0.022036841 -0.009700405 -0.039896503 -0.14062844
0001f0 cd 69 79 bd 3a 57 0a 3e cb b8 ef bd 92 0f f3 3c
       -0.060891915 0.13509837 -0.11705168 0.02967051
000200 7b d9 2d bd 46 c1 f0 bc 40 af 82 3d fe 54 6d bd
       -0.042443734 -0.029389035 0.063810825 -0.057942383
000210 3a a0 94 bd 55 80 d6 bd 8e 45 84 bd 6d 81 0f be
       -0.07257123 -0.10473696 -0.06458579 -0.14014216
000220 2f 04 66 be df 66 c4 bd fb 5a 24 3c c2 44 97 bd
       -0.22462533 -0.095899336 0.010031457 -0.073861614
000230 31 19 89 bc 2c 1a 70 bd f4 22 81 bd cc ed 14 be
       -0.016735645 -0.05861871 -0.06305495 -0.14543837
000240 f9 d1 9b bd 63 05 ac 3c f4 f6 0f be e9 d1 83 bd
       -0.076084085 0.020998662 -0.14059049 -0.064365216
000250 cf f5 41 bd 82 9c 7b be 90 48 08 be e8 3a b1 bd
       -0.047353562 -0.24571422 -0.1330893 -0.086538136
000260 62 4c 57 be f2 69 23 be 34 86 04 be b6 ab 75 3c
       -0.21025231 -0.15958384 -0.1294182 0.014994552
000270 79 21 db bd ea 68 66 bd b4 29 cc bd 25 22 95 3b
       -0.10699744 -0.056252398 -0.09968892 0.0045511895

conv2.lin_l.bias f4 [5]
000000 75 20 c6 3c c9 70 0f 3d 0c f8 47 3d 33 d6 ac bd
       0.024185399 0.03501967 0.04882054 -0.08439293
000010 41 06 58 3c
       0.013185085

conv2.lin_r.weight f4 [5, 32]
000000 54 9a 4d 3e 13 90 f9 3d 82 e1 d6 bd 36 8b cd 3a
       0.20078403 0.12185683 -0.10492231 0.0015681747
000010 df 3d 81 3e 22 9c 47 3e 60 88 84 3d 4f d2 a4 3d
       0.25242516 0.19493154 0.06471324 0.08047926
000020 0d e7 70 3d 1c 57 05 3d c7 46 5e 3e 16 c4 b9 3e
       0.058814097 0.032553777 0.21706687 0.36282414
000030 ff e9 c9 3e 7a 7f a2 3d 87 6a e9 3e f7 fe 87 bd
       0.39436337 0.079344705 0.45589086 -0.066404276
000040 ce 32 f4 3b 5a 1a 99 3d e8 8f 7e bc 18 c1 7f 3e
       0.0074523455 0.07475729 -0.01553724 0.24976003
000050 fc 44 d4 3e 6e 45 d3 bc b1 e9 36 3d b1 b2 3f bd
       0.4145888 -0.025789943 0.04465646 -0.046801273
000060 0e e0 8d 3e b1 3d 85 3e 97 16 b2 3e 23 ad 19 3d
       0.27710003 0.2602363 0.3478286 0.03751863
000070 35 78 81 3e 63 32 b3 bd 07 82 a9 3e 00 58 1f 3e
       0.25287023 -0.08749845 0.33107015 0.15560913
000080 85 ab 95 be d3 4f 43 bc ef 0b c9 bc 00 b5 85 3e
       -0.29232422 -0.011920887 -0.024541823 0.26114655
000090 a4 d9 44 be 59 a8 0f bd 79 6a 58 be 28 0f 3b 3d
       -0.19223648 -0.03507266 -0.21134366 0.04566875
0000a0 6b 96 92 3e e1 32 34 3e e3 25 85 bd 27 a1 0d bf
       0.28630385 0.17597534 -0.06501367 -0.55324024
0000b0 a9 03 19 bf ae 43 06 3e 2c 35 b3 be 21 07 d6 bd
       -0.5977121 0.13111755 -0.35001504 -0.104505785
0000c0 03 5a 84 3e 05 98 0e 3e 9f 9c 88 3e 9c cc aa be
       0.25849923 0.13925178 0.26681992 -0.3335923
0000d0 57 40 90 be 25 27 e1 3d 23 2a 05 be 98 f0 ac bd
       -0.28174087 0.10993794 -0.13004355 -0.08444327
0000e0 39 01 ae 3d 8b 7a ab 3b 62 d4 9c be 18 bd 91 be
       0.08496327 0.005233114 -0.30630785 -0.2846458
0000f0 65 f2 1f bf 92 b5 a9 3e 2f 10 d4 bc fa e7 13 bf
       -0.6247924 0.3314634 -0.025886623 -0.57775843
000100 44 bb 55 bc 65 c7 22 3e 24 f4 c4 3d 93 18 d0 bc
       -0.013045136 0.15896375 0.09616879 -0.025402343
000110 71 1a c9 3d ef a5 00 3e 67 c2 14 bd d5 da 67 be
       0.098194964 0.12563299 -0.03631821 -0.22642072
000120 e0 7a 22 be fa 8a dc bd 33 5b c7 3c 1b 51 8d 3e
       -0.15867186 -0.10768695 0.02433548 0.2760094
000130 d3 c4 92 3d 66 65 a0 be cb 1d 2b be 56 d7 22 be
       0.071664475 -0.3132736 -0.16710584 -0.15902457
000140 3c 48 ca bd 5f 47 46 bb f2 53 31 be b1 8e 20 3e
       -0.09877059 -0.0030254943 -0.17317179 0.15679432
000150 0d 19 18 be 86 58 22 3d fc 49 d4 be 91 34 d2 3e
       -0.14853306 0.039635204 -0.41462696 0.4105573
000160 5d 7b 34 be 44 ef 4a bd af fb 33 be 0b bc ee 3e
       -0.17625184 -0.049544588 -0.17576478 0.4662784
000170 70 a8 53 3e 28 df 27 bd ec 07 eb bd 74 34 e3 3e
       0.20669723 -0.040984303 -0.1147612 0.44375956
000180 85 7d e2 bd 54 6e 10 be b8 43 cf bd 12 d5 16 be
       -0.11059097 -0.14104587 -0.10120338 -0.14729717
000190 01 9e 6f be 80 88 78 be 68 d9 87 3e 94 6c 2b 3e
       -0.23400117 -0.2427082 0.26533055 0.16740638
0001a0 78 17 bb bd 3d cc 80 bd 4d 47 53 be 8b 0f 05 be
       -0.09135336 -0.06288955 -0.20632668 -0.1299421
0001b0 45 a8 b6 be c8 ad 73 3e 8b a1 4f 3e b9 e7 ee bb
       -0.35675254 0.23796761 0.20276468 -0.007290807
0001c0 57 4a 95 bd e4 46 40 bd 3e 5a 4c 3d 8b 29 4d be
       -0.0728957 -0.046942607 0.04989075 -0.20035379
0001d0 df 80 6d be 46 8a 1d be 7d 9d 1a 3e a4 39 4d be
       -0.23193692 -0.15384778 0.1509914 -0.2004152
0001e0 94 97 58 be 2f 04 62 bc ef 6a 01 3b ed fc 1e bd
       -0.21151572 -0.013794943 0.0019747575 -0.038815428
0001f0 4d 57 c6 3e 31 84 25 be f3 8f 9e bc af 43 5b 3e
       0.3873848 -0.16163708 -0.01935575 0.21412538
000200 3b bf df bc 09 34 9e bd 3d e7 ce bb 9e ba 00 be
       -0.027312865 -0.07724769 -0.006314187 -0.12571189
000210 5f eb b5 bd ba 70 82 be df 97 1e be 8d 56 c5 bd
       -0.08882784 -0.2547663 -0.15487622 -0.09635649
000220 92 04 9f bd 79 70 d2 bd 88 1a 11 3d e4 a3 5c be
       -0.077645436 -0.10275359 0.035425693 -0.21546894
000230 86 42 6f be 95 8e 06 be 09 40 71 bd 0e 22 8b bc
       -0.2336522 -0.13140328 -0.05889896 -0.016984012
000240 a2 b3 02 be 1f d9 3f be 72 2e f6 bd 2b f1 15 be
       -0.12763837 -0.18735169 -0.120205775 -0.1464278
000250 e6 25 2b be 4c 0e 43 be 6d c5 05 be 84 9b 63 bd
       -0.16713676 -0.19048423 -0.13063593 -0.055568233
000260 cc e2 63 bd 10 6e de bd f1 df e5 bb f7 9f 09 bd
       -0.055636212 -0.108608365 -0.0070152213 -0.03359982
000270 b8 f8 c9 bd c3 c7 f4 bd 34 9c e8 bd 23 fb d0 bd
       -0.098618925 -0.11952164 -0.113579184 -0.102041505
