trained_weights/theia/lword2vec_gnn_theia12_E3.pth (torch, 11223 bytes, 6 tensors)

conv1.lin_l.weight f4 [32, 30]
-0.102741785 -0.19222522 0.033833146 0.013348571 -0.081598304 -0.045115862 -0.013354035 0.07892666
0.090939574 0.02804966 0.014035436 0.09565737 0.17470193 -0.14280808 -0.07978852 0.111007005
-0.027764104 -0.14731435 0.1428075 0.047968537 0.026373807 -0.23445354 -0.12202868 -0.11745597
0.031228533 0.10054655 0.1351685 0.099084064 0.10632112 -0.11517743 -0.19555151 -0.08207765
-0.11389617 0.12688556 -0.18835908 0.08040285 0.07648395 0.08699176 0.08981671 0.15363696
-0.10694295 -0.1526936 -0.019321881 -0.053116195 -0.071853705 0.16205963 -0.10060714 -0.0018075579
0.13278961 0.17853898 -0.17953436 -0.098251425 0.15211475 -0.14012174 0.020349082 0.15008882
-0.0023124856 0.15192348 0.16556771 0.09497531 0.016143398 -0.08604853 0.0008652391 -0.08919441
-0.17747122 -0.19589944 -0.03581274 -0.0687735 0.21223979 0.139406 -0.0879407 -0.27438083
-0.25116807 0.024539722 0.19517827 -0.11680117 -0.14091474 0.29178932 0.10717293 -0.02936614
-0.047720492 -0.1431867 -0.213612 0.0023079147 0.061309356 0.01475656 0.12544754 -0.009564629
-0.25840765 -0.11879749 -0.18273255 -0.062611945 -0.13140994 0.06914275 0.04617428 -0.15348715
0.0056936 0.049335003 0.099317014 -0.003338358 0.061170354 -0.08817672 -0.018466815 -0.1299755
0.05929669 -0.016772369 -0.21273574 -0.024074752 -0.20096995 -0.16123863 -0.12597561 0.114380896
-0.061245695 0.10778853 -0.19413997 -0.14896818 -0.13768257 -0.029452503 -0.036171068 0.16628222
-0.35044256 -0.07947901 -0.02162852 -0.10901635 0.0040547545 0.22519682 -0.2361642 -0.05631242
-0.09774524 0.015599716 -0.12068055 0.16735405 0.047687355 -0.21839552 0.1165602 0.016793948
0.006767131 -0.06514805 -0.18945657 0.20096937 -0.23307809 0.06500113 0.16519488 -0.015442148
-0.042664666 -0.14966734 0.015682278 0.04770484 0.018258516 0.21082647 -0.16400953 -0.13273652
-0.017082945 -0.117086895 -0.047143694 -0.12735459 -0.23845644 -0.22917722 0.096002154 -0.048487276
-0.12903516 0.06370408 -0.15285222 -0.15055206 0.14137332 0.1487096 -0.14562015 -0.08129312
-0.09377615 -0.006820365 -0.10374171 0.097899824 0.14221437 0.07440184 -0.08530246 -0.11307518
-0.0010770084 -0.013962381 0.15489756 0.17502445 0.053185023 0.05662522 0.2357174 -0.0766107
0.012580048 0.17228523 0.279715 -0.014550412 -0.076800555 -0.08337805 -0.09252741 0.0003373767
0.19875793 0.23665674 -0.20005998 -0.024398856 0.22233236 -0.12610583 0.45736685 0.25476623
-0.089536436 -0.27263334 0.23231137 -0.013552486 0.039313357 0.25825655 0.13280602 0.16396582
-0.11922974 0.0516853 0.28018585 -0.1614572 0.13598871 -0.11587305 -0.21851079 -0.09924101
0.27699345 0.032116693 -0.1222711 0.016118018 -0.066842236 0.11614374 0.03150963 0.38420662
-0.15270025 0.19975954 0.13121353 -0.04408232 -0.027605489 0.15890235 -0.06918801 -0.049637467
0.1893961 0.105552986 0.13536087 0.21038103 -0.22354132 0.06923018 -0.028617848 -0.14645132
0.057987966 0.13820559 0.15872468 0.026539084 -0.061261274 -0.13591331 -0.08122653 0.06534125
0.067454375 -0.00945887 -0.039537843 -0.21842712 0.09185055 -0.02904019 -0.012748751 -0.1944963
00000000: 496a d2bd b0d6 44be a094 0a3d f7b3 5a3c
00000010: 031d a7bd 69cb 38bd e2ca 5abc 4da4 a13d
00000020: 873e ba3d 67c8 e53c e3f4 653c 03e8 c33d
00000030: 10e5 323e 483c 12be 2a68 a3bd a457 e33d
00000040: 8c71 e3bc 93d9 16be 213c 123e a87a 443d
00000050: e20d d83c 9714 70be 2cea f9bd c18c f0bd
00000060: fbd2 ff3c 59eb cd3d 9c69 0a3e 96ec ca3d
00000070: e3be d93d 25e2 ebbd a83e 48be 5418 a8bd
00000080: 6542 e9bd 4aee 013e 34e1 40be 40aa a43d
00000090: 9ea3 9c3d bc28 b23d d3f1 b73d 0253 1d3e
000000a0: e804 dbbd b65b 1cbe ec48 9ebc 5e90 59bd
000000b0: 0928 93bd f6f2 253e 1e0b cebd 94eb ecba
000000c0: 00fa 073e ecd2 363e dbd7 37be 0b38 c9bd
000000d0: f8c3 1b3e 137c 0fbe 1eb3 a63c e2b0 193e
000000e0: 128d 17bb d491 1b3e 958a 293e 6a82 c23d
000000f0: 293f 843c 363a b0bd 37d1 623a 8fab b6bd
00000100: 04bb 35be dd99 48be 61b0 12bd 1fd9 8cbd
00000110: 6355 593e 72c0 0e3e 411a b4bd a57b 8cbe
00000120: 1a99 80be 8707 c93c d0dc 473e 7435 efbd
00000130: f44b 10be 6965 953e 7b7d db3d 4291 f0bc
00000140: 9076 43bd 899f 12be 1bbd 5abe 6240 173b
00000150: 851f 7b3d 80c5 713c 5275 003e f6b4 1cbc
00000160: 024e 84be 194c f3bd 3e1e 3bbe b13a 80bd
00000170: 5490 06be b79a 8d3d 3e21 3d3d bc2b 1dbe
00000180: 6191 ba3b 8013 4a3d b866 cb3d 5ac8 5abb
00000190: c48d 7a3d ff95 b4bd b847 97bc 4c18 05be
000001a0: 16e1 723d 3566 89bc 66d7 59be 6a38 c5bc
000001b0: 11cb 4dbe bd1b 25be c0ff 00be 8840 ea3d
000001c0: c4dc 7abd 3cc0 dc3d a1cc 46be 1d8b 18be
000001d0: a9fc 0cbe 6046 f1bc 1d28 14bd e345 2a3e
000001e0: 356d b3be e4c5 a2bd 4b2e b1bc f743 dfbd
000001f0: bfdd 843b ff99 663e 07d5 71be daa7 66bd
00000200: a82e c8bd f495 7f3c 5d27 f7bd dc5e 2b3e
00000210: d153 433d 13a3 5fbe 1db7 ee3d 7693 893c
00000220: cfbe dd3b 576c 85bd e700 42be eaca 4d3e
00000230: 06ac 6ebe 501f 853d d928 293e 1001 7dbc
00000240: 25c1 2ebd 6542 19be 1f78 803c 2666 433d
00000250: e292 953c e5e2 573e 1df2 27be 15ec 07be
00000260: 88f1 8bbc 41cb efbd bf19 41bd 3e69 02be
00000270: ed2d 74be 6fad 6abe c79c c43d 989a 46bd
00000280: cb21 04be 4977 823d 4b85 1cbe 522a 1abe
00000290: 2bc4 103e 5447 183e 731d 15be 027d a6bd
000002a0: b60d c0bd 5e7d dfbb 8976 d4bd b47f c83d
000002b0: a5a0 113e fe5f 983d 0eb3 aebd f693 e7bd
000002c0: 682a 8dba 78c2 64bc 779d 1e3e 9c39 333e
000002d0: 8ad8 593d d9ef 673d e75f 713e 12e6 9cbd
000002e0: 8c1c 4e3c 8a6b 303e ce36 8f3e da64 6ebc
000002f0: 9c49 9dbd 1cc2 aabd 037f bdbd efe1 b039
00000300: 3387 4b3e 2556 723e 86dc 4cbe 1ce0 c7bc
00000310: 18ab 633e e321 01be fd2b ea3e b870 823e
00000320: e15e b7bd 9996 8bbe 08e3 6d3e 3f0b 5ebc
00000330: 0b07 213d 343a 843e 4dfe 073e a8e6 273e
00000340: b92e f4bd f7b3 533d 8574 8f3e 0955 25be
00000350: a040 0b3e da4e edbd 4bc1 5fbe df3e cbbd
00000360: 16d2 8d3e cb8c 033d 4569 fabd ef09 843c
00000370: 95e4 88bd c5dc ed3d 3e10 013d bbb6 c43e
00000380: 745d 1cbe c48d 4c3e d75c 063e aa8f 34bd
00000390: e824 e2bc 4cb7 223e 72b2 8dbd a850 4bbd
000003a0: 0df1 413e 2a2c d83d 0a9c 0a3e 206e 573e
000003b0: 04e8 64be 8dc8 8d3d fa6f eabc 56f7 15be
000003c0: ca84 6d3d c485 0d3e b988 223e 7e68 d93c
000003d0: 1aed 7abd dc2c 0bbe 185a a6bd a2d1 853d
000003e0: 8525 8a3d 60f9 1abc 6ff2 21bd 5cab 5fbe
000003f0: 241c bc3d b1e5 edbc 23e0 50bc 0a2a 47be

conv1.lin_l.bias f4 [32]
0.1762093 0.060457245 -0.12048362 0.054762613 0.05500802 0.061717298 -0.029327538 -0.0874829
-0.100991994 -0.0102401925 0.020977369 0.22447518 0.19709426 0.061723974 0.30691954 -0.1557638
0.09909469 -0.110585235 -0.22828142 0.07037675 0.19930692 -0.13733722 0.01982377 -0.07698295
0.06990964 -0.026356105 0.22586086 -0.19199678 0.076618604 -0.060655426 0.07915906 -0.06463499
00000000: 3670 343e 04a2 773d 1ec0 f6bd c34e 603d
00000010: 1750 613d 47cb 7c3d 4e40 f0bc 3c2a b3bd
00000020: e4d4 cebd 7bc6 27bc bbd8 ab3c d2dc 653e
00000030: 14d3 493e 47d2 7c3d 8f24 9d3e 8c80 1fbe
00000040: 28f2 ca3d 837a e2bd 9bc2 69be af21 903d
00000050: 1d17 4c3e 21a2 0cbe 7565 a23c 3da9 9dbd
00000060: c92c 8f3d c2e8 d7bc 1248 673e ce9a 44be
00000070: 37ea 9c3d d371 78bd 251e a23d 5a5f 84bd

conv1.lin_r.weight f4 [32, 30]
0.10571693 0.12029412 -0.2151011 0.023328459 0.092504 -0.14819634 -0.08446485 0.0427042
-0.023086796 -0.0011623465 0.17430235 -0.059914764 -0.048555274 0.23528054 0.10227826 0.13255586
0.17543992 0.19364053 -0.08917987 0.042323373 0.19872713 -0.12708403 0.095817536 0.08917044
-0.14905076 0.23281926 0.14794676 -0.00025687393 -0.21671534 0.016366953 0.049330305 0.001738883
0.029770406 -0.033411346 -0.16747692 -0.103006154 -0.22702394 0.07331249 0.19410309 -0.045598537
0.11951907 0.06521205 0.08984847 -0.17773855 0.025047585 -0.035645045 -0.30873138 0.18366982
-0.19072507 -0.10716253 -0.06645619 -0.014288504 -0.1655026 0.065056734 0.08504081 -0.18735763
0.06351191 0.23141243 0.008283262 -0.048856296 0.1411924 -0.10258201 0.17884669 -0.03267385
0.0240375 -0.11345116 0.024225807 0.043095596 0.0039634905 0.08896016 0.09381706 -0.17955501
-0.06481099 0.08339687 0.05895373 -0.062556945 -0.10302133 -0.158371 0.007501887 0.03166206
0.18949664 -0.17671226 -0.008345686 -0.037322965 -0.06559174 0.046708975 0.053608574 0.09645659
-0.11323713 -0.13566823 -0.12637298 -0.031397738 -0.1140574 0.17596166 -0.113022566 0.004607225
-0.26272815 -0.10048126 0.01046408 0.112765074 0.2186354 0.056921054 -0.05624141 -0.20931827
0.039970953 -0.15138617 -0.10450247 0.017835563 -0.32472968 0.0035852166 -0.14732897 -0.054067332
0.083373696 -0.13890906 -0.07330493 -0.19942501 0.033879053 -0.07973988 0.087776184 0.059372902
-0.2901534 -0.16097924 0.047846384 -0.07528512 -0.035162885 -0.12060616 0.085986905 -0.10922769
0.08163907 0.26427522 -0.046448264 0.13298583 -0.13020435 -0.27586594 0.21927626 -0.06351019
0.013623346 0.29436713 0.10320449 -0.047924634 -0.18670969 -0.24179973 -0.03772377 0.2894601
-0.0041108592 0.003091364 0.1468942 0.05182342 -0.23778662 0.009999892 -0.19486368 -0.14766674
-0.038222883 -0.08729461 0.17391632 -0.074799016 0.072475985 -0.0043206355 0.041497592 0.23129651
-0.0454105 -0.09376037 -0.07412955 -0.041440383 0.05716466 0.060265016 0.014950467 0.012564047
0.16097991 0.18063316 -0.13723536 -0.1978182 -0.2293436 0.16056228 -0.030526772 0.16915981
0.16369396 0.117551945 0.017265264 -0.17084174 0.072947934 -0.004933064 0.16643986 -0.04261288
0.057434697 0.17937244 0.15475221 0.22721049 -0.027863108 -0.10913479 -0.009412595 0.008713704
0.23857525 0.10175762 -0.08777075 -0.12257785 -0.065386005 -0.05269088 -0.03195588 0.09535444
0.08901269 0.07431686 0.09801065 -0.06389716 0.054735135 -0.09595054 0.015654849 -0.07914258
0.1723402 -0.0983747 0.13214748 0.04542839 0.07183956 -0.11832695 0.048282053 -0.030108634
0.14606665 -0.017208312 -0.05591275 -0.0822886 0.1669784 -0.099749036 -0.020156259 0.044431455
-0.2557581 0.032661535 -0.01899724 -0.3038537 -0.20604885 0.059777305 -0.11238418 0.07509488
-0.043733932 0.06533238 -0.15710607 -0.02807478 -0.03770534 0.093900494 -0.09522513 -0.055259857
-0.044589862 -0.056738947 -0.035872802 0.18421417 -0.009702102 0.24676004 0.03480137 -0.009343947
0.06126003 0.14517002 -0.0729699 -0.0542801 -0.09170294 -0.07989473 0.009488494 -0.010943201
00000000: 1e82 d83d c35c f63d 7643 5cbe 531b bf3c
00000010: bd72 bd3d c8c0 17be e8fb acbd 99ea 2e3d
00000020: 8520 bdbc e059 98ba 517c 323e 2f69 75bd
00000030: e5e1 46bd 62ed 703e 4477 d13d b9bc 073e
00000040: 86a6 333e b449 463e f0a3 b6bd 465b 2d3d
00000050: 207f 4b3e 5122 02be fc3b c43d fe9e b63d
00000060: c3a0 18be 2c68 6e3e 5b7f 173e 09ad 86b9
00000070: a0ea 5dbe fd13 863c 930e 4a3d 3beb e33a
00000080: 11e1 f33c 56da 08bd 127f 2bbe e4f4 d2bd
00000090: f778 68be dc24 963d f6c2 463e 88c5 3abd
000000a0: 6ac6 f43d e58d 853d 7a02 b83d 1801 36be
000000b0: 9830 cd3c 8a00 12bd 0a12 9ebe f113 3c3e
000000c0: 6f4d 43be 0778 dbbd 2f1a 88bd 541a 6abc
000000d0: 8379 29be 773c 853d e029 ae3d aeda 3fbe
000000e0: 8812 823d 61f7 6c3e 85b6 073c 8a1d 48bd
000000f0: be94 103e 8416 d2bd 9623 373e 04d5 05bd
00000100: 4bea c43c 1559 e8bd 3375 c63c 0285 303d
00000110: 2be0 813b bf30 b63d 2923 c03d 45dd 37be
00000120: a0bb 84bd facb aa3d 7779 713d db1d 80bd
00000130: d9fc d2bd 022c 22be 64d2 f53b 14b0 013d
00000140: 680b 423e 0ff4 34be 58bc 08bc f7df 18bd
00000150: f654 86bd e951 3f3d aa94 5b3d 088b c53d
00000160: dee8 e7bd 9dec 0abe eb67 01be ea9a 00bd
00000170: ed96 e9bd 4b2f 343e 6078 e7bd 34f8 963b
00000180: 4e84 86be 1ec9 cdbd 8871 2b3c 60f1 e63d
00000190: f5e1 5f3e 0d26 693d 655d 66bd 8757 56be
000001a0: 95b8 233d fa04 1bbe 6405 d6bd e31b 923c
000001b0: f842 a6be f4f5 6a3b 68dd 16be b575 5dbd
000001c0: d4bf aa3d 2d3e 0ebe e520 96bd 1236 4cbe
000001d0: c3c4 0a3d aa4e a3bd 00c4 b33d 0031 733d
000001e0: fd8e 94be bed7 24be 92fa 433d 162f 9abd
000001f0: f506 10bd 5d00 f7bd e719 b03d c4b2 dfbd
00000200: 6232 a73d 154f 873e 8940 3ebd 702d 083e
00000210: 4a54 05be 4d3e 8dbe f589 603e a111 82bd
00000220: 7434 5f3c 4ab7 963e e05c d33d 9f4c 44bd
00000230: d330 3fbe 599a 77be 3d84 1abd 1d34 943e
00000240: 63b4 86bb 7b98 4a3b 6f6b 163e cb44 543d
00000250: 567e 73be 96d6 233c 588a 47be f335 17be
00000260: 998f 1cbd 84c7 b2bd 1f17 323e 3a30 99bd
00000270: 4a6e 943d 1e94 8dbb 61f9 293d fed8 6c3e
00000280: 5c00 3abd 7005 c0bd 3cd1 97bd 64bd 29bd
00000290: 7e25 6a3d 73d8 763d cef2 743c 6fd9 4d3c
000002a0: ebd7 243e e6f7 383e 6d87 0cbe db90 4abe
000002b0: 0cd9 6abe 706a 243e 4813 fabc 3b38 2d3e
000002c0: 649f 273e 13bf f03d e26f 8d3c 23f1 2ebe
000002d0: ba65 953d 8aa5 a1bb 366f 2a3e d88a 2ebd
000002e0: a540 6b3d 69ad 373e 5d77 1e3e dea9 683e
000002f0: 2c41 e4bc 1082 dfbd 4937 1abc ecc3 0e3c
00000300: 124d 743e 4d66 d03d 27c1 b3bd 190a fbbd
00000310: 19e9 85bd 64d2 57bd 2be4 02bd 3049 c33d
00000320: 494c b63d 7033 983d cfb9 c83d 84dc 82bd
00000330: f331 603d b781 c4bd 993e 803c 8115 a2bd
00000340: f379 303e ad78 c9bd ab51 073e 1f13 3a3d
00000350: 9f20 933d 6655 f2bd 67c3 453d 62a6 f6bc
00000360: 7f92 153e 72f8 8cbc c504 65bd ed86 a8bd
00000370: 63fc 2a3e 3949 ccbd bd1e a5bc c2fd 353d
00000380: baf2 82be 1ac8 053d 1aa0 9bbc b692 9bbe
00000390: 78fe 52be 0cd9 743d ad29 e6bd 58cb 993d
000003a0: 5a22 33bd fccc 853d 6ae0 20be 15fd e5bc
000003b0: ea70 1abd e74e c03d 6505 c3bd 2958 62bd
000003c0: dca3 36bd 1967 68bd 5cef 12bd a4a2 3c3e
000003d0: 91f5 1ebc aaae 7c3e e28b 0e3d 5b17 19bc
000003e0: cceb 7a3d 73a7 143e 3e71 95bd cf54 5ebd
000003f0: c0ce bbbd d99f a3bd a175 1b3c 1d4b 33bc

conv2.lin_l.weight f4 [5, 32]
0.26840392 0.04883247 0.114246584 0.02419372 0.0067363726 -0.08619848 0.07534071 0.060606036
-0.09571309 0.008412636 0.17354262 0.12516598 0.26423883 0.13277158 0.0670705 0.25698096
0.02687964 0.1305545 0.038284775 -0.046617076 0.012304352 0.14124858 0.19879232 -0.054626368
0.25071463 0.107329346 -0.06612299 -0.08450474 0.01725299 -0.038926262 0.05475512 0.01064928
0.08366317 0.1709674 -0.03083536 0.008926761 0.12049765 0.10842554 0.23708642 0.2074863
-0.058029305 0.123815626 0.2704341 -0.106986634 0.02519922 -0.2799149 -0.23914282 0.18038128
0.038876086 -0.0757165 0.13153964 0.20957832 0.008631535 0.084849685 -0.20263663 0.0050176783
0.018401105 0.08158147 0.12895301 -0.039344437 0.07106073 0.04257541 0.1523145 -0.17634049
-0.10823913 0.022163985 -0.20662494 0.041256774 0.055722296 0.05409014 -0.035425086 -0.09722722
-0.03313103 -0.030420937 -0.1910281 0.037590764 -0.15886915 -0.24005319 -0.0035846452 0.065234795
0.042729944 -0.2363537 -0.08807658 -0.11207109 -0.025879513 0.05697974 -0.18028845 0.003630298
-0.08242408 -0.14336352 -0.009607568 0.25657487 -0.14171737 0.09796377 -0.04590707 0.012095156
-0.09133124 -0.19251724 -0.02811849 -0.01211457 -0.038609803 0.02641076 -0.17188098 -0.13538297
-0.105770625 -0.0287937 -0.11656316 -0.006011839 -0.0068632965 0.29008797 -0.11832693 -0.011743701
0.037089545 -0.16113895 -0.0653464 -0.023338927 0.06599514 -0.08255099 0.185638 -0.017757693
-0.02983154 -0.0047427076 -0.024776483 -0.12262864 -0.046857156 0.13033605 -0.07846496 0.055913687
-0.026366383 -0.03309765 0.05997553 -0.07046897 -0.0918652 -0.12367681 -0.07406452 -0.14765804
-0.22357008 -0.11209088 0.005883263 -0.095339864 -0.04594777 -0.11410986 -0.11479048 -0.1477682
-0.09349517 0.022222972 -0.14753091 -0.112564735 -0.10830764 -0.24779306 -0.17295295 -0.08616721
-0.21504408 -0.16294086 -0.16023844 0.0012327491 -0.13938989 -0.06090402 -0.13425703 -0.03239071
00000000: 3d6c 893e 8e04 483d 1dfa e93d e931 c63c
00000010: cabc dc3b d488 b0bd 3b4c 9a3d 093e 783d
00000020: 3905 c4bd 27d5 093c 28b5 313e 832b 003e
00000030: 504a 873e 46f5 073e 425c 893d 0293 833e
00000040: b132 dc3c 14b0 053e 7fd0 1c3d 8cf1 3ebd
00000050: 3198 493c 78a3 103e 3790 4b3e e6bf 5fbd
00000060: ab5d 803e 7dcf db3d 7d6b 87bd d210 adbd
00000070: 2456 8d3c 2571 1fbd e846 603d 517a 2e3c
00000080: 9957 ab3d 1412 2f3e 709a fcbc 8d41 123c
00000090: 79c7 f63d 360e de3d c8c6 723e 4a77 543e
000000a0: 23b0 6dbd 0c93 fd3d 5776 8a3e cf1b dbbd
000000b0: 986e ce3c 0151 8fbe dbe1 74be dfb5 383e
000000c0: 883c 1f3d 4111 9bbd 54b2 063e b39b 563e
000000d0: 486b 0d3c acc5 ad3d fa7f 4fbe 566b a43b
000000e0: eabd 963c 3014 a73d 420c 043e a227 21bd
000000f0: 4a88 913d 8e63 2e3d 55f8 1b3e 9a92 34be
00000100: 7aac ddbd 3f91 b53c 7d95 53be ddfc 283d
00000110: 103d 643d 9f8d 5d3d e519 11bd 111f c7bd
00000120: 67b4 07bd 5435 f9bc df9c 43be c6f8 193d
00000130: 98ae 22be 81d0 75be 5eec 6abb d299 853d
00000140: 9805 2f3d b406 72be 7e61 b4bd 8785 e5bd
00000150: 4601 d4bc 9663 693d 899d 38be 4bea 6d3b
00000160: f5cd a8bd e3cd 12be 1069 1dbc c85d 833e
00000170: 5c1e 11be 3ba1 c83d 0d09 3cbd c32a 463c
00000180: e00b bbbd 3d23 45be bf58 e6bc 307c 46bc
00000190: 5025 1ebd 615b d83c 9101 30be d5a1 0abe
000001a0: 459e d8bd c4e0 ebbc abb8 eebd f6fe c4bb
000001b0: 81e5 e0bb 6986 943e 6455 f2bd a768 40bc
000001c0: 35eb 173d 9c01 25be 55d4 85bd 4731 bfbc
000001d0: 7628 873d 7e10 a9bd e317 3e3e 9578 91bc
000001e0: 4661 f4bc b768 9bbb 0df8 cabc b924 fbbd
000001f0: 4aed 3fbd d076 053e 3db2 a0bd c005 653d
00000200: 50fe d7bc 6791 07bd e7a8 753d 0952 90bd
00000210: d223 bcbd 444a fdbd 24af 97bd ab33 17be
00000220: 8eef 64be e78f e5bd 63c8 c03b 8c41 c3bd
00000230: bb33 3cbd 6eb2 e9bd 4517 ebbd 8c50 17be
00000240: 657a bfbd f30c b63c 5812 17be 5788 e6bd
00000250: 65d0 ddbd 77bd 7dbe 941a 31be 6f78 b0bd
00000260: 8434 5cbe f8d9 26be 8c15 24be 3294 a13a
00000270: 39bc 0ebe 7e76 79bd ad7a 09be 1fac 04bd

conv2.lin_l.bias f4 [5]
0.06662986 0.027473815 0.023093477 -0.08807606 -0.0027646595
00000000: 3c75 883d c410 e13c 882e bd3c 3961 b4bd
00000010: 4a2f 35bb

conv2.lin_r.weight f4 [5, 32]
0.24927576 0.14825806 -0.09617731 0.016903527 0.29343554 0.2153771 0.101094514 0.12432783
0.067926414 0.06628912 0.24131522 0.40662697 0.44915134 0.13174771 0.5072332 -0.059770178
0.031592913 0.08413369 0.014267815 0.29548395 0.47255102 -0.016450448 0.09171697 -0.034774713
0.31715488 0.27618867 0.38371056 0.077841274 0.2957214 -0.07992804 0.37998486 0.191731
-0.30024877 -0.023063852 -0.025585491 0.24170384 -0.1888789 -0.043031037 -0.20402412 0.040233374
0.27514777 0.16462548 -0.063005865 -0.54043674 -0.5571142 0.08247498 -0.3259562 -0.098099984
0.2378871 0.13802922 0.2607763 -0.32237816 -0.23997264 0.10948482 -0.18336049 -0.08889568
0.082902245 0.006916902 -0.29150757 -0.3055855 -0.61170113 0.3141573 -0.022101326 -0.58708185
-0.069816776 0.15733373 0.08930161 -0.015071715 0.06796721 0.1062874 -0.07730274 -0.24687128
-0.17188066 -0.11070451 0.0057772854 0.24078257 0.024714908 -0.32899222 -0.22221029 -0.17426161
-0.09367586 -0.0057973415 -0.17310731 0.12525013 -0.200908 0.03635654 -0.44769824 0.39795798
-0.21207316 -0.067942336 -0.22036906 0.42512622 0.16055785 -0.0263407 -0.15623371 0.41842315
-0.07055888 -0.16199777 -0.0967103 -0.15594557 -0.2456947 -0.24034078 0.2645668 0.14963333
-0.089658715 -0.072295636 -0.20404945 -0.1359007 -0.3093023 0.2398812 0.18604758 -0.010518836
-0.07758753 -0.045536973 0.04426393 -0.18965425 -0.19787362 -0.1486088 0.17128734 -0.2009169
-0.18561985 -0.008891972 0.009321704 -0.021388918 0.3742842 -0.16786982 0.0036919923 0.19514611
-0.057328094 -0.093978986 -0.010148888 -0.13497023 -0.10217486 -0.254837 -0.18385023 -0.12450021
-0.077403374 -0.11303925 0.033690374 -0.24394692 -0.26922196 -0.13784622 -0.10075626 -0.026845194
-0.13097048 -0.18444267 -0.12593876 -0.1434885 -0.17053172 -0.1919715 -0.14998738 -0.064564414
-0.051393177 -0.10722258 -0.015351821 -0.07073485 -0.12411939 -0.12920636 -0.102613136 -0.13297874
00000000: 2542 7f3e f6d0 173e 9cf8 c4bd 4479 8a3c
00000010: 2f3d 963e d18b 5c3e a40a cf3d 979f fe3d
00000020: 011d 8b3d 97c2 873d 561b 773e 6931 d03e
00000030: 2af7 e53e dfe8 063e 09da 013f 93d1 74bd
00000040: 9267 013d 494e ac3d 8ec3 693c ac49 973e
00000050: 35f2 f13e 17c3 86bc 1bd6 bb3d ee6f 0ebd
00000060: 2062 a23e 9a68 8d3e b675 c43e 3f6b 9f3d
00000070: cc68 973e 50b1 a3bd 608d c23e 2255 443e
00000080: 35ba 99be 67f0 bcbc aa98 d1bc 3681 773e
00000090: 7869 41be 5041 30bd b3eb 50be c0cb 243d
000000a0: 2be0 8c3e 9593 283e 3809 81bd 105a 0abf
000000b0: 099f 0ebf a4e8 a83d bbe3 a6be a5e8 c8bd
000000c0: ad98 733e 8857 0d3e 7984 853e c00e a5be
000000d0: 63bb 75be 9439 e03d dac2 3bbe f00e b6bd
000000e0: a7c8 a93d 2ea7 e23b 7b40 95be b475 9cbe
000000f0: 7298 1cbf 3ad9 a03e d70d b5bc ff4a 16bf
00000100: 19fc 8ebd 181c 213e c3e3 b63d 5bef 76bc
00000110: 6532 8b3d 35ad d93d e650 9ebd d3cb 7cbe
00000120: 7c01 30be 0cb9 e2bd 624f bd3b b58f 763e
00000130: eb76 ca3c ab71 a8be 188b 63be a371 32be
00000140: 21d9 bfbd a0f7 bdbb 0b43 31be 9241 003e
00000150: d4ba 4dbe 98ea 143d b438 e5be 26c1 cb3e
00000160: b529 59be 5a25 8bbd 6da8 61be 25aa d93e
00000170: 4769 243e 74c8 d7bc bbfb 1fbe 8f3b d63e
00000180: 2d81 90bd bee2 25be 0d10 c6bd 32b0 1fbe
00000190: 6497 7bbe e51b 76be 4d75 873e 7b39 193e
000001a0: fd9e b7bd bc0f 94bd 57f2 50be 8e29 0bbe
000001b0: df5c 9ebe 6ba3 753e 4283 3e3e 3257 2cbc
000001c0: 36e6 9ebd fa84 3abd 184e 353d b934 42be
000001d0: 629f 4abe e82c 18be f365 2f3e 29bd 4dbe
000001e0: 2113 3ebe a2af 11bc 0fba 183c d037 afbc
000001f0: 2ea2 bf3e 11e6 2bbe 5af5 713b 62d4 473e
00000200: ddd0 6abd 0e78 c0bd 8647 26bc a335 0abe
00000210: 0e41 d1bd ff79 82be 3c43 3cbe f7f9 febd
00000220: a985 9ebd 1f81 e7bd ebfe 093d 39cd 79be
00000230: 76d7 89be 8f27 0dbe 4c59 cebd 74ea dbbc
00000240: 201d 06be 8ade 3cbe 17f6 00be a6ee 12be
00000250: de9f 2ebe 2d94 44be 4b96 19be 593a 84bd
00000260: a781 52bd 8397 dbbd 3486 7bbc 6fdd 90bd
00000270: 4f32 febd ac4e 04be d626 d2bd 942b 08be
