trained_weights/theia/lword2vec_gnn_theia17_E3.pth (torch, 11223 bytes, 6 tensors)

conv1.lin_l.weight f4 [32, 30]
0	0xbde65eb1	-0.1124853
1	0xbe4b6611	-0.19863154
2	0x3cedaaf1	0.029012175
3	0x3c8c71e0	0.017144144
4	0xbdcae0a0	-0.09906125
5	0xbd620485	-0.05518009
6	0xbd0d0b3f	-0.034434553
7	0x3d8983f5	0.06714622
8	0x3dd0c5b3	0.10193958
9	0x3d600643	0.05469347
10	0x3c8bb840	0.01705563
11	0x3dd9dd7c	0.10637948
12	0x3e210607	0.15724955
13	0xbe29bf63	-0.16576914
14	0xbd9b6cbe	-0.075891
15	0x3dd33d9f	0.10314488
16	0xbd205cd6	-0.039151035
17	0xbe1de37a	-0.15418807
18	0x3e06df05	0.13171013
19	0x3cf12efd	0.029441351
20	0x3cdc9b6a	0.026929576
21	0xbe802245	-0.25026146
22	0xbe0e753a	-0.13911906
23	0xbde6937a	-0.11258598
24	0x3d35d44d	0.04439192
25	0x3db29f34	0.08721772
26	0x3e154651	0.14577605
27	0x3dada848	0.08479363
28	0x3dbd2103	0.09234812
29	0xbdf9d9f4	-0.121997744
30	0xbe542cd0	-0.2072022
31	0xbdaea2b1	-0.08527125
32	0xbdf0a21b	-0.11749669
33	0x3dfe088c	0.12403974
34	0xbe2b307e	-0.16717717
35	0x3da7bf7a	0.08190818
36	0x3d98064d	0.07423077
37	0x3da7a327	0.08185416
38	0x3db892e5	0.09012393
39	0x3e1c9953	0.15292864
40	0xbdf3f527	-0.119119935
41	0xbe1bb9f8	-0.1520766
42	0xbcbc3e4f	-0.02297893
43	0xbd641bf9	-0.05569074
44	0xbd8d9c56	-0.06914584
45	0x3e26bf61	0.16283943
46	0xbdd07772	-0.101790324
47	0x3b23558b	0.0024922814
48	0x3e0c0ae5	0.13676031
49	0x3e36a0cb	0.17834775
50	0xbe393d1a	-0.18089715
51	0xbdbe8e6c	-0.093045086
52	0x3e1b079e	0.15139624
53	0xbe0fdac1	-0.14048292
54	0x3c9f3d38	0.019438371
55	0x3e1a31c4	0.15058047
56	0xbb21d8cf	-0.0024695878
57	0x3e1b3869	0.15158238
58	0x3e2826fe	0.16421124
59	0x3dc50b9e	0.096213564
60	0x3c8501db	0.016236236
61	0xbda89c6a	-0.082329586
62	0x3b227183	0.0024786897
63	0xbdaf1418	-0.085487545
64	0xbe2fd908	-0.17172635
65	0xbe4a4f08	-0.1975671
66	0xbd207a7e	-0.039179318
67	0xbd96219c	-0.07330629
68	0x3e5c363e	0.21505067
69	0x3e10066c	0.1406495
70	0xbdaf4208	-0.08557516
71	0xbe8bb7bd	-0.2728862
72	0xbe86bf80	-0.26317978
73	0x3c90906e	0.017646994
74	0x3e47c76f	0.19509672
75	0xbdf2f370	-0.11862838
76	0xbe1b64b0	-0.15175128
77	0x3e975f76	0.29565018
78	0x3dd028c4	0.101640254
79	0xbd1ecdaa	-0.038770355
80	0xbd42d7fa	-0.047569253
81	0xbe137323	-0.1439939
82	0xbe605264	-0.2190643
83	0x3b7c189b	0.0038466814
84	0x3d84c6dc	0.06483242
85	0x3bc044fd	0.005867599
86	0x3e026c48	0.12736619
87	0xbc445fa6	-0.011985695
88	0xbe84291b	-0.2581261
89	0xbdfa415d	-0.12219498
90	0xbe3024b0	-0.17201495
91	0xbd4a998f	-0.04946285
92	0xbdf1b576	-0.11802189
93	0x3d98641d	0.0744097
94	0x3d0fb764	0.035087004
95	0xbe27b164	-0.16376263
96	0x3c81ba34	0.015835859
97	0x3d87cc9e	0.066308245
98	0x3dd5f9c7	0.10448032
99	0x3aec1117	0.0018010464
100	0x3d8ef64c	0.06980571
101	0xbdc39d2d	-0.09551463
102	0x3930583a	0.00016817535
103	0xbdf3bc44	-0.11901143
104	0x3d86392f	0.06553876
105	0xbcd96381	-0.026536705
106	0xbe5a6ea2	-0.21331266
107	0xbc9ca84b	-0.019123217
108	0xbe54f663	-0.20797114
109	0xbe2c3d0a	-0.1682016
110	0xbdf3df62	-0.11907841
111	0x3dd6ad47	0.10482269
112	0xbd87f5bf	-0.06638669
113	0x3dedf3e8	0.11618787
114	0xbe3dedb6	-0.18547711
115	0xbe247172	-0.16058901
116	0xbe06433d	-0.13111587
117	0xbd0bf1d7	-0.034166183
118	0xbd22745f	-0.03966176
119	0x3e1f0dfb	0.15532677
120	0xbeb4edf0	-0.35337782
121	0xbda57d99	-0.080805965
122	0xbce7dcb8	-0.02830349
123	0xbdda1930	-0.106493354
124	0x3cad203a	0.02113353
125	0x3e653a34	0.22385484
126	0xbe7e7a95	-0.24851449
127	0xbd8406e9	-0.064466305
128	0xbdc039bf	-0.09386014
129	0x3c88b9e1	0.016690196
130	0xbe0488da	-0.1294283
131	0x3e2b37eb	0.1672055
132	0x3d160984	0.03663017
133	0xbe709b94	-0.23496848
134	0x3defff17	0.117185764
135	0x3c8184b0	0.01581034
136	0xbb3e04d8	-0.0028994586
137	0xbd6d1a13	-0.057886194
138	0xbe409c45	-0.18809612
139	0x3e44e024	0.19226128
140	0xbe70f8f8	-0.23532474
141	0x3d8e14fd	0.06937597
142	0x3e227536	0.15865025
143	0xbc8638fc	-0.016384594
144	0xbd27561c	-0.040853605
145	0xbe21a59d	-0.15785833
146	0x3c8b81c4	0.01702965
147	0x3d3dbdab	0.04632346
148	0x3c642471	0.013924704
149	0x3e561106	0.20904931
150	0xbe27060a	-0.16310897
151	0xbe03f7a5	-0.12887438
152	0xbca2dad6	-0.01987974
153	0xbdee9980	-0.116503716
154	0xbd4d68f6	-0.050148927
155	0xbe04a45e	-0.12953326
156	0xbe7dbdc7	-0.24779426
157	0xbe6a6cca	-0.22893062
158	0x3dcc03a4	0.09961632
159	0xbd3ddfce	-0.046356015
160	0xbdeea307	-0.11652189
161	0x3d8c5edd	0.06854031
162	0xbe1dba03	-0.15402989
163	0xbe25e115	-0.16199143
164	0x3e107acc	0.14109343
165	0x3e183fdc	0.1486811
166	0xbe1d2fbd	-0.15350242
167	0xbd9ecbc2	-0.077537075
168	0xbdeeebd8	-0.116660774
169	0xbc4783ee	-0.012177451
170	0xbddddb87	-0.10832887
171	0x3dde043c	0.108406514
172	0x3e0c2a71	0.13688065
173	0x3d940f79	0.07229514
174	0xbdae1afc	-0.085012406
175	0xbdf87b6d	-0.121329166
176	0xb9f5543a	-0.00046792795
177	0xbc4c537a	-0.012471074
178	0x3e1c1f06	0.1524621
179	0x3e312f3b	0.17303173
180	0x3d177b52	0.03698284
181	0x3d35be19	0.044370744
182	0x3e70aa55	0.23502477
183	0xbd9ce196	-0.076602146
184	0x3cf6210a	0.030045051
185	0x3e31d6bd	0.17367072
186	0x3e8e627f	0.27809522
187	0xbce11a9a	-0.027478505
188	0xbd929864	-0.071579725
189	0xbda02fff	-0.078216545
190	0xbe0ba924	-0.13638741
191	0xbc843384	-0.016137846
192	0x3e3ee819	0.18643226
193	0x3e6f4f1d	0.23370023
194	0xbe3f54f2	-0.18684748
195	0xbd03e83f	-0.03220391
196	0x3e5ed726	0.2176176
197	0xbde28a49	-0.11061532
198	0x3f03e3c8	0.5151944
199	0x3e7eb260	0.24872732
200	0xbda70c6c	-0.08156666
201	0xbe90ee78	-0.28306937
202	0x3e675fb6	0.22595105
203	0xbb9f20a9	-0.0048561883
204	0x3d39d879	0.04537246
205	0x3e87a131	0.26490167
206	0x3e0f08b7	0.13968168
207	0x3e1b8d6e	0.1519067
208	0xbe01903e	-0.1265268
209	0x3d519fdb	0.05117784
210	0x3e915ade	0.2838964
211	0xbe24a237	-0.16077505
212	0x3e0e4f26	0.1389738
213	0xbdebd4c2	-0.1151519
214	0xbe59c2cd	-0.21265717
215	0xbdcad665	-0.09904174
216	0x3e8e53c1	0.27798274
217	0x3d0598be	0.03261637
218	0xbdfba4e4	-0.1228731
219	0x3c7cc561	0.015427918
220	0xbd90e329	-0.07074577
221	0x3de99b93	0.114066266
222	0x3d038bdb	0.0321158
223	0x3ec568af	0.3855643
224	0xbe1d37f5	-0.15353377
225	0x3e4ac976	0.19803414
226	0x3e0788ad	0.13235731
227	0xbd3944fd	-0.045231808
228	0xbc84a664	-0.016192622
229	0x3e22200f	0.15832542
230	0xbd89c9d3	-0.06727948
231	0xbd67d567	-0.0566
232	0x3e424532	0.18971708
233	0x3dd99c7e	0.10625552
234	0x3e0b73ef	0.13618444
235	0x3e58690d	0.21133824
236	0xbe649c7f	-0.22325324
237	0x3d8c7225	0.06857709
238	0xbceab789	-0.02865197
239	0xbe1657cc	-0.1468193
240	0x3d8d38ab	0.06895574
241	0x3e1250d0	0.1428864
242	0x3e29c0e5	0.1657749
243	0x3ce6d7ae	0.028179016
244	0xbd838fd9	-0.06423921
245	0xbe0e6a60	-0.13907766
246	0xbda519c3	-0.08061554
247	0x3d8b5d74	0.06804934
248	0x3d8a94a3	0.067666315
249	0xbc08847a	-0.008332366
250	0xbcd1644f	-0.025560526
251	0xbe5b4371	-0.21412446
252	0x3dbe6379	0.09296317
253	0xbcda4ff8	-0.02664946
254	0xbc6c3a09	-0.014418134
255	0xbe48cb58	-0.1960882

conv1.lin_l.bias f4 [32]
0	0x3e393687	0.18087207
1	0x3d482d52	0.048871346
2	0xbdf5c020	-0.119995356
3	0x3d30baee	0.04314702
4	0x3d70bb2a	0.058772244
5	0x3d6de767	0.05808201
6	0xbc9f6521	-0.019457402
7	0xbdb2cdce	-0.087306604
8	0xbda2d758	-0.0795123
9	0xbc5140a9	-0.012771764
10	0x3ce287c6	0.027652632
11	0x3e548996	0.2075561
12	0x3e51410c	0.2043497
13	0x3dbea17c	0.093081445
14	0x3eb4a244	0.3528005
15	0xbe19f92d	-0.1503646
16	0x3dc0244b	0.09381922
17	0xbdd44ea2	-0.103665605
18	0xbe6f2085	-0.23352249
19	0x3d881d48	0.0664621
20	0x3e6d881c	0.23196453
21	0xbe090f2a	-0.13384691
22	0x3d2c2747	0.042029645
23	0xbda62d35	-0.08114091
24	0x3ddc4960	0.10756183
25	0xbbcfd64b	-0.0063426844
26	0x3e7d1cf7	0.2471808
27	0xbe5bfe88	-0.21483815
28	0x3d2da6f2	0.04239554
29	0xbd986823	-0.074417375
30	0x3dee0211	0.11621488
31	0xbdb5aa71	-0.088704

conv1.lin_r.weight f4 [32, 30]
0	0x3df7d640	0.12101412
1	0x3e057658	0.13033426
2	0xbe69429d	-0.22779317
3	0x3ca994be	0.020700809
4	0x3d9d3686	0.07676415
5	0xbe23faac	-0.16013592
6	0xbdf6066a	-0.12012942
7	0x3d5ab000	0.053390503
8	0x3bcb2373	0.0061992942
9	0x3c481c37	0.012213758
10	0x3e56601c	0.209351
11	0xbd7e1130	-0.06202811
12	0xbc2f6be8	-0.010706879
13	0x3e74d6bc	0.2391004
14	0x3ded5869	0.115891285
15	0x3e01da27	0.12680875
16	0x3e27575e	0.16341922
17	0x3e535005	0.20635994
18	0xbe0e35ef	-0.13887762
19	0x3d54ddab	0.05196921
20	0x3e57f17e	0.21088216
21	0xbdca54ef	-0.09879481
22	0x3da78583	0.08179762
23	0x3de8dd98	0.11370391
24	0xbe1f5694	-0.1556037
25	0x3e771725	0.24129923
26	0x3e24d549	0.16096987
27	0xbae512e8	-0.0017476948
28	0xbe76def9	-0.24108495
29	0x3cc1a2df	0.023637233
30	0x3d74bec7	0.059752252
31	0x3c6d79ba	0.014494354
32	0x3d09e757	0.03366789
33	0xbcf5fcd6	-0.030027788
34	0xbe2e19fc	-0.170021
35	0xbdd1f7d3	-0.10252347
36	0xbe760cbd	-0.24028297
37	0x3da5bb1f	0.08092331
38	0x3e405ea9	0.1878611
39	0xbd4073fc	-0.04698561
40	0x3e0ba330	0.1363647
41	0x3d7bd2fc	0.061480507
42	0x3dcae61b	0.099071704
43	0xbe33579d	-0.1751389
44	0x3c8f0b45	0.017461428
45	0xbd22d5bf	-0.039754625
46	0xbe99beef	-0.30028483
47	0x3e2be1a6	0.16785297
48	0xbe4a54c5	-0.197589
49	0xbdeed628	-0.11661941
50	0xbd7d2e20	-0.061811566
51	0xbc9011e5	-0.017586658
52	0xbe2781d7	-0.16358124
53	0x3d8305fc	0.06397626
54	0x3dadd03c	0.08486983
55	0xbe476fef	-0.19476293
56	0x3d819264	0.0632675
57	0x3e6976a9	0.22799172
58	0x3c450b3c	0.012026604
59	0xbd51a621	-0.051183823
60	0x3e0e3aa2	0.13889554
61	0xbdd204eb	-0.10254844
62	0x3e38af3a	0.18035594
63	0xbd001dc2	-0.03127838
64	0x3cc888c8	0.024479285
65	0xbdea52d4	-0.114415795
66	0x3cce59a9	0.025189238
67	0x3d47de31	0.048795883
68	0xbb0b8e76	-0.002129463
69	0x3dafb7f4	0.08580008
70	0x3db45393	0.08805003
71	0xbe33e8e7	-0.17569314
72	0xbd7de3d6	-0.06198486
73	0x3d8211c2	0.06351043
74	0x3d6d1f78	0.05789134
75	0xbd825232	-0.06363334
76	0xbde1bf85	-0.110228576
77	0xbe1e7cac	-0.15477246
78	0x3b641866	0.0034804582
79	0x3cd87d7e	0.026427027
80	0x3e3afce7	0.18260537
81	0xbe347f32	-0.17626646
82	0xbc4ee913	-0.012628811
83	0xbd16cf52	-0.03681881
84	0xbd77a5d4	-0.06046088
85	0x3d2fb08f	0.04289299
86	0x3d50db8c	0.050990626
87	0x3dcf6ecf	0.10128557
88	0xbdebbf99	-0.11511154
89	0xbe0df39b	-0.1386246
90	0xbde4a533	-0.11164322
91	0xbc5a6fab	-0.013332288
92	0xbdd68835	-0.10475198
93	0x3e3d5673	0.18490009
94	0xbdfbc0ea	-0.12292655
95	0xbbb9f621	-0.005675093
96	0xbe86b213	-0.26307735
97	0xbda91940	-0.08256769
98	0x3cb392c0	0.021920562
99	0x3de61f0d	0.11236391
100	0x3e6c7468	0.2309128
101	0x3d410af3	0.047129583
102	0xbd2e0222	-0.042482503
103	0xbe49b529	-0.19698013
104	0x3d2f3af9	0.04278085
105	0xbe233ae5	-0.15940435
106	0xbdcbd7a3	-0.09953239
107	0x3c4ba7e8	0.012430169
108	0xbeaaab0c	-0.33333623
109	0xbb9818ba	-0.0046416195
110	0xbe0bbe84	-0.13646895
111	0xbd69291a	-0.056923963
112	0x3d9ff463	0.07810285
113	0xbe051e94	-0.12999946
114	0xbd8aa9dc	-0.06770679
115	0xbe57a64b	-0.2105953
116	0x3d26bf42	0.04070974
117	0xbdadcde9	-0.0848654
118	0x3db092e8	0.0862177
119	0x3d53efa3	0.051742207
120	0xbe998ae1	-0.2998877
121	0xbe255150	-0.161443
122	0x3d26f91c	0.040764913
123	0xbda031fc	-0.07822034
124	0xbcb192ba	-0.02167641
125	0xbded85d5	-0.11597792
126	0x3d5eae79	0.05436561
127	0xbde403f1	-0.11133564
128	0x3db4c1d6	0.08826034
129	0x3e83db35	0.2575318
130	0xbd692695	-0.05692156
131	0x3e01a7f1	0.12661721
132	0xbe094634	-0.13405687
133	0xbe944c45	-0.2896444
134	0x3e6a6db3	0.2289341
135	0xbd8295ed	-0.06376252
136	0xbc1654c4	-0.009175483
137	0x3e9f7211	0.31141713
138	0x3dbfdf2a	0.09368737
139	0xbd6fa77a	-0.058509327
140	0xbe4d569f	-0.20052575
141	0xbe6bb175	-0.23016913
142	0xbd797037	-0.060898032
143	0x3e992ae0	0.29915524
144	0x3c5e7560	0.013577789
145	0x3ba37ea1	0.0049894606
146	0x3e164622	0.14675191
147	0x3d8b059b	0.067881785
148	0xbe82cfc4	-0.25549138
149	0x3b426b9f	0.0029666198
150	0xbe47e350	-0.19520307
151	0xbe116b33	-0.1420105
152	0xbd19da91	-0.037561957
153	0xbda7dfc6	-0.08196978
154	0x3e2fb58a	0.17159095
155	0xbdae90a7	-0.08523684
156	0x3d3f0e41	0.046644453
157	0x3bb41815	0.005496035
158	0x3d4c2d5e	0.049847953
159	0x3e6ca2c0	0.23108959
160	0xbd463092	-0.048386164
161	0xbdc92cb8	-0.098229825
162	0xbd907f97	-0.07055586
163	0xbd8da851	-0.069168694
164	0x3d9788d4	0.07399145
165	0x3d5cfe06	0.053953193
166	0xbb97783e	-0.0046224883
167	0x3cbf6fa2	0.02336866
168	0x3e1b6b21	0.15177585
169	0x3e356e5b	0.17717879
170	0xbe13f7b8	-0.14449966
171	0xbe3c1101	-0.18365861
172	0xbe71c3bd	-0.23609824
173	0x3e2e1628	0.1700064
174	0xbcd4fec8	-0.026000395
175	0x3e2687ec	0.16262788
176	0x3e26729a	0.16254655
177	0x3e01ed1d	0.12688108
178	0x3c620ea5	0.013797437
179	0xbe36dce2	-0.17857698
180	0x3d8c8afc	0.06862447
181	0xbcc60bb8	-0.02417551
182	0x3e231b8f	0.15928482
183	0xbd6eee5c	-0.058332786
184	0x3d7ee757	0.06223234
185	0x3e52e8bd	0.20596595
186	0x3e432c64	0.19059902
187	0x3e67da7e	0.22641942
188	0xbd9c7244	-0.07638982
189	0xbe2362f6	-0.1595572
190	0x392639b0	0.00015852484
191	0x3c5b62dc	0.013390269
192	0x3e7b2a1d	0.24527784
193	0x3df79341	0.12088633
194	0xbe04a5b9	-0.12953843
195	0xbddc9e94	-0.10772434
196	0xbcf507d1	-0.029910954
197	0xbd9440e5	-0.0723894
198	0xbc41ffe2	-0.011840792
199	0x3de7020e	0.11279689
200	0x3da7abc7	0.08187061
201	0x3d9319c7	0.07182651
202	0x3e09ab32	0.13444212
203	0xbdc100fb	-0.09424015
204	0x3d32c26b	0.043642443
205	0xbd8cd9a7	-0.068774514
206	0xbbd2b50d	-0.0064302743
207	0xbd8f39f8	-0.069934785
208	0x3e471494	0.19441444
209	0xbdab5529	-0.083658524
210	0x3e0d902d	0.1382453
211	0x3d41ae14	0.047285154
212	0x3d9219c6	0.07133822
213	0xbdf22b8c	-0.11824712
214	0x3d32b989	0.04363397
215	0xbca0d66e	-0.019633498
216	0x3e20dfd3	0.15710382
217	0xbb6ecad6	-0.0036436818
218	0xbd88d1f9	-0.06680674
219	0xbdc4a53c	-0.096018285
220	0x3e35b3bf	0.17744349
221	0xbddb3951	-0.107042916
222	0xbb976c1b	-0.0046210415
223	0x3d815ae9	0.06316168
224	0xbe8b9250	-0.27260065
225	0x3d16e61c	0.036840543
226	0x3c0191ab	0.007908265
227	0xbea3ee8e	-0.3201794
228	0xbe446b42	-0.1918154
229	0x3d9afcd0	0.075677514
230	0xbdd8c76e	-0.10584913
231	0x3d8a97fc	0.0676727
232	0xbcf424e4	-0.029802747
233	0x3d750f3a	0.059828974
234	0xbe23dc01	-0.16001894
235	0xbbed0627	-0.0072333994
236	0xbd331cbd	-0.04372858
237	0x3dbfc220	0.09363198
238	0xbdb13127	-0.08651953
239	0xbd4b0600	-0.04956627
240	0xbd9c60fc	-0.07635686
241	0xbda0168a	-0.07816799
242	0xbcec5962	-0.028851215
243	0x3e19da83	0.15024762
244	0xbaaf30ba	-0.0013365962
245	0x3e705173	0.2346857
246	0x3db16de5	0.08663539
247	0xbca89a87	-0.020581497
248	0x3d8ba80b	0.06819161
249	0x3e2676e9	0.16256298
250	0xbdd35399	-0.10318679
251	0xbbf386ce	-0.0074318415
252	0xbdcdaf1e	-0.100431666
253	0xbda24d6d	-0.07924924
254	0x3d08abd9	0.03336701
255	0x3c8ef5e6	0.017451238

conv2.lin_l.weight f4 [5, 32]
0	0x3e977010	0.29577684
1	0x3d97ca01	0.07411576
2	0x3df3a35d	0.118963934
3	0x3d2be521	0.04196656
4	0x3d0065f5	0.031347234
5	0xbd98a822	-0.07453944
6	0x3dd4a4b9	0.10382981
7	0x3dba8064	0.0910652
8	0xbdc5734a	-0.0964113
9	0x3d189f59	0.03726134
10	0x3e302d27	0.17204724
11	0x3e213105	0.15741356
12	0x3e9475c6	0.28996104
13	0x3e2bf663	0.16793208
14	0x3dd4f4e3	0.10398271
15	0x3e93c054	0.28857672
16	0x3d51dd37	0.051236358
17	0x3e0b3d19	0.13597526
18	0x3d6b4eac	0.057448074
19	0xbd2310b3	-0.039810847
20	0x3d359ae0	0.044337153
21	0x3e1641a7	0.14673482
22	0x3e6fada8	0.23406088
23	0xbd448f08	-0.047987968
24	0x3e8b8bac	0.27255
25	0x3dda17d1	0.10649074
26	0xbd301352	-0.042987175
27	0xbd9217c7	-0.071334414
28	0x3d2e6e16	0.042585455
29	0xbcf2c004	-0.029632576
30	0x3d90e6c0	0.07075262
31	0x3d062524	0.032750264
32	0x3d17549f	0.036945935
33	0x3e26c5e4	0.16286427
34	0xbd0c78ee	-0.034295015
35	0xbb930205	-0.0044863247
36	0x3dd0d742	0.10197307
37	0x3dcec49d	0.10096095
38	0x3e6e6c52	0.23283508
39	0x3e500e04	0.20317847
40	0xbd71864c	-0.058965966
41	0x3df1c1bd	0.11804531
42	0x3e888ad4	0.26668417
43	0xbe0b7944	-0.13620478
44	0xbb501970	-0.0031753443
45	0xbe6596fc	-0.22420877
46	0xbe65e1b6	-0.22449383
47	0x3e378378	0.17921245
48	0x3d092b78	0.03348872
49	0xbd9b858a	-0.0759383
50	0x3e082ae6	0.13297614
51	0x3e597943	0.21237664
52	0x3ce36886	0.027759802
53	0x3dacc220	0.08435464
54	0xbe0cd1bc	-0.13751882
55	0x3b962175	0.004581625
56	0x3d3d5272	0.046221204
57	0x3da395da	0.07987566
58	0x3dee5e65	0.11639098
59	0xbd30b164	-0.043137923
60	0x3d7c6088	0.061615497
61	0x3d18d7f3	0.03731532
62	0x3df10e4e	0.117703065
63	0xbe49b6cf	-0.19698642
64	0xbdcce453	-0.10004487
65	0x3cbb14a2	0.022836987
66	0xbe5a90f1	-0.21344353
67	0x3d431e66	0.047636412
68	0x3d449a05	0.047998447
69	0x3d36b2a2	0.04460395
70	0xbd35be02	-0.04437066
71	0xbdc9a9cb	-0.098468386
72	0xbce585e4	-0.028017946
73	0xbcf95bf7	-0.03043936
74	0xbe3cfa3d	-0.18454833
75	0x3c9ed7ca	0.019390006
76	0xbe368f0d	-0.17828007
77	0xbe922ac7	-0.28548262
78	0xbd0b546d	-0.03401606
79	0x3d6887d8	0.056770176
80	0x3d2f239c	0.04275857
81	0xbe700488	-0.23439229
82	0xbdbc5a0e	-0.09196864
83	0xbdfd76ad	-0.12376151
84	0xbd6c2b09	-0.05765823
85	0x3d6175df	0.05504405
86	0xbe784610	-0.24245477
87	0x3b98c6ff	0.004662394
88	0xbddb6478	-0.10712522
89	0xbe134249	-0.14380755
90	0xbcaf96b6	-0.02143417
91	0x3e7b90cb	0.24566953
92	0xbe295d99	-0.16539611
93	0x3dd3b2c6	0.10336833
94	0xbd71f109	-0.05906776
95	0xbba0e5dd	-0.0049102143
96	0xbda36abd	-0.07979343
97	0xbe4de298	-0.2010597
98	0xbcd8de47	-0.026473178
99	0xbc8af969	-0.016964631
100	0xbcf87fe5	-0.030334422
101	0x3d68be5e	0.056822173
102	0xbe3dbac0	-0.1852827
103	0xbe20295d	-0.15640779
104	0xbdd9ef0a	-0.10641296
105	0xbd3a5f90	-0.04550129
106	0xbde85b88	-0.11345583
107	0x3ca47a83	0.02007795
108	0x3d864897	0.06556814
109	0x3e878fe5	0.2647697
110	0xbdec69e2	-0.11543633
111	0xbce7647c	-0.028246157
112	0x3ca7354c	0.020411156
113	0xbe24db91	-0.16099383
114	0xbd953369	-0.07285196
115	0x3cc5e14e	0.024155285
116	0x3dee5be8	0.116386235
117	0xbda7b8ef	-0.0818957
118	0x3e1b8b43	0.15189843
119	0xbc96e13f	-0.018417953
120	0xbd60e7aa	-0.054908432
121	0x3b8e74e2	0.0043474296
122	0x3b93c953	0.0045100837
123	0xbdd75372	-0.10513963
124	0xbcc73f35	-0.024322132
125	0x3e01492e	0.12625572
126	0xbc779eb7	-0.015113524
127	0x3dcc6c4b	0.09981593
128	0xbb4103e2	-0.0029451777
129	0xbd100cb8	-0.03516838
130	0x3d65bc0b	0.056087535
131	0xbda61031	-0.08108557
132	0xbde195c6	-0.11014895
133	0xbe137977	-0.14401804
134	0xbda6c59b	-0.08143159
135	0xbe1ba7d3	-0.15200739
136	0xbe63b835	-0.22238238
137	0xbe009c73	-0.1255968
138	0x3a9549d0	0.0011389796
139	0xbde29bbc	-0.1106486
140	0xbdb3c772	-0.087782755
141	0xbe2f2aad	-0.17106123
142	0xbe31be38	-0.17357719
143	0xbe1a9209	-0.1509477
144	0xbdd9d001	-0.10635377
145	0x3cc38b65	0.02387018
146	0xbe1ecf4c	-0.15508765
147	0xbe35b560	-0.1774497
148	0xbe38abf4	-0.18034345
149	0xbe7f6851	-0.24942137
150	0xbe63cb06	-0.22245416
151	0xbdaf8fa5	-0.0857232
152	0xbe6bce12	-0.23027828
153	0xbe2b8de4	-0.16753346
154	0xbe49b779	-0.19698896
155	0xbc2ea086	-0.010658389
156	0xbe348de9	-0.1763226
157	0xbd83bc1d	-0.06432364
158	0xbe345232	-0.1760948
159	0xbd8ffc8d	-0.07030592

conv2.lin_l.bias f4 [5]
0	0x3dda035b	0.10645171
1	0x3ce9ff9f	0.028564272
2	0xbad262c4	-0.0016051163
3	0xbdb6d3be	-0.08927105
4	0xbc6dee52	-0.014522152

conv2.lin_r.weight f4 [5, 32]
0	0x3e981ca1	0.29709342
1	0x3e2e7bfd	0.17039485
2	0xbdb62b22	-0.08894946
3	0x3cf22097	0.029556556
4	0x3ea9e6be	0.33183855
5	0x3e6f5309	0.23371519
6	0x3e06848d	0.13136502
7	0x3e29a178	0.16565502
8	0x3d9f231a	0.07770367
9	0x3dc67c3a	0.09691663
10	0x3e877d54	0.26462805
11	0x3ee4cc59	0.44687155
12	0x3f01466f	0.504981
13	0x3e3af73a	0.18258372
14	0x3f0e7026	0.55639875
15	0xbd550459	-0.0520061
16	0x3d5e91ff	0.05433845
17	0x3dc324d3	0.09528508
18	0x3d2c0521	0.04199708
19	0x3eaea5d1	0.34110883
20	0x3f082c91	0.53193
21	0xbbf872ec	-0.007582059
22	0x3e0e51aa	0.1389834
23	0xbcd1aaf1	-0.025594207
24	0x3eba1bfe	0.3634948
25	0x3e9588ca	0.29205924
26	0x3ed5fa11	0.41792348
27	0x3ddeaac2	0.10872413
28	0x3eaa20ce	0.33228153
29	0xbd97251b	-0.07380124
30	0x3edbc38c	0.42922628
31	0x3e61839b	0.2202286
32	0xbe8e7506	-0.27823657
33	0xbcdc5bfd	-0.026899332
34	0xbcda1bc7	-0.026624573
35	0x3e6721f8	0.22571552
36	0xbe2e27ae	-0.17007324
37	0xbd3c9312	-0.046038695
38	0xbe40a3f6	-0.18812546
39	0x3d42a2e0	0.04751861
40	0x3e8a6bb2	0.2703529
41	0x3e223beb	0.1584317
42	0xbd740090	-0.05957085
43	0xbf01b404	-0.5066531
44	0xbefa880d	-0.48931924
45	0x3d2c3878	0.04204604
46	0xbe883b70	-0.26607847
47	0xbdac11c1	-0.08401824
48	0x3e629cbe	0.22130105
49	0x3e0c0786	0.13674745
50	0x3e8307b1	0.25591806
51	0xbe93ae27	-0.28843805
52	0xbe2afcaa	-0.16697946
53	0x3ddf49b4	0.1090273
54	0xbe63fde9	-0.22264828
55	0xbdbf56d9	-0.09342737
56	0x3dc98cfa	0.09841342
57	0x3c2094b3	0.009801078
58	0xbe84c3d8	-0.25930667
59	0xbea77a42	-0.32710463
60	0xbf15b490	-0.5847864
61	0x3e99752a	0.29972202
62	0xbc67bb86	-0.01414383
63	0xbf17a501	-0.5923615
64	0xbdfeeb19	-0.12447185
65	0x3e207f85	0.15673645
66	0x3da9f295	0.08298222
67	0xbbd4e4b8	-0.006496992
68	0x3d1c8d1f	0.03822052
69	0x3db451c0	0.08804655
70	0xbdf4a5af	-0.11945664
71	0xbe885fb9	-0.2663553
72	0xbe3bfe5b	-0.18358748
73	0xbde91cb5	-0.113824286
74	0xbc308d8d	-0.010775936
75	0x3e4f97c6	0.2027274
76	0xbcd46ea5	-0.025931666
77	0xbeacc6a5	-0.33745304
78	0xbe8dbc42	-0.27682692
79	0xbe444a64	-0.19169003
80	0xbdb67f2b	-0.08910974
81	0xbc0478cc	-0.008085441
82	0xbe303628	-0.17208159
83	0x3dbd53cd	0.09244499
84	0xbe80cb00	-0.25154877
85	0x3d070e68	0.032972723
86	0xbee995cb	-0.45622095
87	0x3ec78f94	0.3897673
88	0xbe7858f9	-0.2425269
89	0xbdaf0452	-0.08545746
90	0xbe858a00	-0.26081848
91	0x3ec7d547	0.39029905
92	0x3deeda3a	0.11662717
93	0xbc661d4a	-0.014045069
94	0xbe4670b1	-0.19378926
95	0x3eca3f15	0.39501253
96	0xbc8e4d80	-0.01737094
97	0xbe3d4ed1	-0.18487097
98	0xbdba0c6a	-0.09084399
99	0xbe271ba8	-0.16319144
100	0xbe82c37b	-0.25539765
101	0xbe70cc73	-0.23515491
102	0x3e880329	0.2656491
103	0x3e025cbd	0.1273069
104	0xbdb30852	-0.08741821
105	0xbdaae721	-0.083448656
106	0xbe4e766e	-0.20162365
107	0xbe02ad53	-0.1276143
108	0xbe804af5	-0.25057188
109	0x3e7dadc4	0.24773318
110	0x3e2e4ed8	0.17022264
111	0xbc86f004	-0.01647187
112	0xbdaaabeb	-0.08333572
113	0xbd371666	-0.044699095
114	0x3d180170	0.037110746
115	0xbe35ec5f	-0.1776595
116	0xbe21fce2	-0.15819123
117	0xbe10d809	-0.14144911
118	0x3e51a1f8	0.20471942
119	0xbe4d2fea	-0.20037809
120	0xbe2a2ea0	-0.16619349
121	0xbafb3dd3	-0.0019168205
122	0x3ca88c52	0.020574722
123	0x3b2b4433	0.002613318
124	0x3ebe5951	0.37177518
125	0xbe31232c	-0.17298573
126	0x3d0a65bc	0.033788428
127	0x3e468490	0.19386506
128	0xbd990b44	-0.07472852
129	0xbde4c7c2	-0.11170913
130	0xbc68e9ca	-0.014215896
131	0xbe113d39	-0.14183511
132	0xbdde29a7	-0.10847788
133	0xbe81515b	-0.25257382
134	0xbe5d40f7	-0.21606813
135	0xbe1a5432	-0.1507118
136	0xbd980dbe	-0.07424496
137	0xbdf4e025	-0.11956815
138	0x3d076c08	0.03306201
139	0xbe8b8b86	-0.27254885
140	0xbe9825a6	-0.29716223
141	0xbe021363	-0.12702708
142	0xbe1856e8	-0.14876902
143	0xbd1b54cc	-0.037922665
144	0xbe055da8	-0.13024008
145	0xbe378204	-0.17920691
146	0xbe05801e	-0.13037154
147	0xbdfff6d8	-0.124982536
148	0xbe26b269	-0.16278996
149	0xbe45c840	-0.1931467
150	0xbe20c50b	-0.15700166
151	0xbd958569	-0.073008366
152	0xbd294c84	-0.041332737
153	0xbdd43078	-0.10360807
154	0xbcbc8b71	-0.02301571
155	0xbdd6d569	-0.104899235
156	0xbe17f6aa	-0.14840189
157	0xbe0c433e	-0.13697526
158	0xbdad2fbd	-0.08456371
159	0xbe25b966	-0.16184005
