trained_weights/theia/lword2vec_gnn_theia0_E3.pth (torch, 11223 bytes, 6 tensors)

conv1.lin_l.weight f4 [32, 30]
00000000: 6a9e 053c 2894 c5bd 3f60 db3d baa9 8e3d
00000010: f457 29bd 901c adbd 638d ec3c a4e9 fd3d
00000020: b777 e53d accd 82bc 6d39 573d 322b 5b3c
00000030: 82aa 633e 1581 a3bc 683f ecbc 4a1e a93d
00000040: c5d0 48bd 8ec7 91bd 6f90 cb3d 3d9a 8e3d
00000050: 00a1 8c3d aebd 11be 2d2b ecbd 572b a8bd
00000060: ee81 bc3c b99d 5b3d e533 163e cbe5 d63d
00000070: ac89 c93d a013 25be 61cb 09be 5a0a aabd
00000080: a1c8 d7bd 748b ef3d 14c6 8bbe 50ff b53d
00000090: 4bb1 cb3d d511 fe3d f1ea 903d d33a 0e3e
000000a0: 80c8 26bd 915f 08be 4f4a 633c 2895 b7bc
000000b0: 531d d0bd 165a 313e de3b 9dbd 5ecd 19bd
000000c0: ed91 da3d 03bf 453e 93e9 3ebe 5873 eabd
000000d0: d30a 303e 2556 1bbe e0c8 133c 81c7 2b3e
000000e0: 04ec 92bc 3bfe 2e3e cd3b 3f3e 68f4 dc3d
000000f0: 83ac 053d 2059 b6bd b171 13ba fd07 c3bd
00000100: f012 52be 5f95 45be f106 a6bc 1d0c 8a3c
00000110: 582a 493e 6752 053e a3c0 a4bd 0145 8bbe
00000120: ed8e 22be d95b 3e3d 6004 413e 2367 e0bd
00000130: e240 d4bd 4ee5 8a3e a0a8 c53d 226b 763b
00000140: ed89 4fbd 4cc3 08be a082 44be 5c38 aabb
00000150: 8c92 473d d734 043d f932 e83d 0223 c23b
00000160: 109e 82be a138 e4bd 3518 88be 9b1c 1cbe
00000170: 2c74 58be 6ffa ae3c 5302 e63d de1d a4bd
00000180: f02a ecbc 8735 51bd 7571 4b3d e728 48bd
00000190: e525 b9bc 1ae1 20bd 9f22 e9bd 1192 51be
000001a0: 1e29 613c 3a65 4e3d 395d 39be 96e8 7fbd
000001b0: 9cbc 06be b8ed cabd 87c8 3cbe 0ff1 2a3e
000001c0: 59ac 69bc 8e18 3b3d 43f5 7cbe 30af 87bd
000001d0: cdb8 40be d492 523c ac7a 9f3a 6b95 6d3e
000001e0: c000 7ebe ddf1 13bd 4144 003d 85dd dbbd
000001f0: d5c6 ddbd c38d 5f3e 6916 2bbe 1191 d53c
00000200: 456f 01be de8b bebb 5a14 aebc ea6b 313e
00000210: 47e7 043e 9a4a fdbd 87d5 bf3d d51e 863c
00000220: d2a4 633d ae6e dbbd c206 87be a7a7 713e
00000230: 2f22 67be be7c 533d 8e37 4c3e 666f 6abc
00000240: 8421 47bd 70b5 0dbe c200 16ba 931c 913d
00000250: c064 3e3d 16d4 503e a276 c0bd 0384 ddbd
00000260: 7afc 2d3c 4a93 d0bd 869d 90bd 171b 0fbe
00000270: 7409 61be 2112 34be 4e81 b33d 45c8 63bd
00000280: 0f1c c2bd 4363 473d 3e31 d3bd 95aa 96bd
00000290: 37f5 0f3e a506 0e3e e2b9 f5bd 6741 c0bd
000002a0: c3bb c3bd f99b 0b3c 68e6 9cbd 910e b73d
000002b0: d056 213e fb37 bb3d 5011 aebd 675d d7bd
000002c0: 3266 55ba 8741 2fbc 3163 223e e16f 2f3e
000002d0: 1619 a13d 3cb9 613d 4a29 663e 0f0c b3bd
000002e0: d080 b1bc 17b9 363e a4fd 8d3e 3fe9 ae3b
000002f0: 9e21 b5bd c696 b3bd ea9b 803c 447d 663d
00000300: 4fc0 603e 994e 733e 78e6 73be 1f11 c939
00000310: 72cf 713e 642d 34be f14b b13e 2aa2 893e
00000320: ddf6 dfbd eea5 84be a621 7b3e 13b9 1bbd
00000330: 1e9f 923c a98b 833e 3eb1 ee3d 1c66 3e3e
00000340: a536 cfbd 5e07 883d b953 4b3e 0134 3dbe
00000350: 9af9 cc3d 5f03 09be c0ec 4fbe f14d aabd
00000360: 5fce 883e e294 ec3c dd54 05be 8edf ce3b
00000370: 1fa1 ecbd 477c 093e 35c6 ee3c 0b63 a43e
00000380: 88f9 25be 0f5f 5f3e 08f9 093e 78c1 4bbd
00000390: 9c90 69bd 3541 2c3e 1884 b5bd dcdb 19bc
000003a0: 913b 4a3e bd18 b63d 7562 f43d 7002 613e
000003b0: 0559 71be 8807 a73d da7f 8ebc b717 02be
000003c0: 62e6 37bc 6ece e23d 441e d63d 1e19 be3c
000003d0: 9f05 31bd e255 efbd 694b b4bd beea 4e3d
000003e0: 86ec 883d 9d8f 7abc 76f6 f8bd 1266 6bbe
000003f0: 92e4 a43d 7c2e a9bd 7c75 87bb b3d3 38be
0.008155445 -0.09647399 0.10711717 0.069659665 -0.041343644 -0.084527135 0.028876012 0.12398079
0.112044744 -0.015967213 0.052545 0.013376998 0.22233012 -0.019959012 -0.028838828 0.0825773
-0.049027223 -0.0711814 0.09939658 0.06963012 0.06866646 -0.14232513 -0.115316726 -0.082113914
0.023011174 0.053617213 0.14668234 0.10493048 0.09840712 -0.16120768 -0.13456489 -0.08302756
-0.10536314 0.116965204 -0.2729956 0.088865876 0.09945925 0.12405745 0.070760615 0.13889627
-0.040718555 -0.13317706 0.013872697 -0.02240999 -0.10161843 0.17319521 -0.076774344 -0.03754937
0.106723644 0.19311146 -0.18643789 -0.11447781 0.17191629 -0.1516958 0.00902006 0.16775323
-0.017934807 0.17089169 0.18675156 0.10788804 0.032635223 -0.08903718 -0.00056245463 -0.09523008
-0.20515037 -0.19295262 -0.020266982 0.01685148 0.19645059 0.13019715 -0.08044555 -0.27201083
-0.15874834 0.04647431 0.18849325 -0.10957172 -0.10363938 0.2712807 0.09651303 0.0037600477
-0.050668646 -0.1335575 -0.19190454 -0.005194707 0.048723742 0.032276955 0.11337847 0.0059245834
-0.25511217 -0.111436136 -0.26580968 -0.15245287 -0.21138066 0.02135965 0.11230912 -0.08013509
-0.028829068 -0.05107644 0.049668748 -0.048867133 -0.022601077 -0.039277174 -0.113835566 -0.20465876
0.013742713 0.050389506 -0.18101968 -0.06247767 -0.13157886 -0.099086225 -0.1843587 0.16693519
-0.014262282 0.045677714 -0.24702935 -0.06625211 -0.18820496 0.012852389 0.0012167296 0.2320153
-0.24804974 -0.03611933 0.031315092 -0.10735611 -0.1082894 0.21831422 -0.16707768 0.02607015
-0.12640102 -0.0058150133 -0.021249939 0.17326322 0.1297885 -0.12367745 0.09366899 0.016372124
0.055577107 -0.1071447 -0.26372343 0.2359911 -0.22571634 0.051632635 0.19943067 -0.014308786
-0.048615947 -0.13838744 -0.0005722159 0.07085528 0.0464828 0.20393404 -0.093976274 -0.10816195
0.010619277 -0.10184343 -0.07061295 -0.13975178 -0.21976262 -0.1758504 0.08764897 -0.055610914
-0.09478008 0.048678648 -0.103121266 -0.07356755 0.14058386 0.13869722 -0.11998345 -0.093874745
-0.09557297 0.0085210735 -0.07661134 0.08938325 0.15755773 0.09141537 -0.08499396 -0.10515862
-0.00081405335 -0.010696775 0.15858151 0.17132522 0.07866113 0.055108294 0.22476688 -0.08742534
-0.021667868 0.17844044 0.27732575 0.0053378637 -0.088443026 -0.08768992 0.015699346 0.056271806
0.2194836 0.23760451 -0.23818386 0.00038350464 0.2361429 -0.1759544 0.3462825 0.26881534
-0.10935757 -0.25907844 0.24524555 -0.038018297 0.017898139 0.2569249 0.116549 0.18593639
-0.101178445 0.0664203 0.19856156 -0.18476869 0.10008545 -0.13380192 -0.20305157 -0.083156474
0.2671995 0.028879587 -0.13020654 0.006313271 -0.11554169 0.13426314 0.029147247 0.32106814
-0.1620847 0.21813606 0.13473904 -0.049745053 -0.057022676 0.1682175 -0.088630855 -0.0093907975
0.19749285 0.08891437 0.11932842 0.21973586 -0.23569115 0.08155733 -0.017394949 -0.12704359
-0.011224361 0.110745296 0.104549915 0.023205336 -0.04321825 -0.11686303 -0.08803446 0.050516836
0.06685738 -0.015293029 -0.12156384 -0.22988155 0.08051409 -0.08260819 -0.0041338783 -0.18049507

conv1.lin_l.bias f4 [32]
00000000: 0d78 ad3d 8b0c de3d ece8 08be a4ab 033e
00000010: fad3 623c 344c 6a3d f63a 0cbd 7cd0 6ebd
00000020: 561f 08be f402 323d e965 ccbb 816c 253e
00000030: dac2 9c3d e1ec 153b adbb 023e ef59 2dbe
00000040: 7838 1d3e dd7e 0dbe ca65 2ebe 87a1 9f3c
00000050: b08d 943d c806 25be af7d 4dbd 1e58 90bd
00000060: 16cb 09bd 00cb b1bd 99ed 1b3e b094 dcbd
00000070: fca0 f23d 135c e33b 0f2d 20bd 8a42 b6bc
0.084701635 0.10842236 -0.13370103 0.12858444 0.013844484 0.05720158 -0.034235917 -0.058304295
-0.13293204 0.043459848 -0.0062377346 0.16154672 0.076543525 0.0022876787 0.12766905 -0.16928838
0.15353572 -0.13817926 -0.17031017 0.019486202 0.07253587 -0.16115868 -0.05016869 -0.07048057
-0.033640943 -0.08681297 0.15227355 -0.107705474 0.118471116 0.0069384663 -0.03910547 -0.022248525

conv1.lin_r.weight f4 [32, 30]
00000000: 5931 013e c207 413e 0fe5 10be 8d5b d93d
00000010: 4ecc 603d ebae 43be 79a6 6bbb bd0e d33d
00000020: 2538 86bd 4f75 99bc 43d0 cd3d 80b7 a1bd
00000030: f338 9fbd 2870 1b3e 1a7e c03d 0499 c03d
00000040: b7dd 113e 5167 0b3e 8fb6 adbd f660 45bd
00000050: 7645 433e 04bf 35be 5c5a d63d 82bc 0b3d
00000060: a541 e7bd c6b2 ee3d 75a8 093e 4314 da39
00000070: 29c4 33be b096 57bd af59 943c 63fc 3bbd
00000080: b8bc 203c 3b98 67bd 4d31 18be 5830 abbd
00000090: 17a8 47be ae8f 643d acdf 353e c9da 90bd
000000a0: e008 8f3d e945 b63d 88a9 9c3d 0ce7 40be
000000b0: 51d7 8e3c f93f eebb 3a20 9abe 651d 533e
000000c0: 6c99 26be 3f78 78bd 8241 b9bd db62 f8b8
000000d0: 86ec 12be 5aa2 4d3d 034f 8d3d 5211 12be
000000e0: f6f9 2c3d 9c3b 853e bcdf a73c a249 adbc
000000f0: 0510 233e 695d b8bd e5d6 3d3e dabb e4bc
00000100: d58e 9d3c 62dd f9bd 8fa9 8f3c 9292 2f3d
00000110: aedf 343c 9c82 a03d 3fbf db3d a1eb 47be
00000120: 0ba4 83bd 106e e83d ce13 7b3d 0d27 8bbd
00000130: 7b82 b8bd 5ebf 2fbe ec6a 173c a490 0c3d
00000140: 26a6 543e 4269 2fbe 878d 433c 2f39 2dbd
00000150: c968 a5bd 9ae2 143d 40fb 643d 9fde b83d
00000160: 03ca babd 551f 0abe 2ee9 60be 379e 0cbe
00000170: bd0b 2bbe 1511 f93d d1ca eebc 8dba 913d
00000180: ef90 83be 7e5b 53be 0fe9 6fbd f17f d53d
00000190: cd64 e53d 0898 ea3d 9bfc 17be cc25 7abe
000001a0: 9ee9 ec3c d5af cabd 5265 23be 4438 b43d
000001b0: 95d6 86be 52b0 523d 2355 5fbe 8497 eebc
000001c0: bd2d d63d 0f64 3ebe c130 d8bd 0d04 01be
000001d0: e25f 21bc 6ade 27bd 4abd b33d d826 d83d
000001e0: 6d72 59be 5d17 e6bd 6291 f23d aa47 38bd
000001f0: 7b15 c2bd 9c72 31be 6b3f f33d 6fe4 0cbd
00000200: adf6 0fb8 5f69 5a3e 2dbc 5a3c ff28 113e
00000210: 6232 5ebd 7f93 75be 2b29 0b3e b059 d8bd
00000220: 1bf1 e53d 2b68 513e ff5e b73d 289c afbd
00000230: e52c 02be 0d4b 99be 73ce 8a3d 4030 833e
00000240: 750e 3cbd be98 49bd 02e4 e43d 2249 3a3d
00000250: 35cd 0fbe 1b73 6839 df8c 2abe 1509 10be
00000260: 8e07 93bb 36d3 a7bd e349 283e c89a a5bd
00000270: 863e fc3d 622b 143c 405f 853a 2a05 633e
00000280: 96e3 00bd 8440 a4bd a600 5cbd d1c8 8c3c
00000290: 6f2d 2cbb f274 443d 2379 a23d 1d9c 12bd
000002a0: 22ce 303e 35cc 1c3e a4c8 d0bd ba6d 84be
000002b0: a53c 50be 72d9 1d3e ae5a ddbc 6f39 283e
000002c0: 91b6 2b3e 5a06 d33d 9db6 133d 4db7 2ebe
000002d0: d5ce 913d f478 3b3c 2f3d 313e f34f 15bd
000002e0: 9b38 333d c78b 0d3e 18a7 d53d ab34 553e
000002f0: 9196 8c3d 3072 02bc 8e4f aabc 0348 af3a
00000300: 9f46 663e a59d 863d de99 aabc 8f6b 17be
00000310: 0f96 e5bd 265f 18bd 7d56 15bd 32fb 893d
00000320: 0c3b db3d 5b4d 8c3d c6b4 1d3d 4831 85bc
00000330: 4e97 933d 1b52 05be e9c2 6e3d d2b6 d5bd
00000340: ea65 0e3e a978 f0bd 3208 883d a05b 18bc
00000350: a136 043d ccf7 12be d7a2 ec3d b3dc 0dbb
00000360: 8dcb cb3d 209e c0bd a466 71bd 8f0d 93bd
00000370: e8a1 bc3d 74b6 67bd 64d1 c7bd 5317 9ebc
00000380: d752 6fbe 4100 853d 5f53 b4bd bded 80be
00000390: d553 53be be73 613d ea45 2bbe 2294 f13d
000003a0: 9096 71bd c1b7 423d 3dd8 2ebe 28ca cbbc
000003b0: c5e4 53bd ed26 fb3d 77fd d5bd 65b6 18bd
000003c0: b533 bcbc 1378 1ebd c6ed a5bd d057 7d3e
000003d0: 7e5a ad39 d2ca 8e3e ca4b 93bd 266a eebc
000003e0: e678 ad3d 9ac2 183e 30ad 3dbd 6d2a f1bd
000003f0: 0c43 fbbd 4b1e cebd 4ca8 803a 63f3 0cbd
0.12616481 0.18850616 -0.14149879 0.10613165 0.05488234 -0.19109695 -0.003595738 0.103055455
-0.065536775 -0.018732695 0.100494884 -0.07896328 -0.07774534 0.15179503 0.09399052 0.094041854
0.14244734 0.13613631 -0.08482086 -0.048188172 0.19069466 -0.17748648 0.104664534 0.034115322
-0.112918176 0.11655192 0.13443168 0.00041595296 -0.17555298 -0.05263394 0.01810917 -0.04589499
0.009810619 -0.056541663 -0.14862557 -0.0835883 -0.19497715 0.055801086 0.17761105 -0.0707298
0.06984115 0.08900053 0.07649523 -0.18838137 0.017436655 -0.0072708097 -0.30102712 0.20616682
-0.16269463 -0.06066155 -0.09045698 -0.00011843975 -0.14348039 0.05020366 0.06899836 -0.1426442
0.04223057 0.2602204 0.020492427 -0.021153275 0.1592408 -0.090021916 0.18539007 -0.027921606
0.019233147 -0.122004285 0.017536907 0.04286439 0.0110396575 0.07837412 0.10729837 -0.19523479
-0.06427773 0.11349118 0.061298184 -0.06794558 -0.09009262 -0.17162845 0.009241801 0.034317628
0.20766506 -0.17129996 0.011935598 -0.042290863 -0.08076627 0.036348917 0.055903673 0.090268366
-0.09120562 -0.13488515 -0.21963951 -0.13732229 -0.16703697 0.12161461 -0.029149445 0.0711566
-0.25696513 -0.2064037 -0.05857187 0.104247935 0.11200867 0.11454779 -0.14842455 -0.24428481
0.028919991 -0.098968185 -0.1595662 0.08799794 -0.26335588 0.051437683 -0.21809821 -0.029124983
0.10457943 -0.18592857 -0.10556174 -0.12599202 -0.00984952 -0.040983595 0.087763384 0.10554284
-0.21235056 -0.11234925 0.11844136 -0.04499022 -0.09476753 -0.17328876 0.118773304 -0.03439754
-3.432359e-05 0.21329258 0.013350529 0.14175795 -0.054247268 -0.23982047 0.13589923 -0.105639815
0.11227628 0.20449893 0.08953666 -0.08574706 -0.12712438 -0.29940072 0.06777658 0.2562275
-0.045912225 -0.049217932 0.111763015 0.0454799 -0.14043124 0.00022168124 -0.166553 -0.14065965
-0.0044869846 -0.08194582 0.16434436 -0.08086163 0.12316613 0.009043546 0.0010175481 0.22169939
-0.031467043 -0.08020118 -0.053711556 0.0171856 -0.0026272198 0.04796309 0.07933261 -0.035793412
0.17266133 0.15312274 -0.10194519 -0.25864965 -0.20335634 0.1541498 -0.027020779 0.16428159
0.16768862 0.10303946 0.036062825 -0.17062111 0.07119528 0.011442412 0.17308496 -0.0364532
0.043755155 0.13822852 0.10432261 0.20820872 0.06864656 -0.007961795 -0.020789888 0.0013372902
0.22487877 0.06573037 -0.020825323 -0.14787124 -0.11210262 -0.037200116 -0.036459435 0.06737365
0.10704622 0.06850692 0.038502477 -0.01625885 0.072065935 -0.13019602 0.05829135 -0.10435261
0.13906065 -0.11741764 0.06642188 -0.009299189 0.03227866 -0.1435234 0.11554497 -0.002164644
0.099509336 -0.0940516 -0.058935776 -0.071803205 0.09210569 -0.056570485 -0.09756735 -0.019298231
-0.23371445 0.06494189 -0.08804964 -0.2518138 -0.20637448 0.05504202 -0.16725889 0.11795832
-0.05898148 0.047538523 -0.17074676 -0.024876669 -0.051731844 0.12263284 -0.10448735 -0.03728332
-0.022973875 -0.03868873 -0.08101992 0.24740529 0.00033064553 0.27889115 -0.0719219 -0.02910335
0.08470325 0.14917985 -0.046307743 -0.1177567 -0.122686476 -0.10064372 0.0009815781 -0.0344118

conv2.lin_l.weight f4 [5, 32]
00000000: 4150 343e 40e6 5bbd aa73 b43d 7fc8 61bd
00000010: fcfb efbd 6892 1bbe d328 12bd 0ecb 45bd
00000020: d976 aabd 4b8f c1bd c770 333e 04c8 adbc
00000030: d6e1 2a3e fa03 b33d 5dee b8bd 4c71 253e
00000040: 4d2a 45bd a510 f83d 6f91 eabc 64b2 cabd
00000050: df8d bdbd 7d46 f23d 83ad 033e 13ab b1bd
00000060: 9c96 4d3e 4a86 d23d 4e2a 3dbe d02e 07be
00000070: 1fd3 d0bd b2cc 1bbd 25b6 62bd 0fb1 debd
00000080: eac7 2a3e 8b59 5b3e 2766 c3bc 4b85 c23d
00000090: af5a 4b3e fc69 023e 8237 8c3e 5ba4 813e
000000a0: 45b4 57bd c8a0 553e 6e96 8c3e 5491 033b
000000b0: ef1b d23d c580 8ebe 6664 febd de9c 603e
000000c0: 9c99 fe3d 4d72 9abd f0af 2b3e b2fa 813e
000000d0: e828 b83d bfcd b03d 4fe2 4dbe 1fce 3cbb
000000e0: 4d3c ab3c aa4f ac3d bb46 593e 8110 03bd
000000f0: 81b9 383e 82b4 e13d 20e7 6f3e cc0f dabd
00000100: 30a9 a6bc f734 c8bb f954 24be 9e07 86bc
00000110: 2356 8c3d 9c9e a13d 9f92 80bc c0fa ffbd
00000120: d330 83bd f46d 8bbd 4121 4cbe 3d98 9f3d
00000130: caf6 a5bd e6fa 19be 3aa5 163d 6482 553d
00000140: 8bca 203c 6829 72be e537 d7bd 58ce b3bd
00000150: f838 ccbb ad84 813d 4f7b 54bd 9af7 1e3c
00000160: 6f61 1fbd a79e 13be 5333 79bc cbe1 873e
00000170: 4b24 d3bd 5469 1c3d 1b03 dabb accb 723d
00000180: fd03 b6bd b65c 1ebe 0b6a d9bc 51ec 623c
00000190: ae4f 703b 62f9 1e3c 0ae2 01be 8d12 a0bd
000001a0: 43b0 ccbd 0cff 5a3b 36c8 f1bd aea9 a93c
000001b0: 7715 a4bd f059 883e c9c9 eebc 1848 033d
000001c0: 1a87 a63d 9789 26be e9f8 60bd ad1f a2bd
000001d0: 6b6c 163d 04d6 9ebd acbb 333e 9e11 51bc
000001e0: 7313 73bc 64ac 15bc 7c20 a8bc 64d1 16be
000001f0: d481 5ebd 17a2 093e 1c6b e5bd 9793 493d
00000200: d575 87bd 74ca 5abc 942c 913d a269 dabc
00000210: e5e9 cbbc fee4 9dbd 51d2 eabc d577 00be
00000220: 4a2c 67be bd9d 6fbd 6f3f 883c d214 e8bc
00000230: 5d32 1b3c 965e d5bc c2a2 b43c 762d 0dbe
00000240: 40f8 1fbd dfff a23c b94b 06be f52a a83b
00000250: a263 3c3d c2ac 77be 7f79 e7bd 2144 b3bd
00000260: 5175 62be 9bc8 20be 485a acbd 45c1 313d
00000270: 14e4 6ebd f49c 3abd 61d0 54bd b774 b23d
0.1760874 -0.05368638 0.08811124 -0.05512285 -0.11717984 -0.15192568 -0.035683464 -0.04828935
-0.0832345 -0.09451159 0.1752349 -0.021213539 0.16687712 0.08740993 -0.09029839 0.161565
-0.048136044 0.1211255 -0.028633801 -0.098973066 -0.092555754 0.11829851 0.12859158 -0.08675208
0.20076984 0.1027952 -0.18473169 -0.13201451 -0.10196518 -0.03803701 -0.055349488 -0.10873615
0.16677824 0.21420877 -0.023852421 0.0949808 0.19858812 0.12735742 0.273861 0.25320706
-0.052662153 0.20862114 0.2745852 0.0020075636 0.10259234 -0.27832618 -0.12421493 0.2193484
0.124316424 -0.075413324 0.16766334 0.25386578 0.08992177 0.08632993 -0.20105861 -0.0028809381
0.020902777 0.08413632 0.21218388 -0.03199816 0.18039514 0.11020757 0.23428011 -0.10647544
-0.020344347 -0.0061098295 -0.1604804 -0.016361054 0.06852367 0.078915805 -0.015694914 -0.12498999
-0.06405797 -0.06808081 -0.1993456 0.07792709 -0.08103712 -0.15037116 0.036778666 0.052126303
0.009813915 -0.23648608 -0.10508708 -0.08779591 -0.006232377 0.06324134 -0.05187541 0.0097025875
-0.03891128 -0.1441599 -0.015209991 0.26539454 -0.10309657 0.038186386 -0.006653202 0.059276268
-0.088874795 -0.15465054 -0.026539823 0.0138502875 0.0036668587 0.009703012 -0.12683883 -0.07816038
-0.09994557 0.003341618 -0.11805765 0.020710792 -0.080119066 0.26631117 -0.029148953 0.032051176
0.08131237 -0.16263424 -0.05492488 -0.07916198 0.03672449 -0.07755664 0.1755206 -0.012760548
-0.01483618 -0.009135339 -0.020523302 -0.14728314 -0.054323032 0.13440739 -0.1120207 0.04921302
-0.066142716 -0.013353933 0.07088581 -0.026661698 -0.024891803 -0.077096924 -0.02866474 -0.12545712
-0.22575489 -0.05850004 0.01663181 -0.02833024 0.009472457 -0.026046079 0.022050265 -0.13786873
-0.03905511 0.0198974 -0.13114823 0.005132074 0.045993455 -0.24186996 -0.113024704 -0.08753229
-0.22115065 -0.15701525 -0.08415657 0.043397207 -0.05832298 -0.04555984 -0.051956538 0.08713668

conv2.lin_l.bias f4 [5]
00000000: 2e85 67bd 7111 ae3d 18d3 7a3d 13e1 89bd
00000010: 2d96 393d
-0.056523494 0.084994204 0.06123647 -0.067323826 0.045309234

conv2.lin_r.weight f4 [5, 32]
00000000: e84c d73d 9162 a13d 2dcb f9bd f61b c1bc
00000010: fa8c 2b3e 04b2 1e3e f693 5dbc 153e ebbb
00000020: 5082 2f3d 3b55 e8bc 0d59 2e3e d56b 8a3e
00000030: 334f 913e bedf 223c d5d3 a83e 335a 95bd
00000040: 0c5e d8bc 03cf 7a3d ac44 86bd 892f 2f3e
00000050: 1d48 983e d5c3 3ebd 6a3e 62bc 9109 83bd
00000060: 6ccb 623e 2a45 6f3e c6c3 8b3e 4450 5abd
00000070: 51ac 1b3e 1f0f a9bd 0140 6d3e acda 883d
00000080: 52a1 7dbe 2d98 9c3d a098 bfbc 6178 ad3e
00000090: 0de3 ddbd 6dac 7b3c b304 3ebe 86f7 e43d
000000a0: 5a6f a33e b1f4 6b3e 870e 85bd fab7 f7be
000000b0: 51c9 0cbf feb3 793e cf74 88be b2e8 c9bd
000000c0: 765e ac3e 0270 103e a790 923e d2ed 80be
000000d0: 8ef5 64be aa20 e23d c1f6 8fbb 0b2a 97bd
000000e0: e429 e53d d7ac b53b 0b8e 8abe 96c9 73be
000000f0: 50af 10bf 38f6 c73e 6993 98bc 1269 fdbe
00000100: 5354 a53d 726f ef3d dad4 d03d 43ba b6bd
00000110: 6ce6 da3d 58d4 043e 6004 2a3d 0c9b 40be
00000120: cb95 09be e809 11be 3e45 6b3d e8c4 913e
00000130: 8994 d03d a14c 8ebe 3127 1cbd ec7c 12be
00000140: 994c 19be 8a1c 233a d300 35be 3f89 193e
00000150: 11fa a8bd 45aa 393d 70e9 adbe 9194 d63e
00000160: 95bc 04be daea b9bc b6ff ccbd 63d2 043f
00000170: a025 913e 9a16 d9bd 777b 49bd a1d6 e73e
00000180: 19a7 ccbd 907f c5bd ffc8 d0bd abe0 ecbd
00000190: 5fff 3bbe 32ff 67be f280 6b3e af14 293e
000001a0: d5b6 bcbd 1d46 54bd 22bf 51be b600 2abd
000001b0: 238c aebe 860e 533e fc69 5c3e a0fb 4bbc
000001c0: 04ea 7ebd b27f 3fbd fafc 443d b760 27be
000001d0: afee 36be 9a70 1fbe e8b8 d13d 75f8 42be
000001e0: cff7 69be e632 56bc 2adf 463c f193 9abc
000001f0: 9dfa e13e d103 14be fcf1 7abc 729c 9e3e
00000200: 5128 9f3c fafb 39bd c951 38bb c677 aabd
00000210: 96e4 86bd e343 82be 0439 fabd d16b 4dbd
00000220: 77d0 92bd 568f 82bd 3620 1f3d eb04 5dbe
00000230: dcc1 5fbe b5c5 c6bd 8eb4 d2bc fadf 03bc
00000240: 6cbb dcbd 71e4 40be ac6f e3bd 6990 20be
00000250: ab78 5dbe f0d4 42be 8ce2 a6bd d740 2ebd
00000260: d6a7 56bd 8df4 e1bd 2df2 9cba 42c4 013d
00000270: 7c2a 9dbd af6a a9bd 5e50 04be e750 a7bd
0.105127156 0.07880128 -0.12196956 -0.023572903 0.16752997 0.15497595 -0.013524046 -0.0071790316
0.042848885 -0.028360954 0.17026158 0.27035394 0.28380737 0.00994104 0.32974115 -0.07292595
-0.026412033 0.061232578 -0.06556067 0.17107977 0.29742518 -0.04657348 -0.013808826 -0.06398309
0.22147912 0.23366228 0.272978 -0.053299204 0.15202452 -0.08254837 0.23168947 0.06682333
-0.2476857 0.07646213 -0.023388207 0.33880904 -0.10834322 0.015360934 -0.1855648 0.11180024
0.31920892 0.23042561 -0.064969115 -0.4838255 -0.54994684 0.24385068 -0.26651618 -0.09858836
0.33665818 0.14105228 0.28625986 -0.25181442 -0.22359297 0.110413864 -0.004393429 -0.07381066
0.11189631 0.0055442858 -0.27061495 -0.23807368 -0.56517506 0.39055037 -0.018624978 -0.49494225
0.08072724 0.116911784 0.10196848 -0.08922245 0.10688481 0.12971628 0.04150808 -0.18809146
-0.13436048 -0.14163935 0.05743908 0.2847054 0.10184581 -0.27792838 -0.038123313 -0.14305466
-0.14970626 0.0006222209 -0.17676096 0.14993761 -0.082508214 0.045328397 -0.3396716 0.41910222
-0.12962563 -0.022694994 -0.100097105 0.51883525 0.28349018 -0.10600014 -0.04919001 0.45280936
-0.09992809 -0.09643471 -0.10194587 -0.115662895 -0.18359135 -0.22655943 0.22998407 0.16511796
-0.0921456 -0.051824678 -0.20483068 -0.041504584 -0.3409129 0.20611009 0.21524805 -0.012450129
-0.062234893 -0.04675264 0.04809282 -0.16345488 -0.17864488 -0.15570298 0.10240346 -0.19040091
-0.22848438 -0.013073659 0.012138167 -0.018869372 0.44136515 -0.14454581 -0.015316483 0.30978733
0.019428404 -0.04540632 -0.002812492 -0.08323626 -0.06586568 -0.25442418 -0.12217906 -0.05015165
-0.07168668 -0.063749954 0.038849078 -0.21583907 -0.21851295 -0.097056784 -0.02572086 -0.008049006
-0.107779354 -0.18837143 -0.11105284 -0.15680088 -0.21628062 -0.19026542 -0.08148679 -0.042542305
-0.052406155 -0.110329725 -0.001197403 0.031681307 -0.07674119 -0.082723014 -0.12921283 -0.08169728
